CNN_Mobile_Net/CPU_version/EEGNet/EEGNet_ELU.pt (torch_old, 75523 bytes, 17 tensors)

Firstconv.0.weight f4 [16, 1, 1, 51]
000000 c9 0d 43 bd ca d0 dd 3d f8 c7 b7 bd af 7e 13 3e
       -0.04762057 0.10830839 -0.08973688 0.14403795
000010 6e e2 70 3c 42 d4 34 3d 76 38 1a 3e 16 e9 18 3e
       0.014702423 0.044147737 0.150606 0.14932665
000020 09 90 77 3d 85 7c 38 3e 33 4e 0b bd bd 1f da bc
       0.060440097 0.1801625 -0.034010123 -0.026626462
000030 59 1b 07 3e 89 45 f0 3d d6 d9 1f 3e 60 74 89 bd
       0.13194026 0.11732013 0.15610442 -0.0671165
000040 a4 61 16 3e 5f ba 01 3e ae a2 b7 bc a4 34 81 bd
       0.14685684 0.12668751 -0.022416439 -0.063088685
000050 f3 11 03 be 54 4d cc bd 97 58 50 3d 7e 22 66 bd
       -0.12799816 -0.09975687 0.050865736 -0.056185238
000060 25 7a 14 3c ff f3 1a be 94 5c c2 3d b2 a8 07 be
       0.009062325 -0.1513214 0.09490314 -0.13247946
000070 2e 72 0c be 91 9b dc bc a9 17 d7 3b 4a 56 46 bd
       -0.13715431 -0.026929649 0.0065641 -0.048422135
000080 34 10 ac 3d ee 6e 19 be 70 0b a0 bd 8d b7 34 bd
       0.08401528 -0.14983723 -0.078146815 -0.04412036
000090 fb f6 87 3c ba 6a 5a bd c2 32 2b bd d2 f6 89 bd
       0.016597262 -0.05332444 -0.041796453 -0.0673653
0000a0 0e 6c b0 bd 27 da 73 bc 7d 02 25 3c 5a 8b 0c be
       -0.0861436 -0.014883555 0.010071394 -0.13725033
0000b0 9c 9f ff bd 3c 96 e7 bb 34 2a a1 3d 20 2a e1 bd
       -0.12481615 -0.00706747 0.07869378 -0.10994363
0000c0 98 1c 88 bd df c1 c7 bb a1 39 c1 3d 18 50 00 3e
       -0.06646079 -0.0060961093 0.0943482 0.12530553
0000d0 e2 7e fd 3d e3 aa 01 3e 3a 35 82 bd 81 61 ed 3d
       0.123777166 0.12662844 -0.063578084 0.11590863
0000e0 0a b8 d5 3d 2a e2 f3 3d 14 8a 8a bd 9e 44 36 3e
       0.10435493 0.11908372 -0.067646176 0.17799613
0000f0 a5 41 1c bd de 8e 69 3d 15 a6 89 3c dd 98 6e 3e
       -0.03814854 0.057021014 0.016802827 0.233005
000100 ae 9e 23 3d 50 03 1a 3e c0 4b 16 3e 86 93 e7 bb
       0.03994625 0.15040326 0.14677334 -0.0070671467
000110 c2 e2 4a bd 23 90 71 3b de 14 de 3d 3a a2 0b 3e
       -0.04953266 0.0036859594 0.10843824 0.13636103
000120 23 e6 5a bd 78 76 a5 3d 44 ee 40 3e 0f c2 d6 3d
       -0.05344213 0.08079237 0.18840891 0.104862325
000130 63 15 52 3e ba 31 af 3c d0 cf c7 3c a1 91 76 bc
       0.20515971 0.021386016 0.024391085 -0.015049369
000140 34 e5 0c 3d cf eb 33 3d 91 2f 19 3d ca ac fb 3d
       0.034398273 0.043926056 0.03739888 0.12288816
000150 2a 65 bf 3c 37 a0 22 3c 56 d6 7f 3d e6 eb d0 3d
       0.023363668 0.0099258935 0.062460266 0.10201244
000160 00 17 32 3e 5c 09 ce 3d 5b 81 c9 bd 67 ac 57 3d
       0.17391586 0.10060379 -0.09839126 0.05265465
000170 34 fd 50 bc f1 9c 9d 3d 90 b3 97 3d fb 72 41 3d
       -0.012755681 0.0769595 0.07407296 0.047228795
000180 a0 7d 28 bc ae a0 7c bc d2 17 08 3e 29 73 c7 bd
       -0.010283858 -0.015419168 0.13290337 -0.09738762
000190 88 41 ad 3d 60 31 cb bc 07 8d cb 3d cf f7 29 3e
       0.08459765 -0.024803817 0.09939008 0.16598438
0001a0 19 3e 5c bd 9d 3f 16 3e 4b 6d 08 3d a8 ce b4 3b
       -0.05377016 0.14672704 0.033307355 0.0055177994
0001b0 6e 88 25 3e 4c a1 2c 3e a1 51 a4 3d b1 82 1f 3e
       0.16165325 0.16858405 0.08023382 0.15577199
0001c0 81 4a 2e 3e 31 a7 f3 3d ed 12 23 3e 6a b5 c5 3d
       0.17020608 0.118971236 0.15925188 0.096537426
0001d0 60 a3 02 3e 72 09 2f 3e 4e 5f bd 3d 00 3b 33 3e
       0.12757635 0.17093447 0.092466936 0.17502975
0001e0 7f b5 b5 bc f0 2c 5e 3e 56 a2 48 3e a7 cd fa 3d
       -0.02218127 0.2169683 0.19593176 0.12246256
0001f0 f2 70 c7 3d 5a db 45 bd 6e 59 51 3d a7 9c cb bb
       0.097383395 -0.048304893 0.051110677 -0.006213743
000200 b1 85 31 3d 68 65 68 bc 7b 6e a5 3d 48 4f e0 3c
       0.04334039 -0.014184333 0.08077713 0.027381554
000210 3b 69 d9 3d c7 73 79 3d 4f 4e 0c 3d 5d f8 85 3c
       0.10615774 0.06090143 0.03425437 0.01635378
000220 d3 da 4f 3d 64 7b 1a 3d 80 43 65 3c 4c ca d2 3c
       0.050745796 0.03771533 0.013993144 0.025731228
000230 35 68 b9 bd 8c c9 67 bd 30 56 14 bd 55 3e 7e 3d
       -0.09053079 -0.056588694 -0.036215007 0.062071163
000240 f7 f6 bd 3d d5 26 d0 bd 16 74 0d 3d 16 f6 2d 3d
       0.092756204 -0.101636566 0.034534536 0.042471014
000250 d7 4e 8a 3d 98 8a a0 bc fb e7 65 bd 31 59 08 3d
       0.06753319 -0.019597337 -0.056129437 0.033288185
000260 5d 09 0f 3e 38 60 21 bc 9f 56 97 bd dc 19 f5 bd
       0.13968416 -0.0098496005 -0.073895685 -0.11967823
000270 cb 88 62 3d d1 d0 cc bd df ad 9f 3d a8 61 bd bd
       0.055306237 -0.10000766 0.07796835 -0.09247142
000280 93 ca 17 bd a8 28 ed 3d a7 0a d3 bc 27 d5 29 3d
       -0.037058424 0.1158002 -0.025761915 0.041463044
000290 5d 87 8e 3d 83 83 b4 3d 93 78 8b bd 26 db 02 3e
       0.06959412 0.08814146 -0.06810107 0.12778911
0002a0 0a 17 f6 3d 6a d2 38 3e de dc 42 3d 5b 34 0c 3e
       0.12016113 0.18049017 0.047573917 0.13691847
0002b0 71 f8 00 3d 44 0d 91 3c db 8a 97 3d a6 81 95 bd
       0.031486932 0.01770652 0.073995315 -0.07300119
0002c0 81 43 0f be d0 41 ad bd 00 39 a2 3d f2 ea 5b 3e
       -0.13990594 -0.08459818 0.07921028 0.21476343
0002d0 64 e7 d9 3d 98 71 23 3d 52 43 dc 3d 32 f5 db 3d
       0.106398374 0.039903253 0.10755028 0.10740127
0002e0 e3 e5 3d be 9e 49 4b bd d1 5a 50 be 9a 76 6f bd
       -0.18544726 -0.049630754 -0.20347144 -0.058462717
0002f0 5d 86 9a bc 32 59 f8 bd 02 45 d3 bd bc 24 8d bd
       -0.018862898 -0.12126388 -0.103158966 -0.06891772
000300 08 e6 9d 3d cd c7 18 be 32 b5 5a 3d 87 11 96 bd
       0.077098906 -0.14919968 0.053395458 -0.07327562
000310 09 45 d1 bd 76 96 02 bc 61 b5 6c bd 42 0d 23 bd
       -0.102182455 -0.007970443 -0.057790164 -0.039807566
000320 04 da 23 be 73 1b 82 bd 12 42 54 be 53 cc 5e be
       -0.16001135 -0.06352892 -0.20728329 -0.21757631
000330 ce e6 e2 3d ed 8e b4 3d 0c 0e 89 3c 20 a3 5f bd
       0.11079179 0.088163234 0.01673033 -0.054598927
000340 67 df 87 bd 86 3f ad 3d 3a 37 e8 bc 3d 46 24 bc
       -0.066344075 0.08459382 -0.028346647 -0.010026512
000350 f4 16 75 bb 57 d9 9b bd 98 26 45 3d 5b db 25 bd
       -0.0037397714 -0.07609814 0.04813251 -0.040492397
000360 c3 c7 10 3e 11 ec 67 3d c9 6d 0a bc 88 96 2b 3e
       0.14138703 0.056621615 -0.008449026 0.16756642
000370 51 c4 d1 3d 1b ec 1b 3e b2 13 20 3b ba 0d 57 3e
       0.102425225 0.15226786 0.0024425802 0.2100133
000380 c1 e4 4d bd 38 a5 c6 3d 8f b9 07 3e bb 5e 5b 3e
       -0.050266985 0.09699482 0.13254379 0.21422856
000390 b0 54 fc 3d 8f 35 0a 3e 77 54 61 3e 37 91 98 bb
       0.1232084 0.13496993 0.22004877 -0.004655983
0003a0 f1 69 5a bd 1f ff 02 3e fa 14 5f bc be ba 36 3e
       -0.05332369 0.12792633 -0.013615841 0.17844674
0003b0 cf 8e 2d 3d fd ca 52 3d 57 61 b1 3d 39 b3 36 3e
       0.04237252 0.051463116 0.08661144 0.17841806
0003c0 4c 08 82 3d fe c0 0d 3e e0 31 2c bc 53 ff dd 3d
       0.06349239 0.13843152 -0.010509938 0.10839715
0003d0 73 31 c6 bd b6 91 f0 3d fe 09 cd 3d 90 5f df bc
       -0.096774004 0.11746542 0.100116715 -0.027267247
0003e0 dd 4f 09 3e 39 a6 0d bd bf ab c3 bd 31 42 0c 3e
       0.13409372 -0.03458235 -0.09554242 0.13697125
0003f0 ee 52 17 bd e1 7a 49 3d 70 ec f1 3d b0 4e 81 bd
       -0.036944322 0.049189452 0.11812675 -0.063138366

Firstconv.1.weight f4 [16]
000000 c5 c8 76 3f 42 52 c2 3e c7 56 5e 3f 4b b4 01 3e
       0.964001 0.37953383 0.8685116 0.12666433
000010 4b 63 40 3f b6 f8 94 3e 4e d0 51 3f 38 e1 0d 3f
       0.7515151 0.29096 0.8195847 0.5542178
000020 45 a1 0e 3e e6 f7 80 3f b3 1b cc 3e da 55 41 3f
       0.13928707 1.0075653 0.39864883 0.75521624
000030 bc 0a 21 3f 9c 53 98 3e e5 48 7d 3e e7 fd b2 3d
       0.62907004 0.2975129 0.24734838 0.08739834

Firstconv.1.bias f4 [16]
000000 22 77 90 35 db 22 e7 b8 5e c0 05 b8 aa 6c 80 38
       1.0763508e-06 -0.00011021431 -3.1888827e-05 6.123756e-05
000010 7f d1 63 38 c1 3b c1 38 53 dc 12 b7 6d 0b 1b b8
       5.4316126e-05 9.214087e-05 -8.753576e-06 -3.696552e-05
000020 9c 77 83 b9 52 fe 35 b8 46 01 a0 b8 97 b6 1a 39
       -0.00025075383 -4.3390617e-05 -7.629632e-05 0.00014754604
000030 9c 01 06 b8 0f 9e 2b b8 53 c3 22 3a 8a 86 c7 3a
       -3.194959e-05 -4.091678e-05 0.0006208915 0.0015222591

Firstconv.1.running_mean f4 [16]
000000 44 29 5c 3c e0 9c bb bd 0f d8 c2 bd 4a 3b c2 3c
       0.013437573 -0.09160781 -0.09513866 0.023709912
000010 5b ba be bd 27 06 60 bd 15 04 93 bd ac e3 ee 3d
       -0.09312888 -0.054693367 -0.07178513 0.11664519
000020 be 72 e7 3c 3d 65 28 3d df 55 27 3c 7b 60 97 3d
       0.028252956 0.041112173 0.010213344 0.07391449
000030 60 6a 27 bd 32 e3 70 3d 8b 50 da 3d b3 99 4c bd
       -0.04087293 0.05881042 0.106598936 -0.049951266

Firstconv.1.running_var f4 [16]
000000 a7 fc fc 41 da b5 be 42 b5 a8 00 43 97 27 3b 42
       31.623365 95.35518 128.65901 46.788662
000010 03 54 de 42 2e 35 10 42 40 e8 66 42 3c c6 ed 42
       111.164085 36.051933 57.726807 118.88718
000020 64 24 3d 42 0c 93 8c 42 b0 78 77 42 cd 35 9c 42
       47.285538 70.2872 61.86786 78.10508
000030 91 50 3c 42 dc 88 f0 42 a9 3e 2d 43 9c 56 30 42
       47.07868 120.2673 173.24477 44.08458

Depthwiseconv.0.weight f4 [32, 1, 2, 1]
000000 78 2c 1e bf c1 74 15 bf 4f 48 c4 be 88 1d 38 bc
       -0.61786604 -0.5838128 -0.38336417 -0.01123751
000010 02 02 26 3f 43 62 da 3e 3a 59 39 3f 71 5d 7e be
       0.64846814 0.42653093 0.72401774 -0.24840333
000020 da 3b 0a bf d7 57 2e 3f 47 d8 7e be 35 58 b5 3e
       -0.53997576 0.6810278 -0.24887191 0.3541886
000030 0b 5b 0b bf c0 75 0d be 90 11 24 bf 2c 62 19 3f
       -0.54435796 -0.1381445 -0.640893 0.59915423
000040 d6 ec 3f 3e e2 90 53 3d a2 02 f5 be ce 43 f7 bd
       0.1874269 0.051651843 -0.4785357 -0.120734796
000050 7b ee 60 be 08 47 16 bf f8 6d f2 be de 0e 34 bf
       -0.21965973 -0.58702135 -0.47349524 -0.70335186
000060 01 03 33 3f 37 ed c0 be da ec 2c 3e 37 e3 09 3f
       0.6992646 -0.3768098 0.16887227 0.5386233
000070 f2 7b 8b 3c 16 ac 29 3f c2 34 19 3e 65 70 43 3f
       0.017026875 0.6627821 0.14961532 0.76343375
000080 89 d5 b3 bd e4 a9 25 bf 0b cd 33 bf 82 a2 e5 bd
       -0.08780963 -0.6471236 -0.70234746 -0.112126365
000090 ab 09 05 3f b2 20 19 bf 16 8c b0 3e 63 09 00 3f
       0.5196788 -0.59815514 0.34481877 0.50014323
0000a0 b1 7f 17 bf 19 35 e2 3c aa b9 1c bf 1b bd 7b be
       -0.59179217 0.02761321 -0.612208 -0.24583857
0000b0 4f 5b 12 3f ec 0e 67 be 87 b2 ce be cf 78 32 be
       0.57170576 -0.22564286 -0.4037058 -0.17428897
0000c0 60 b1 75 be 99 ad 95 bd b8 54 cc 3d 87 ef 48 bf
       -0.23993444 -0.07308502 0.09977096 -0.7849049
0000d0 c2 9f b5 3d 05 5a fa 3e 35 6e c2 3d 2f 89 5b be
       0.08868362 0.48896804 0.094936766 -0.2143905
0000e0 61 53 b5 3e b6 53 d8 be ce 37 a4 3e b7 25 9c bd
       0.35415176 -0.42251366 0.32073826 -0.07624381
0000f0 09 79 89 3e 26 8f c6 bc 6d d4 0b bf 72 37 0b bf
       0.26850155 -0.02423818 -0.5462101 -0.5438148

Depthwiseconv.1.weight f4 [32]
000000 1c 07 63 3f 80 ae bc 3e 35 a7 b2 3e 19 76 2b 3f
       0.88682723 0.36851883 0.34893194 0.6697708
000010 b8 6c 7c 3e 91 db bc 3e d0 55 8a bc 90 46 22 3e
       0.24650848 0.36886266 -0.016886622 0.1584723
000020 e0 f2 06 3f 18 15 9d 3d 45 34 07 3f a4 1e 31 3f
       0.5271435 0.07670039 0.5281413 0.6918738
000030 32 89 61 3f 02 34 d7 3c 93 a1 04 3f 2d 90 63 3f
       0.8809997 0.026269916 0.5180904 0.8889187
000040 d6 9e 07 3d 0a bc 37 3f e3 d7 0c 3f 89 8b 4a 3f
       0.033110462 0.717713 0.55016917 0.79119164
000050 00 6f 54 3f bf 5f e7 3e 42 9f 82 3f 44 5b 02 3f
       0.8298187 0.45190236 1.0204852 0.5092051
000060 74 7a 51 3f e2 44 45 3e 1c b3 8f 3e bb b8 45 3f
       0.81827474 0.19264558 0.28066337 0.77235
000070 d4 93 6f 3f 0b 3d 5c 3f a8 9b 7d 3f a9 f6 1a 3f
       0.9358494 0.86030644 0.9906564 0.60532624

Depthwiseconv.1.bias f4 [32]
000000 69 68 6a bc d4 a6 86 bc db be f3 bc e0 d6 e7 38
       -0.01430712 -0.016436972 -0.029754093 0.00011054962
000010 4b d3 34 bd f4 b8 84 bd 75 0b af bd ec 2c a4 3d
       -0.044146817 -0.064805895 -0.08547107 0.08016381
000020 5c 5d 88 bd f8 e7 b4 bd fa 44 d5 bd c7 43 77 bd
       -0.06658432 -0.08833307 -0.10413547 -0.060367372
000030 85 49 cf bd 1c e3 6c bd ad 11 ff bd 6c 8a 60 bc
       -0.101214446 -0.057833776 -0.12454543 -0.013704877
000040 d5 86 37 3b 29 d9 47 bd 3a 14 3d bd a0 b5 95 3c
       0.002800395 -0.048791084 -0.046161868 0.018275082
000050 a8 6f 3e bd ac 16 4a bd d6 c1 b4 bc a8 3c ac bc
       -0.046493202 -0.049338028 -0.022065084 -0.021025017
000060 2a 21 58 3d 92 8a 9a 3d 34 9e 08 3d f0 fc bc bc
       0.052766003 0.075459614 0.033354 -0.023069829
000070 db a2 66 3d b4 54 6e bd 7d 33 7f bd e5 1b a4 bd
       0.056307655 -0.058186248 -0.062304962 -0.08013133

Depthwiseconv.1.running_mean f4 [32]
000000 32 59 fc b6 a7 7e 78 b8 2f 39 4e 39 d9 6a 98 3a
       -7.520569e-06 -5.924576e-05 0.00019666993 0.0011628523
000010 21 2b 52 bb 51 93 ce ba 33 a8 75 b8 c4 60 d2 b8
       -0.0032069164 -0.0015760456 -5.85692e-05 -0.00010031604
000020 05 d0 a7 39 b1 8c 57 ba 67 14 e4 38 c8 35 8b 37
       0.0003200771 -0.0008222564 0.000108756874 1.6595135e-05
000030 9f 2f 0e 3b 22 b4 40 ba 33 8b 66 3a 6a dc 5a 3a
       0.0021695865 -0.00073510606 0.0008794546 0.00083488843
000040 b2 ab ad b8 4c 15 98 39 ff 95 3a bb 6a a1 c6 39
       -8.2812636e-05 0.00029007567 -0.0028470752 0.00037885766
000050 b7 f1 d9 39 20 b6 95 39 54 ab c1 ba 4f 6a d4 39
       0.00041569557 0.00028555188 -0.0014775791 0.00040514997
000060 8a 38 5f 35 0a 5f da 36 0b c2 8b 39 01 fb 69 b9
       8.315625e-07 6.5079703e-06 0.0002665672 -0.00022314118
000070 e0 a5 0c ba 7a 0e 3a b9 99 c5 a4 39 66 04 9e ba
       -0.00053652935 -0.00017743735 0.0003142774 -0.0012055754

Depthwiseconv.1.running_var f4 [32]
000000 8f 76 92 3f 6f e6 36 3e dd 24 3b 3e 0a 36 d9 3d
       1.1442431 0.17861341 0.18275781 0.1060601
000010 b2 d7 85 3e 38 1e e4 3d a1 49 8f 3d ae 67 84 3d
       0.26141125 0.11138576 0.069964655 0.06465088
000020 2c 04 a9 3d fb 45 62 3e 02 7a d0 3d 09 8b 18 3e
       0.08252749 0.22097008 0.10179521 0.14896788
000030 a8 7f 80 3e c4 b8 ac 3e 0e 90 32 3e 34 1e 80 3e
       0.25097394 0.33734715 0.17437765 0.25023043
000040 6e 2d 8c 3d 19 62 91 3d eb 16 85 3e 5a c6 16 3f
       0.068446025 0.07098789 0.25994048 0.5889641
000050 70 dd d1 3d 94 ed 1b 3e 3d 8d 4e 3e 29 12 5d 3e
       0.10247314 0.15227348 0.20171066 0.21588959
000060 95 53 ba 3d 2f 93 74 3e 12 ed 9e 3d 97 b3 7a 3d
       0.09097973 0.23884271 0.07760061 0.061206426
000070 4b 76 82 3d 47 3a 80 3d 61 b8 6f 3d ea 1a 85 3d
       0.06370219 0.062611155 0.058525447 0.06499274

Seperableconv.0.weight f4 [32, 32, 1, 15]
000000 49 44 d0 bc 7c 1a c1 bd b4 12 e2 bd 59 36 06 be
       -0.025423186 -0.094288796 -0.110387236 -0.1310667
000010 b6 07 c6 bd a9 14 bb bd 60 a0 df bd 4e 63 d4 bd
       -0.096694395 -0.091348 -0.10919261 -0.10370503
000020 d7 97 72 bd d9 1a 13 bd cc b0 04 bd bf 83 98 bd
       -0.059226837 -0.035914276 -0.03239517 -0.074470036
000030 05 a8 54 bd f7 a9 9b bd 5c c4 72 bc 6c 86 8c 3c
       -0.05191805 -0.076007776 -0.014817324 0.017153941
000040 40 f3 32 3d cf 13 c5 3c 88 3f 9d bc 72 62 b6 bd
       0.043689013 0.024057297 -0.019195333 -0.08905496
000050 21 d9 b1 bc fc 0b 5d 3b 14 ab 84 bd 00 bb 26 37
       -0.02170998 0.0033729067 -0.06477943 9.93791e-06
000060 09 f2 58 bd ee c8 f8 3c 76 74 ac 3d 4e d1 c9 3d
       -0.052965198 0.030369248 0.08420651 0.09854375
000070 49 3f a5 3d 3d 8a ca 3d 75 9e bf 3a f9 0c 6a 3d
       0.08068711 0.09889648 0.0014619367 0.057141278
000080 c6 5e 39 3d 18 0b 29 bd 4c b4 8d bc e3 2d 13 bd
       0.0452564 -0.041270345 -0.017297886 -0.035932433
000090 0f a0 fb ba 38 b3 cd bc 1a b6 24 bd 63 1f b5 3c
       -0.0019197481 -0.025109872 -0.040212728 0.022109693
0000a0 f9 e3 f3 bc 45 dc f3 bc 29 e7 eb 3b 5b bd c3 bb
       -0.029771792 -0.029768119 0.0071991873 -0.0059735007
0000b0 48 02 86 bd 38 59 99 3d b5 b3 fc 3d c8 00 aa 3d
       -0.06543404 0.0748772 0.12338964 0.0830093
0000c0 af a5 dc 3d ae f8 be 3d 3c 23 c9 3d 81 56 1c 3d
       0.10773789 0.09324776 0.098211735 0.038168434
0000d0 d4 32 98 3d 18 c5 f4 3d 44 ac 9d 3d 1e c4 d0 3d
       0.0743157 0.11951655 0.07698873 0.101936564
0000e0 8a 66 6c 3d 43 ea 83 3d 09 53 79 3d 92 76 d3 3d
       0.057714976 0.06441166 0.060870204 0.1032535
0000f0 93 bf a4 bd bd b9 c7 bd c5 c9 b4 bd 5e c0 ed bd
       -0.080443524 -0.09752224 -0.08827547 -0.11608957
000100 04 db f6 bd f9 a0 d3 bd 03 49 a4 bd 3d 12 e0 bc
       -0.12053493 -0.103334375 -0.080217384 -0.027352447
000110 5f 7a 6d bd 35 19 2d bd 2b 3b 8e bd 82 0a 64 bd
       -0.05797803 -0.042260367 -0.06944879 -0.055674084
000120 ab ca 6c bd a7 4a 03 be 11 89 a2 bd bd 38 e3 bc
       -0.057810467 -0.12821446 -0.079362996 -0.027737016
000130 4e 29 bd bd ea 7e 04 bd 7d e1 3f bd 8c a4 a9 bd
       -0.09236394 -0.032347597 -0.0468459 -0.08283338
000140 6e 7e d0 bd 90 13 7c bd dd cd c0 bd 90 02 ca bd
       -0.101803645 -0.061542094 -0.09414265 -0.0986377
000150 6d ef 60 bd cf e4 78 bd d2 f7 b1 bd 02 8d a3 bd
       -0.054915834 -0.060765084 -0.08689846 -0.079858795
000160 69 95 de bd 44 2a 35 bd ca 69 a4 bd cf 45 78 bd
       -0.108683415 -0.04422976 -0.0802799 -0.06061345
000170 1b 29 66 bd a8 3b 69 bd e2 cc 64 bb cb 82 9c 3c
       -0.056191545 -0.05694166 -0.0034912159 0.019105336
000180 f1 4b 5f bc 31 c5 3d bc ad 7f 2b bd db 44 0a 3d
       -0.013628946 -0.011582659 -0.041869808 0.033757072
000190 1b b6 8f 3d 79 42 cb 3c 4c dc 44 3d a2 1e 70 3c
       0.07017156 0.02481197 0.048061654 0.014655741
0001a0 f5 39 92 bd d4 54 9e bd 6f 3e 7b bd 4d 7b 34 bd
       -0.07139961 -0.077310234 -0.06133884 -0.0440629
0001b0 68 42 8c bd 36 f5 11 3c b4 31 49 3d 4a 26 e4 3c
       -0.068486035 0.0089085605 0.049119666 0.027850289
0001c0 78 c6 0a 3d d1 fe a6 3d de 02 18 3d 41 05 57 3d
       0.03388068 0.08154071 0.03711211 0.052495245
0001d0 14 e6 7a 3c cd c9 66 3d 72 0a 1d bd 3c 49 42 bd
       0.015313644 0.056344796 -0.03834004 -0.047433123
0001e0 50 c6 03 3e ca a4 0f 3e b5 f6 e0 3d 60 56 f1 3b
       0.12868619 0.14027706 0.10984556 0.007365033
0001f0 76 ca 69 3c 1a ab 4a 3d 42 ab 8f 3d 87 a4 a3 3c
       0.014269462 0.04947958 0.07015087 0.019975914
000200 bb c8 02 bc bf 19 a2 bc fd cf 5b 3d e6 c8 df 3c
       -0.007982428 -0.019787667 0.05366515 0.027317476
000210 64 e6 b2 b9 42 b6 3b 3d 9d d8 4d bc d0 d0 84 bd
       -0.0003412246 0.04582811 -0.012563852 -0.0648514
000220 fe f2 41 bd f1 e4 45 bd 57 32 88 bb 2f 6e 87 3c
       -0.047350876 -0.04831404 -0.0041563916 0.016532032
000230 d1 0f 27 3c 9a 41 97 3c a5 1c 3f bd 60 69 80 3d
       0.010196642 0.018463898 -0.046658177 0.06270099
000240 af d8 10 3d ef 87 8c 3c b5 91 2c 3d 22 6a 4a 3c
       0.035362896 0.017154662 0.042131145 0.012354406
000250 a3 a3 05 3d 8f 89 87 bb a0 ce 83 bd a0 87 fc bd
       0.03262676 -0.0041362713 -0.06435895 -0.12330556
000260 c9 6f 11 bd 80 5c 82 3c c4 cb 61 bd c6 af 44 bd
       -0.035506997 0.015913248 -0.055125967 -0.048019193
000270 9b f1 aa bd 45 95 25 bd 14 f6 92 bd b4 04 3a bd
       -0.08346864 -0.040425558 -0.07175842 -0.04541464
000280 3c 40 59 bd 2e c9 2c 3b 78 ab c2 3a 27 35 5a 3c
       -0.053039774 0.002636503 0.0014852127 0.013318337
000290 f8 37 c4 3d 90 08 e9 bd 72 aa 17 bd 01 83 f8 bc
       0.09580988 -0.11378586 -0.037027784 -0.030335905
0002a0 1e af d5 ba e4 aa c2 bd bf b4 83 bd 28 59 2b bd
       -0.0016302799 -0.09505251 -0.06430959 -0.041833073
0002b0 68 b5 53 bd d1 0d 07 bd ac 67 85 bd 60 4f e2 bc
       -0.051686674 -0.03297216 -0.065139145 -0.02762574
0002c0 ff 86 b7 bc d4 41 68 3b 11 fb 56 bd 69 0a fe 3c
       -0.022403238 0.0035439627 -0.05248553 0.031010823
0002d0 3d 50 40 3d b8 94 78 3c 64 38 25 3d 2b fc 3b bc
       0.04695152 0.015172176 0.04033698 -0.011473696
0002e0 bd 20 16 bd 13 f6 97 bb 40 f6 47 bd 5c ff bc bc
       -0.036652315 -0.0046374886 -0.048818827 -0.023070984
0002f0 25 0c 22 bd c8 1d 20 bb 8c 41 ce bb f3 6f 6c 3d
       -0.039562363 -0.0024431814 -0.006294435 0.05772395
000300 7b 40 b0 bb 4c eb 26 bb 29 f2 96 3d 97 10 a9 3d
       -0.0053787804 -0.0025469838 0.07370407 0.082551174
000310 20 5a 25 3c 10 ef 9f 3b 67 28 cb 3c 66 e9 15 bd
       0.010092288 0.0048807934 0.024799539 -0.03659954
000320 c1 79 a2 3c db 08 a4 3a 5c 00 8e bc 2a 4e b9 3c
       0.019833447 0.0012514846 -0.017334156 0.02262028
000330 68 b8 8a bd 71 7f 56 bd 9d 67 c1 bc 9e 82 73 bc
       -0.06773454 -0.05236763 -0.023608977 -0.0148626845
000340 c5 9a 33 bc 1e 3f 16 3c 6c a6 97 bc db 53 80 bd
       -0.010962193 0.009170322 -0.018511973 -0.06265994
000350 cd d1 a3 bb ab 14 40 3c ba 62 b0 bc 70 33 f6 3b
       -0.0049993754 0.011723678 -0.021531451 0.007513456
000360 ec f9 75 3c 73 f8 03 3c 43 fa 1f bb ed a5 f6 3c
       0.015013199 0.00805484 -0.0024410642 0.030108416
000370 c4 dc ca bc 86 73 17 3b 9f 8b 1c bd d3 b0 3a bc
       -0.024763472 0.0023109629 -0.03821909 -0.011394697
000380 7c eb 39 bd 11 4c 9b bd 43 8d 7c bd a3 ac 14 bd
       -0.04539059 -0.07582868 -0.061658155 -0.03629745
000390 df c9 ce bc bd a6 ac bc b6 c0 f0 3c 62 82 94 bc
       -0.025242744 -0.0210756 0.029388767 -0.018128578
0003a0 3c 69 31 bd 82 65 7b bd 67 ad 60 bd 34 ff 38 bd
       -0.04331325 -0.061376102 -0.05485287 -0.045165256
0003b0 5c b1 6f bd 87 03 8e bc 16 44 8b bd fc 2d 73 bd
       -0.058518752 -0.017335666 -0.06800096 -0.059370026
0003c0 33 cd d2 bc 0f bf e7 3c 64 6d c3 bc 7a b5 c1 bc
       -0.025732612 0.028289346 -0.023855872 -0.023646105
0003d0 73 54 73 3b 95 48 87 3c 95 e9 3b 3d 55 a8 d5 bc
       0.0037129193 0.016514102 0.045877058 -0.026081244
0003e0 d5 fd 42 bd e5 72 15 bd f5 35 de bc f6 29 28 bd
       -0.047605354 -0.036486525 -0.027125338 -0.041055642
0003f0 1b dd 6f bd 4d d2 58 bd e3 38 b9 bd 4c 45 17 3d
       -0.058560472 -0.052934933 -0.090440534 0.03693132

Seperableconv.1.weight f4 [32]
000000 15 91 8b 3e d7 b9 3e 3f 4a 98 5e 3f 26 fc 48 3f
       0.27259126 0.7450232 0.86951125 0.7850975
000010 30 71 26 3f 37 21 11 3f d2 38 48 3d bc 37 f5 3d
       0.6501646 0.56691307 0.048882313 0.11973521
000020 7e 0d 5d 3f 6d 53 5d 3f 63 48 6a 3f 75 ea 3e 3f
       0.8634871 0.8645542 0.91516703 0.74576503
000030 80 85 3e 3b 65 7d 15 3f 24 15 bf 3e 26 9f b9 3e
       0.0029071271 0.5839446 0.37320817 0.36254233
000040 6e 91 6e 3a 92 5a 06 3e 39 a0 09 3f ca 6d ee 3e
       0.000910065 0.13120487 0.53760105 0.46568137
000050 f4 36 38 3e 69 1e 46 3e a9 2b 9d 3c f6 88 52 3f
       0.17989713 0.19347538 0.019185858 0.82240236
000060 9a f1 90 3e c3 49 2a 3f 44 a7 e7 3e e3 ad 9f 3e
       0.28309327 0.665188 0.452448 0.31187353
000070 2b 36 92 3e 5f dc 3a 3e 3c 6b 84 3e 40 b4 36 bc
       0.28556952 0.18248127 0.25863063 -0.011151373

Seperableconv.1.bias f4 [32]
000000 ac ae 40 bd 17 6c 3a bd 88 4f 6b bd 74 4a eb bd
       -0.04704158 -0.04551324 -0.057448894 -0.1148881
000010 ea 82 f3 bc 9f ec b0 3b 83 c5 a1 bd c2 27 95 ba
       -0.02972551 0.005399301 -0.078990005 -0.0011379647
000020 62 89 a0 bd 4b 53 3b 3d 38 f6 54 3c fc aa 7e bd
       -0.07838704 0.04573373 0.012998156 -0.062174782
000030 fe 22 ce 3c c3 35 10 bd fd 5d 89 bd 16 0a 9f bd
       0.02516317 -0.03520752 -0.0670738 -0.077655956
000040 fa bd a6 3a 62 68 61 bd c7 7f 96 bd 26 06 85 bd
       0.0012721412 -0.055031188 -0.0734859 -0.06495313
000050 4d 19 56 bd 09 9e 0f bc 63 95 d0 bb 06 81 ab bd
       -0.052270222 -0.008765706 -0.0063654645 -0.08374219
000060 e2 b3 83 bc 0d 66 9c 3c 59 50 2d bd 41 76 c3 bc
       -0.016076986 0.01909163 -0.042312954 -0.023860099
000070 f5 44 83 bd 84 c2 a0 3c 66 ad f2 3c dd 54 d2 3c
       -0.06409637 0.019624002 0.029623698 0.025675232

Seperableconv.1.running_mean f4 [32]
000000 72 c3 ed 3d dd 70 f9 bd 16 88 9e 3d de 3e 91 be
       0.11609544 -0.1217973 0.077408 -0.28368276
000010 6b 40 2a 3e 19 77 3d 3b 2e 17 fc bd d6 9f 1c be
       0.16626136 0.00289101 -0.12309109 -0.15295348
000020 ad 6d 76 be 2b 28 2e be 1b af 36 bd 8e c8 b0 3d
       -0.24065275 -0.1700751 -0.044600587 0.08632003
000030 d6 4e 06 3d f8 9e 9c 3e 11 a3 dd 3c 8e 4e 8a bb
       0.032790028 0.30590034 0.027055295 -0.00422079
000040 c0 2c 85 be 24 dc 0f 3e e0 69 15 bd ef 6b f4 ba
       -0.26010704 0.1404882 -0.036477923 -0.0018647889
000050 76 f0 08 be 1e 83 95 be e8 38 c0 3e ad 76 49 be
       -0.13372979 -0.29201597 0.37543416 -0.19674177
000060 75 61 2c be f1 5c 95 be a6 9d f3 3d cc 66 9f 3e
       -0.16834052 -0.2917247 0.118953034 0.31133115
000070 3b c5 62 be 70 30 a2 be 2c 0b 46 be 03 59 dc 3d
       -0.2214555 -0.3167758 -0.19340199 0.10759165

Seperableconv.1.running_var f4 [32]
000000 e3 27 a7 40 87 5d e8 40 be 70 e4 40 49 e5 de 40
       5.223619 7.261417 7.1387625 6.965489
000010 8f 9b 14 41 2a f1 3a 41 32 1c b3 40 81 0f 07 41
       9.287978 11.683878 5.597192 8.441285
000020 ca fd f1 40 9e 26 0f 41 b4 34 47 41 1e 45 75 41
       7.56223 8.946928 12.450367 15.329374
000030 0b 1a 14 41 86 cd 5b 41 50 46 37 41 b3 c0 34 41
       9.256358 13.737677 11.454666 11.297046
000040 1a 79 e8 40 69 ab e5 40 05 c6 3c 41 85 a7 d0 40
       7.264783 7.177174 11.798345 6.520449
000050 72 6e 60 41 bd 56 19 41 4c 3c f8 40 68 0f f8 40
       14.026964 9.583676 7.7573605 7.7518806
000060 ca c2 0e 41 a1 e8 ae 40 7d f6 89 40 90 1a c4 40
       8.922556 5.465897 4.311339 6.1282425
000070 c8 4d 05 41 b5 2d 2b 41 be 6d 19 41 36 3c b3 40
       8.33149 10.698659 9.589293 5.6011

Classfier.0.weight f4 [2, 736]
000000 99 4c d9 3c 88 29 7f bd d0 1b 48 bd 7a 12 81 bd
       0.026525782 -0.062295467 -0.04885465 -0.06302352
000010 09 79 eb 3c fe d9 78 bd c0 85 7c 3c 7d 0b bf bd
       0.028744237 -0.06075477 0.015412748 -0.09328363
000020 58 a6 21 3d ee 81 57 3c da 85 29 bd 9c e0 4f 3d
       0.03946528 0.013153536 -0.041387416 0.050751314
000030 89 3a 1e 3c 19 a9 46 3b b6 bc 01 3d 8b 04 48 bd
       0.009657511 0.0030313192 0.03167411 -0.048832458
000040 f5 c0 a4 bc 73 3f ea bc 04 d8 00 bc 61 c1 a9 3b
       -0.02011154 -0.028594708 -0.007864002 0.0051805233
000050 70 0d 34 3c ce c8 d4 bc 3c 65 11 bd ef 3b b4 bd
       0.010989532 -0.025974657 -0.035496935 -0.08800494
000060 9a 8d ef bd e8 7f a8 bd 0a 09 a6 bd da c9 e0 bc
       -0.1169693 -0.08227521 -0.08107193 -0.02744
000070 13 43 19 bd 93 84 75 3d 41 0d 0d 3c 58 35 20 bd
       -0.037417483 0.059940886 0.008609117 -0.039113373
000080 73 c6 0f 3d 61 1f 83 3d 8b 6e 74 3d 40 75 9b 3c
       0.035101365 0.064024694 0.059675734 0.018976808
000090 08 73 28 3b 07 0a 44 bc b3 89 1c 3c 5a 7a 9c bd
       0.002570333 -0.011965281 0.009554314 -0.07640524
0000a0 a9 43 63 bd ea 7b 2b bd 84 95 9f 3b 68 6e a5 bd
       -0.055484448 -0.04186622 0.0048701186 -0.08077699
0000b0 a0 bb 49 3d a2 86 77 bc 19 4b db 3c aa 28 94 3d
       0.0492512 -0.015107783 0.026769208 0.072343186
0000c0 0b 8a 09 bc 00 00 bc 3c 7a 8c 74 bd 5f b5 61 3d
       -0.008394728 0.022949219 -0.05970428 0.05510461
0000d0 9a d8 e0 b9 42 2a c4 3c 89 b0 a8 bc ba 77 67 bd
       -0.0004288599 0.023945931 -0.020591991 -0.056510665
0000e0 02 72 8e bb e8 36 28 bd 30 00 87 bc 0f 41 97 3d
       -0.004347087 -0.041067988 -0.016479582 0.07385456
0000f0 f9 52 e8 3c b4 78 09 3d d9 4a fd 3c 00 ca 81 bc
       0.028359877 0.033562377 0.03091948 -0.015843391
000100 75 3d 15 bd d8 91 1a 3d 4e d6 6d bd bc f0 7a 3c
       -0.036435563 0.037736744 -0.058065705 0.015316185
000110 06 25 c4 3c 96 23 1d 3d 18 a3 6a 3d d1 98 ae 3c
       0.023943435 0.038364016 0.057284445 0.021313103
000120 61 ce 68 3c 94 38 a2 3d 0f db 40 3d 15 c0 68 bd
       0.014209361 0.07920948 0.04708391 -0.05682381
000130 25 3e ab bb 36 94 f9 3b 0c f9 29 bd b4 ed cc bc
       -0.005225914 0.007616545 -0.041497275 -0.02501569
000140 70 1e c5 bc 0b 47 77 3c 07 91 96 bd 36 d2 99 3b
       -0.024062365 0.015092622 -0.073518805 0.0046942485
000150 46 2a 8b bb b9 28 a8 bc 1a 56 7b bd d1 e7 ff bc
       -0.0042469827 -0.02052723 -0.06136141 -0.031238468
000160 c4 60 c6 3b 06 36 39 bd 01 09 76 bb 82 44 bb bc
       0.006054016 -0.045217536 -0.0037541988 -0.022859816
000170 2b d4 b4 3d 6c 23 cf 3c 92 5c a9 3d 2d fc b9 3c
       0.0882953 0.025285445 0.082696095 0.022703255
000180 2b 6f 37 3d 27 e6 ab bc 2e 6a 06 bd 68 21 07 bd
       0.044783752 -0.020983769 -0.032816105 -0.032990843
000190 f8 36 bb bc 1e fc 80 bd b7 51 d6 bb 22 bc e7 bb
       -0.02285336 -0.062980875 -0.006540503 -0.0070719877
0001a0 c1 4a 80 bc 29 7a 43 3d b5 b3 bb 3c 4d 4f c0 3c
       -0.015660645 0.047723923 0.02291284 0.023475314
0001b0 9d e7 12 bd 98 f0 da bc 8e b0 2d 3c 3c 25 08 3c
       -0.035865415 -0.026726052 0.010601176 0.008309659
0001c0 3e 99 5d bd ae 77 41 3c 9c a6 0e bc 37 a2 01 3d
       -0.05410122 0.011808319 -0.008706715 0.03164884
0001d0 2c 99 f7 3c de 0e 83 3d 8a 04 ce 3c 88 97 3d 3d
       0.030224405 0.0639932 0.025148649 0.04628709
0001e0 d2 c6 0a bd 7c 66 00 bd f7 38 82 bc c6 09 5c 3d
       -0.033881016 -0.031347737 -0.015896304 0.05372026
0001f0 10 65 15 3d 4a 0c b3 3c ec dd 5b 3d 4f e2 8d bd
       0.036473334 0.021856446 0.053678438 -0.069279306
000200 92 70 04 3d e3 1f 35 3d fe c0 3d 3d 88 1d 26 3d
       0.032333918 0.044219863 0.04632663 0.040555507
000210 a2 e9 c7 3b 32 5c a6 bc 1a bc e8 bb 9f fd 3b bd
       0.0061008492 -0.020307634 -0.0071025016 -0.04589617
000220 8e ad 26 bc 14 2d c3 3c 1d b1 e0 bc 5e 1d d2 bc
       -0.010173215 0.023825206 -0.027428204 -0.025648769
000230 73 63 bc bc 20 7b ee 3b 9b b0 a1 bd f9 e1 6a 3d
       -0.02299664 0.0072778612 -0.07895013 0.05734441
000240 68 ae ef bb 2a 6b c7 3b a1 01 61 bd 02 8e 28 3d
       -0.007314492 0.006085773 -0.054933194 0.041151054
000250 01 92 9b bd db 36 52 3d 9e 45 6f bd 28 02 f2 bc
       -0.075962074 0.051321846 -0.058416 -0.029542044
000260 5a e4 2a 3d 7e ef a7 bc 35 d0 26 3d 3a 0f f2 3c
       0.04172168 -0.020499941 0.040725905 0.029548276
000270 32 7d cb bb 16 27 28 3d f7 10 3d 3d 8e 11 b8 bd
       -0.006209993 0.0410529 0.046158757 -0.08987723
000280 9a 38 86 3c 99 7d b5 3c 9c 81 c3 3d e9 f7 cf 3b
       0.016384412 0.022154616 0.095462054 0.006346692
000290 04 30 43 3d 36 a8 b4 3b 85 1b 0d 3d f2 dc 11 3c
       0.047653213 0.0055132164 0.034450073 0.008902775
0002a0 b8 64 72 3d a5 51 80 bd 42 dd d4 3c ba 24 fe 3c
       0.059178084 -0.062655725 0.02598441 0.031023372
0002b0 56 d1 52 bc ed 4b 82 3c 60 0b 57 3c 46 00 27 bd
       -0.012867292 0.015905345 0.013125271 -0.040771745
0002c0 26 d5 84 3d a3 50 55 bc f7 66 68 3d 7c b0 2b bc
       0.06485967 -0.013019714 0.05673882 -0.010479089
0002d0 4b 27 4f 3d f7 70 ab 3c dc 6f 8f 3a b1 6a 33 bd
       0.050574582 0.02092789 0.0010943371 -0.04380292
0002e0 83 eb b1 bd 40 73 31 3d 84 57 e2 bc a1 50 1d bc
       -0.086874984 0.0433228 -0.027629621 -0.009601743
0002f0 50 10 27 bd e2 a0 e6 bc ad ce 59 bd 40 98 72 bd
       -0.04078704 -0.028152887 -0.053175617 -0.05922723
000300 9d af a4 bc bd d2 5c bd 94 b5 ad 3d 5b d8 32 bd
       -0.02010327 -0.053911913 0.08481899 -0.043663364
000310 0a 5d 7b 3d 55 c5 15 bb 0f 13 0e 3d a2 d9 c7 3c
       0.061368026 -0.0022853215 0.034686144 0.024395768
000320 01 4c 60 3b a6 28 4d bb 04 a6 c9 bc 1b 15 f4 3c
       0.003422499 -0.0031304746 -0.024615295 0.02979522
000330 50 43 ad bc 2a 94 55 bd e2 f7 f3 3c 71 29 1a be
       -0.021150261 -0.052143253 0.029781286 -0.15054871
000340 b6 1e 89 bd b6 0c 3b bd 15 28 bf bc e4 9f 29 bd
       -0.06695311 -0.04566642 -0.023334542 -0.04141225
000350 3a 58 36 bd 7e f2 c8 bc 46 7a e4 bc 23 5d 05 3d
       -0.044517733 -0.024529692 -0.027890336 0.032559525
000360 a5 a3 9a 3c 60 f6 94 3d 35 13 13 3d f4 a2 fb 3c
       0.01887686 0.07273555 0.03590699 0.03071735
000370 ee 83 97 3c ac 7c 89 3d 09 86 56 3b 1b be 54 3d
       0.018495526 0.067132324 0.00327337 0.05193911
000380 65 55 b5 bc e2 eb 28 3c 71 19 43 3c 63 e7 94 bb
       -0.022135446 0.010310145 0.011907921 -0.004544185
000390 9d 8b e0 bc 8f c3 6a 3d 0d 12 b6 3d 9d 4c 6f 3c
       -0.027410323 0.057315405 0.08890162 0.014605668
0003a0 ff 1b 74 bc a9 50 8d 3d 0b 8f 51 3d 30 50 34 bc
       -0.014899253 0.0690015 0.051161807 -0.011005446
0003b0 aa 53 49 bc 68 2e 8d 3c f2 06 a0 3d 87 e0 0a bd
       -0.0122880135 0.017234042 0.07813825 -0.033905532
0003c0 56 c5 ef bd 6e 09 4a 3c d2 0b 7d 3d 6f dd 5f 3d
       -0.11707561 0.01233135 0.06177885 0.054654535
0003d0 0a 9d 3b bd e4 17 2f 3d bf ea a4 3d 97 61 c1 bc
       -0.04580406 0.042747393 0.08052587 -0.023606105
0003e0 ed 3f 72 3c d3 e7 e1 bb c6 01 00 bd 88 d4 a0 bc
       0.014785749 -0.0068940907 -0.03125169 -0.019632593
0003f0 bd 78 83 bc 32 39 35 bd 2e ae 9c bd 5d bf c7 ba
       -0.016048783 -0.044244 -0.0765041 -0.0015239526

Classfier.0.bias f4 [2]
000000 0a 17 0e 3d 05 4f 8a bc
       0.03468994 -0.016883383
