NCTU4/Q.pt (torch_old, 535492 bytes, 11 tensors)

conv.weight f4 [128, 1024, 1, 1]
0	0xbc3029b7	-0.010752133
1	0x3cf07018	0.029350325
2	0xbc568426	-0.01309303
3	0x3c2c7bd0	0.010527566
4	0xbc8783ac	-0.016542278
5	0x3cfa56ab	0.030558905
6	0x3c0f84d3	0.008759695
7	0x3afeca05	0.0019438869
8	0x3c2afffa	0.010437006
9	0xbc565910	-0.013082758
10	0x3c3c285d	0.011484233
11	0xbb8e3d10	-0.0043407753
12	0x3d1fa1c0	0.038972616
13	0xbc165de3	-0.009177658
14	0x3a25251f	0.0006299782
15	0x3c964bb6	0.018346649
16	0x3c091f23	0.00836924
17	0x3ca770d3	0.020439541
18	0xbd3cdd38	-0.04610941
19	0x3c8b1830	0.016979307
20	0xbc4c8385	-0.012482529
21	0xbb1bb3dc	-0.0023758328
22	0xbad62618	-0.0016338257
23	0xbc1dc6ea	-0.009629944
24	0x3b172241	0.0023061188
25	0x3d1699b8	0.03676769
26	0x3cd6b6d9	0.026210235
27	0xbc2c9db3	-0.010535645
28	0x3ce6361d	0.028101975
29	0xbcf01d4c	-0.029310845
30	0x3c447b4d	0.011992288
31	0x3c2015cc	0.009770822
32	0x3b377ed7	0.0027999186
33	0x3c198672	0.009370433
34	0x3c5720fb	0.013130422
35	0x3c3b2a06	0.011423593
36	0xbc4e4083	-0.012588623
37	0xbb0f4d5b	-0.0021866176
38	0xbd1bb963	-0.038018595
39	0x3d122b01	0.035685543
40	0x3d96dc3e	0.073662266
41	0xbc688951	-0.014192895
42	0x3c17f4e7	0.009274698
43	0x3c22121a	0.009892011
44	0x3d218917	0.03943738
45	0xbd17b910	-0.037041724
46	0xbba9581c	-0.005167974
47	0xbd3bc4a4	-0.045841828
48	0x3bce795a	0.0063010873
49	0xbcdc3a7f	-0.026883362
50	0xbc373864	-0.011182878
51	0x3b9818cf	0.0046416293
52	0x3c9f3cda	0.019438196
53	0x3bcdac0d	0.0062766136
54	0xbd245ffc	-0.0401306
55	0xbba18bbc	-0.0049299877
56	0xbcd685ef	-0.026186911
57	0x3c9672af	0.018365232
58	0xbc81f3ec	-0.015863381
59	0x3ccb0198	0.024781033
60	0xbd459f02	-0.048247345
61	0xbc2ad050	-0.010425642
62	0xbd3e47bc	-0.04645513
63	0x3a74b63e	0.00093350175
64	0xbc19f924	-0.009397779
65	0x3cd51b15	0.02601389
66	0x3ca5318b	0.020165225
67	0xbd08c87e	-0.03339433
68	0xbd34ec47	-0.044170644
69	0xbca55f66	-0.020187091
70	0x3d1eb5aa	0.038747467
71	0xbd2b4b0f	-0.04181963
72	0x3a05adc4	0.00050994405
73	0x3c2a31a9	0.0103878165
74	0x3d79a499	0.06094799
75	0xbd309a8b	-0.043116134
76	0x3c9ee2b8	0.019395217
77	0x3d2f17e4	0.042747393
78	0xbca1ee52	-0.01976696
79	0xbbcab19d	-0.006185724
80	0x3bdf1965	0.006808447
81	0xbbc1aa4b	-0.005910193
82	0x3c80524c	0.015664242
83	0x3d5de672	0.054174848
84	0x3ca23c82	0.019804243
85	0xbb8d3087	-0.0043087634
86	0xbc82f225	-0.015984604
87	0x3a5a74e8	0.00083334604
88	0xbb911f88	-0.0044288076
89	0x3bf80c24	0.0075698067
90	0x3be36797	0.006939839
91	0xbc75913e	-0.014988242
92	0x3b331b83	0.002732963
93	0x3cbc644e	0.022997048
94	0x3b99fb11	0.004699119
95	0xbd289478	-0.041157216
96	0x3d0b85fa	0.034063317
97	0xbcbce985	-0.02306057
98	0xbcc1fcac	-0.023680054
99	0x3c6ee72a	0.014581481
100	0xbb88fd83	-0.0041806116
101	0xbc87acd5	-0.016561905
102	0x3d135826	0.035972737
103	0x3ce2f8dd	0.027706558
104	0xbcd184bb	-0.025575986
105	0xbd113695	-0.035452444
106	0xbca9fa52	-0.020749245
107	0xbd8efaf6	-0.06981461
108	0x3d67ca8f	0.05658966
109	0x3c86313f	0.016380904
110	0x3d081538	0.03322336
111	0x3cfa073b	0.030521026
112	0xbd010edc	-0.03150831
113	0xbb37b282	-0.0028029983
114	0x3b83a9c9	0.0040180427
115	0x3bd446e7	0.006478179
116	0x3ca52469	0.020158963
117	0xbc3e1ff6	-0.0116043
118	0xbd0b2937	-0.033974852
119	0xbd2b8f1b	-0.041884523
120	0xbc6d4d7e	-0.014483808
121	0xbaf270ad	-0.0018496715
122	0x3d017cf4	0.031613305
123	0x3d05d36c	0.03267233
124	0xbb60e90a	-0.003431859
125	0x3a9a9f27	0.0011796699
126	0x3d00f644	0.031484857
127	0xbcc31980	-0.02381587
128	0x3b3d82fe	0.0028917189
129	0x3ceea700	0.029132366
130	0xbd3111b6	-0.04322978
131	0x3adf17c8	0.0017020637
132	0x3bc6eab8	0.006070461
133	0xbc0c982e	-0.008581204
134	0x3d3d1e6c	0.04617159
135	0x3bf5ed59	0.0075051007
136	0x3cb40fba	0.021980155
137	0xbccafc28	-0.02477844
138	0x3be15c3a	0.0068774493
139	0xb9239883	-0.00015601706
140	0xbd4145e1	-0.047185782
141	0xbcdc87ed	-0.026920283
142	0x3b65e073	0.003507641
143	0xbd162c09	-0.03666309
144	0xbc57009a	-0.013122702
145	0x3d0842df	0.0332669
146	0x3c95671f	0.018237649
147	0xbd4bdc3c	-0.04977058
148	0xbbf53672	-0.007483297
149	0x3caeaea7	0.021323515
150	0x3c9d422d	0.019196594
151	0xbd69f13a	-0.057114817
152	0xbc3c0e9c	-0.0114780925
153	0xbb3b374d	-0.0028566897
154	0x3b736f81	0.003714532
155	0x3d2b2d49	0.041791234
156	0x3c876fd5	0.016532818
157	0x3c743278	0.014904611
158	0xb8a18dc4	-7.703484e-05
159	0xbd2b2ba8	-0.04178968
160	0x3d4066ee	0.04697316
161	0xbb513ec5	-0.0031928283
162	0xbd59bb74	-0.053157285
163	0x3c88d05b	0.016700914
164	0xbd146bc4	-0.036235586
165	0x3c817c8d	0.01580646
166	0x3c81a9c7	0.015828026
167	0x3d140ed4	0.036146954
168	0x3ce34f1c	0.027747683
169	0xbc806c08	-0.015676513
170	0x3cede394	0.029039182
171	0x3c093ff4	0.008377064
172	0x3aad5db4	0.0013226778
173	0xbb8fa12f	-0.0043832283
174	0xbb473d65	-0.0030401584
175	0x3ce576b6	0.028010707
176	0x3bbf27b8	0.0058335923
177	0x3ca5c3d6	0.020234983
178	0x3c86c95e	0.016453441
179	0xbc6b784c	-0.014371943
180	0x3a5394ba	0.0008071173
181	0x3c97e963	0.018543905
182	0x3d2f6160	0.042817473
183	0xbbe034e2	-0.0068422416
184	0xbc9e6012	-0.01933292
185	0x3b42f686	0.002974899
186	0x3c04c858	0.008104406
187	0xbcc4f529	-0.024042683
188	0xbc779608	-0.015111454
189	0x3b4484a7	0.0029986294
190	0x3c8be59d	0.017077262
191	0x3bebd7cf	0.0071973572
192	0xbc9819f3	-0.018567061
193	0xbb367011	-0.0027837793
194	0xbc744e87	-0.0149113005
195	0x3aeece3e	0.0018219424
196	0x3a783e18	0.0009469702
197	0x39c96e36	0.0003841982
198	0xbc914cfb	-0.017736902
199	0xbb452f13	-0.0030087873
200	0x3c6b19e5	0.014349435
201	0x3d2fbaa4	0.042902604
202	0x3ce85b03	0.02836371
203	0xba09fbcf	-0.00052636577
204	0xbbebba55	-0.0071938434
205	0x3c511136	0.012760451
206	0x3c82b764	0.015956588
207	0x3aaf455b	0.001337211
208	0x3c2e1dc6	0.010627216
209	0x3cfa5a8f	0.03056076
210	0xbc515a69	-0.012777903
211	0xbb235751	-0.002492387
212	0x3c853dd4	0.016264834
213	0x3c99c305	0.01876975
214	0x3d391b9e	0.045192353
215	0xbd0c09f7	-0.03418919
216	0xbd172046	-0.036896013
217	0x3cd117f6	0.02552412
218	0x3bd3f3a3	0.0064682527
219	0x3c9b8ace	0.018987086
220	0xbcd7c685	-0.026339779
221	0xbc19435a	-0.009354437
222	0xbd227c26	-0.03966918
223	0xbc297570	-0.010342941
224	0x3bd255ad	0.0064189048
225	0x3b059f24	0.0020389045
226	0xbc181848	-0.009283133
227	0x3cb16639	0.021655189
228	0x3c3b0e43	0.0114169745
229	0xbcdb8293	-0.026795661
230	0xbd6616d4	-0.056174114
231	0x3c7237fe	0.014783857
232	0xbd0cf635	-0.03441449
233	0x3cb066d2	0.021533404
234	0xbc0b7e16	-0.008513948
235	0x3d84c593	0.06482997
236	0x3b72db61	0.003705703
237	0xbd54dcc8	-0.051968366
238	0x3ba9bbc6	0.005179855
239	0xbc560b75	-0.013064255
240	0x3c64406d	0.013931376
241	0xbbf20af2	-0.0073865587
242	0xba90b652	-0.0011040664
243	0x3cb622c0	0.022233367
244	0x3ccab94c	0.02474656
245	0x3b16884f	0.002296943
246	0x3c7ef538	0.015561394
247	0x3b4f707e	0.0031652744
248	0x3c5149a8	0.012773909
249	0xbb076a4d	-0.0020662725
250	0x3bcad6a4	0.006190138
251	0x3c1a1aa4	0.009405766
252	0xbc43e606	-0.011956697
253	0x3d6e7846	0.05822017
254	0x3c4a190f	0.012335076
255	0x3c225321	0.009907515

bn.weight f4 [128]
0	0x3f824ea7	1.0180253
1	0x3f806295	1.0030085
2	0x3f790d60	0.97286034
3	0x3f745400	0.95440674
4	0x3f7e70c0	0.9939079
5	0x3f7b9bdd	0.98284703
6	0x3f7c9224	0.9866049
7	0x3f83532c	1.0259757
8	0x3f852d05	1.0404364
9	0x3f813a2c	1.0095878
10	0x3f7eb31b	0.99492043
11	0x3f8275a7	1.0192155
12	0x3f7a3a38	0.97745085
13	0x3f7d444e	0.9893235
14	0x3f8492de	1.035732
15	0x3f7f21de	0.9966105
16	0x3f823db0	1.0175076
17	0x3f7b807c	0.98242927
18	0x3f7b3e8f	0.9814233
19	0x3f7beff8	0.9841304
20	0x3f738bcb	0.9513518
21	0x3f7db530	0.99104595
22	0x3f806151	1.0029699
23	0x3f7db4be	0.99103916
24	0x3f8391f5	1.0278918
25	0x3f7a4101	0.9775544
26	0x3f81739c	1.0113406
27	0x3f758a24	0.9591391
28	0x3f822a7e	1.0169218
29	0x3f7ef81b	0.9959733
30	0x3f82e9fa	1.0227654
31	0x3f7bfe8a	0.9843527
32	0x3f805634	1.0026307
33	0x3f817fc2	1.0117114
34	0x3f80a246	1.0049522
35	0x3f848384	1.0352635
36	0x3f8421f1	1.0322858
37	0x3f7eb851	0.99499995
38	0x3f7e12ca	0.9924742
39	0x3f82836e	1.0196359
40	0x3f7eabfa	0.99481165
41	0x3f80053e	1.00016
42	0x3f819668	1.0124025
43	0x3f7f7303	0.9978487
44	0x3f761c55	0.9613698
45	0x3f806b51	1.003275
46	0x3f7da67f	0.9908218
47	0x3f7cfbb6	0.9882158
48	0x3f818a64	1.0120358
49	0x3f7c138d	0.9846733
50	0x3f80d4bb	1.006492
51	0x3f7e77bc	0.9940145
52	0x3f7585d1	0.9590731
53	0x3f82a714	1.0207238
54	0x3f7b1ef7	0.98094124
55	0x3f7c894c	0.98647
56	0x3f7ca91e	0.9869555
57	0x3f80f871	1.0075818
58	0x3f7e7c78	0.99408674
59	0x3f7ee75b	0.9957177
60	0x3f7f155f	0.99641985
61	0x3f7da115	0.99073917
62	0x3f7ca394	0.986871
63	0x3f7e5f9a	0.99364626
64	0x3f807574	1.0035844
65	0x3f7d36bc	0.98911643
66	0x3f764f07	0.96214336
67	0x3f7fa557	0.99861664
68	0x3f8008ef	1.0002726
69	0x3f7c8e25	0.98654395
70	0x3f850d7b	1.0394739
71	0x3f7e1b9c	0.9926088
72	0x3f7c15f2	0.98470986
73	0x3f81b574	1.01335
74	0x3f803c20	1.0018349
75	0x3f8076c6	1.0036247
76	0x3f7cac0e	0.98700035
77	0x3f7d4d1d	0.9894579
78	0x3f84c8f7	1.037383
79	0x3f7e4f62	0.9933988
80	0x3f7cddb0	0.9877577
81	0x3f836426	1.0264938
82	0x3f829be1	1.020382
83	0x3f8230e1	1.0171167
84	0x3f7e459e	0.9932498
85	0x3f7e295d	0.99281865
86	0x3f7e6d0c	0.9938514
87	0x3f811560	1.0084648
88	0x3f7de613	0.9917919
89	0x3f7e4453	0.99323004
90	0x3f84573b	1.0339121
91	0x3f805ab4	1.002768
92	0x3f7a4f2c	0.97777057
93	0x3f7bfca8	0.984324
94	0x3f7e9d14	0.9945843
95	0x3f7d7af4	0.99015737
96	0x3f81e903	1.0149235
97	0x3f7caba9	0.9869943
98	0x3f761c32	0.9613677
99	0x3f7b269e	0.981058
100	0x3f85ff5f	1.0468558
101	0x3f83f871	1.0310193
102	0x3f82a09e	1.0205266
103	0x3f7e042e	0.9922513
104	0x3f776a7c	0.9664686
105	0x3f8277a4	1.0192761
106	0x3f86464c	1.0490203
107	0x3f7e1424	0.9924948
108	0x3f82ac69	1.0208865
109	0x3f80925d	1.0044667
110	0x3f79b1cc	0.9753692
111	0x3f85912d	1.0434929
112	0x3f7d49ac	0.9894054
113	0x3f80394f	1.0017489
114	0x3f805004	1.0024419
115	0x3f828adc	1.0198627
116	0x3f80eac0	1.007164
117	0x3f7ec1da	0.99514544
118	0x3f7d154b	0.98860615
119	0x3f7d33aa	0.9890696
120	0x3f77d5d5	0.96810657
121	0x3f81080b	1.008058
122	0x3f8101a2	1.0078623
123	0x3f80143d	1.0006176
124	0x3f807576	1.0035846
125	0x3f7cc3bd	0.9873617
126	0x3f741d59	0.9535728
127	0x3f7bd573	0.9837257

bn.bias f4 [128]
0	0x00000000	0.0
1	0x00000000	0.0
2	0x00000000	0.0
3	0x00000000	0.0
4	0x00000000	0.0
5	0x00000000	0.0
6	0x00000000	0.0
7	0x00000000	0.0
8	0x00000000	0.0
9	0x00000000	0.0
10	0x00000000	0.0
11	0x00000000	0.0
12	0x00000000	0.0
13	0x00000000	0.0
14	0x00000000	0.0
15	0x00000000	0.0
16	0x00000000	0.0
17	0x00000000	0.0
18	0x00000000	0.0
19	0x00000000	0.0
20	0x00000000	0.0
21	0x00000000	0.0
22	0x00000000	0.0
23	0x00000000	0.0
24	0x00000000	0.0
25	0x00000000	0.0
26	0x00000000	0.0
27	0x00000000	0.0
28	0x00000000	0.0
29	0x00000000	0.0
30	0x00000000	0.0
31	0x00000000	0.0
32	0x00000000	0.0
33	0x00000000	0.0
34	0x00000000	0.0
35	0x00000000	0.0
36	0x00000000	0.0
37	0x00000000	0.0
38	0x00000000	0.0
39	0x00000000	0.0
40	0x00000000	0.0
41	0x00000000	0.0
42	0x00000000	0.0
43	0x00000000	0.0
44	0x00000000	0.0
45	0x00000000	0.0
46	0x00000000	0.0
47	0x00000000	0.0
48	0x00000000	0.0
49	0x00000000	0.0
50	0x00000000	0.0
51	0x00000000	0.0
52	0x00000000	0.0
53	0x00000000	0.0
54	0x00000000	0.0
55	0x00000000	0.0
56	0x00000000	0.0
57	0x00000000	0.0
58	0x00000000	0.0
59	0x00000000	0.0
60	0x00000000	0.0
61	0x00000000	0.0
62	0x00000000	0.0
63	0x00000000	0.0
64	0x00000000	0.0
65	0x00000000	0.0
66	0x00000000	0.0
67	0x00000000	0.0
68	0x00000000	0.0
69	0x00000000	0.0
70	0x00000000	0.0
71	0x00000000	0.0
72	0x00000000	0.0
73	0x00000000	0.0
74	0x00000000	0.0
75	0x00000000	0.0
76	0x00000000	0.0
77	0x00000000	0.0
78	0x00000000	0.0
79	0x00000000	0.0
80	0x00000000	0.0
81	0x00000000	0.0
82	0x00000000	0.0
83	0x00000000	0.0
84	0x00000000	0.0
85	0x00000000	0.0
86	0x00000000	0.0
87	0x00000000	0.0
88	0x00000000	0.0
89	0x00000000	0.0
90	0x00000000	0.0
91	0x00000000	0.0
92	0x00000000	0.0
93	0x00000000	0.0
94	0x00000000	0.0
95	0x00000000	0.0
96	0x00000000	0.0
97	0x00000000	0.0
98	0x00000000	0.0
99	0x00000000	0.0
100	0x00000000	0.0
101	0x00000000	0.0
102	0x00000000	0.0
103	0x00000000	0.0
104	0x00000000	0.0
105	0x00000000	0.0
106	0x00000000	0.0
107	0x00000000	0.0
108	0x00000000	0.0
109	0x00000000	0.0
110	0x00000000	0.0
111	0x00000000	0.0
112	0x00000000	0.0
113	0x00000000	0.0
114	0x00000000	0.0
115	0x00000000	0.0
116	0x00000000	0.0
117	0x00000000	0.0
118	0x00000000	0.0
119	0x00000000	0.0
120	0x00000000	0.0
121	0x00000000	0.0
122	0x00000000	0.0
123	0x00000000	0.0
124	0x00000000	0.0
125	0x00000000	0.0
126	0x00000000	0.0
127	0x00000000	0.0

bn.running_mean f4 [128]
0	0x00000000	0.0
1	0x00000000	0.0
2	0x00000000	0.0
3	0x00000000	0.0
4	0x00000000	0.0
5	0x00000000	0.0
6	0x00000000	0.0
7	0x00000000	0.0
8	0x00000000	0.0
9	0x00000000	0.0
10	0x00000000	0.0
11	0x00000000	0.0
12	0x00000000	0.0
13	0x00000000	0.0
14	0x00000000	0.0
15	0x00000000	0.0
16	0x00000000	0.0
17	0x00000000	0.0
18	0x00000000	0.0
19	0x00000000	0.0
20	0x00000000	0.0
21	0x00000000	0.0
22	0x00000000	0.0
23	0x00000000	0.0
24	0x00000000	0.0
25	0x00000000	0.0
26	0x00000000	0.0
27	0x00000000	0.0
28	0x00000000	0.0
29	0x00000000	0.0
30	0x00000000	0.0
31	0x00000000	0.0
32	0x00000000	0.0
33	0x00000000	0.0
34	0x00000000	0.0
35	0x00000000	0.0
36	0x00000000	0.0
37	0x00000000	0.0
38	0x00000000	0.0
39	0x00000000	0.0
40	0x00000000	0.0
41	0x00000000	0.0
42	0x00000000	0.0
43	0x00000000	0.0
44	0x00000000	0.0
45	0x00000000	0.0
46	0x00000000	0.0
47	0x00000000	0.0
48	0x00000000	0.0
49	0x00000000	0.0
50	0x00000000	0.0
51	0x00000000	0.0
52	0x00000000	0.0
53	0x00000000	0.0
54	0x00000000	0.0
55	0x00000000	0.0
56	0x00000000	0.0
57	0x00000000	0.0
58	0x00000000	0.0
59	0x00000000	0.0
60	0x00000000	0.0
61	0x00000000	0.0
62	0x00000000	0.0
63	0x00000000	0.0
64	0x00000000	0.0
65	0x00000000	0.0
66	0x00000000	0.0
67	0x00000000	0.0
68	0x00000000	0.0
69	0x00000000	0.0
70	0x00000000	0.0
71	0x00000000	0.0
72	0x00000000	0.0
73	0x00000000	0.0
74	0x00000000	0.0
75	0x00000000	0.0
76	0x00000000	0.0
77	0x00000000	0.0
78	0x00000000	0.0
79	0x00000000	0.0
80	0x00000000	0.0
81	0x00000000	0.0
82	0x00000000	0.0
83	0x00000000	0.0
84	0x00000000	0.0
85	0x00000000	0.0
86	0x00000000	0.0
87	0x00000000	0.0
88	0x00000000	0.0
89	0x00000000	0.0
90	0x00000000	0.0
91	0x00000000	0.0
92	0x00000000	0.0
93	0x00000000	0.0
94	0x00000000	0.0
95	0x00000000	0.0
96	0x00000000	0.0
97	0x00000000	0.0
98	0x00000000	0.0
99	0x00000000	0.0
100	0x00000000	0.0
101	0x00000000	0.0
102	0x00000000	0.0
103	0x00000000	0.0
104	0x00000000	0.0
105	0x00000000	0.0
106	0x00000000	0.0
107	0x00000000	0.0
108	0x00000000	0.0
109	0x00000000	0.0
110	0x00000000	0.0
111	0x00000000	0.0
112	0x00000000	0.0
113	0x00000000	0.0
114	0x00000000	0.0
115	0x00000000	0.0
116	0x00000000	0.0
117	0x00000000	0.0
118	0x00000000	0.0
119	0x00000000	0.0
120	0x00000000	0.0
121	0x00000000	0.0
122	0x00000000	0.0
123	0x00000000	0.0
124	0x00000000	0.0
125	0x00000000	0.0
126	0x00000000	0.0
127	0x00000000	0.0

bn.running_var f4 [128]
0	0x3f800000	1.0
1	0x3f800000	1.0
2	0x3f800000	1.0
3	0x3f800000	1.0
4	0x3f800000	1.0
5	0x3f800000	1.0
6	0x3f800000	1.0
7	0x3f800000	1.0
8	0x3f800000	1.0
9	0x3f800000	1.0
10	0x3f800000	1.0
11	0x3f800000	1.0
12	0x3f800000	1.0
13	0x3f800000	1.0
14	0x3f800000	1.0
15	0x3f800000	1.0
16	0x3f800000	1.0
17	0x3f800000	1.0
18	0x3f800000	1.0
19	0x3f800000	1.0
20	0x3f800000	1.0
21	0x3f800000	1.0
22	0x3f800000	1.0
23	0x3f800000	1.0
24	0x3f800000	1.0
25	0x3f800000	1.0
26	0x3f800000	1.0
27	0x3f800000	1.0
28	0x3f800000	1.0
29	0x3f800000	1.0
30	0x3f800000	1.0
31	0x3f800000	1.0
32	0x3f800000	1.0
33	0x3f800000	1.0
34	0x3f800000	1.0
35	0x3f800000	1.0
36	0x3f800000	1.0
37	0x3f800000	1.0
38	0x3f800000	1.0
39	0x3f800000	1.0
40	0x3f800000	1.0
41	0x3f800000	1.0
42	0x3f800000	1.0
43	0x3f800000	1.0
44	0x3f800000	1.0
45	0x3f800000	1.0
46	0x3f800000	1.0
47	0x3f800000	1.0
48	0x3f800000	1.0
49	0x3f800000	1.0
50	0x3f800000	1.0
51	0x3f800000	1.0
52	0x3f800000	1.0
53	0x3f800000	1.0
54	0x3f800000	1.0
55	0x3f800000	1.0
56	0x3f800000	1.0
57	0x3f800000	1.0
58	0x3f800000	1.0
59	0x3f800000	1.0
60	0x3f800000	1.0
61	0x3f800000	1.0
62	0x3f800000	1.0
63	0x3f800000	1.0
64	0x3f800000	1.0
65	0x3f800000	1.0
66	0x3f800000	1.0
67	0x3f800000	1.0
68	0x3f800000	1.0
69	0x3f800000	1.0
70	0x3f800000	1.0
71	0x3f800000	1.0
72	0x3f800000	1.0
73	0x3f800000	1.0
74	0x3f800000	1.0
75	0x3f800000	1.0
76	0x3f800000	1.0
77	0x3f800000	1.0
78	0x3f800000	1.0
79	0x3f800000	1.0
80	0x3f800000	1.0
81	0x3f800000	1.0
82	0x3f800000	1.0
83	0x3f800000	1.0
84	0x3f800000	1.0
85	0x3f800000	1.0
86	0x3f800000	1.0
87	0x3f800000	1.0
88	0x3f800000	1.0
89	0x3f800000	1.0
90	0x3f800000	1.0
91	0x3f800000	1.0
92	0x3f800000	1.0
93	0x3f800000	1.0
94	0x3f800000	1.0
95	0x3f800000	1.0
96	0x3f800000	1.0
97	0x3f800000	1.0
98	0x3f800000	1.0
99	0x3f800000	1.0
100	0x3f800000	1.0
101	0x3f800000	1.0
102	0x3f800000	1.0
103	0x3f800000	1.0
104	0x3f800000	1.0
105	0x3f800000	1.0
106	0x3f800000	1.0
107	0x3f800000	1.0
108	0x3f800000	1.0
109	0x3f800000	1.0
110	0x3f800000	1.0
111	0x3f800000	1.0
112	0x3f800000	1.0
113	0x3f800000	1.0
114	0x3f800000	1.0
115	0x3f800000	1.0
116	0x3f800000	1.0
117	0x3f800000	1.0
118	0x3f800000	1.0
119	0x3f800000	1.0
120	0x3f800000	1.0
121	0x3f800000	1.0
122	0x3f800000	1.0
123	0x3f800000	1.0
124	0x3f800000	1.0
125	0x3f800000	1.0
126	0x3f800000	1.0
127	0x3f800000	1.0

conv_disc.weight f4 [10, 128, 1, 1]
0	0xbd07a23e	-0.03311371
1	0x3bee5795	0.007273624
2	0xbcfd4116	-0.030914824
3	0x3d511289	0.051043067
4	0x3c437a92	0.0119310785
5	0xbca3df79	-0.020004021
6	0xbd6cec0d	-0.057842303
7	0xbb08236b	-0.0020773064
8	0x3d2b942a	0.041889347
9	0x3d91595d	0.07097123
10	0xbb62c533	-0.0034602403
11	0x3c528430	0.012848899
12	0xbcabc938	-0.020969972
13	0xbd1a9f27	-0.037749436
14	0x3d052593	0.032506537
15	0xbda3a4ee	-0.07990442
16	0x3c5de63d	0.013543663
17	0xbcd4a6a5	-0.025958369
18	0xbd096823	-0.03354658
19	0x3c2d5413	0.010579127
20	0xbd0c007c	-0.03418015
21	0xbcdbc8b2	-0.026829097
22	0xbca364ba	-0.019945491
23	0x3c527229	0.012844601
24	0x3c5747d6	0.013139686
25	0x3d213955	0.039361317
26	0x3d071687	0.032980468
27	0x3d2cc3ed	0.042179037
28	0xbce090f4	-0.027412869
29	0x3d3aba0e	0.04558759
30	0xbd7efa14	-0.06225021
31	0xbd61c5b2	-0.055120178
32	0x3c82afe9	0.015953021
33	0x3c9f5018	0.019447371
34	0x3cf091e1	0.029366435
35	0xbc5dd47f	-0.013539433
36	0x3c9ddae0	0.019269407
37	0xbd4ea840	-0.050453424
38	0x3c4bed70	0.012446746
39	0x3c939d8d	0.018019462
40	0xbd863a71	-0.065541156
41	0x3d6419c5	0.05568864
42	0xbd16c2e4	-0.036806956
43	0x3b6be92c	0.0035997136
44	0xbcb2d141	-0.021828296
45	0x3d874152	0.06604256
46	0x3bb9cd9b	0.005670262
47	0x3c5bd1fc	0.013416763
48	0xbd596c85	-0.053082008
49	0x3d2dcb7e	0.042430393
50	0xbd302f4f	-0.043013867
51	0x3d8ba2f8	0.06818193
52	0xbd174ceb	-0.03693859
53	0x3c50f45d	0.012753573
54	0xbdbea75b	-0.09309264
55	0xbd343fe2	-0.044006236
56	0xbc5a9242	-0.013340535
57	0x3d499b48	0.049220353
58	0x3d5b77d4	0.053581074
59	0xbd013368	-0.031543165
60	0x3bbf4165	0.005836653
61	0x3c8cfbe8	0.017209962
62	0xbd7bfff9	-0.06152341
63	0xbd238c07	-0.039928462
64	0x3d6440e8	0.055725962
65	0xbc02c714	-0.007982034
66	0x3bfbacd1	0.0076805134
67	0x3c6c1c5b	0.014411057
68	0xbb84b9d9	-0.004050475
69	0xbd77b625	-0.06047644
70	0xbae53922	-0.001748834
71	0x3d235eec	0.039885446
72	0xbd173345	-0.03691413
73	0xbd1c8be3	-0.038219344
74	0x3d06a588	0.032872707
75	0xbd397ada	-0.045283176
76	0x3c9cdc65	0.019148061
77	0x3c115b4c	0.0088718645
78	0xbd9da5d2	-0.07697643
79	0xbd9ae174	-0.07562533
80	0xbd00190b	-0.031273883
81	0x3d55adf1	0.052167837
82	0xbd614a9a	-0.055002786
83	0x3cbba269	0.022904592
84	0x3c8b00e8	0.016968206
85	0xbc3f288a	-0.01166738
86	0xbd16af5f	-0.03678834
87	0xbb8083b3	-0.00392195
88	0xbd8bbf72	-0.06823625
89	0xbca062da	-0.019578386
90	0xbb2ed356	-0.002667626
91	0x3d04fe16	0.032468878
92	0x3d478bab	0.048717182
93	0x3d09159f	0.033467885
94	0xba72ce01	-0.00092622644
95	0x3c5510e7	0.013004518
96	0x3d070947	0.032967832
97	0x3d5d29de	0.053995006
98	0x3d25299f	0.040322896
99	0x3be87d45	0.0070950114
100	0x3d5d011e	0.053956144
101	0x3d36dc92	0.044643946
102	0xbca9eacc	-0.020741843
103	0xbb9aba74	-0.004721934
104	0xbcb8b6b0	-0.02254805
105	0x3d9a1476	0.07523434
106	0x3c779afa	0.015112633
107	0xbd7b9f49	-0.061431203
108	0xbc7913aa	-0.015202442
109	0x3c6e4569	0.014542916
110	0xbcc2c3a0	-0.023774922
111	0xbd2e1021	-0.04249585
112	0x3cd97f98	0.0265501
113	0x3b6aba0c	0.003581646
114	0xbb83a746	-0.0040177433
115	0x3c1c4305	0.009537463
116	0xbd4df232	-0.050279804
117	0xbd7ba91b	-0.06144057
118	0xbd11a0a6	-0.035553597
119	0x3c7572c7	0.014980978
120	0x3ccabd49	0.024748461
121	0xbcc87dab	-0.024473986
122	0xbaa51f51	-0.0012597834
123	0x3c90f3e8	0.017694429
124	0xbce5c16e	-0.028046336
125	0x3ccd0162	0.025025073
126	0x3d97fef3	0.074216746
127	0x3d63f842	0.05565668
128	0xbda67c3b	-0.08129164
129	0x3c8f28e7	0.017475558
130	0xbae02f4c	-0.0017103939
131	0x3d738e7e	0.059462063
132	0xbd3d52f5	-0.046221692
133	0xbd486107	-0.048920657
134	0xbbaee95f	-0.0053378786
135	0xbc873319	-0.016503857
136	0x3d5406c8	0.05176428
137	0x3d4a8760	0.04944551
138	0x3d2facbf	0.042889353
139	0x39783b3d	0.00023673191
140	0x3d144597	0.03619918
141	0x3cbfb942	0.023403767
142	0x3d473efd	0.048644055
143	0x3d2ed90e	0.04268747
144	0x3d2a0d8d	0.04151683
145	0xbdc15b01	-0.09441186
146	0x3c48a3d3	0.01224609
147	0x3cea0bcb	0.028570076
148	0xbd36a55d	-0.044591296
149	0x3d6e9ff7	0.058258023
150	0x3bb2dbd8	0.0054583363
151	0xbc16a2f7	-0.009194127
152	0xbd455c18	-0.04818353
153	0xbc7c9122	-0.015415462
154	0xbb1faafe	-0.0024363394
155	0xbd32a7d8	-0.0436171
156	0xbcbb320c	-0.022851013
157	0xbcee9765	-0.029124925
158	0x3c457f5d	0.012054292
159	0x3d18afde	0.037277095
160	0xbbc1ec1f	-0.0059180404
161	0xbc7dfbf1	-0.015501962
162	0x3d97f21b	0.07419225
163	0xbc45d9eb	-0.0120758815
164	0xbd03068e	-0.031988673
165	0x3d282763	0.041053187
166	0x3d34566f	0.044027742
167	0xbcfbca67	-0.030736161
168	0x3ced3656	0.028956573
169	0xbc8be170	-0.01707527
170	0x3d2c1add	0.042017806
171	0x3d9ee407	0.077583365
172	0x3ce4407b	0.027862778
173	0x3ca40244	0.020020612
174	0x3bdde41b	0.006771577
175	0xbdca2cf8	-0.09871858
176	0x3d12e47a	0.035862423
177	0xbd8be86b	-0.068314396
178	0xbd55701f	-0.05210888
179	0x3d094bf8	0.033519715
180	0xbd1d92fd	-0.038470257
181	0x3d159a70	0.036524236
182	0xbc88e0d6	-0.016708773
183	0x3c6fcb8c	0.014635932
184	0xbd3a8a4a	-0.04554204
185	0xbd93bf7f	-0.07214259
186	0xbc4a8906	-0.0123617705
187	0x3dade7a4	0.084914476
188	0x3cd53393	0.026025569
189	0x3b59babb	0.0033222872
190	0xbbfdbdc1	-0.0077435677
191	0xbc3a3f60	-0.011367649
192	0x3d418c55	0.04725297
193	0x3d8535fd	0.06504438
194	0x3d645d4e	0.055753045
195	0x3c758f18	0.0149877295
196	0x3d6281ff	0.055299755
197	0x3a919683	0.0011107478
198	0xbd1f4d46	-0.038892053
199	0x3c3cfc43	0.011534753
200	0x3d8343fd	0.06409452
201	0xbc519f2a	-0.012794295
202	0xbd4968da	-0.04917226
203	0xbc0c4357	-0.008560977
204	0xbd2fc78d	-0.042914916
205	0xbcf4f6a9	-0.029902773
206	0x3d41d214	0.047319487
207	0xbce4eb0d	-0.027944112
208	0x3d824964	0.063616544
209	0xbd8eca07	-0.069721274
210	0xbcf171ed	-0.02947327
211	0xbd746fce	-0.059676938
212	0xbc8668d8	-0.016407415
213	0x3cb9da9e	0.022687253
214	0xbc3c2494	-0.01148333
215	0x3d307335	0.04307862
216	0xbc2edc98	-0.010672711
217	0x3d26275e	0.040564887
218	0xbd220130	-0.039551914
219	0x3c7a77c9	0.015287348
220	0x3c90ec60	0.017690837
221	0xbbe5ae10	-0.0070092753
222	0xbd9627ee	-0.07331835
223	0xbd23cf93	-0.03999288
224	0xbc548acf	-0.012972548
225	0xbd12c2c6	-0.03583028
226	0x3c942006	0.018081676
227	0xbd4b392f	-0.04961508
228	0x3d8b326c	0.067967266
229	0xbdcc75c7	-0.09983402
230	0xbd088a1e	-0.033334844
231	0x3ce28002	0.02764893
232	0x3ce09bc5	0.027418027
233	0x3d27db37	0.040980544
234	0x3d014bb2	0.03156633
235	0x3c7c2bc3	0.015391293
236	0x3ced855a	0.028994251
237	0xbd430661	-0.047613505
238	0xbbb13cde	-0.0054088673
239	0x3ca37913	0.019955194
240	0x3dca0845	0.098648585
241	0xbba1b2c3	-0.00493464
242	0x3d705e60	0.058683753
243	0xbd50329e	-0.050829522
244	0xbd0fa25c	-0.035066947
245	0x3c80022e	0.01562604
246	0x3a565f43	0.0008177647
247	0xba59f83a	-0.00083148817
248	0x3c8d706b	0.01726552
249	0x3d015a03	0.031579982
250	0xbd710bef	-0.05884927
251	0xbd7491a8	-0.05970922
252	0x3cccc6c5	0.024997124
253	0x3dd1fab6	0.102528974
254	0xbbd04037	-0.0063553113
255	0xbd1b81b2	-0.037965484

conv_disc.bias f4 [10]
0	0x3d1a306f	0.037643846
1	0xbc60ac50	-0.0137129575
2	0x3cfa9f83	0.03059364
3	0x3d6f6151	0.058442418
4	0xbda8690d	-0.08223162
5	0x3bc25987	0.0059310826
6	0x3d83bf6d	0.06432996
7	0xbd2205e4	-0.0395564
8	0xbd1d727d	-0.038439263
9	0xbb332d8d	-0.0027340383

conv_mu.weight f4 [2, 128, 1, 1]
0	0x3d1c7a53	0.038202595
1	0xbc653ab6	-0.013991049
2	0x3cc1365e	0.023585495
3	0x3c2704a0	0.010193974
4	0xbcb7e70e	-0.022449043
5	0x3c660099	0.014038228
6	0x3c3f0830	0.011659667
7	0xbd16d1aa	-0.036821045
8	0x3cfe5047	0.031044139
9	0xba3bcc47	-0.00071639236
10	0xb94dd573	-0.0001962984
11	0xbc832d6a	-0.016012866
12	0x3b6061a0	0.0034237877
13	0xbb092e9c	-0.0020932322
14	0xbca0d43e	-0.019632455
15	0x3c2ee567	0.010674811
16	0xbbf84678	-0.00757676
17	0xbb8108a1	-0.003937796
18	0xbbb80372	-0.005615645
19	0xbc7771aa	-0.015102783
20	0xba8de934	-0.0010826946
21	0xbb43b55c	-0.0029862737
22	0x3cb4e450	0.022081524
23	0x3c6d78d6	0.014494142
24	0x3ba377c9	0.0049886447
25	0xbc5b207d	-0.013374445
26	0x3d15c6e8	0.036566645
27	0x3c8b5431	0.017007919
28	0xbbb77d85	-0.00559968
29	0xbcc4e1c2	-0.024033431
30	0x3be068ad	0.006848416
31	0xbc0c181f	-0.008550673
32	0xbc291664	-0.01032028
33	0x3bca3600	0.006170988
34	0xbc9ce9f5	-0.019154528
35	0x3d16a7d7	0.03678116
36	0xba2b5a47	-0.00065365847
37	0x3cd64836	0.02615748
38	0xbc9fcaae	-0.019505825
39	0xbd444e31	-0.04792613
40	0xbad54abd	-0.0016272884
41	0xbb62c475	-0.003460196
42	0x3c0f22ac	0.008736294
43	0x3c3881aa	0.011261383
44	0xbc07a115	-0.008278151
45	0xbc7ec5b0	-0.015550062
46	0x3c61615d	0.013756123
47	0xbcd00677	-0.025393708
48	0x3b3c5a0d	0.0028740198
49	0xbbce8555	-0.0063025155
50	0xbb83a104	-0.0040169973
51	0xbbaba2e8	-0.005237926
52	0xbb85154d	-0.004061377
53	0xbb45abd7	-0.003016224
54	0xbbcabde3	-0.006187187
55	0x3c8c537f	0.017129658
56	0x3c29bb13	0.010359543
57	0x3b4c7bb5	0.0031201665
58	0xbd21ad26	-0.039471768
59	0xbc6d3f6a	-0.014480451
60	0xbb489beb	-0.0030610512
61	0x39ef42bc	0.00045635353
62	0x3b91a3b5	0.004444564
63	0x3ceb3720	0.02871281
64	0xbca908e0	-0.020634115
65	0x3c986113	0.018600976
66	0xbba4eeb7	-0.00503334
67	0xbd14f0aa	-0.036362328
68	0x3c72a920	0.01481083
69	0x3ca75805	0.020427713
70	0x3c0c0122	0.008545192
71	0x3c78434e	0.015152765
72	0x3a8e07a1	0.0010836014
73	0x3cb22141	0.021744372
74	0x3b3dab11	0.0028941075
75	0xbc5e62ed	-0.01357339
76	0x3cbceb35	0.023061374
77	0x3cb382a5	0.021912882
78	0xbd11b32d	-0.035571266
79	0xbc00f036	-0.007869771
80	0x3bee5ca7	0.0072742286
81	0x3c80ae23	0.015708035
82	0xbd0aec87	-0.033916976
83	0x3c624b39	0.01381188
84	0xbb24b267	-0.002513075
85	0xbb96e1e3	-0.0046045645
86	0x3c146fca	0.009059856
87	0x3cbb2f1c	0.022849612
88	0xbcb8b1ed	-0.02254578
89	0x3c530fc5	0.012882178
90	0xbc9c31e4	-0.019066758
91	0x3cc7d54d	0.024393702
92	0xbcd50060	-0.026001155
93	0xba5c3986	-0.00084009056
94	0x3c98f741	0.018672587
95	0xbca8a341	-0.020585658
96	0xbc2be8b9	-0.010492497
97	0xbc9d5215	-0.019204179
98	0x3c827022	0.01592261
99	0xbb15c26e	-0.0022851485
100	0xbbe2f7bf	-0.0069265063
101	0x3c6024ce	0.01368065
102	0xbd050087	-0.032471206
103	0x3bb3c881	0.0054865484
104	0xbcc6e327	-0.024278237
105	0x3b674709	0.0035290143
106	0x3d1b244f	0.037876423
107	0xbc16e8f1	-0.009210811
108	0xbc0fead1	-0.008784012
109	0x3c0c12f0	0.008549437
110	0x3ac7c71e	0.0015241837
111	0x3b6e95a4	0.003640511
112	0x3c407cdb	0.011748518
113	0x3bcb7b37	0.0062097567
114	0xbcb04121	-0.02151543
115	0x3c4c5028	0.012470283
116	0x3b88da1d	0.0041763918
117	0x3b2e3fb0	0.0026588254
118	0x3b510e75	0.0031899486
119	0xbc19bebe	-0.009383855
120	0x3a9f84b5	0.0012170287
121	0xbc0ff1f1	-0.008785711
122	0xbc45e527	-0.01207856
123	0xbc734cd3	-0.014849859
124	0x3bb16c93	0.0054145544
125	0x3bdac811	0.006676682
126	0xbb1f95cf	-0.0024350767
127	0x3c3c0cfa	0.011477703
128	0x3d05370e	0.032523207
129	0xbb568b0a	-0.0032736682
130	0x3c158e04	0.009128097
131	0xba39a66c	-0.0007081989
132	0xba130f83	-0.00056099164
133	0xbc807a7b	-0.015683403
134	0x3c309fd8	0.010780297
135	0x3d39b863	0.04534186
136	0x3bb6ba00	0.005576372
137	0xbb572b12	-0.0032832068
138	0x3c52c8dc	0.012865271
139	0xbc982092	-0.018570218
140	0x3bdad555	0.006678263
141	0x3cacc59c	0.021090321
142	0xbc69e504	-0.014275793
143	0xbc982d5d	-0.018576318
144	0xbc3ae0bc	-0.01140612
145	0x3a8d187c	0.0010764743
146	0xbabe4ec5	-0.0014519325
147	0x3c4b33db	0.0124025
148	0x3c75097c	0.0149558745
149	0xbd078410	-0.03308493
150	0xbd32f779	-0.04369304
151	0x3ccf4e27	0.02530582
152	0x3cabcb8f	0.020971088
153	0xbd160338	-0.036624163
154	0x3d3fec55	0.046856243
155	0xbc8922f9	-0.01674031
156	0x3c37ceab	0.011218707
157	0xbc488084	-0.012237672
158	0x3c151fc6	0.009101814
159	0x3ce3f675	0.02782748
160	0x3cd19973	0.025585866
161	0xbc1d24e4	-0.009591315
162	0x3b943ead	0.004524073
163	0xbc616d8a	-0.013759026
164	0xbca673fc	-0.020318978
165	0x3c813e07	0.015776647
166	0xbd203b0b	-0.039118808
167	0xbbd28b11	-0.0064252694
168	0xbc7c6d74	-0.015406955
169	0xbcb30be8	-0.021856263
170	0x3c5c4d4e	0.013446165
171	0xb89b824c	-7.415246e-05
172	0x3ab1ad45	0.0013555667
173	0x3c117486	0.008877879
174	0xbc1dec52	-0.009638863
175	0x3d0a8b0e	0.03382402
176	0xbc7e03d6	-0.015503844
177	0x3c7d0a4b	0.015444349
178	0x3c4f2d61	0.0126450965
179	0xbc7f2589	-0.015572914
180	0x3d2ed668	0.042684942
181	0xbcfe85e6	-0.031069707
182	0xbd0a2e2d	-0.033735443
183	0xba013346	-0.00049286
184	0xbd07c7b6	-0.033149444
185	0xbb88f991	-0.0041801413
186	0xbcac27c8	-0.021015063
187	0xbd16dbd2	-0.03683073
188	0xbc5d0589	-0.013490089
189	0xbbf524a9	-0.007481177
190	0xbbbcba13	-0.0057594865
191	0xbc87e1c8	-0.016587153
192	0xbd1e31a6	-0.038621567
193	0x3c4172bc	0.01180714
194	0xbcd3eb0d	-0.025868917
195	0xbc39d4d3	-0.011342245
196	0x3ca1bd98	0.019743726
197	0xbc81b1b5	-0.015831808
198	0xbd40abd5	-0.04703887
199	0x3bb831f3	0.005621189
200	0x3d226bc0	0.03965354
201	0x3bde3461	0.0067811464
202	0x3c172dff	0.009227275
203	0xbc1a305c	-0.009410944
204	0xbbdc3502	-0.006720186
205	0xbd095b52	-0.033534355
206	0xbc537e17	-0.01290848
207	0x3c86afaa	0.016441185
208	0x3c20ec85	0.009822016
209	0x3ba2fe1f	0.0049741413
210	0xbc533b21	-0.012892515
211	0x3cc88959	0.024479555
212	0xbd1e9742	-0.03871847
213	0xbca216a1	-0.01978618
214	0x3d01c9a4	0.03168644
215	0x3c7bae83	0.015361431
216	0x3c9f77be	0.019466277
217	0x3bef8978	0.0073100887
218	0xbc8bd1a6	-0.017067742
219	0x3c8503a1	0.016237082
220	0x3cc5020b	0.024048826
221	0xbd2b9dea	-0.041898645
222	0x3cae758b	0.021296283
223	0x3b5ce3f0	0.0033705197
224	0xbd1ab9e1	-0.037774924
225	0x3c7be6ff	0.015374898
226	0x3c48bcdc	0.012252059
227	0xbcfaa7d7	-0.03059761
228	0x3ccfb752	0.025355969
229	0xbb2ffd78	-0.002685396
230	0x3c315081	0.010822416
231	0xbb0c8c8e	-0.0021446082
232	0x3d174fb0	0.03694123
233	0xbc72ac6e	-0.014811618
234	0x3cb1f578	0.021723494
235	0x3b3253d9	0.0027210622
236	0x3d35fad7	0.044428673
237	0x3c5d056c	0.013490062
238	0xbc9e62f4	-0.019334294
239	0x3b68555e	0.0035451273
240	0x3d680e56	0.056654297
241	0xbb809d25	-0.003924983
242	0x3b8b048b	0.004242485
243	0xbb2b83e0	-0.0026171133
244	0xbb2313ba	-0.0024883584
245	0xbc6189c7	-0.013765759
246	0xbc30a7f9	-0.010782235
247	0xba9727ae	-0.0011532211
248	0x3d691f4a	0.056914605
249	0xbb9bbe9f	-0.0047529484
250	0xbbc7a2d5	-0.006092409
251	0xbc7fbfca	-0.015609691
252	0x3b73cfe6	0.0037202775
253	0xbcb5466c	-0.022128306
254	0xbcd3b03d	-0.025840873
255	0xbd0809aa	-0.03321234

conv_mu.bias f4 [2]
0	0x3cc7f681	0.024409534
1	0x3b6f92d5	0.0036556025

conv_var.weight f4 [2, 128, 1, 1]
0	0xbc0af6a2	-0.008481653
1	0x3cc3f456	0.02392022
2	0xbb3cbbb1	-0.0028798396
3	0x3c4028d5	0.011728485
4	0x3c817fd5	0.015808025
5	0xbbd93ae4	-0.0066293348
6	0xbbc336f5	-0.005957479
7	0xbb0f766c	-0.0021890653
8	0x3b973c1a	0.004615319
9	0x3c570d3b	0.013125713
10	0x3cb4c67d	0.022067303
11	0xbc200fc2	-0.009769382
12	0xbb84a66c	-0.0040481593
13	0xbc6d4241	-0.014481128
14	0x3b8f2995	0.0043689706
15	0x3bdc84e4	0.006729709
16	0x3bb2d153	0.0054570823
17	0xbce05d5d	-0.02738827
18	0xbc94c1f4	-0.01815889
19	0x3c9bce75	0.019019345
20	0xbb0584c9	-0.0020373336
21	0x3bb46efa	0.0055063935
22	0xbce40639	-0.027834998
23	0xba8f6ccd	-0.0010942459
24	0xbc74210e	-0.014900459
25	0xbbb09e22	-0.0053899447
26	0xbd1bf227	-0.03807273
27	0xbaa2c95b	-0.0012419628
28	0xba6cbd7f	-0.00090309227
29	0x3c8ed861	0.017437162
30	0xbc8ab163	-0.016930288
31	0x3c5b1194	0.01337089
32	0x3c89f4e9	0.016840415
33	0x3c44c1cd	0.012009096
34	0x3a9be94b	0.0011895088
35	0xbcff0120	-0.031128466
36	0xbc672257	-0.014107308
37	0xbcc3afe7	-0.023887588
38	0x3bbb861b	0.0057227737
39	0x3cf9c320	0.03048855
40	0xb7c90b11	-2.396622e-05
41	0x3ba4f90c	0.0050345715
42	0xbb28a5c2	-0.0025733565
43	0xbcd04920	-0.025425494
44	0xba1153d4	-0.00055438024
45	0x3c75d029	0.0150032425
46	0x3c478fb7	0.01218026
47	0x3c907601	0.017634394
48	0x39b5310a	0.00034559547
49	0xbbe1c262	-0.0068896273
50	0x3ca9553e	0.02067053
51	0xbc1b8d12	-0.009494083
52	0x3c039975	0.0080321925
53	0x3be74068	0.0070572384
54	0x3cb6f64f	0.022334246
55	0x3ce9d37f	0.028543232
56	0xbcf1e691	-0.029528888
57	0x3bd910eb	0.006624331
58	0x3c249141	0.010044397
59	0x3a9691f3	0.0011487588
60	0x3c2c8611	0.010530011
61	0xbc9e0298	-0.019288346
62	0x3b358e9d	0.0027703412
63	0xbc0235ee	-0.007947428
64	0xbc9e150f	-0.01929715
65	0xbbb5a95b	-0.0055438704
66	0x3ba74d80	0.0051056743
67	0x3b7b61af	0.0038357785
68	0xbbb26e6b	-0.0054452918
69	0xbd07a23f	-0.033113714
70	0xbc441d9a	-0.011969948
71	0x3bc8902e	0.006120703
72	0x3ba5590e	0.0050460165
73	0xbc7252aa	-0.014790216
74	0x39893f5d	0.00026177886
75	0xbcc2ac68	-0.02376385
76	0x3be6bcbe	0.007041543
77	0xbcb00a5c	-0.021489315
78	0x3cbb6133	0.022873497
79	0x3b7dd62d	0.0038732395
80	0xbc9a0781	-0.018802406
81	0x3b0aa3f7	0.002115486
82	0x3c8bec7b	0.017080536
83	0xbd00fb6a	-0.031489767
84	0xbca16296	-0.01970033
85	0xbb845fbe	-0.0040397337
86	0x3c80a6ea	0.01570459
87	0xba2c0a04	-0.0006562772
88	0x3c190a71	0.009340868
89	0xbd0eb3bf	-0.034839388
90	0x3cd72a2f	0.026265232
91	0xbc03f54c	-0.008054089
92	0xbc5ef2ab	-0.013607661
93	0xbcb41a4d	-0.021985197
94	0xbc8c156c	-0.017100058
95	0x3c3d4290	0.011551514
96	0xbb1597e7	-0.0022826137
97	0x3cde0086	0.027099859
98	0x3c33aa31	0.01096587
99	0xbbd8131e	-0.006594076
100	0xbc3e7dae	-0.011626644
101	0x3b85e495	0.004086087
102	0x3c2dd326	0.010609424
103	0xbac63e4d	-0.0015124768
104	0x3b8f431b	0.0043720133
105	0xbc743266	-0.014904594
106	0xbb5f4ecf	-0.0034074073
107	0xbc1b2383	-0.009468916
108	0x3c7dc011	0.015487687
109	0x3bb30bea	0.0054640668
110	0xbc856c4e	-0.016286995
111	0xbc2b63c3	-0.010460797
112	0xbb8704c9	-0.0041204435
113	0xbc99e2f5	-0.01878498
114	0xbce9e68f	-0.028552322
115	0xbc18f1e6	-0.009335017
116	0xbc85a174	-0.016312338
117	0x3ca95f99	0.020675467
118	0x3c88a40d	0.016679788
119	0xbc28e492	-0.010308402
120	0xbca9124f	-0.020638613
121	0x3d14e192	0.036347933
122	0x3aa73043	0.0012755472
123	0xbc7deb3a	-0.015497977
124	0x3ab3b102	0.0013709369
125	0xbb20ed7d	-0.0024555617
126	0x3b6e74d7	0.003638556
127	0xbca5b4dc	-0.020227842
128	0x3b456cd3	0.0030124679
129	0xbc4cdcdf	-0.012503832
130	0x3c649837	0.0139523065
131	0x3c284560	0.010270447
132	0xba8106ed	-0.0009843983
133	0x3baa2dc4	0.005193444
134	0x3af0fc96	0.0018385823
135	0xbc725a6e	-0.014792068
136	0xbbd3f241	-0.006468088
137	0xbc621c39	-0.013800674
138	0xbca0393c	-0.019558541
139	0xbc2e2621	-0.010629208
140	0xbba0a3d3	-0.004902342
141	0x3c1b3d96	0.009475132
142	0xbd1e3e40	-0.038633585
143	0xbc0b47cf	-0.008501007
144	0xbc4ea168	-0.012611724
145	0xbcb76d52	-0.022390995
146	0xbcd08c2c	-0.025457464
147	0x3c51c62d	0.012803596
148	0xbc719387	-0.014744646
149	0x3be9f5a6	0.0071398793
150	0x3a6bd321	0.0008995999
151	0x3cb8edeb	0.022574386
152	0x3b04ee22	0.002028354
153	0x3b9cdadb	0.004786832
154	0x3c3efc1f	0.01165679
155	0xbb7173b3	-0.0036842644
156	0x3d48400f	0.048889216
157	0xbb080b24	-0.0020758593
158	0x3c801d14	0.015638866
159	0x3d054fb5	0.032546718
160	0x3c2713e5	0.010197614
161	0x3c4e8dcd	0.01260705
162	0x3bd42b17	0.0064748633
163	0x3cc5eef6	0.024161797
164	0x3bc6b420	0.006063953
165	0xbc0194f2	-0.0079090465
166	0xbb07f781	-0.002074689
167	0xbb22e46f	-0.0024855395
168	0x3cbaf726	0.022822928
169	0xbc8b3383	-0.016992336
170	0xbccb724d	-0.024834776
171	0xbca0b82f	-0.019619076
172	0x3ba119cc	0.0049164053
173	0x3c524b7e	0.012835382
174	0xbce3d16a	-0.027809817
175	0x3b02d928	0.001996586
176	0xbc844089	-0.016144054
177	0x3c564411	0.013077752
178	0xbc888ee5	-0.0166697
179	0xbc64a1fe	-0.013954638
180	0x3bdc01c5	0.006714078
181	0xbca9bd21	-0.020720067
182	0x3c05796c	0.008146625
183	0x3ce282c8	0.027650252
184	0xba9a5cf3	-0.0011776969
185	0x3b8ae740	0.004238993
186	0x3c50c0da	0.012741292
187	0x3c7c3902	0.015394451
188	0x3b6f3a49	0.0036503247
189	0x3a6c533d	0.0009015089
190	0xbb1c7aaf	-0.0023876836
191	0x3ab66a58	0.0013917191
192	0x3ca4181f	0.020031033
193	0x3cb306bb	0.021853795
194	0xbb4764b4	-0.0030425014
195	0xbce3a125	-0.0277868
196	0xb9c7bb68	-0.00038095866
197	0x3c83b0d3	0.016075527
198	0xbc4d4119	-0.0125277275
199	0xbad747ae	-0.001642456
200	0xbcfc33b6	-0.030786376
201	0xbccf3cf0	-0.025297612
202	0xbbca4cc3	-0.0061737015
203	0xbd0af9c6	-0.03392961
204	0x3b53132a	0.0032207468
205	0x3cb2bd19	0.021818684
206	0xbbc45e19	-0.0059926626
207	0xbcff1efd	-0.031142706
208	0xbae246e7	-0.0017263562
209	0x3d04b811	0.032402102
210	0x3a3741ab	0.0006990681
211	0x3cccf291	0.025018008
212	0x3c9f3251	0.019433172
213	0x3c7b1178	0.015323989
214	0x3d042790	0.032264292
215	0xbcc86057	-0.02446
216	0x3c0bf5f1	0.008542524
217	0xbc880745	-0.016605029
218	0x3a953df7	0.0011386265
219	0x3c57ac91	0.013163702
220	0x3c9f9c4c	0.019483708
221	0xbb24b270	-0.002513077
222	0xbd228b7c	-0.039683804
223	0x3c17a7ab	0.009256284
224	0xbcf533ad	-0.029931867
225	0xbc6fdbe0	-0.014639825
226	0x3ca2c1da	0.019867826
227	0xbb907e82	-0.004409612
228	0xbbee8ff9	-0.0072803465
229	0xbc4f565f	-0.01265487
230	0x3c17384f	0.009229734
231	0xbb165c8a	-0.0022943341
232	0x3c492cda	0.01227876
233	0x3d3ee40c	0.0466042
234	0xbc39d76d	-0.011342865
235	0xbbb632a1	-0.0055602347
236	0x3b5d5c5f	0.0033776981
237	0x3c74d996	0.014944455
238	0xbc836098	-0.01603727
239	0x3ae074e3	0.0017124679
240	0x3c6ee7db	0.014581646
241	0x3c098b9c	0.008395102
242	0x3c8b1ca9	0.01698144
243	0xbc812268	-0.015763476
244	0x3c795826	0.01521877
245	0xbc3137a5	-0.010816489
246	0x3c3c122b	0.011478941
247	0x371edb55	9.468601e-06
248	0x3bd8e1c3	0.00661871
249	0xbc7b307a	-0.015331382
250	0x3d0dea87	0.03464749
251	0x3be72353	0.0070537715
252	0xbc46cf60	-0.012134403
253	0x3c9da345	0.019242892
254	0xbc14bcd9	-0.009078228
255	0x3b4e4cd1	0.0031478892

conv_var.bias f4 [2]
0	0xbe64ecff	-0.22356032
1	0xbf163a76	-0.58682954
