NCTU2/CPU_version/DeepConvNet/DeepConvNet_ReLU.pt (torch_old, 612237 bytes, 28 tensors)

FirstConv.0.weight f4 [25, 1, 1, 5]
0	0x3e87fcd5	0.26560083
1	0xbe972912	-0.29523522
2	0xbed88d7f	-0.42295453
3	0xbdd47d78	-0.10375494
4	0xbf000b3e	-0.50017154
5	0xbe75a4f0	-0.239887
6	0x3d9efd5f	0.077631705
7	0xbe833ec6	-0.2563383
8	0xbed1c412	-0.40969902
9	0xbe7d2fea	-0.24725309
10	0x3e1b8c36	0.15190205
11	0xbd0e937e	-0.03480863
12	0xbdaa154c	-0.08304843
13	0xbea83185	-0.3285028
14	0xbef48d12	-0.47763878
15	0x3eaee195	0.3415648
16	0x3d28dcc4	0.041226164
17	0x3e4ba257	0.19886146
18	0x3ee0019b	0.43751225
19	0x3eeebb9a	0.46627504
20	0xbe7b42f2	-0.24537256
21	0x3e924313	0.285668
22	0xbe2f1b8b	-0.1710035
23	0xbeaef0ad	-0.34167996
24	0xbd0ff597	-0.035146322
25	0x3d8d5e6d	0.06902776
26	0xbc8332bf	-0.016015409
27	0xbdecc727	-0.11561423
28	0xbe4a252f	-0.19740747
29	0xbea985f9	-0.33110026
30	0xbd685ea0	-0.056730866
31	0xbec66c07	-0.38754293
32	0xbed8375e	-0.42229742
33	0x3e496ae8	0.19669688
34	0xbe80ecc3	-0.25180635
35	0x3dbf058e	0.09327231
36	0x3ec072cd	0.37587586
37	0x3ea780aa	0.3271535
38	0xbecada3f	-0.39619634
39	0x3e89162c	0.26774728
40	0xbeb0e8a9	-0.34552506
41	0xbe878cd7	-0.2647464
42	0xbc63fe6f	-0.013915642
43	0xbcad4ac1	-0.02115381
44	0xbe588c87	-0.21147357
45	0x3e643f71	0.22289826
46	0x3e348510	0.17628884
47	0xbe086332	-0.1331909
48	0xbdf887ab	-0.121352516
49	0x3e2e891c	0.1704449
50	0xbe81bc2d	-0.2533888
51	0x3e3163f1	0.17323281
52	0xbde6c89a	-0.112687305
53	0x3d827be4	0.063712865
54	0xbed5505e	-0.41662878
55	0xbed94441	-0.42434886
56	0xbe8068ee	-0.25080055
57	0xbe073e3c	-0.13207334
58	0xbddf9d2d	-0.10918651
59	0x3e63b991	0.22238757
60	0x3d54164b	0.051779073
61	0xbea67fb5	-0.32519308
62	0xbe668739	-0.22512521
63	0x3d302e07	0.043012645
64	0xbc9a7f52	-0.01885954
65	0xbe04360f	-0.12911247
66	0xbd94fcad	-0.072747566
67	0x3eea5d90	0.45774508
68	0x3e3195ca	0.17342296
69	0x3e36810d	0.17822666
70	0xbea84c33	-0.32870635
71	0xbe684535	-0.2268265
72	0x3de111b8	0.10989708
73	0xbdd36e93	-0.10323825
74	0x3e062ad6	0.13102278
75	0xbe617609	-0.22017683
76	0xbe4432ac	-0.19159955
77	0xbe9b66b6	-0.303518
78	0x3cd72532	0.026262853
79	0xbc135646	-0.008992737
80	0x3dd23e98	0.10265845
81	0xbe9519d1	-0.2912126
82	0x3e8dddb1	0.277082
83	0x3d561fee	0.052276544
84	0xbebe73ab	-0.37197623
85	0x3ea0eae4	0.31429207
86	0x3e8e00ab	0.27734885
87	0x3ecd75aa	0.40128833
88	0x3e8bb091	0.27283147
89	0x3da42511	0.08014882
90	0x3e2fddf2	0.17174509
91	0xbeda61ac	-0.42652643
92	0x3ecb65a4	0.39725983
93	0xbe46314c	-0.19354743
94	0x3e0a9987	0.13535129
95	0xbc87aaca	-0.01656093
96	0xbe827ac0	-0.25484276
97	0xbdf73024	-0.12069729
98	0x3e1b97ff	0.151947
99	0x3d3e127c	0.046404347
100	0x3e6d1b2a	0.23154894
101	0xbd9e7e01	-0.07738877
102	0x3e3d2593	0.18471365
103	0xbedc27a7	-0.42999002
104	0xbebc128a	-0.36732894
105	0xbe61f4ed	-0.22066088
106	0xbcb5239b	-0.022111705
107	0xbb690cf5	-0.0035560702
108	0xbeda04d8	-0.4258182
109	0xbeea00d9	-0.45703772
110	0xbec6563c	-0.38737667
111	0x3dc89875	0.09794704
112	0x3ea2caaf	0.3179526
113	0xbe7fdd95	-0.2498687
114	0xbc962b89	-0.018331306
115	0x3e872002	0.26391608
116	0x3dcfb30e	0.10141574
117	0xbea960fb	-0.33081803
118	0xbeb8b328	-0.36074185
119	0x3d5e73a1	0.05430949
120	0xbe8dc72d	-0.27691022
121	0xbd0b64ca	-0.034031667
122	0x3e0f59dd	0.13999124
123	0xbcecd642	-0.02891076
124	0xbc566e62	-0.013087841

FirstConv.0.bias f4 [25]
0	0x3e247193	0.1605895
1	0xbebfb6a8	-0.37444043
2	0xbca29551	-0.01984659
3	0x3d996619	0.07490177
4	0x3a8db558	0.0010811491
5	0xbd66ba73	-0.056330156
6	0x3e32b68c	0.17452449
7	0x3df4ecd7	0.11959236
8	0x3ed77766	0.4208328
9	0xbe3a9ec8	-0.18224633
10	0xbe173d38	-0.14769447
11	0xbe94a106	-0.290291
12	0xbeaa4ea5	-0.33263126
13	0x3e920f2f	0.2852721
14	0xbec9f3c4	-0.3944379
15	0x3e7832d5	0.24238141
16	0x3e650efd	0.22368999
17	0xbc9b29ca	-0.018940825
18	0xbe9003c6	-0.2812788
19	0x3ec92567	0.39286348
20	0xbeb4be37	-0.35301372
21	0xbe027402	-0.12739566
22	0x3ebdc211	0.37062123
23	0x3caf9991	0.02143553
24	0xbe86daba	-0.2633875

FirstConv.1.weight f4 [25, 25, 2, 1]
0	0xbc2278e3	-0.009916517
1	0x3c8a879d	0.016910369
2	0x3d89eca1	0.067345865
3	0xbe24eded	-0.16106386
4	0xbdf6ae4a	-0.12044962
5	0xbe20a3c2	-0.15687469
6	0xbdb655ed	-0.08903108
7	0x3dc6064e	0.09669171
8	0xbdc9a7eb	-0.09846481
9	0xbd94fcbe	-0.07274769
10	0xbd4ed2b0	-0.050493896
11	0xbdade11b	-0.08490201
12	0xbd995a39	-0.07487912
13	0xbda327aa	-0.0796655
14	0xbd3063b3	-0.04306383
15	0xbdd0ce12	-0.10195555
16	0xbd03436a	-0.032046713
17	0xbcea7df3	-0.02862451
18	0x3cff230f	0.031144647
19	0x3e0a889f	0.1352868
20	0x3d42cc88	0.047558337
21	0x3da5b384	0.080908805
22	0x3e177cd1	0.14793707
23	0xbd50aac3	-0.0509441
24	0xbdb55672	-0.08854379
25	0x3cf6a472	0.03010771
26	0xbcdb21b2	-0.026749466
27	0x3dccf9bb	0.1000857
28	0x3dd1d756	0.1024615
29	0x3d81e21c	0.06341955
30	0x3d6912d1	0.05690271
31	0xbdb055f2	-0.08610143
32	0x3def0adc	0.11671993
33	0x3cf85dd9	0.030318188
34	0xbc4ca16c	-0.012489658
35	0x3d9c37f1	0.076278575
36	0x3ded4913	0.115862034
37	0x3d9cb513	0.07651725
38	0x3dc612ba	0.096715406
39	0xbdd20249	-0.10254342
40	0xbc9378d6	-0.018001955
41	0xbc1fa752	-0.009744482
42	0x3d1b0435	0.03784581
43	0xbe47c869	-0.19510044
44	0x3d047815	0.03234108
45	0xbe29099c	-0.16507572
46	0x3aaae612	0.0013038537
47	0xbdf7d29e	-0.12100719
48	0x3da81957	0.08207958
49	0xbcb0a2e7	-0.021562053
50	0x3cbc0925	0.02295358
51	0xbd32eb55	-0.04368146
52	0x3c13265a	0.008981312
53	0x3e1969af	0.14981721
54	0x3d231156	0.039811455
55	0x3e088e63	0.13335566
56	0xbdbd0b26	-0.09230642
57	0xbd9eedf2	-0.07760228
58	0xbdeb636a	-0.11493571
59	0x3ddc4269	0.10754854
60	0xbd49e6d9	-0.04929242
61	0x3e3c7e2f	0.1840751
62	0x3d73c57b	0.059514504
63	0x3c998562	0.01874036
64	0x3e12ffef	0.14355443
65	0xbe29728e	-0.16547605
66	0x3d075d94	0.033048227
67	0x3d46f4a2	0.048573144
68	0xbcf13a5e	-0.029446777
69	0xbe37599b	-0.17905276
70	0xbc618608	-0.013764866
71	0xbc636f4b	-0.013881515
72	0xbe3b5840	-0.18295383
73	0x3df6d1dd	0.12051747
74	0xbd989395	-0.07450024
75	0xbdedc679	-0.11610121
76	0x3d058b66	0.032603644
77	0x3d4fe946	0.050759576
78	0xbd6ab991	-0.057305876
79	0xbd3732bd	-0.044726122
80	0xbcb10e30	-0.02161321
81	0x3ca68a08	0.02032949
82	0xbdeec2a3	-0.11658218
83	0x3d7f8572	0.062383123
84	0x3cfdbe9d	0.03097468
85	0xbdb26f81	-0.08712674
86	0xbd3acc49	-0.045604978
87	0xbe626a55	-0.22110875
88	0xbe153929	-0.14572586
89	0x3da060cc	0.078309625
90	0xbd38fcc2	-0.045162924
91	0x3e3ba1e0	0.18323469
92	0xbdd1ebf0	-0.1025008
93	0x3de5746f	0.112038486
94	0xbb1e2e42	-0.0024136459
95	0x3da79917	0.081834964
96	0x3cb45f77	0.022018177
97	0xbc98776b	-0.01861163
98	0xbe55f682	-0.20894817
99	0x3deb002f	0.114746444
100	0x3c6effca	0.014587352
101	0xbe35b261	-0.17743827
102	0xbbb7d5f3	-0.0056102215
103	0xbe1e7097	-0.15472637
104	0xbd410809	-0.047126804
105	0x3b97fd8c	0.0046383794
106	0xbc988a48	-0.018620625
107	0x3e0fee4c	0.14055747
108	0xbd4634a8	-0.04839006
109	0xbbb391dd	-0.0054800347
110	0xbcc81b1f	-0.024426995
111	0xbe5f0e27	-0.21782742
112	0xbe4533a3	-0.19257979
113	0xbd0d8c81	-0.034557823
114	0x3e314370	0.17310882
115	0x3e48e175	0.19617255
116	0xbe2d157e	-0.1690273
117	0xbd077653	-0.033071827
118	0x3d2ad5c5	0.041707773
119	0x3e18ee20	0.14934587
120	0xbd07b0ca	-0.033127584
121	0xbe1b6fc6	-0.15179357
122	0xbe13d3ed	-0.14436312
123	0xbdc863d0	-0.09784663
124	0xbde51a29	-0.1118663
125	0xbd84a032	-0.06475867
126	0x3e31774f	0.17330669
127	0x3e2b897f	0.1675167
128	0xbd7cf103	-0.061753284
129	0x3a6b0788	0.0008965661
130	0xbda9f36b	-0.082983814
131	0xbe026f8c	-0.12737864
132	0xbe2276ea	-0.15865675
133	0xbd0287cc	-0.031867787
134	0xba7872e6	-0.00094775704
135	0xbd028778	-0.031867474
136	0x3e27ef3a	0.16399851
137	0x3e550aac	0.20804852
138	0xbddd649e	-0.10810207
139	0x3ca41069	0.020027356
140	0xbd4cc8ea	-0.049996294
141	0xbcfeb49a	-0.031091977
142	0x3c08f6f1	0.008359657
143	0xbd4ba047	-0.0497134
144	0x3d68945a	0.056782104
145	0xbe02398e	-0.12717268
146	0x3d53777b	0.051627617
147	0x3ccc8d29	0.024969654
148	0xbe0d7b97	-0.13816677
149	0xbd07ea2b	-0.033182304
150	0x3d961c7c	0.07329652
151	0x3e28b9ec	0.16477174
152	0xbe2de576	-0.16982064
153	0x3d78cf00	0.060744286
154	0xbd2880d9	-0.041138504
155	0x3e54e38c	0.20789927
156	0x3e2108fe	0.15726086
157	0xbe2acb00	-0.16679001
158	0x3d1091c3	0.03529526
159	0x3e48abb7	0.19596754
160	0x3d8b1990	0.06791985
161	0x3c64463e	0.013932763
162	0x3a292f10	0.0006453851
163	0x3e04830c	0.12940615
164	0xbda325fd	-0.0796623
165	0xbd74c7fb	-0.05976103
166	0xbe11ef59	-0.1425146
167	0x3e1e2af7	0.15446077
168	0xbdaee7a1	-0.085402735
169	0xbba69af9	-0.005084392
170	0xbd01ee68	-0.031721503
171	0x3d9355dd	0.071941115
172	0xbe2b668f	-0.16738342
173	0x3e16cdc4	0.14726931
174	0xbcad9bb4	-0.02119241
175	0xbdae3dcc	-0.085078806
176	0xbc7869a4	-0.015161905
177	0x3d2fbf8e	0.04290729
178	0x3c2e1832	0.010625886
179	0xbc9e3a56	-0.019314926
180	0xbd41f452	-0.047352143
181	0x3e2b5398	0.16731107
182	0xbd9af80d	-0.07566843
183	0xbd07aabf	-0.03312182
184	0xbd4cfa5c	-0.05004345
185	0x3cf11206	0.02942754
186	0x3e6aa0a4	0.22912842
187	0xbe560447	-0.20900069
188	0xbe32d026	-0.17462215
189	0x3e27bba0	0.16380167
190	0xbc26ea5e	-0.010187713
191	0xbd13de76	-0.036100827
192	0xbd844276	-0.06457989
193	0xbc0333fa	-0.008007998
194	0xbdc93918	-0.09825343
195	0xbc7ab2bd	-0.015301404
196	0xbcb427d1	-0.021991642
197	0xbd6e1f11	-0.058135096
198	0xbe127a2f	-0.14304422
199	0x3e05bb85	0.13059814
200	0xbdd25776	-0.10270588
201	0x3e0ef2fb	0.13959877
202	0x3c814a04	0.015782364
203	0x3d9d1ff5	0.07672111
204	0xbcf8680b	-0.030323049
205	0x3e767bc0	0.24070644
206	0xbdeefbcd	-0.11669121
207	0xbe6a3119	-0.22870292
208	0x3dd7e216	0.10541169
209	0x3e2e1498	0.17000043
210	0x3c6b8636	0.01437526
211	0x3e0961fe	0.13416287
212	0x3de10ad0	0.109883904
213	0x3b393fca	0.002826678
214	0x3e048101	0.12939836
215	0xbc72432f	-0.014786526
216	0x3d3486a3	0.044073712
217	0x3e1e6326	0.1546751
218	0xbcd05dc2	-0.025435332
219	0x3c4679ab	0.012113969
220	0xbdea68c4	-0.11445764
221	0x3e71514b	0.23566167
222	0x3d91a745	0.07111982
223	0xbd6a04f5	-0.057133634
224	0xbdc681b0	-0.09692705
225	0x3e4f6c73	0.20256214
226	0x3cd2514a	0.025673527
227	0xbd9d5aa8	-0.07683307
228	0xbe0215c9	-0.12703623
229	0xbd5ae9dc	-0.053445682
230	0xbc7986c8	-0.015229888
231	0x3e3585a0	0.17726755
232	0xbdb53410	-0.08847821
233	0x3d951383	0.07279112
234	0x3ded237b	0.11579033
235	0xbe4ba49f	-0.19887017
236	0x3cd9aae9	0.026570754
237	0x3ca8066f	0.02051088
238	0x3d2f7279	0.04283378
239	0x3e1c1e47	0.15245925
240	0x3d51b064	0.05119361
241	0xbd5b059a	-0.05347214
242	0xbdca9191	-0.09891046
243	0x3d1a8450	0.03772384
244	0x3d8ab298	0.06772345
245	0xbc5c3ce8	-0.013442256
246	0x3e17124f	0.14753078
247	0x3db0957f	0.08622264
248	0xbdf113c7	-0.1177135
249	0xb984c77c	-0.0002532563
250	0xbe079803	-0.13241582
251	0x3e79a554	0.24379474
252	0xbe230151	-0.15918471
253	0xbdd05e3c	-0.10174224
254	0x3d6c66a5	0.057715077
255	0x3ddafbbb	0.10692545

FirstConv.1.bias f4 [25]
0	0x3d770c7e	0.060314648
1	0x3dffc9ac	0.12489638
2	0x3d899ace	0.0671898
3	0xbddb42d7	-0.10706108
4	0xbddbc63d	-0.1073117
5	0x3dc45843	0.09587147
6	0x3c1eb349	0.0096863
7	0xbd8607b3	-0.06544437
8	0xbd86cce0	-0.065820456
9	0xbd9f8d43	-0.077906154
10	0x3d489acc	0.04897575
11	0xbddccecb	-0.1078163
12	0xbdbc0bd0	-0.091819406
13	0xbe07c729	-0.13259567
14	0xbce3cb33	-0.027806854
15	0x3cb2ac15	0.02181057
16	0xbddbad52	-0.107264176
17	0xbd9c800e	-0.07641612
18	0xbde2bb27	-0.11070853
19	0x3de937f9	0.11387629
20	0x3d92bed7	0.07165306
21	0x3c8cf608	0.01720716
22	0xbe25f8d1	-0.16208197
23	0xbd2bcc12	-0.041942663
24	0xbc787020	-0.015163451

FirstConv.2.weight f4 [25]
0	0x3f34a64c	0.7056625
1	0x3f1646bd	0.5870169
2	0x3f1edaeb	0.6205279
3	0x3e8f9137	0.28040478
4	0x3f59a5e8	0.8501878
5	0x3f506ad0	0.8141298
6	0x3f774a48	0.9659772
7	0x3eb31c71	0.34982637
8	0x3e83bbde	0.2572927
9	0xbcfb28e8	-0.030659154
10	0x3f28399f	0.6571292
11	0x3f5e80f4	0.86915517
12	0x3e7866ca	0.24257961
13	0x3f17fd28	0.5937066
14	0xbd23ca5b	-0.039987903
15	0x3f6e69eb	0.9313037
16	0x3db8f26c	0.09030613
17	0x3e48eba9	0.19621147
18	0x3ef070e6	0.46961135
19	0x3edd2ed0	0.43199778
20	0x3ee0e7bd	0.43926802
21	0x3f5b46a1	0.85654646
22	0x3f4a73e0	0.7908306
23	0x3f3d3bad	0.73919183
24	0x3f30eebe	0.6911429

FirstConv.2.bias f4 [25]
0	0xbdcf398a	-0.101183966
1	0xbd16a5ae	-0.0367791
2	0xbd8c7805	-0.068588294
3	0x3c14bb55	0.009077867
4	0xbd96fd7e	-0.073725685
5	0xbd9c20c5	-0.07623438
6	0xbc232f92	-0.009960072
7	0xbdce510b	-0.100740515
8	0xbd870033	-0.06591835
9	0xbdc85b19	-0.097830005
10	0xbcd22078	-0.025650248
11	0xbdb14965	-0.08656577
12	0x3b69f445	0.0035698575
13	0xbd753d7f	-0.0598731
14	0xbdb4cb03	-0.08827784
15	0xbd856883	-0.06514075
16	0xbdae7f65	-0.08520392
17	0xbdcda033	-0.10040321
18	0xbdd2e371	-0.10297287
19	0xbd824604	-0.06361011
20	0xbce9b0cd	-0.028526688
21	0xbcafdf23	-0.021468705
22	0xbda04da2	-0.07827307
23	0xbdadfe2c	-0.08495745
24	0xbdc54630	-0.09632528

FirstConv.2.running_mean f4 [25]
0	0xbe286769	-0.16445698
1	0x3ea09390	0.3136258
2	0x3d154d97	0.03645095
3	0x3cc1a423	0.023637837
4	0x3e26788e	0.16256925
5	0x3e0788d3	0.13235788
6	0x3ca255d1	0.019816311
7	0x3daedf7a	0.085387185
8	0xbe300e29	-0.17192902
9	0xbe18033a	-0.14844981
10	0x3d992a83	0.074788116
11	0xbeadeeeb	-0.33971342
12	0x3db58600	0.08863449
13	0xbda935c6	-0.082622096
14	0xbda9658f	-0.08271324
15	0xbd197f80	-0.03747511
16	0x3da5b29b	0.08090707
17	0x3d90c62e	0.0706905
18	0xbe93a119	-0.28833845
19	0x3e8cf2a4	0.2752887
20	0x3e02fea8	0.12792456
21	0x3d400740	0.046881914
22	0xbdf6f9b3	-0.12059345
23	0xbb02761a	-0.001990682
24	0xbd6f3591	-0.058400694

FirstConv.2.running_var f4 [25]
0	0x41bb88a5	23.441721
1	0x41b3ab45	22.458628
2	0x42f194cf	120.79064
3	0x419bda50	19.481598
4	0x42832a63	65.58279
5	0x41fd4cc6	31.662487
6	0x426f0d0d	59.762745
7	0x4207e63e	33.974846
8	0x420e075a	35.50718
9	0x42074d74	33.825638
10	0x41af788f	21.933867
11	0x42cb7e9d	101.74729
12	0x424bafdb	50.921734
13	0x420ee56f	35.724056
14	0x4263b92f	56.930843
15	0x428d40c8	70.626526
16	0x41d0bc45	26.091928
17	0x428fe9fa	71.956985
18	0x42d1a2c4	104.8179
19	0x4282fff4	65.49991
20	0x4287f882	67.98537
21	0x41ee55e2	29.791935
22	0x41d59079	26.695543
23	0x4174b74f	15.294753
24	0x41f020d2	30.016026

SecondConv.0.weight f4 [50, 25, 1, 5]
0	0x3d1f21b5	0.038850505
1	0x3d648712	0.055792876
2	0x3d9ee137	0.077578
3	0x3dcc2bb2	0.09969272
4	0x3c5a57dd	0.013326612
5	0x3d8c270b	0.06843384
6	0x3dbf1f4c	0.09332141
7	0x3d91024a	0.07080515
8	0x3ce91e92	0.02845696
9	0x3dda27ed	0.106521465
10	0xbd84d4f1	-0.06485928
11	0xbd84cdfa	-0.064845994
12	0xbd64c3c3	-0.055850755
13	0xbcfe1554	-0.03101603
14	0x3de0aff2	0.10971059
15	0x3d97fede	0.07421659
16	0x3da4d045	0.08047537
17	0x3d293839	0.041313384
18	0xbcc3bd40	-0.023893952
19	0x3d0d9cbc	0.0345733
20	0xbbe90d37	-0.007112171
21	0x3df26d8a	0.11837299
22	0x3c94084e	0.018070366
23	0x3c81d5fc	0.015849106
24	0x3e246f8a	0.16058174
25	0xbd139c48	-0.036037713
26	0x3cb8d802	0.022563938
27	0x3d785c39	0.060634825
28	0xbcc5c840	-0.024143338
29	0xbcb19147	-0.021675719
30	0x3d2900da	0.041260578
31	0x3dc2fb2d	0.09520564
32	0x3e292427	0.16517697
33	0x3caa59c0	0.02079475
34	0x3d12eaba	0.035868384
35	0xbd43d08c	-0.047806308
36	0x3cd491c4	0.025948413
37	0x3dc511c2	0.09622528
38	0x3d306a3f	0.043070074
39	0x3e06129c	0.13093036
40	0x3da9090e	0.0825368
41	0x3d7385d0	0.059453785
42	0x3db507b9	0.088393636
43	0x3e0657e0	0.13119459
44	0x3dedcc29	0.11611206
45	0x3da1a296	0.07892339
46	0x3df422e8	0.1192072
47	0x3d805272	0.06265725
48	0x3b30c9f5	0.0026975845
49	0x3a4c73d6	0.00077992433
50	0x3e0cb809	0.13742079
51	0x3dacb057	0.08432072
52	0x3e08108d	0.13287564
53	0x3d29a815	0.04142006
54	0x3d88c4b5	0.06678144
55	0x3dd95b4c	0.106131166
56	0x3ddcf31c	0.10788557
57	0x3df0d92f	0.117601745
58	0x3e064e26	0.13115749
59	0x3d741806	0.059593223
60	0xbb8cb698	-0.004294228
61	0x3e13ff47	0.1445285
62	0x3dcbb40a	0.09946449
63	0x3e07e643	0.13271432
64	0x3e08cedf	0.13360165
65	0x3db45095	0.08804432
66	0x3c7ad66f	0.015309914
67	0x3d5bd84d	0.053673077
68	0x3d54aef0	0.051924646
69	0xbc53f2d8	-0.012936316
70	0x3d95bbe7	0.0731123
71	0x3d68374e	0.056693368
72	0x3d8b2633	0.06794395
73	0xbb85ceb9	-0.004083481
74	0x3d4560d7	0.048188057
75	0x3dd48999	0.10377807
76	0x3db741fc	0.089481324
77	0x3e2a41ed	0.16626711
78	0x3d920daa	0.071315125
79	0x3e1e19d0	0.15439534
80	0x3e1a7c01	0.15086366
81	0xbd172e89	-0.036909614
82	0x3d040824	0.032234326
83	0x3cbb10ae	0.022835102
84	0x3d1626a3	0.03665794
85	0x3da2cfa8	0.079497635
86	0x3d2c329c	0.042040452
87	0x3d4f3e8e	0.050596766
88	0x3e284996	0.16434321
89	0x3da7442c	0.081673
90	0x3dff7daf	0.12475144
91	0xbc9946f1	-0.018710585
92	0x3e10cdb3	0.14140968
93	0x3d6f8c71	0.058483545
94	0x3d8c0fb8	0.068389356
95	0x3d6bc4d1	0.057560746
96	0xbd43150e	-0.0476275
97	0xbd2080fd	-0.039185513
98	0xbd629f9c	-0.055327997
99	0x3cc84d0c	0.024450801
100	0x3e3a40ab	0.18188731
101	0x3e19d38c	0.15022105
102	0x3e0f2649	0.13979448
103	0x3de12a45	0.109943904
104	0x3d221548	0.039571077
105	0x3dd35b94	0.103202015
106	0x3d43ddf3	0.04781909
107	0x3da1d909	0.07902724
108	0x3dd90a31	0.10597647
109	0x3d8ff889	0.07029826
110	0x3cb44776	0.022006731
111	0xbc461846	-0.012090748
112	0x3d204d41	0.039136175
113	0x3ddb3b80	0.10704708
114	0xbcd75aa7	-0.026288344
115	0x3d880c86	0.06643014
116	0x3df98c91	0.12185014
117	0xbd040d3d	-0.032239188
118	0x3dd0bd0d	0.101923086
119	0x3dbfc179	0.09363074
120	0x3e06c828	0.13162291
121	0x3dce3e45	0.10070471
122	0x3ce3b89b	0.027797988
123	0x3c5518c6	0.013006395
124	0xbd0a43fd	-0.033756245
125	0xbd16aeaa	-0.036787666
126	0xbce54f41	-0.027991893
127	0xbcabc20c	-0.020966552
128	0xbe443231	-0.19159772
129	0xbccaf51d	-0.024775082
130	0xbc814bbb	-0.015783181
131	0xbb74379e	-0.0037264596
132	0x3de35f9c	0.111022204
133	0x3d920eff	0.071317665
134	0x3dede946	0.11616759
135	0xbdd6b115	-0.104829945
136	0x3c9c429f	0.019074736
137	0xbd51be98	-0.051207155
138	0xbd95bb27	-0.07311087
139	0xbc85f08a	-0.01635005
140	0x3d104546	0.035222314
141	0x3e1f175b	0.15536253
142	0x3e08508f	0.1331198
143	0x3d0173b9	0.031604502
144	0xbd4fed38	-0.05076334
145	0xbd31b476	-0.04338499
146	0x3d20f0a0	0.039291978
147	0x3d107819	0.035270784
148	0xbac96d0e	-0.0015367584
149	0x3da715f7	0.08158486
150	0xbdc60585	-0.096690215
151	0xbd66d93e	-0.056359522
152	0x3db1feb1	0.08691157
153	0xbcc03725	-0.023463795
154	0x3c919643	0.017771846
155	0x3ca56095	0.020187655
156	0x3e16fdd9	0.14745273
157	0x3e4a258d	0.19740887
158	0x3e256f92	0.16155842
159	0x3de286e9	0.11060888
160	0xbd68358b	-0.056691688
161	0xbd6d8ff2	-0.057998605
162	0x3cf8167e	0.030284163
163	0xbd94c59b	-0.07264253
164	0x3cf3dc22	0.029768053
165	0x3c4f52dd	0.0126540335
166	0xbc3341a7	-0.010940946
167	0x3dd91101	0.10598946
168	0x3dc60d9e	0.09670566
169	0xbd3bc2a3	-0.045839917
170	0x3e0b1f9d	0.13586278
171	0xbc8db068	-0.017296031
172	0xbc813cd7	-0.015776081
173	0xbdab51c6	-0.083652064
174	0x3db464c5	0.08808283
175	0x3dfe00c1	0.124024875
176	0x3e47eec2	0.19524673
177	0x3e525f12	0.20544079
178	0x3d2b37a5	0.041801114
179	0x3cf66bb5	0.030080656
180	0xbc73821e	-0.014862565
181	0x3c89ecc5	0.016836533
182	0x3d2bd7f3	0.041953992
183	0xbb39fd68	-0.0028379802
184	0x3cbf564f	0.023356585
185	0x3d18cebf	0.037306543
186	0x3e0bd9e4	0.13657337
187	0xbc0ddc3f	-0.008658468
188	0x3e17ee69	0.1483704
189	0x3e14f942	0.1454821
190	0x3dba14ed	0.090860225
191	0x3d6089ee	0.05481904
192	0xbb8627bb	-0.0040940917
193	0x3cf17a8b	0.029477378
194	0xbd0b230a	-0.033968963
195	0xbd9e36f3	-0.077253245
196	0x3e103aa7	0.14084874
197	0xbc9d5c3b	-0.019209018
198	0x3cbbc227	0.022919727
199	0xbcdc7b7f	-0.026914356
200	0x3bd77ede	0.006576403
201	0x3e33edf8	0.17571247
202	0x3da63710	0.08115971
203	0x3daa85aa	0.08326276
204	0x3dd585fe	0.104259476
205	0x3e263113	0.16229658
206	0x3d247778	0.040152997
207	0xbcf88969	-0.03033896
208	0xbd1de2d7	-0.03854641
209	0xbdc458ce	-0.09587251
210	0x3d64c085	0.055847663
211	0x3d0647f2	0.032783456
212	0x3da7458c	0.08167562
213	0x3d7bd400	0.061481476
214	0x3ba7083e	0.005097418
215	0x3ded0f16	0.11575143
216	0xbe257c7e	-0.16160771
217	0x3c99cea1	0.018775286
218	0x3deed0c2	0.11660911
219	0xbc895e80	-0.016768694
220	0x3c752252	0.014961796
221	0x3ce5ecf8	0.028067097
222	0x3da7b013	0.0818788
223	0xbc46d39b	-0.012135412
224	0xbd1f28af	-0.03885716
225	0x3dd9aa10	0.1062814
226	0x3df4ea6a	0.119587734
227	0x3de89435	0.11356393
228	0x3d273ab6	0.040827475
229	0x3e1abf63	0.1511207
230	0x3da258ef	0.07927119
231	0xbd3246be	-0.043524496
232	0x3da91093	0.082551144
233	0x3d4ec1b7	0.05047771
234	0x3d88c205	0.06677631
235	0x3db1eda3	0.08687904
236	0x3da2b8c7	0.079454
237	0xbcf733a4	-0.030175991
238	0x3ce5020f	0.027955083
239	0xbc921f5a	-0.017837215
240	0xbe08bf69	-0.13354267
241	0x3bfd56f7	0.0077313143
242	0xbdad6c22	-0.0846789
243	0xbd6a73a7	-0.0572392
244	0x3de0134c	0.109411806
245	0x3dffe6a4	0.12495163
246	0x3dcb72fa	0.099340394
247	0xbdafd49d	-0.08585475
248	0xbdbb4678	-0.091443
249	0x3dc5327e	0.09628771
250	0x3c570961	0.013124795
251	0x3c8279ec	0.015927278
252	0x3da8e9c5	0.08247713
253	0x3d1ae25c	0.03781353
254	0xbcd2a015	-0.025711099
255	0x3cad2fb7	0.021140916

SecondConv.0.bias f4 [50]
0	0xbc68daf9	-0.014212363
1	0x3bff4633	0.007790351
2	0xbcc0aef1	-0.023520919
3	0xbba70295	-0.0050967433
4	0x3c9e26b6	0.019305568
5	0x3d399ca2	0.045315392
6	0xbd94b3fb	-0.07260891
7	0xbdc4f299	-0.09616584
8	0xbd68e002	-0.056854255
9	0xbc8d2644	-0.01723016
10	0x3b93e1bd	0.004512994
11	0x3d28c5d7	0.0412043
12	0x3d6f428b	0.05841307
13	0xbd97cf40	-0.07412577
14	0xbc136fca	-0.008998821
15	0xbda089f3	-0.07838812
16	0xbc464d75	-0.012103428
17	0x3c38f9bc	0.01129001
18	0x3dd81266	0.10550384
19	0xbd2d38c9	-0.042290483
20	0x3c9e7337	0.019342048
21	0x3bed2ecf	0.007238246
22	0xbdc91779	-0.0981893
23	0xbd483855	-0.048881847
24	0xbd85589c	-0.065110415
25	0xbd737e00	-0.059446335
26	0xbd2286ea	-0.039679445
27	0x3da63d6f	0.08117186
28	0x3d53a8b6	0.051674567
29	0x3d315414	0.043293074
30	0x3ddbe0a4	0.10736206
31	0xbc48ad17	-0.012248299
32	0xbdc40d6a	-0.09572871
33	0xbd7bd254	-0.06147988
34	0x3dbff12f	0.09372174
35	0xbc9c60be	-0.019089099
36	0x3d4bb109	0.04972938
37	0xbd8629dd	-0.065509535
38	0x3d45ab87	0.048259284
39	0xbd9387b5	-0.072036184
40	0xbd1c77b9	-0.038200114
41	0xbda29f22	-0.079405084
42	0xbc5173c6	-0.01278395
43	0x3d09d3a1	0.03364909
44	0xbd6624fb	-0.05618761
45	0x3d9e2b0a	0.07723053
46	0xbd3da8bf	-0.046303507
47	0xbdad5dcb	-0.08465155
48	0x3c2f36f3	0.010694253
49	0x3d54f45d	0.051990855

SecondConv.1.weight f4 [50]
0	0x3f032a82	0.51236737
1	0x3edf92a5	0.43666568
2	0x3f69bf5e	0.9130763
3	0x3f2700e4	0.65235734
4	0xbd2dba15	-0.04241379
5	0x3df466c8	0.119336665
6	0x3f0045f8	0.50106764
7	0x3f50e9a7	0.81606525
8	0x3dbfbc85	0.09362129
9	0x3f1c100f	0.60962003
10	0x3eac6293	0.33668956
11	0x3f3569ac	0.7086437
12	0x3efbd4a2	0.49185663
13	0x3f2a00c9	0.6640745
14	0x3dc76559	0.097361274
15	0x3e14cccb	0.14531247
16	0x3f50cebf	0.8156547
17	0x3f3dc704	0.741318
18	0x3f40d95a	0.7533165
19	0x3f5e32ba	0.8679615
20	0x3ea3b194	0.3197142
21	0x3f78632c	0.97026324
22	0x3f518d56	0.81856287
23	0x3f01df47	0.5073132
24	0x3f6099ff	0.8773498
25	0x3f8680d3	1.0508064
26	0x3dc94bdc	0.09828922
27	0x3f02a7a5	0.51037055
28	0x3e27c6ce	0.16384432
29	0x3f20dc46	0.6283611
30	0x3f5c5c19	0.8607803
31	0x3f53e99b	0.8277833
32	0x3e9dcfd8	0.30822635
33	0x3e29fa70	0.1659944
34	0x3f2efe37	0.6835665
35	0x3f234853	0.63782233
36	0x3ed3a9ce	0.41340488
37	0x3ef79eb7	0.48363277
38	0x3eff0797	0.49810478
39	0x3f3732e0	0.71562004
40	0x3ec99e9e	0.39378828
41	0x3f16a347	0.5884289
42	0x3ecc3233	0.3988205
43	0x3f02f228	0.5115075
44	0xbd2ff557	-0.042958584
45	0x3e731cd2	0.23741463
46	0x3f0d9755	0.5530904
47	0x3e41eaf0	0.18937278
48	0x3e2ce472	0.1688402
49	0x3e218818	0.15774572

SecondConv.1.bias f4 [50]
0	0xbdd2fbe7	-0.10301953
1	0xbd5aa75a	-0.053382255
2	0xbd9220a1	-0.0713513
3	0xbd90fa8c	-0.07079038
4	0xbda5bd10	-0.080927014
5	0xbe3b04a2	-0.18263486
6	0xbd8fc6e6	-0.07020359
7	0xbd9a58a5	-0.07536439
8	0xbb1de306	-0.0024091615
9	0xbdd7f2e3	-0.10544374
10	0xbd00eb19	-0.031474207
11	0xbd96dd43	-0.07366421
12	0xbe2b18ba	-0.16708651
13	0xbe1be196	-0.15222773
14	0x3cd9adc0	0.026572108
15	0xbe0fb2f8	-0.14033115
16	0xbd068da8	-0.032849938
17	0xbdd9c4b4	-0.10633221
18	0xbe16cc9b	-0.14726488
19	0xbdd0caf9	-0.10194964
20	0xbe07c987	-0.1326047
21	0xbe01682c	-0.12637395
22	0xbdc37a1d	-0.09544776
23	0xbe0aaf3c	-0.13543409
24	0xbdb04a91	-0.086079724
25	0xbdcdd734	-0.10050812
26	0x3ad7b6be	0.001645766
27	0xbd224574	-0.039617017
28	0xbdb34b15	-0.08754555
29	0xbdbb7078	-0.09152311
30	0xbe03bafa	-0.12864295
31	0xbde9ecfa	-0.11422153
32	0xbda96a90	-0.08272278
33	0xbdf48b60	-0.11940646
34	0xbd9a9383	-0.07547667
35	0xbd9ecedc	-0.07754299
36	0xbdf59ff9	-0.11993403
37	0xbe2db917	-0.16965137
38	0xbd81ef31	-0.0634445
39	0xbe041115	-0.12897141
40	0xbe335e20	-0.17516375
41	0xbda50a5e	-0.08058618
42	0xbdc8277e	-0.097731575
43	0xbde8619e	-0.11346744
44	0xbdc33fcf	-0.09533655
45	0xbe27df3e	-0.16393754
46	0xbd85d12f	-0.06534039
47	0xbdf63c19	-0.120231815
48	0xbde9c1b8	-0.11413902
49	0xbdb89b44	-0.090139896

SecondConv.1.running_mean f4 [50]
0	0x3f916238	1.1358099
1	0x3f231f5c	0.63719726
2	0x3f889353	1.066996
3	0x3f32a6c4	0.69785714
4	0xbf3ad776	-0.7298502
5	0x3f810c33	1.0081848
6	0xbed66bc3	-0.4187909
7	0x3f610aa5	0.8790687
8	0xbeed6aa1	-0.46370414
9	0x3f849f7a	1.0361168
10	0xbf56cd99	-0.8390747
11	0x3f5561bf	0.83352274
12	0x3f84b1d7	1.0366772
13	0x3f7dd84b	0.9915816
14	0xbf80c814	-1.0061059
15	0x3f65c64c	0.897557
16	0xbf8f571c	-1.1198459
17	0x3f9457b5	1.1589266
18	0x3f6dca1a	0.9288651
19	0x3f3f92b1	0.7483321
20	0x3f345ae9	0.7045122
21	0x3f45b29e	0.77225673
22	0x3f959f1f	1.1689185
23	0x3f706b5b	0.9391381
24	0x3f6c018c	0.9218986
25	0x3f6c1755	0.922231
26	0x3d4c6ee5	0.049910445
27	0xbf1d3f10	-0.6142435
28	0x3f90b3e0	1.1304893
29	0x3f8c21ab	1.0947775
30	0x3f986337	1.1905278
31	0x3f2f363e	0.6844214
32	0x3f67f3f0	0.90606594
33	0x3f83ba69	1.0291263
34	0x3f299a03	0.6625063
35	0x3f98af3e	1.192848
36	0x3f09d83c	0.5384557
37	0x3f211384	0.62920403
38	0xbf6742ad	-0.90336114
39	0x3f47bd74	0.7802346
40	0x3f40862d	0.75204736
41	0x3f03ba3f	0.51456064
42	0x3f88d65d	1.0690418
43	0x3f9e89ba	1.2385781
44	0xbee9e52f	-0.45682666
45	0x3f8b23be	1.0870283
46	0xbf582e37	-0.8444552
47	0x3f4a55cb	0.7903716
48	0x3f3536fd	0.7078703
49	0x3f158b36	0.58415544

SecondConv.1.running_var f4 [50]
0	0x401db6ad	2.4642746
1	0x3fddab45	1.7317892
2	0x40094fad	2.145488
3	0x3fd7994a	1.6843655
4	0x3f91a228	1.1377611
5	0x400ef056	2.233419
6	0x3ef45468	0.47720647
7	0x3fc56600	1.5421753
8	0x3eb3bb52	0.35103852
9	0x40222a61	2.5338366
10	0x3f764dfe	0.96212757
11	0x3f8b5823	1.0886272
12	0x4019d7bb	2.4037921
13	0x400c3762	2.1908803
14	0x3fa28599	1.2697021
15	0x40304811	2.7543986
16	0x400aeb47	2.1706102
17	0x4036a2c0	2.8536835
18	0x401780b2	2.36723
19	0x40117106	2.2725234
20	0x4006569a	2.0990357
21	0x40024427	2.0354097
22	0x4026abc8	2.6042347
23	0x4020bd0c	2.5115385
24	0x40074cdb	2.114066
25	0x40097140	2.1475372
26	0x3f5a9f8a	0.8539969
27	0x3f354820	0.7081318
28	0x402b8bec	2.6804152
29	0x3fe2fabd	1.7732769
30	0x40080d3f	2.1258085
31	0x400240cb	2.0352046
32	0x3fecf0b4	1.8510957
33	0x40181470	2.3762474
34	0x4035cac8	2.8405018
35	0x400e95ff	2.227905
36	0x3fadc0e6	1.3574493
37	0x3ff88603	1.9415897
38	0x4004e48e	2.0764499
39	0x40080e2c	2.125865
40	0x400ca653	2.1976516
41	0x3fb849ee	1.4397562
42	0x4017743f	2.36647
43	0x40124184	2.2852488
44	0x3f474158	0.7783408
45	0x403a09e4	2.9068537
46	0x3fa4d64d	1.28779
47	0x400e3d58	2.2224941
48	0x4007ab4b	2.11983
49	0x3fbfea83	1.4993442

ThirdConv.0.weight f4 [100, 50, 1, 5]
0	0x3caf1c1a	0.021375705
1	0x3c8eaf6e	0.017417636
2	0x3d4848a3	0.048897397
3	0x3d2c4b8a	0.042064227
4	0x3d762246	0.06009128
5	0xbc690f6b	-0.014224867
6	0x3d25dc13	0.040493082
7	0x3d49d84c	0.049278542
8	0x3c2ca9f6	0.010538569
9	0xbc211aae	-0.009833021
10	0x3c170d52	0.009219484
11	0xbb9cb6e0	-0.0047825426
12	0x3d723f0c	0.059142157
13	0x3d64c9b7	0.055856433
14	0x3da4bc57	0.080437355
15	0x3d566d9b	0.05235062
16	0x3d31576d	0.043296266
17	0x3e04ef6e	0.1298196
18	0x3cbd4458	0.023103878
19	0x3dc8c3d2	0.09802975
20	0x3cfa1b29	0.03053053
21	0xbcda4a55	-0.026646772
22	0x3caeee1c	0.021353774
23	0x3cc730f4	0.024315335
24	0xbd000365	-0.031253237
25	0x3dc7aaee	0.09749399
26	0x3d86c980	0.06581402
27	0x3d0f6095	0.035004217
28	0x3cc1c823	0.023655003
29	0x3d8a1dd7	0.06743973
30	0x3c34188d	0.0109921815
31	0x3db0828f	0.08618652
32	0xbc798208	-0.015228756
33	0x3c8d733a	0.017266858
34	0xbcac8e7b	-0.021064034
35	0xbd8ed5ad	-0.06974349
36	0xbbe9ca3d	-0.0071347044
37	0x3c38f6d9	0.011289322
38	0xbbe2ea2a	-0.006924887
39	0xbc4338c0	-0.011915386
40	0x3e166f6d	0.14690943
41	0x3dae46d2	0.08509602
42	0x3dcc350b	0.09971055
43	0x3e04eadd	0.12980218
44	0x3d974ca9	0.07387669
45	0x3dbfe211	0.093692906
46	0x39527d14	0.00020073756
47	0x3d9a21d6	0.07525985
48	0x3d3c3548	0.04594925
49	0x3df821e1	0.12115837
50	0x3c0861a5	0.0083240615
51	0x3d5f5181	0.054521088
52	0x3d5e124b	0.054216664
53	0x3ceb6eea	0.028739411
54	0x3dd4f96d	0.10399137
55	0x3c4f6666	0.012658691
56	0x3d201f77	0.039092507
57	0x3d5ab63e	0.053396456
58	0x3d0147dc	0.03156267
59	0x3b225534	0.0024770023
60	0x3db17beb	0.086662136
61	0x3d82d4fc	0.0638828
62	0x3db32a91	0.08748353
63	0x3dc92907	0.098222785
64	0x3d9b01b1	0.07568682
65	0x3ddbb7cb	0.10728415
66	0x3db869fd	0.09004591
67	0x3d7e91c7	0.062150743
68	0x3a0c30e6	0.00053478626
69	0x3d6b1347	0.05739143
70	0x3d554c51	0.052074734
71	0x3d93e089	0.07220561
72	0x3dcc1ef9	0.09966845
73	0x3d96042b	0.07325014
74	0x3d65883b	0.056038123
75	0x3da810fb	0.08206364
76	0x3c84ce72	0.016211722
77	0x3dffc46b	0.12488636
78	0x3d91f40a	0.07126625
79	0x3df5c743	0.12000897
80	0x3c8a4dff	0.016882895
81	0x3d8c1a57	0.068409614
82	0x3d672dc2	0.056440122
83	0x3d69e277	0.05710074
84	0x3d83ac59	0.06429357
85	0x3de3504e	0.11099301
86	0x3d34771b	0.0440589
87	0x3d75101c	0.059829816
88	0xbc5ed1c7	-0.0135998195
89	0xbc454ed5	-0.012042721
90	0x3c892a73	0.016743874
91	0x3da5be12	0.08092894
92	0x3dd378a2	0.10325743
93	0x3d891e23	0.06695201
94	0x3dc8e4a2	0.09809233
95	0x3dc83822	0.097763315
96	0x3d19ab74	0.037517026
97	0x3d8dcb06	0.06923489
98	0x3dc5d3ce	0.09659539
99	0x3d1eb03b	0.038742285
100	0x3d49df18	0.049285024
101	0x3dcfb8d4	0.10142675
102	0x3c855e40	0.016280293
103	0x3bd3b715	0.006461034
104	0x3dddd2fc	0.10831258
105	0x3c884eee	0.0166392
106	0x3dbb9ab1	0.091603644
107	0x3de9a10d	0.11407671
108	0x3dc04cad	0.09389625
109	0x3e028b63	0.12748484
110	0x3db4c24b	0.08826121
111	0x3cebf463	0.028803056
112	0x3d349755	0.044089634
113	0x3d5c74d4	0.053822353
114	0x3da99105	0.082796134
115	0x3d213274	0.039354756
116	0x3cc49ef5	0.024001578
117	0x3d71bcd3	0.059017967
118	0x3d656cf4	0.05601211
119	0x3d2390d1	0.03993303
120	0x3d83fcfb	0.064447366
121	0x3d8d60dd	0.06903241
122	0x3d82bbde	0.06383489
123	0x3c325700	0.010885
124	0x3d8ca548	0.068674624
125	0x3dedc7cd	0.116103746
126	0x3de593b6	0.11209814
127	0x3dce4f0f	0.10073673
128	0x3d5aee78	0.053450078
129	0x3d34c32a	0.044131435
130	0x3d47e19b	0.04879914
131	0x3ce2d213	0.027688062
132	0x3bae94da	0.005327803
133	0x3d96ed7e	0.07369517
134	0x3d97cdd7	0.07412308
135	0x3cdc3a89	0.02688338
136	0xbd283f46	-0.041075967
137	0xbd805f0c	-0.06268129
138	0x3db055be	0.08610104
139	0x3c4c379c	0.01246443
140	0x3c4a24c9	0.012337872
141	0x3d000b6d	0.031260896
142	0x3d09e9fd	0.033670414
143	0xbd18b591	-0.03728253
144	0xbc94752a	-0.018122274
145	0x3aa418a7	0.0012519554
146	0x3b99edba	0.0046975287
147	0x3d7b258a	0.061315097
148	0x3d94bbb4	0.07262364
149	0x3c9b286d	0.018940175
150	0x3d2e553d	0.04256176
151	0x3b73e535	0.0037215475
152	0x3d8b83a2	0.06812216
153	0x3daafa7f	0.083485596
154	0x3d6cbac5	0.057795305
155	0x3d613693	0.054983687
156	0x3dd508c1	0.1040206
157	0x3d63e68a	0.05563978
158	0x3cb401a0	0.021973431
159	0x3c760d37	0.015017799
160	0x3def89e6	0.11696224
161	0x3d8fd0a1	0.07022215
162	0x3d8a5b23	0.06755664
163	0x3c9afc1f	0.018919049
164	0x3d0a888d	0.03382163
165	0x3c870265	0.016480634
166	0x3d5afd4d	0.053464223
167	0xbccbfb89	-0.024900215
168	0x3ddff757	0.10935848
169	0x3cfd2494	0.03090123
170	0x3dc3dd05	0.095636405
171	0x3d4f2272	0.05056996
172	0x3d3677f4	0.04454799
173	0x3d50b5a4	0.050954476
174	0x3d4e93c8	0.050433904
175	0x3d6b8bb6	0.057506286
176	0x3c1d66aa	0.009606997
177	0x3d511673	0.0510468
178	0xbcd86e71	-0.02641985
179	0x3c34c99e	0.011034397
180	0x3e0add03	0.13560872
181	0x3cf58ef3	0.02997539
182	0x3d062efd	0.032759655
183	0x3dfa26dc	0.12214443
184	0x3d996927	0.07490759
185	0x3ddfa4b5	0.10920087
186	0x3d8ba33b	0.06818243
187	0x3dd2e9a5	0.102984704
188	0x3d48bfb3	0.049010944
189	0x3dc9f0f2	0.0986041
190	0xbd2b46e0	-0.04181564
191	0x3d6f8fff	0.058486935
192	0x3cd5a428	0.026079252
193	0x3cf176ec	0.029475652
194	0x3d69c698	0.05707416
195	0x3d04d6fc	0.032431588
196	0x3d0259c2	0.03182388
197	0x3cc14e5d	0.023596937
198	0x3dbf148e	0.09330092
199	0x3d71f614	0.05907257
200	0x3be922e4	0.007114755
201	0x3d5ee416	0.05441674
202	0x3dada642	0.08478977
203	0xbc67c028	-0.014144935
204	0x3c9650a9	0.018349009
205	0x3dca76b6	0.098859236
206	0x3dd46a2f	0.103718154
207	0x3c7300eb	0.014831762
208	0x3d855574	0.065104395
209	0x3dc7efa2	0.09762503
210	0x3d79b2b6	0.060961448
211	0x3d9e1919	0.07719631
212	0x3d84c57d	0.064829804
213	0x3d69dbba	0.057094313
214	0x3db2294a	0.086992815
215	0x3db692e5	0.08914737
216	0x3d02ca7f	0.031931397
217	0x3ceb4042	0.028717164
218	0xbd244968	-0.04010907
219	0xbd085002	-0.033279426
220	0x3d601b33	0.05471344
221	0x3d6404e4	0.055668727
222	0x3d59db47	0.053187635
223	0x3dd923ea	0.10602553
224	0x3cec5b7d	0.028852219
225	0x3df2814c	0.11841068
226	0xbc1c86a6	-0.009553587
227	0x3cfe250d	0.031023527
228	0xbd17e627	-0.037084725
229	0x3da4472c	0.080213875
230	0x3d057439	0.03258154
231	0x3d10c591	0.035344664
232	0x3c6c39d2	0.014418082
233	0xbdc2f949	-0.095202036
234	0x3c9482ce	0.018128779
235	0x3c821f54	0.015884079
236	0x3de37378	0.11106008
237	0xbb5f6d2a	-0.0034092166
238	0x3d9ed282	0.07754995
239	0x3c0e051a	0.0086682085
240	0xbd59d5c8	-0.053182393
241	0x3d69cd99	0.05708084
242	0x3e016948	0.12637818
243	0x3d5821c3	0.052766573
244	0xbc552483	-0.013009193
245	0x3d29a232	0.041414447
246	0x3de59150	0.11209357
247	0x3d9c883b	0.076431714
248	0x3d106aeb	0.035258215
249	0x3c9379a2	0.018002335
250	0x3d0b4145	0.033997793
251	0x3d8a0c80	0.067406654
252	0x3da790fa	0.08181949
253	0x3d2ccf8d	0.042190123
254	0xbc63d8a7	-0.013906634
255	0x3c6c889b	0.014436866

ThirdConv.0.bias f4 [100]
0	0xbd4f1c8f	-0.050564345
1	0xbba7c2ae	-0.005119643
2	0x3c5b19d3	0.013372856
3	0xbd368525	-0.04456057
4	0x3cd72ed1	0.026267441
5	0x3c33cf47	0.010974712
6	0x3d3eb7d4	0.04656203
7	0x3cfad39f	0.030618487
8	0xbd174e6f	-0.036940034
9	0xbccc0c22	-0.02490813
10	0xbd0fa38d	-0.035068084
11	0xbd0a3479	-0.033741448
12	0xbc51bed7	-0.012801847
13	0xbd06117a	-0.03273151
14	0x3c04da5f	0.008108704
15	0x3c18e8b1	0.009332822
16	0x3d330e92	0.043715067
17	0xbca8d817	-0.020610852
18	0xbd0ad12a	-0.03389088
19	0x3c68146f	0.014165028
20	0x3c8a9c97	0.016920371
21	0x3d3de977	0.046365228
22	0x3d0d6ff7	0.034530606
23	0xbd27a99d	-0.04093324
24	0x3cc739b4	0.024319507
25	0x3d7fc56b	0.06244413
26	0xbd1e2eba	-0.03861878
27	0xbd08cfd0	-0.03340131
28	0xbbdcfbfa	-0.006743905
29	0xbcf9600b	-0.030441305
30	0x3d58aa55	0.052896816
31	0x3d5c1831	0.05373401
32	0x3ca6bdaf	0.02035412
33	0xbcf0cd4a	-0.029394764
34	0x3d53a836	0.05167409
35	0xbd96f988	-0.07371813
36	0x3d1e0045	0.038574476
37	0x3cd345a9	0.025790052
38	0xbd156f70	-0.03648323
39	0xbd437a8e	-0.0477243
40	0x3d01aaba	0.03165696
41	0x3cb32c0f	0.021871595
42	0x3d500a09	0.05079082
43	0xbc8c3371	-0.017114373
44	0x3c5e6915	0.013574858
45	0x3d0acce1	0.033886794
46	0xbc58b6b9	-0.013227158
47	0x3d032a41	0.03202272
48	0xbc8af952	-0.016964588
49	0x3d14ae4c	0.036299035
50	0xbd4cfde7	-0.050046828
51	0x3c0ee71c	0.008722093
52	0xbd341896	-0.04396876
53	0x3d7122da	0.058871128
54	0x3a59f72c	0.00083147245
55	0x3cd93311	0.026513608
56	0xbb5943c2	-0.003315196
57	0x3bd67fcd	0.0065459968
58	0xbb2fd7bd	-0.002683147
59	0xbbfa7a74	-0.007643992
60	0xbd17cfa3	-0.037063252
61	0xbc015fde	-0.007896392
62	0xbc8482ff	-0.016175745
63	0xbd68fa9d	-0.05687963
64	0x3a54b8e8	0.00081147114
65	0xbd62038b	-0.05517916
66	0x3cc8c074	0.024505831
67	0x3d4ff8bd	0.050774325
68	0xbd70b0d2	-0.05876238
69	0xbca7562b	-0.02042683
70	0x3ce8ec5f	0.028433023
71	0x3c3ad7bb	0.011403973
72	0x3d88e3a5	0.06684045
73	0xbc40aa9e	-0.011759428
74	0x3c9355ac	0.017985187
75	0x3d774379	0.06036708
76	0xbd4f72f4	-0.050646737
77	0xbd559781	-0.05214644
78	0xbd373561	-0.04472864
79	0xbb94223d	-0.004520683
80	0xbc1305e1	-0.00897357
81	0xbd6f3527	-0.0584003
82	0xbd019e53	-0.03164513
83	0xbcdf5da8	-0.027266338
84	0xbd3f4e34	-0.04670544
85	0x3c374e86	0.011188155
86	0xbd60384b	-0.054741185
87	0xbd0ba250	-0.03409034
88	0xbd484caf	-0.048901256
89	0x3d7ce16a	0.06173841
90	0xbd52f96e	-0.051507406
91	0xbbac2139	-0.005252984
92	0x3c5a6b28	0.013331212
93	0xbd123bb9	-0.035701487
94	0x3d8424cb	0.0645233
95	0x3d0f4c4d	0.034984875
96	0xbd155491	-0.036457602
97	0x3d2940c8	0.041321546
98	0xbccee9d7	-0.025257988
99	0x3c2a58bc	0.0103971325

ThirdConv.1.weight f4 [100]
0	0x3f190898	0.5977874
1	0x3e9f95f4	0.31169093
2	0x3ebbe942	0.367014
3	0x3f35c997	0.71010727
4	0x3f095cff	0.53657526
5	0x3f4ba195	0.7954343
6	0x3d6b1841	0.057396177
7	0x3ebf8c4b	0.37411723
8	0x3f567bf5	0.83782893
9	0x3f71f385	0.94512206
10	0x3d781dad	0.060575176
11	0x3f4e2080	0.8051834
12	0x3f5bf1d4	0.85915875
13	0x3f628927	0.8849053
14	0x3f6ae197	0.9175047
15	0x3f828570	1.0196972
16	0x3f228050	0.6347704
17	0x3f548ac5	0.83024246
18	0x3f31ae23	0.69406337
19	0x3d8984af	0.067147605
20	0x3e31267a	0.17299834
21	0x3f004040	0.5009804
22	0x3e21b68c	0.15792292
23	0x3f450ace	0.7696961
24	0x3e9f234b	0.31081614
25	0x3f0656b8	0.5247607
26	0x3f494baf	0.7863111
27	0x3ef92371	0.48659852
28	0x3ed3e3e4	0.41384804
29	0x3e9ca8eb	0.30597624
30	0x3f097788	0.53698015
31	0x3d824a10	0.063617826
32	0x3e24813e	0.16064927
33	0x3e3da178	0.18518627
34	0x3e7fa4cb	0.24965207
35	0x3f82d5a1	1.0221444
36	0x3f023c0a	0.5087286
37	0x3ecefd34	0.40427554
38	0x3ec15484	0.37759793
39	0x3f30d367	0.69072574
40	0x3f704334	0.93852544
41	0x3f57c29a	0.84281313
42	0x3f237b2e	0.6385983
43	0x3f0558f3	0.5208885
44	0x3dcae17d	0.0990629
45	0x3e47429e	0.19459006
46	0x3efc7a76	0.4931218
47	0x3e9c37d9	0.30511358
48	0x3ecb00d3	0.39649066
49	0x3f3748cd	0.7159546
50	0x3f52736e	0.8220738
51	0x3f414329	0.75493103
52	0x3db62ed0	0.088956475
53	0x3e8ebeb9	0.27879885
54	0x3ed0f07a	0.4080847
55	0x3f6ef130	0.9333677
56	0x3e2a6032	0.16638258
57	0x3e8620e7	0.26196977
58	0x3f4446b7	0.766704
59	0x3e9a8f89	0.30187634
60	0x3e81ec71	0.25375703
61	0x3ee3d01f	0.4449472
62	0xbdff240d	-0.12458048
63	0x3e64476b	0.22292869
64	0x3e1b806f	0.15185712
65	0x3e14fa62	0.14548638
66	0x3ec37d0f	0.3818135
67	0x3f806b65	1.0032774
68	0x3e60ebef	0.21965002
69	0x3f5000e2	0.8125135
70	0x3e15bab1	0.14621998
71	0x3f66773b	0.9002568
72	0x3ed523b4	0.41628802
73	0x3efffc2b	0.49997076
74	0x3ed59b84	0.41720212
75	0x3e42ee4a	0.19036213
76	0x3f00211a	0.5005051
77	0x3eb0bcd3	0.3451906
78	0x3f13e235	0.5776704
79	0x3f603969	0.875876
80	0x3e6c20e9	0.23059429
81	0x3e7512c3	0.23932938
82	0x3f7aa03f	0.97900766
83	0x3f5f9639	0.87338597
84	0x3f28e7b8	0.65978575
85	0x3e697267	0.22797547
86	0x3ef40f60	0.4766798
87	0x3e66d53e	0.22542283
88	0x3ed03a93	0.4066969
89	0x3f359184	0.70925164
90	0x3f32ddc1	0.6986962
91	0x3f055a78	0.5209117
92	0x3f16b813	0.58874625
93	0x3f09122e	0.53543365
94	0x3f14cd0f	0.58125395
95	0x3f339ced	0.70161325
96	0x3f5c613a	0.86085856
97	0x3ef90582	0.48637015
98	0x3ef87ebe	0.48534197
99	0x3dc7e05b	0.09759589

ThirdConv.1.bias f4 [100]
0	0xbde4ce2d	-0.111721374
1	0xbdde8f3f	-0.10867166
2	0xbdaf02bf	-0.08545446
3	0xbddc10df	-0.107454054
4	0xbdf4af18	-0.11947459
5	0xbd811c3b	-0.06304213
6	0xbd62344c	-0.055225655
7	0xbdae6712	-0.08515753
8	0xbe114492	-0.14186314
9	0xbdd0fb20	-0.10204148
10	0xbe18d98c	-0.14926738
11	0xbde2c34d	-0.11072407
12	0xbdb4bdce	-0.08825265
13	0xbdc53949	-0.09630067
14	0xbdb2dc7a	-0.08733459
15	0xbe1174f0	-0.14204764
16	0xbde2c988	-0.11073595
17	0xbe03b231	-0.12860943
18	0xbdd5625c	-0.10419151
19	0xbdf4b398	-0.11948317
20	0xbdf3e30c	-0.1190854
21	0xbdf7efd0	-0.121062875
22	0xbda65c24	-0.08123043
23	0xbdaabe9a	-0.083371356
24	0xbe0aa877	-0.13540827
25	0xbe1966b1	-0.1498058
26	0xbe295bfb	-0.16538994
27	0xbe1a8d9e	-0.15093085
28	0xbdd88a7d	-0.105732895
29	0xbddec850	-0.1087805
30	0xbdf3a994	-0.11897579
31	0xbe085ea8	-0.13317358
32	0xbe0b6e00	-0.1361618
33	0xbe35dce8	-0.1776005
34	0xbdfa81e1	-0.12231804
35	0xbe0ed128	-0.13946974
36	0xbd5b7e33	-0.05358715
37	0xbe1ecf89	-0.15508856
38	0xbdb6fde8	-0.089351475
39	0xbdf32c7e	-0.118737206
40	0xbe06ce2d	-0.13164587
41	0xbdb2c6dc	-0.08729336
42	0xbdb4fdc9	-0.08837468
43	0xbe1cdffe	-0.15319821
44	0xbe54ba8d	-0.20774288
45	0xbe09e4c9	-0.13466181
46	0xbdf4b244	-0.11948064
47	0xbe170e22	-0.14751485
48	0xbe15b766	-0.14620742
49	0xbe12868e	-0.14309141
50	0xbd8268b7	-0.06367629
51	0xbda3f6e5	-0.08006076
52	0xbe1f11c0	-0.15534115
53	0xbe26cd26	-0.16289195
54	0xbdd7df13	-0.10540595
55	0xbdf4a6a2	-0.11945845
56	0xbdc5f83f	-0.0966649
57	0xbe1c13a6	-0.1524187
58	0xbdb8db73	-0.090262316
59	0xbe0baf5c	-0.13641113
60	0xbe1948f0	-0.1496923
61	0xbe11fbe0	-0.14256239
62	0xbe405a5a	-0.18784466
63	0xbdde8165	-0.10864524
64	0xbe2971f9	-0.16547383
65	0xbdc507a8	-0.09620601
66	0xbdc1c07b	-0.09460541
67	0xbe18d71f	-0.14925812
68	0xbdb1e0af	-0.08685433
69	0xbdcfd100	-0.101472855
70	0xbe2c343f	-0.16816805
71	0xbdf041ad	-0.11731277
72	0xbdd30c63	-0.10305097
73	0xbd70f7ef	-0.058830198
74	0xbd99a5d7	-0.075023346
75	0xbe2b3b3d	-0.16721816
76	0xbe029a7c	-0.12754244
77	0xbdc145c1	-0.094371326
78	0xbda3d776	-0.0800008
79	0xbde115c3	-0.10990479
80	0xbe20aaba	-0.15690127
81	0xbdc1a1c9	-0.09454686
82	0xbe119d36	-0.14220127
83	0xbd62b730	-0.055350482
84	0xbd8903a5	-0.06690148
85	0xbe0e02f7	-0.13868318
86	0xbdf610d7	-0.12014931
87	0xbe2e4b06	-0.17020807
88	0xbde48c5e	-0.111595854
89	0xbdc7cb12	-0.097555295
90	0xbde9383c	-0.11387679
91	0xbda74be3	-0.08168771
92	0xbdf97738	-0.12180942
93	0xbdac6dad	-0.084193565
94	0xbe0fd181	-0.14044763
95	0xbd9a4127	-0.07531958
96	0xbdf0f172	-0.11764802
97	0xbd8dcfcc	-0.069244
98	0xbde2dfb0	-0.11077821
99	0xbe33c5fb	-0.17555992

ThirdConv.1.running_mean f4 [100]
0	0x3fcb18df	1.5866965
1	0xbf0be110	-0.54640293
2	0x3f86aef8	1.0522146
3	0x3fba3f2c	1.4550529
4	0x3fdfad13	1.7474693
5	0x3fb383e7	1.4024628
6	0xbf624768	-0.8839021
7	0x3f846d98	1.0345945
8	0x3fc3170a	1.5241406
9	0x3fbd7cd9	1.4803725
10	0x3f946540	1.1593399
11	0x3fbcbf32	1.4745848
12	0x3fad2be6	1.3529022
13	0x3fb4ee53	1.4135231
14	0x3faf55bb	1.3698038
15	0x3f9c3231	1.2202817
16	0x3fdbc0c0	1.7168198
17	0x3fa80778	1.3127279
18	0x3fd62c8d	1.6732346
19	0x3f8174df	1.0113791
20	0x3fb4666c	1.4093757
21	0x3fc062dc	1.503017
22	0xbee54ab6	-0.44783562
23	0x3fb7a4a5	1.434712
24	0x3fbb85b2	1.4650176
25	0x3fd3ccc2	1.6546862
26	0x3fbf0c04	1.4925542
27	0x3fc3362b	1.5250906
28	0x3fbe4eeb	1.4867834
29	0x3f7e628f	0.9936914
30	0x3fb7b3e5	1.4351774
31	0x3f83e1c7	1.0303277
32	0x3fbdbec4	1.4823842
33	0x3f73622e	0.95071685
34	0x3f972e95	1.1811091
35	0x3fc4e630	1.5382748
36	0x3f792a3c	0.9733007
37	0x3fd454a9	1.6588336
38	0x3fbf7eda	1.4960587
39	0x3fae4bf2	1.3616927
40	0x3fd2c78f	1.646715
41	0xbeffa1ec	-0.49928224
42	0x3fc99ac5	1.5750357
43	0x3fa39383	1.2779392
44	0x3fb4902e	1.41065
45	0x3f9fe63f	1.249214
46	0x3fc36340	1.5264664
47	0x3fc2c89c	1.5217471
48	0x3fbab17d	1.4585415
49	0x3fda7f42	1.7070086
50	0x3faae2b7	1.3350438
51	0x3fbb4181	1.4629365
52	0x3f3e99f2	0.7445365
53	0x3fbee973	1.4914993
54	0x3fb2528c	1.3931441
55	0x3fcb8dce	1.590265
56	0x3fbba9ca	1.466119
57	0x3fb34f8a	1.4008648
58	0x3fca09bc	1.5784221
59	0x3f9f5a4a	1.2449429
60	0x3fa730a9	1.3061725
61	0x3f9d0513	1.2267174
62	0xbfa32c4f	-1.2747897
63	0x3f03a581	0.51424414
64	0x3fb171a5	1.3862807
65	0x3fadb9da	1.3572342
66	0x3fb2ed38	1.3978643
67	0x3fcd14f0	1.6022015
68	0x3f9ef9fb	1.2420038
69	0x3fd0f527	1.6324815
70	0x3fce5bb6	1.6121738
71	0x3fb89b53	1.4422401
72	0x3fdbb82d	1.7165581
73	0x3f6b1f0a	0.91844237
74	0xbe95dd4c	-0.292704
75	0x3f88915c	1.066936
76	0x3fd03ab2	1.6267912
77	0xbedfc625	-0.4370586
78	0x3fa0cdea	1.256284
79	0x3fd9856a	1.699384
80	0x3fc36977	1.526656
81	0x3f894c80	1.0726471
82	0x3fc2a556	1.5206707
83	0x3f832dc8	1.0248346
84	0xbeee3bcd	-0.4653
85	0x3fb6a8df	1.4270285
86	0x3fb47e43	1.4101032
87	0x3f6d72d4	0.9275334
88	0x3fbd7c16	1.4803493
89	0x3fdda200	1.7315063
90	0x3fcd9319	1.6060516
91	0x3f9d0df6	1.2269886
92	0x3fb5a6fc	1.4191585
93	0x3f7809c9	0.9688993
94	0x3fb9b70e	1.4508989
95	0x3fc72694	1.5558648
96	0x3fbd3a7c	1.4783473
97	0x3f890b2e	1.0706537
98	0x3fbac4d5	1.4591318
99	0x3f46a09a	0.7758881

ThirdConv.1.running_var f4 [100]
0	0x4176879e	15.40811
1	0x3febce38	1.8422308
2	0x40dfc189	6.992375
3	0x415d1cc7	13.819526
4	0x4187f23a	16.993275
5	0x4160b07f	14.04309
6	0x40caa924	6.333147
7	0x40e5fed5	7.1873574
8	0x41562074	13.382923
9	0x416a92c3	14.6608305
10	0x41335198	11.20742
11	0x415e8a8c	13.908825
12	0x4150689a	13.0255375
13	0x414c0500	12.751221
14	0x414e2529	12.884072
15	0x40dad3f5	6.8383737
16	0x4180841b	16.064505
17	0x413cd840	11.802795
18	0x418a2410	17.267609
19	0x40df6689	6.9812665
20	0x4158b42d	13.543988
21	0x415c443f	13.766662
22	0x4002ae74	2.0418978
23	0x416c8267	14.7818365
24	0x4126831c	10.407009
25	0x4160f1cd	14.059033
26	0x4140a396	12.039938
27	0x415af702	13.685305
28	0x41618cf2	14.09691
29	0x40ef7925	7.483538
30	0x414b19a8	12.693764
31	0x40bfd0d4	5.9942417
32	0x413a04af	11.626143
33	0x40af5f49	5.4803815
34	0x40e65d7b	7.198911
35	0x416db548	14.856758
36	0x40ef505d	7.47856
37	0x4178d0bb	15.55096
38	0x4168efbf	14.558532
39	0x412de9bf	10.869567
40	0x417fd4f6	15.989492
41	0x3fd8ebe9	1.6946994
42	0x41813a70	16.153534
43	0x411638a1	9.388825
44	0x412b82cf	10.719436
45	0x41146b20	9.276154
46	0x41676dd8	14.464317
47	0x414e049d	12.876126
48	0x413dbf14	11.85915
49	0x4187cfee	16.976528
50	0x4145ea10	12.369644
51	0x4159cbb4	13.612232
52	0x40531579	3.2981856
53	0x414bb959	12.732751
54	0x415515e0	13.317841
55	0x41627afe	14.155027
56	0x4183dda4	16.483223
57	0x41308a58	11.033775
58	0x417c5bf8	15.772453
59	0x411cce5d	9.800382
60	0x413f3110	11.949478
61	0x41146eee	9.277082
62	0x40ee687b	7.450254
63	0x4004be8f	2.0741308
64	0x412d39ec	10.826641
65	0x4146bf19	12.421655
66	0x4163f5dc	14.247524
67	0x41584262	13.516207
68	0x411c3d4e	9.764967
69	0x418b4efb	17.413565
70	0x41768b54	15.409016
71	0x414aaec2	12.6676655
72	0x417dca5a	15.861902
73	0x40d09684	6.5183735
74	0x3f858021	1.0429727
75	0x40fd5f95	7.9179177
76	0x418609c7	16.754774
77	0x3fcd6a82	1.6048129
78	0x412f7c04	10.967777
79	0x4185b3e1	16.712831
80	0x41615101	14.082276
81	0x410e1917	8.881125
82	0x415ca18b	13.789439
83	0x41011780	8.068237
84	0x3fc0db11	1.5066854
85	0x4133d207	11.238776
86	0x41431aa6	12.194006
87	0x40ad85ac	5.4225674
88	0x415ee5bb	13.931087
89	0x4180b0a1	16.086245
90	0x41748415	15.282247
91	0x4133b490	11.231583
92	0x414fe8a0	12.994293
93	0x40cdb67d	6.4285264
94	0x41410d13	12.065692
95	0x41498a2b	12.596232
96	0x4167e08a	14.492319
97	0x40cdac82	6.427308
98	0x415cc93c	13.7991295
99	0x408da648	4.426548
