NCTU2/GPU_version/EEGNet/EEGNet_LeakyReLU.pt (torch_old, 75535 bytes, 17 tensors)

Firstconv.0.weight f4 [16, 1, 1, 51]
000000 43 e4 c0 bc b1 5e c7 3d d2 3c 6a bd dd 97 17 3e
       -0.023546344 0.09734858 -0.05718691 0.14804025
000010 e9 62 92 bd 70 83 cc ba 80 ec b9 bd 13 98 c3 bd
       -0.07147772 -0.0015603136 -0.09078312 -0.0955049
000020 41 bd ed 3d fb 8e 11 3e 85 e5 e7 3d b2 bb 13 3e
       0.11608363 0.14214699 0.11323074 0.14427069
000030 9e cf cd 3d 5b bc 2d 3e 3b 16 c9 3c 7c da b1 bd
       0.100493655 0.16966383 0.024546733 -0.08684251
000040 37 9f ab bd 52 c9 bf bc 78 71 57 bd 1a 41 d0 3d
       -0.08379977 -0.023411427 -0.052598447 0.10168667
000050 f3 36 34 3e 9a 84 37 3e 25 d4 26 3e da 52 59 3e
       0.17599086 0.17921677 0.16291864 0.21223012
000060 74 23 37 3e 14 16 34 3e 65 79 e7 3d 3f 5d 8b 3d
       0.17884618 0.17586547 0.11302451 0.06804895
000070 7d 5a 46 bc 4b e5 1c 3e 96 51 ee bc 0b 9b 40 3e
       -0.012106535 0.15321843 -0.029091638 0.18809144
000080 6a 89 ae 3d 36 44 ca bc ea b2 47 3e 3d 6e 4d 3e
       0.085223034 -0.024690729 0.19501844 0.20061584
000090 29 b1 53 3e 6a 2b 9a 3d ff 7a 49 3d 60 0f 19 3d
       0.2067305 0.07527812 0.049189564 0.03736818
0000a0 40 1d 3c bd fa da d5 3b 0e 86 5a 3d 99 7a eb 3d
       -0.045926332 0.006526348 0.0533505 0.11497993
0000b0 d8 2a a3 3d 56 67 af 3d 0c 1f d0 3d e5 8f 9e bd
       0.07967156 0.08564632 0.10162172 -0.077422895
0000c0 2e 19 e3 3d eb d5 8d 3d da 97 c2 3d 0b 5d 26 bd
       0.11088787 0.06925567 0.0950162 -0.040616076
0000d0 69 f5 d1 bd 2b 7b ff bd 48 2d b5 3b 45 20 18 be
       -0.102518864 -0.12474664 0.0055290796 -0.1485606
0000e0 b9 85 4e be b9 cb 18 be 52 eb e9 bd bb b8 05 3d
       -0.20168199 -0.14921464 -0.11421837 0.032646876
0000f0 4f e4 31 bd 7d 9f e9 3c 3e 99 16 be 7d a8 89 3b
       -0.043430623 0.028518433 -0.14706895 0.0042009936
000100 44 fc 3b be d9 9b 00 be 8e 38 ab bc 10 54 08 be
       -0.1835795 -0.12559451 -0.02090099 -0.13313317
000110 8e 1e f0 bd e7 ce 7e bd dc ef ac bd 36 8e da bc
       -0.11724578 -0.062209036 -0.08444187 -0.02667914
000120 cc 40 93 3d fd af ae bd b5 ad 96 3a b6 df 03 be
       0.071900934 -0.08529661 0.001149586 -0.12878308
000130 91 28 1b be 71 a2 df bd 94 99 03 be 6b a9 c7 3d
       -0.15152194 -0.10919655 -0.12851554 0.09749111
000140 7d 1d bc 3d a4 bf 87 bd 56 6d b3 bd 93 5b 93 bd
       0.09185312 -0.066283494 -0.087610886 -0.07195201
000150 f8 11 07 3e ee b0 b8 bd b7 84 81 bd 49 4e 05 be
       0.13190448 -0.09018122 -0.063241415 -0.13018145
000160 96 d2 83 3c cc a2 2a 3d 78 cf 65 bd 24 16 f7 3d
       0.016091626 0.04165916 -0.05610606 0.1206477
000170 e0 f1 bc bc cc 2c 11 3e 41 c5 c5 bd cc 5b 9f 3c
       -0.023064554 0.14177245 -0.09656764 0.019452952
000180 c9 6a d8 3d 74 2c 84 bd 8b 32 20 3e 81 9c e5 3d
       0.10567243 -0.06453791 0.1564428 0.112114914
000190 45 2c 30 bd 50 67 ef 3d 39 21 99 3d 49 63 91 bd
       -0.04301097 0.11689627 0.0747704 -0.07099015
0001a0 39 5a 15 bd 38 da ca bc 00 52 8d bd cc d0 4f 3d
       -0.036462996 -0.024762258 -0.06900406 0.050736234
0001b0 c0 d5 c8 bd 58 d4 b3 bd f1 52 52 bc 86 80 03 be
       -0.098063946 -0.08780736 -0.012837158 -0.12841997
0001c0 d2 2c 64 bd 9e 0c ed bc 1c 74 87 3d 5a c2 5b 3d
       -0.055706806 -0.02893668 0.06613943 0.053652145
0001d0 64 a7 ab b9 fa c7 47 be 9d cb 1c 3d 6c 17 9b bd
       -0.00032740377 -0.19509879 0.03828012 -0.07572827
0001e0 1d de d0 3a b8 01 48 be 01 e8 0b be e4 52 a6 bd
       0.0015935336 -0.19531906 -0.13662721 -0.08121279
0001f0 e1 2a 48 3d df e6 48 be ca 07 56 bd dd 38 c5 bd
       0.048869018 -0.1961932 -0.052253522 -0.096299864
000200 66 9e 2c be ee 48 09 bc 38 3a 04 be 7f 67 97 bc
       -0.16857299 -0.008379204 -0.12912834 -0.018481968
000210 5e 60 37 3c 52 07 46 be 99 d5 95 bd cd e2 7b bd
       0.011192409 -0.1933873 -0.07316131 -0.06149559
000220 7b 0c 23 bd bf db 20 bd b2 42 2c bd 7c a8 13 be
       -0.039806824 -0.039272066 -0.042055793 -0.1441974
000230 22 26 f3 bb 25 ab 27 3d 39 87 19 3c bf ab ce bd
       -0.0074203173 0.0409347 0.0093706185 -0.10091352
000240 e5 c9 2f be d4 92 cc bd b8 87 ff bd 0d da 38 3d
       -0.1716686 -0.09988943 -0.12477058 0.045129824
000250 f2 d8 f6 3b cc 50 fa bd 3e 34 4b bc 40 27 30 be
       0.007533186 -0.12222442 -0.012402592 -0.17202473
000260 75 6d 10 3b 6a 38 21 be f6 61 de bd af 46 ca bc
       0.0022037898 -0.15744177 -0.10858528 -0.024691908
000270 e8 fd 73 3d c8 a1 50 be 25 6a e8 bd 06 7a 25 be
       0.059568316 -0.20374215 -0.113483705 -0.1615983
000280 b8 51 21 be f1 6a 40 3d 68 54 1b bd c0 d7 ad 3c
       -0.1575383 0.046976987 -0.037922293 0.021221042
000290 ee cb 04 be 07 dc 43 be 22 6e 04 bd 75 54 1f be
       -0.12968418 -0.19126903 -0.032331593 -0.15559562
0002a0 26 6e 28 bd f7 ef 6c 3c c5 b3 9a bd 64 f2 09 be
       -0.04112067 0.014461509 -0.075538196 -0.13471371
0002b0 2a 4c 9d ba 42 d4 37 be b8 96 5d be 8a 52 08 be
       -0.0012000848 -0.17952064 -0.21639526 -0.13312736
0002c0 a6 2a 23 be eb 91 bd bc 2e 26 88 bd 89 60 d0 3c
       -0.15934238 -0.023140868 -0.06647907 0.025436657
0002d0 1c f5 a2 bd 86 74 b4 bd c1 33 1a be 66 d9 2b 3c
       -0.07956907 -0.088112876 -0.15058805 0.010488844
0002e0 95 16 b0 bc 99 9a a2 bc 20 f5 5d bd e4 8c 98 3c
       -0.021495143 -0.019849109 -0.054188848 0.01862187
0002f0 3c 80 01 3d 92 2e 2d be 00 4d 4b 3c a3 6c 10 be
       0.031616434 -0.16912296 0.012408495 -0.14103942
000300 ea b8 ab bd cf 6c ea bd 78 50 b3 3b 25 e4 93 bd
       -0.08384879 -0.11446535 0.005472239 -0.072212495
000310 96 57 3c be f5 01 87 bd 27 f2 a2 3a 98 09 43 bd
       -0.18392786 -0.0659217 0.0012431786 -0.04761657
000320 3b 91 b4 bd 16 a6 08 bb f2 c9 82 3d 5f e3 93 3d
       -0.08816763 -0.0020850948 0.06386174 0.07221102
000330 e9 ac 34 3c c3 0c 27 3e c8 4f c2 3c 93 50 b1 3d
       0.011027553 0.16313462 0.023719683 0.086579464
000340 fb 8e 21 3e 8d b0 1d 3e dd 6f a7 3d ce 62 4a 3c
       0.15777199 0.1539938 0.08175633 0.012352658
000350 ff 70 2d b9 37 52 06 3e c3 dc 66 bd 24 3b 07 bd
       -0.0001654066 0.131173 -0.05636288 -0.033015385
000360 5f 51 d9 3c 5b 17 18 3e d8 e4 ab bd a5 ec 4c 3d
       0.026528059 0.1485266 -0.08393258 0.05003037
000370 50 4e 0b 3e b6 74 24 3e 4e 7b 72 3d b0 d4 5b 3d
       0.13604093 0.16060147 0.059199624 0.05366963
000380 e5 1b 80 3d 56 b5 d0 bd 28 69 c5 bd f0 2a bb bd
       0.062553205 -0.10190837 -0.096391976 -0.09139049
000390 30 f3 82 bd 50 93 ea 3d fd 33 71 bc 54 6f ab 3c
       -0.063940406 0.11453879 -0.014721868 0.020927109
0003a0 65 f2 83 3c d2 95 52 3c 4e a4 b3 3d 63 82 92 3c
       0.016106794 0.012853103 0.08771573 0.017884439
0003b0 51 ea df 3c 84 77 79 bd a7 a0 e1 bd aa 67 7c bd
       0.02733341 -0.060904995 -0.1101697 -0.0616223
0003c0 a1 28 0e 3d 39 31 1a bd 85 a0 bf bc 96 91 f1 3d
       0.034706715 -0.0376446 -0.023391971 0.117953464
0003d0 8c 35 0c 3d a7 7c fd 3c 4c 24 92 bd 2a ad ca bd
       0.034230754 0.030943228 -0.07135829 -0.0989631
0003e0 95 fb a9 3d b2 2c 1f bc 9d 4d 2c bd 28 ba 23 be
       0.082999386 -0.009715246 -0.042066205 -0.15988982
0003f0 50 05 28 bb b0 a8 3a 3d 62 5c 5d bd 32 2d 03 bd
       -0.0025637932 0.04557103 -0.05404318 -0.032025523

Firstconv.1.weight f4 [16]
000000 14 72 18 3f ff 51 31 3f 5f 15 23 3f fb 14 b2 3e
       0.5954907 0.6926574 0.63704485 0.34781632
000010 e5 e3 12 3f 61 29 76 3f 32 fb 7b 3e bc 2b 13 3f
       0.5737899 0.9615689 0.24607542 0.5748861
000020 a5 e3 0b 3e f3 52 81 3e 72 a8 71 3f f4 21 8a 3e
       0.13661058 0.25258598 0.9439765 0.2697903
000030 18 45 42 3f 47 19 d3 3e 6c 75 39 3f 98 f7 08 3f
       0.7588668 0.41230223 0.72444797 0.535028

Firstconv.1.bias f4 [16]
000000 cc e9 d7 b8 4a 75 73 b7 e4 0d 70 38 6e 94 67 38
       -0.00010295547 -1.4511237e-05 5.7233396e-05 5.5212928e-05
000010 d7 65 7e b7 39 c8 2c 38 b5 d9 cb 39 8d 90 c1 37
       -1.5163291e-05 4.1194467e-05 0.00038881382 2.3074705e-05
000020 6f e0 c2 3a fd cb 89 b7 fb be 31 38 9d 69 d5 38
       0.0014867912 -1.6426662e-05 4.2377953e-05 0.000101763035
000030 cc ac 3f b8 21 e4 d4 b8 3d b5 03 36 38 76 e7 38
       -4.569888e-05 -0.0001015144 1.9626016e-06 0.00011036958

Firstconv.1.running_mean f4 [16]
000000 0a 9c 12 be 48 ff 87 3d 7e 9f 01 3e fb 4d 0f 3e
       -0.14317337 0.06640488 0.12658498 0.13994591
000010 1d 19 9c bc d0 54 97 bd 35 c7 47 3e 26 94 0a be
       -0.019054944 -0.073892236 0.19509585 -0.13533077
000020 24 18 39 be 7f 9d 1f be b4 3b c7 3d 69 66 25 3e
       -0.18075615 -0.15587424 0.09728184 0.16152348
000030 9f dc 3a 3e 00 c4 18 be b2 95 fd 3d a6 6c 8a bd
       0.18248223 -0.14918518 0.12382068 -0.06759004

Firstconv.1.running_var f4 [16]
000000 f4 74 20 43 b8 2b 9f 42 20 1f cf 42 d9 75 06 43
       160.45685 79.58539 103.56079 134.46034
000010 74 c0 fd 41 32 c7 bd 42 00 3c 64 43 67 ec af 42
       31.718971 94.88905 228.23438 87.96172
000020 0a fa 3b 43 fb 98 25 43 6c a2 54 42 57 fe 43 43
       187.97672 165.59758 53.158615 195.99352
000030 d2 5e 33 43 ed f3 09 43 65 4a d3 42 9b c3 2c 42
       179.37039 137.95284 105.6453 43.19102

Depthwiseconv.0.weight f4 [32, 1, 2, 1]
000000 95 78 81 be 89 3e be 3e 2f 47 12 3f 83 fc 93 3e
       -0.2528731 0.37157086 0.5713987 0.2890359
000010 12 f1 fb 3c 9a b0 02 bf 7f af 2d bf bb 68 9f 3e
       0.0307546 -0.5105072 -0.6784591 0.3113459
000020 05 72 5e be 7c 7a 63 bd 54 3f 8d bd a2 75 b2 3e
       -0.21723182 -0.055536732 -0.068968445 0.34855372
000030 62 c4 3f 3e ae 98 8b 3e 91 e1 40 bf b2 17 b1 3e
       0.18727258 0.27264923 -0.7534419 0.3458839
000040 8b 73 cb be 71 2e 48 3f a4 ad 04 be f1 9c 2e 3f
       -0.3973659 0.78195864 -0.12956864 0.68208224
000050 83 c2 25 3f 44 4e 0b 3e 25 38 f4 be fd 11 60 be
       0.64749926 0.13604075 -0.47699085 -0.21881862
000060 ff 7a e0 3e cc 9b 8d be 09 21 0d bf 57 f0 17 bd
       0.4384384 -0.27657926 -0.5512853 -0.03709444
000070 b6 98 99 be 1c 2d d8 be d0 92 1f 3f 13 54 7d 3d
       -0.29999322 -0.42221916 0.62333393 0.061847758
000080 d0 75 10 3d 78 35 f2 be fe 31 20 3f 7d 4c 83 bd
       0.035268605 -0.47306418 0.6257628 -0.06411073
000090 7e 43 9f be 16 9c da 3e e2 0e ee 3e 77 ee 74 be
       -0.3110618 0.4269721 0.4649573 -0.23919092
0000a0 a0 0d aa 3e b8 ab 16 be ac 94 18 be 9b 36 07 3d
       0.3321352 -0.14713943 -0.14900464 0.03301106
0000b0 64 73 77 3e 23 31 6f 3e 91 51 28 bf 1c e0 a0 bd
       0.24165112 0.23358588 -0.6574946 -0.078552455
0000c0 80 c5 c6 3c f0 51 b0 3e 8e db a5 be 9a c0 10 3f
       0.024264097 0.34437513 -0.3239407 0.56543887
0000d0 b7 55 53 3f a6 24 8b 3c 5c ac 92 3e c1 85 1a bf
       0.82552665 0.016985249 0.28647125 -0.6036034
0000e0 19 bf 05 3e 7f 31 d1 bc 7a 7c 2a be b2 1f ec 3e
       0.13061179 -0.025536297 -0.16649047 0.46117932
0000f0 98 a5 06 3f a7 ec 31 3e 67 fd 2f bf 7b e7 29 3f
       0.52596426 0.17375432 -0.68746036 0.66368836

Depthwiseconv.1.weight f4 [32]
000000 45 b1 0d 3f 0c 86 2a 3f 4f 52 9d 3e c3 e8 3a 3f
       0.55348617 0.6661079 0.3072686 0.73011416
000010 26 2b f0 3e 90 3f 78 3f 14 10 bd 3e 85 4c 48 3f
       0.4690792 0.9697199 0.3692633 0.7824176
000020 70 77 8e b9 03 f4 11 3f cd ed 4a 3f 14 12 d1 3e
       -0.00027173338 0.5701296 0.79269105 0.40834105
000030 df fe 33 3f 0b ea e0 3d e6 39 71 3f 35 ce 1c 3f
       0.7031078 0.1098214 0.9422897 0.61252147
000040 9c 4f 67 3f 83 91 69 3f d4 23 28 3f 73 9f 3d 3f
       0.9035585 0.9123766 0.6567967 0.74071425
000050 68 ae 95 3e f2 68 35 3f 39 59 5c 3f 06 60 4b 3f
       0.29234624 0.7086326 0.8607364 0.79443395
000060 13 39 53 3f 29 69 18 3e 2f 7b 7a 3f 45 77 00 3f
       0.82508963 0.14883865 0.97844213 0.5018199
000070 b9 3a 1b 3e 12 56 b1 3e 7d 9b 31 3f 23 3d a2 3e
       0.1515912 0.3463598 0.6937788 0.3168727

Depthwiseconv.1.bias f4 [32]
000000 4d aa 30 3e 14 04 22 bd 95 bb 2c bd 15 c9 55 3d
       0.17252465 -0.03955467 -0.04217108 0.05219372
000010 25 14 62 bd 82 14 dc bd 1d b4 81 bd 31 e1 5c bb
       -0.055194993 -0.10746099 -0.06333182 -0.003370356
000020 73 c0 cb 3d 9a c0 e0 bd 4a bb b3 bd 62 92 89 bd
       0.09948816 -0.10974236 -0.08775957 -0.067173734
000030 37 f7 24 3e 20 93 c1 3c 01 0f 1f bd d1 7a ba bd
       0.1610993 0.023629725 -0.03883267 -0.091054566
000040 1a 13 aa 3d 2d 98 5b 3d 58 42 e9 3d 10 6c a9 3d
       0.083044246 0.053611923 0.11389607 0.082725644
000050 08 49 dc 3c 67 eb 0f 3e b0 06 fc bd fa 3b de bc
       0.026890293 0.14054643 -0.12305963 -0.027128208
000060 87 02 34 3d 1a 99 d9 bd 97 46 4b bc f3 5b b1 3d
       0.043947723 -0.10624905 -0.012406967 0.08660116
000070 3c bf bc 3d eb e1 12 be bd 2c ee bc bb 56 c0 bc
       0.092161626 -0.14343993 -0.029074067 -0.023478856

Depthwiseconv.1.running_mean f4 [32]
000000 3f 4a 94 ba 5b a3 01 3a d3 ed 8a ba 0f 04 08 3b
       -0.0011313631 0.00049453013 -0.0010599442 0.0020754372
000010 1d 66 97 39 8e 6a 72 3a fd 1e 4f 38 7a 03 b7 3a
       0.00028877045 0.0009247445 4.9381506e-05 0.0013962828
000020 ab 28 b1 ba f5 be 74 ba 79 4c 48 3a 8e ac e2 b9
       -0.0013516148 -0.0009336316 0.000764079 -0.00043234642
000030 cd 99 15 ba de 50 96 39 ab a5 c9 38 61 48 93 3a
       -0.0005706817 0.0002867048 9.615285e-05 0.001123678
000040 ae c7 3c b9 21 78 51 3a 91 82 28 ba 0a 13 21 3a
       -0.00018003464 0.0007990618 -0.00064281473 0.00061444996
000050 7a 49 cf ba 79 5b 10 3a a3 5a 46 b7 65 12 ff 39
       -0.0015814744 0.00055067946 -1.1822823e-05 0.00048651095
000060 04 84 42 3a 11 e6 22 3b e2 31 87 3a 1a d7 aa 3a
       0.00074201846 0.0024856369 0.0010314549 0.0013034076
000070 7f 22 b2 b9 52 f3 c1 3a a4 b7 b3 39 7b 86 8c ba
       -0.00033976507 0.0014797247 0.00034278363 -0.0010721231

Depthwiseconv.1.running_var f4 [32]
000000 85 08 bc 3d 88 c0 8b 3e 88 27 29 3e e0 68 3d 3e
       0.091813125 0.27295327 0.16518986 0.18497038
000010 e3 75 a7 3d 2f 49 c8 3d 0e 2f a0 3d c3 c5 d1 3d
       0.08176782 0.09779584 0.07821475 0.10242798
000020 11 88 21 3e 7b 13 25 3e 3c 04 0b 3f 96 71 d9 3e
       0.15774561 0.16120712 0.54303336 0.42469472
000030 25 47 84 3d d3 21 98 3d 96 e4 46 3e 68 86 48 3e
       0.06458882 0.074283265 0.19423136 0.19582522
000040 c2 af 7b 3d 97 72 80 3d b7 2a 87 3d e8 b9 88 3d
       0.061446913 0.06271856 0.06599944 0.06676084
000050 6a ef ef 3d dc 54 8c 3d f8 6c 8f 3d c0 6d b8 3d
       0.117155865 0.06852123 0.07003206 0.09005308
000060 30 e2 fa 3d e4 0d 29 3e 99 5b 16 3e 43 e7 bf 3d
       0.12250173 0.16509205 0.14683379 0.093702815
000070 c9 8b 80 3d 0c 61 01 3e b4 62 33 3e 83 ad 11 3e
       0.06276662 0.12634677 0.17518121 0.14226346

Seperableconv.0.weight f4 [32, 32, 1, 15]
000000 2b 78 27 bd 72 e3 27 bd 0a dd 13 3c 36 42 b3 bc
       -0.040886085 -0.040988393 0.009024868 -0.021882158
000010 6c 7f 55 ba a2 61 94 3d 2e 00 5a 3d 42 ac e5 3d
       -0.00081442925 0.072451845 0.053222828 0.11214496
000020 a1 aa 2d 3c a5 15 30 3d f1 f4 00 3d 9c e8 33 3d
       0.010599763 0.04298939 0.031483594 0.043923005
000030 8a c6 56 3d 94 e2 85 3d b1 96 b2 3d bf 04 83 bc
       0.052435435 0.06537357 0.08720148 -0.015993474
000040 90 0e 8d bd ec 01 f1 3c 6c 17 69 bd d8 50 de bd
       -0.06887543 0.029419862 -0.056907102 -0.108552635
000050 9f 74 93 bd 8f b2 a8 bd c3 02 e4 bd 6d 7c e6 bd
       -0.07199978 -0.08237182 -0.11133339 -0.11254201
000060 ae 62 e1 bc b7 76 8f bd f4 40 5e bd 62 f7 89 bd
       -0.027512874 -0.07005065 -0.054261163 -0.06736638
000070 f7 ed f9 bc 2b fd 98 bc d2 a1 6b bc 56 26 14 3d
       -0.030508978 -0.018675407 -0.014381843 0.036169372
000080 6f 29 58 3d 6a 21 2f 3b e3 a9 2d 3d 2c 6c a8 bd
       0.05277389 0.0026722797 0.042398345 -0.08223757
000090 c2 0f a1 bd 43 e8 62 bc 07 03 8d bc cd 39 68 3c
       -0.07864334 -0.013849321 -0.017213358 0.014173937
0000a0 1b d5 c5 bd 0f a2 af bd 35 ab 29 bd 55 2c d8 bc
       -0.09659787 -0.08575832 -0.04142304 -0.026388327
0000b0 43 86 3d bc bc de 90 3d 8e 16 03 3e 81 75 f5 3d
       -0.011567655 0.07073733 0.12801573 0.11985303
0000c0 03 95 9d 3c a0 0d 75 3c 12 a7 89 bc 7c 8d 13 bd
       0.019236093 0.014956862 -0.016803298 -0.036023602
0000d0 c2 45 9e bd 03 6a 7d bd 0c 1b b0 bd 66 9c fc bc
       -0.07728149 -0.06186868 -0.08598909 -0.030836295
0000e0 76 92 70 bd 79 cc 0f bd 4b 0a b6 bc 41 19 15 bd
       -0.058733426 -0.03510711 -0.022221705 -0.036401037
0000f0 66 44 07 3e 58 ae 1e bb 7e 45 0b 3d 93 c5 65 3d
       0.13209686 -0.0024212804 0.03400182 0.056096625
000100 34 26 72 3d 21 1a fb bc 9f ce e7 bc b7 ef 70 bd
       0.059118465 -0.030652108 -0.028296767 -0.05882236
000110 36 90 87 bd ff a0 1d bc 6b 12 e5 bc 78 06 80 3c
       -0.06619303 -0.009620904 -0.027962884 0.015628085
000120 10 d0 ce bc 90 f2 32 bd 69 94 9c 3c 31 c3 14 bd
       -0.025245696 -0.043688357 0.019113736 -0.03631896
000130 d7 71 99 3d de 9f d6 3c 09 6b 16 be c5 84 e8 bd
       0.07492416 0.026199277 -0.14689268 -0.11353449
000140 7c f7 28 be ba 81 97 bd d9 82 17 be 4e 05 d1 bd
       -0.16500658 -0.0739779 -0.14796008 -0.1020609
000150 c5 88 9c bd 6e 43 23 be c5 31 06 be 30 e6 37 ba
       -0.07643274 -0.15943691 -0.13104923 -0.00070151966
000160 de 9e 86 3c be 45 24 bd 3f 89 73 bd a6 33 aa bd
       0.016433176 -0.040105574 -0.05945706 -0.083106324
000170 4a f9 a5 bd 74 48 9a bd d8 d8 8e bd 16 c4 d2 bd
       -0.08104189 -0.075333506 -0.069749534 -0.10291307
000180 d8 fb f3 bd d4 45 40 bc 6e 66 0f 3c f7 91 90 bd
       -0.1191327 -0.011735398 0.0087524485 -0.070590906
000190 9f 17 31 bd 74 f6 a7 bd 51 b2 e3 bd 54 49 12 3b
       -0.043235417 -0.08201304 -0.111179955 0.002232154
0001a0 45 5f a7 bd a5 05 9b 3d 35 f6 9a 3d f7 56 8d 3d
       -0.08172468 0.07569436 0.075664915 0.06901353
0001b0 a5 be 06 3d f4 c6 b7 bc 8e d8 c6 3b f9 ed 75 3d
       0.032896657 -0.022433735 0.006068296 0.0600414
0001c0 d2 c9 cc 3c 77 6c a3 ba 46 da 94 3c f0 3a fa 3c
       0.02499858 -0.0012468238 0.018170487 0.030545682
0001d0 8d b7 29 3c 78 fa 3e 3c 8b ce d1 bd ea bc 31 bd
       0.010358703 0.011656396 -0.10244473 -0.043393053
0001e0 9f 75 da bd 53 a5 7d bd a8 5b 00 be 3e 9c 0e bd
       -0.10666966 -0.061925244 -0.12534964 -0.034816973
0001f0 57 1a e6 bd 02 05 e4 bd dd ee 8e bd 32 47 33 bd
       -0.11235493 -0.11133768 -0.06979153 -0.04376907
000200 4d be 9e 3b ef a9 5f bc 71 d5 77 3d 6a 16 02 3d
       0.004844463 -0.013651355 0.060506288 0.031759657
000210 ad 91 58 3d a8 d0 6b 3d 62 8d 40 3d ea 0d 76 3b
       0.052873302 0.057572037 0.047009833 0.0037544915
000220 5f ea 7f 3d 21 23 38 bd fd be 0a bd 97 b3 97 bc
       0.062479373 -0.044955377 -0.033873547 -0.018518252
000230 52 16 5c bd 65 b5 96 3b a0 20 d7 3c 8d 56 34 bd
       -0.053732224 0.0045992606 0.026260674 -0.044027854
000240 b2 f8 1b 3d 9f 35 50 3d 6e 85 7e bd 3f b0 f5 bc
       0.03807897 0.050832387 -0.062138967 -0.029991267
000250 ad 65 98 bd cc 50 b2 bd f6 c6 e3 3d c7 ee c4 3d
       -0.07441268 -0.08706817 0.11121933 0.09615856
000260 01 89 66 bc 95 f2 82 3c 52 02 22 3d 9f ed 1f bd
       -0.01407075 0.015984813 0.039552994 -0.039044973
000270 5a 75 a1 bd 10 1b e9 bc d0 81 b3 bc 73 b6 ae bc
       -0.07883711 -0.028455287 -0.021912485 -0.021327233
000280 4c 3c 11 b9 f9 c5 22 3d 32 22 5e ba f1 05 a7 bc
       -0.0001385074 0.039739583 -0.00084737234 -0.020388575
000290 f0 7a 1e bd 03 d9 25 be 3b 75 06 be c3 45 e6 bd
       -0.03869146 -0.16196065 -0.13130657 -0.11243775
0002a0 9d 78 a8 bd a9 b3 7a bd 0a 91 10 bd bf 91 1f 3d
       -0.0822613 -0.061206494 -0.03529457 0.038957354
0002b0 56 cf fe bc 9a 1f f5 bb e4 5a 95 bc af 20 49 bd
       -0.031104725 -0.007480574 -0.018231817 -0.049103435
0002c0 8a c6 7a bd 36 9d 6b bd ba 26 48 bd ec f5 b9 bd
       -0.061224498 -0.057522975 -0.048865058 -0.09080109
0002d0 24 fc b0 bd 4a 92 c2 bc c0 91 b1 bc 0a 82 96 bd
       -0.08641842 -0.023751397 -0.021675944 -0.07349022
0002e0 7c aa 2d 3d 00 0b 90 3d d7 29 04 3e 87 49 b3 3d
       0.042398915 0.07033348 0.12906586 0.087542586
0002f0 9b 7b 84 3d 95 ce 87 3c 25 ae 89 bc 17 05 c2 3c
       0.06468888 0.016577998 -0.016806671 0.023684068
000300 62 1f 20 bb e5 79 7b 3d 7b 76 0d 3d bd 74 4c bc
       -0.0024432768 0.061395545 0.03453682 -0.012479004
000310 16 db 26 bd 93 78 9a 3c 86 91 29 bd 08 a1 8d 3b
       -0.04073628 0.018856322 -0.041398548 0.004322175
000320 2a c3 b8 bd 47 13 db bd 5c 78 2f bd 95 71 3c bd
       -0.090215996 -0.10697036 -0.042839393 -0.046006758
000330 5f 80 ca bd 78 e0 d6 bd 08 fb 92 bd 04 9e c9 bd
       -0.09887766 -0.10492033 -0.07176787 -0.09844592
000340 c7 2e 0b bd ca 80 8a bd db 2d 0d be 56 9e 01 bd
       -0.033980157 -0.06762846 -0.13787024 -0.03164514
000350 7e 2b 53 bc cb df a6 bc 6e e3 17 be 51 74 23 be
       -0.012888787 -0.020370385 -0.14832851 -0.1596234
000360 da b1 f5 bd 83 3b c3 bd 87 92 f7 bd a7 23 dd bd
       -0.11996813 -0.09532835 -0.12088495 -0.10797816
000370 65 af 74 bd 53 8c 81 bd 88 cf f7 bd 9d 62 34 bd
       -0.05973758 -0.06325593 -0.1210013 -0.044039357
000380 ea cf 0b 3d 60 dc da bc fd 99 75 3d 90 22 d7 bb
       0.03413383 -0.026716411 0.059961308 -0.0065653995
000390 6a c8 e2 bc 92 b6 79 3c 6c e2 b2 3d 7f 18 97 bd
       -0.027683455 0.015241282 0.08734593 -0.07377719
0003a0 b6 81 71 bd 81 ba 73 3c 35 03 c9 3c 7b df b5 3c
       -0.058961593 0.014876009 0.024537662 0.02220129
0003b0 ae 2c 07 bd 67 e3 bb bc 30 d4 00 bb 46 de 4d bd
       -0.033001594 -0.022935582 -0.0019657724 -0.050260805
0003c0 bb fc ad bd e1 db df bd f2 1a 9b bc 6e 46 4c bd
       -0.0849547 -0.109306104 -0.018933747 -0.049871854
0003d0 7d 3b 02 bd 05 f3 c7 3c b8 33 55 3a 75 2d c0 3c
       -0.031795014 0.024407873 0.0008133012 0.023459176
0003e0 c3 2c 0a bc 44 ca 02 bd c0 a9 9c bd 3d fe 7f bc
       -0.008433524 -0.031931177 -0.07649565 -0.01562458
0003f0 3a 52 cc 3a 1b 9c a0 bd 21 24 fe ba 4d a1 cd 3d
       0.001558847 -0.07842275 -0.0019389429 0.10040531

Seperableconv.1.weight f4 [32]
000000 57 23 e9 3e 6c 27 e5 3e dd 88 da 3e e6 11 2d 3f
       0.45534775 0.4475664 0.42682543 0.67605436
000010 b9 04 e5 3e 6c 34 a7 3e fb 02 27 3f 9d fe 15 3f
       0.44730166 0.32657182 0.6523892 0.58591634
000020 3e 66 88 3e 7f f1 58 3e d8 f6 d9 3d 06 4b ec 3e
       0.26640505 0.21185873 0.10642785 0.46150988
000030 f4 86 24 3f 2f 52 44 3e 85 c4 8d 3d 0a 31 fd 3e
       0.6426842 0.19171976 0.06922249 0.49451476
000040 61 47 b9 3d fb 44 6c 3e 47 9a 49 3f be d6 4d 3f
       0.090468176 0.23073189 0.78751034 0.80405796
000050 44 58 2c 3e 3b 67 d6 3e fe 10 14 3f a6 26 4e 3e
       0.16830546 0.41875634 0.5783843 0.2013193
000060 70 b3 19 3f 80 61 5c 3f 7d 44 ee 3e 7c 0c 77 3e
       0.60039425 0.86086273 0.46536627 0.24125856
000070 a0 4a c2 3e a4 15 2f 3f fc 06 1e 3f 3e 91 1f 3f
       0.3794756 0.68392396 0.6172941 0.62330997

Seperableconv.1.bias f4 [32]
000000 1f d4 04 be 55 a9 78 bd da 60 c3 bd 0c 6f ac bd
       -0.12971543 -0.060708363 -0.09539957 -0.08419618
000010 3e 6d b5 bd 7a ea de bd 1e ca ab bd 2b 1d a5 bd
       -0.08858727 -0.108845666 -0.0838816 -0.08062204
000020 f5 91 a6 bd f6 db a9 bd f5 00 14 bd c3 3d 87 bd
       -0.08133308 -0.08293907 -0.036133725 -0.06603577
000030 77 6e 9d bd a8 3d ae bd b9 a8 6e bc 59 cd bd bd
       -0.07687085 -0.08507854 -0.014566594 -0.092676826
000040 4c 32 92 bd 53 3e 8f bd 7d 54 96 bd 19 26 91 bd
       -0.071384996 -0.06994309 -0.073403336 -0.07087345
000050 f5 a2 14 bd 8d d2 a0 bd 3e 73 e7 bd f8 0f 6e bd
       -0.03628822 -0.078526594 -0.113012776 -0.058120698
000060 91 d6 13 bd dd d9 4c bd 62 b4 db bd 8b 59 2a bd
       -0.0360933 -0.050012458 -0.10727765 -0.0415893
000070 6b a6 c0 bd 1b 28 8d bd 75 fe 05 be ff 79 fa bd
       -0.09406742 -0.06892415 -0.13085349 -0.122303

Seperableconv.1.running_mean f4 [32]
000000 09 9a 51 bf 4c af 6d bf 91 71 b2 3f b4 60 87 bf
       -0.81875664 -0.92845607 1.3940908 -1.0576386
000010 70 f0 aa bc 36 74 ac bf cf 5a 94 3f f0 db 68 be
       -0.020866603 -1.3472965 1.1590213 -0.2274015
000020 67 5b c6 be 0c 57 04 c0 1b 04 94 3f a0 43 ba bf
       -0.3874161 -2.067813 1.1563753 -1.4551888
000030 36 ea e7 bf b8 ed b5 be ea 3f a6 bf e0 8f 0d c0
       -1.811835 -0.35532928 -1.2988255 -2.2119064
000040 4f 81 02 3e 4b b3 06 c0 98 50 c0 be 4a 57 a1 bf
       0.1274464 -2.1046932 -0.37561488 -1.2604764
000050 b7 2d 79 3e d3 ac 0a c0 17 d6 2a 3f dc 72 41 bf
       0.24333845 -2.1667984 0.66732925 -0.75565886
000060 22 95 e5 3f 4a 08 f4 bf b7 e0 0a c0 28 a2 8e 3e
       1.7936137 -1.906503 -2.1699655 0.2785809
000070 dd 46 1e c0 7e a6 87 3e 96 88 c3 bf 02 b1 72 bd
       -2.4730752 0.2649421 -1.5276058 -0.05925084

Seperableconv.1.running_var f4 [32]
000000 a7 d1 d1 40 29 19 26 41 3c bc a2 41 a9 c3 0b 41
       6.5568423 10.381143 20.341911 8.735269
000010 8a a5 19 41 d8 fa 38 41 5e e6 1f 41 d4 ff 8a 41
       9.602915 11.561241 9.993742 17.374916
000020 44 67 8d 40 58 a9 16 41 57 d8 0c 41 8a 26 a2 41
       4.4188557 9.416344 8.802817 20.268818
000030 33 25 6d 41 51 20 ad 40 c3 a1 11 41 5c 53 25 41
       14.821582 5.410195 9.101993 10.332851
000040 28 3f 41 41 96 43 07 41 71 20 3b 41 50 88 b1 40
       12.077919 8.454 11.69542 5.5478897
000050 52 49 29 41 33 59 48 41 5e 60 a5 40 bd 71 fc 40
       10.5804 12.521777 5.1680136 7.888884
000060 66 d6 0d 41 7a 03 b0 41 76 79 d7 40 c5 28 0f 41
       8.864843 22.001698 6.733577 8.9474535
000070 38 56 44 41 93 04 e1 40 82 6c ec 40 6c d0 03 41
       12.2710495 7.0318084 7.3882456 8.238384

Classfier.0.weight f4 [2, 736]
000000 de bd 00 3e 01 4c 88 bc 3e f2 c1 bc 88 40 c0 bd
       0.12572429 -0.016637804 -0.02367508 -0.09387308
000010 aa fe a7 ba 92 20 21 3c 02 a6 8e 3b 70 0f c9 3c
       -0.0012816985 0.0098344255 0.0043532858 0.024543494
000020 35 68 c2 bc ef 3a e2 bc c0 6f 21 bb e7 37 43 3d
       -0.02373133 -0.027615992 -0.0024633259 0.047660735
000030 87 21 8f bb c3 4f 96 bd d9 b7 38 3d 8e af a1 bb
       -0.0043680104 -0.07339432 0.045097206 -0.004934258
000040 ce 75 18 3d 9d 2d 1b 3c 32 af a6 3c c2 ec 14 bd
       0.037221722 0.009471324 0.020347212 -0.036358602
000050 a0 60 ce 3a 6b 81 a6 3c af 2c c7 bd f3 5a 65 3d
       0.0015745349 0.020325383 -0.097253196 0.05599494
000060 ff 4f 38 3d 65 9e a7 3d 43 2a 2d 3d 58 05 56 3d
       0.044998165 0.08184508 0.042276632 0.05225119
000070 00 17 52 3a 73 22 80 3c d8 b7 7e bc 16 7d 8c bd
       0.00080142915 0.015641427 -0.015546761 -0.06859796
000080 cc 8b 66 bd ae ac 24 bd fa 93 31 3d b0 1e 25 bd
       -0.056285664 -0.040203743 0.043354012 -0.04031247
000090 4a 71 80 3d 37 59 a2 3d 8a e8 80 bc be 2e de 3c
       0.06271608 0.07927173 -0.015735883 0.027121898
0000a0 31 cb 60 3c ee 08 9d 3d f7 47 67 bc 32 ae 87 3b
       0.01372032 0.07667719 -0.014116279 0.0041406387
0000b0 89 5d 91 bc 41 e5 3f 3b b3 ee 26 bd 78 7a ab bd
       -0.017744796 0.0029280933 -0.040754985 -0.083729684
0000c0 6e 02 46 bd 21 cf 84 3a 36 a9 21 bd dd b9 ad 3b
       -0.04834216 0.001013253 -0.039468013 0.0053016976
0000d0 81 5a f7 3c 43 3c 6a 3c 2f 09 56 bc d1 0e af bd
       0.030194523 0.014296594 -0.013063713 -0.08547748
0000e0 95 ed 91 bc 59 11 9d bd 29 6b f8 bb ac d4 2f bd
       -0.017813483 -0.076693244 -0.007581134 -0.04292743
0000f0 58 d8 2b ba 8f 3c 3e bc a0 d6 ac 3d 5d f0 2a bc
       -0.000655537 -0.011611118 0.08439374 -0.010433284
000100 27 9e bd 3b 10 14 5b bd 3f 6e e2 bc 7c 84 20 bd
       0.0057866755 -0.05348593 -0.02764046 -0.039188847
000110 14 7e d1 3a f2 07 9b 3d f0 a3 d7 3d 8d c6 0a 3d
       0.0015983009 0.07569875 0.105293155 0.03388076
000120 c0 b7 81 3d da 0e f2 bc 70 4c 39 bd d4 91 e1 bb
       0.06333876 -0.029548097 -0.045238912 -0.006883839
000130 11 b2 bb 3a 3e 4f f4 bc 0b 19 2b 3c 88 06 29 bd
       0.0014320036 -0.029822942 0.010442982 -0.041265994
000140 1f 42 d5 bc 79 eb bc bc d5 b9 ec 3c c7 1b 7d 3d
       -0.026032506 -0.0230615 0.028897205 0.06179407
000150 9a ff 43 3d 75 1e ca bc d8 7b d8 bc 1a d5 38 3d
       0.047851183 -0.024672726 -0.02642624 0.045125104
000160 9f 73 43 bc f8 d3 2c bd e4 a3 5f bc 00 df a8 bc
       -0.011929422 -0.042194337 -0.013649914 -0.020614147
000170 17 b0 bb 3d 9f ff c4 3c f0 c7 e0 bc ac ff f5 bc
       0.09164446 0.02404767 -0.027439088 -0.03002914
000180 a6 85 31 bc 55 a0 f4 bc 0f b0 9e bc 54 1a 14 bd
       -0.010835087 -0.029861609 -0.01937106 -0.03615792
000190 f2 43 a7 3c 9f ab d1 bc 59 2c 6b 3d ac 71 58 bc
       0.020418141 -0.02559453 0.05741534 -0.013210695
0001a0 ef ff a4 bc 0c e9 99 bd c7 62 4f bd 03 a6 8a bd
       -0.02014157 -0.07515153 -0.05063131 -0.067699455
0001b0 ef e9 9f 3b 25 16 83 bd 35 69 02 3d cf 43 79 bd
       0.004880182 -0.06400708 0.031838614 -0.060855683
0001c0 d6 a1 20 bd a8 52 5b 3b 45 0a 22 bd 99 3f 79 bd
       -0.03921684 0.0033466015 -0.039560575 -0.060851667
0001d0 b4 b5 98 bd 51 9a 00 bd a1 9d 17 bd 0b ac fa bd
       -0.07456532 -0.031397168 -0.03701556 -0.12239846
0001e0 2d 69 8e 3c 3e 1b 9f 3d a3 6e 9b bb 16 06 00 bc
       0.017384136 0.07768868 -0.0047434135 -0.007813951
0001f0 4e 21 b8 3d 5d 3d 53 3d e6 6e 4d 3b ea 54 ee bc
       0.08990727 0.051572192 0.0031346618 -0.029093225
000200 55 3f 83 bc f7 f3 67 bd 63 9c 3c bc fc 71 21 bc
       -0.01602141 -0.056629147 -0.011511895 -0.009853836
000210 48 79 4f bb 33 f5 e1 bc 19 ed 89 3d 54 f2 18 bc
       -0.0031657983 -0.02758274 0.06734676 -0.009335119
000220 9d df 5d 3c 2e c3 06 3d 82 db 31 bc ed 32 da 3c
       0.013542083 0.03290098 -0.010855557 0.026635611
000230 7a e3 55 3c a0 c3 f6 3c 9f eb ac bc 1b 9e e7 bb
       0.013054723 0.030122578 -0.021108447 -0.007068408
000240 e2 20 c5 bd f3 fb 5a bd 0e 56 3e bd fc 66 ae 3c
       -0.096254125 -0.053462934 -0.046468787 0.021289341
000250 de 91 fb bc 59 d4 23 3d f8 19 5c bc a2 79 6d 3c
       -0.030709203 0.039997432 -0.013433926 0.014494332
000260 e2 34 34 3c 9f 0e 2c 3c 00 06 83 3c c2 7b b3 3c
       0.010998936 0.010501533 0.015994072 0.021909598
000270 3a af b7 bc a2 02 4b bc 9a 4e a3 ba 3a cf d2 3c
       -0.022422422 -0.012390764 -0.0012459338 0.025733579
000280 be de 30 3c da 1c 8e bd 0f 89 bf bc 71 4d 2f bd
       0.010795293 -0.06939097 -0.023380784 -0.042798463
000290 c0 ee 82 bc 48 10 81 bd 41 80 33 3c 92 b2 df bc
       -0.015982985 -0.063019335 0.010955871 -0.027306829
0002a0 a1 bc 75 bc 94 81 f5 3c 7b 4d 1f 3b 54 b9 d9 3c
       -0.014998586 0.029969014 0.0024307657 0.02657763
0002b0 da 34 45 bc 8b e8 c9 bc 37 c6 59 3d 13 b8 09 bd
       -0.012036527 -0.024647018 0.053167548 -0.033622812
0002c0 51 d0 89 bd 99 f5 8e bd 0a ba 26 3d 21 0d c5 bc
       -0.06729186 -0.06980438 0.040704764 -0.024054112
0002d0 f4 af 1f bb 9a 4c c6 bc 70 b2 e1 bc 68 d9 88 bd
       -0.002436635 -0.024206448 -0.027550906 -0.06682092
0002e0 e2 c1 08 3d 84 e4 10 3c cd 9b 31 bc aa 60 5f bc
       0.033388026 0.008843545 -0.010840368 -0.013633886
0002f0 0f eb 33 bd 5b 62 9f 3c 36 f2 b6 3b ba 2f 8f bc
       -0.04392534 0.01945608 0.005583073 -0.017478812
000300 bb f7 0a bd 0f a4 f8 3c 28 84 ae bc 07 84 8f 3c
       -0.03392766 0.030351667 -0.021303251 0.01751901
000310 4c d4 ac 3b 7e f3 9f bb 28 88 85 3b de 0c 7d bc
       0.005274331 -0.0048813215 0.004075069 -0.015444962
000320 ce d6 39 bc 2f ce 2c 3d 76 13 d6 bc 6f b2 36 3c
       -0.011342717 0.04218882 -0.026132327 0.01115094
000330 ad 8d 17 bd d7 21 ca 3b 3a 51 93 3c 65 0f 76 3d
       -0.037000347 0.006168585 0.017983068 0.060073275
000340 78 f2 f1 3c 34 cc c9 3d 40 fd a7 3d 5d 87 76 3d
       0.029534563 0.09853402 0.082026005 0.060187686
000350 25 e9 d8 3a ae 1c 17 bb 1e 95 f0 bc e0 3d 20 bd
       0.0016548975 -0.0023057866 -0.02936798 -0.03912151
000360 3c 77 a3 bb fc 24 b0 ba 77 23 00 3c 9a 37 a9 3c
       -0.004988579 -0.0013438757 0.0078209555 0.020656396
000370 ed 51 03 3d b6 0e 52 bd 78 6d 7b bd 3f 24 17 3c
       0.032060552 -0.05128356 -0.061383694 0.00922495
000380 5e 28 8a 3b 75 60 8b bc 0e 47 17 bd 37 19 20 bd
       0.004216238 -0.017013768 -0.036932997 -0.039086547
000390 47 d4 24 3b 64 ae 1f bd 41 43 c7 bd 0a 15 ac bd
       0.0025150941 -0.03898467 -0.097296245 -0.084024504
0003a0 1c 54 a9 bd d8 c8 5a 3c 64 08 61 bd 6f f6 b4 bd
       -0.08267996 0.013353549 -0.054939643 -0.08836066
0003b0 b4 d0 c6 bc 85 e8 80 3c cf d1 be bc 1f 53 ce ba
       -0.02426944 0.015735874 -0.023293404 -0.0015741325
0003c0 5e b0 2c bd 40 1b 84 bd ba 13 3c bd 50 25 21 bd
       -0.042160384 -0.0645051 -0.04591725 -0.039342225
0003d0 96 71 2d 3c e0 05 8c bd 04 6f dc 3c 9c d0 dd 3c
       0.010586163 -0.06837058 0.026908405 0.027077012
0003e0 49 5f 04 3d 97 c9 90 bc 08 ba 90 3c 51 4e a7 bd
       0.032317434 -0.01767425 0.017666832 -0.081692345
0003f0 2d a9 c9 3d e0 6d 05 3e 0e 4b ca 3d ca 21 81 3d
       0.09846721 0.13030195 0.09877597 0.06305273

Classfier.0.bias f4 [2]
000000 46 84 d6 3b 75 7c 0f 3d
       0.00654653 0.0350308
