CNN_Mobile_Net/CPU_version/DeepConvNet/DeepConvNet_LeakyReLU.pt (torch_old, 612257 bytes, 28 tensors)

FirstConv.0.weight f4 [25, 1, 1, 5]
000000 f0 8e a5 bc 22 e7 e7 3e a2 a9 0a 3f 69 b0 92 be
       -0.02020976 0.45293528 0.5416509 -0.28650215
000010 82 d9 e7 3e f2 e5 31 be e4 e6 78 bd ef d4 c5 be
       0.45283133 -0.17372873 -0.06076707 -0.38639018
000020 31 4f e8 3d 22 8a 61 be 06 b1 44 3b 22 2e 52 be
       0.113432296 -0.2202535 0.003001274 -0.20525411
000030 d7 3e c7 3d a8 56 0c bf 8a e4 ac be 28 84 12 3e
       0.097287826 -0.54819727 -0.3376811 0.14308226
000040 2d 69 a5 3e 45 5f af 3e f3 e8 18 3d 33 d9 e4 bb
       0.32306805 0.34252372 0.037331533 -0.0069839
000050 9c a9 ef 3e fd a1 80 3c fb 92 94 be e3 4e 87 3e
       0.4680909 0.015702242 -0.29018387 0.26427373
000060 cc 0d b0 3e a9 ee a0 3d 3e cc b4 be 03 a1 c3 bc
       0.34385526 0.07858021 -0.35312074 -0.023880487
000070 ec 1b 7b 3d ec 54 32 be e0 d5 84 3e 1b 56 b7 3e
       0.061305925 -0.17415208 0.25944424 0.3580788
000080 80 49 e3 be 05 e1 b4 3e 5c 3e d0 3e fb a8 7b be
       -0.44392014 0.35327926 0.40672576 -0.2457618
000090 ce 6c 6a be b0 92 03 3f fb f2 b8 3e aa 92 a0 be
       -0.22893068 0.513957 0.3612288 -0.31361896
0000a0 e9 a4 9b 3e 8c 28 8c 3c 29 b3 fd be 14 90 82 3e
       0.30399254 0.017109178 -0.4955075 0.25500548
0000b0 53 13 4c 3e 50 21 92 3d d2 50 79 bd d4 3f f3 3d
       0.19929247 0.0713526 -0.060868092 0.118774086
0000c0 8c a4 66 3e 75 6d 9d 3e 1a 2c 17 3d 8b c5 8d be
       0.22523707 0.30747572 0.036907293 -0.27689776
0000d0 a8 5b 62 3e fe ae 94 3e b5 23 a9 bc 0f aa bd 3e
       0.22105277 0.29039758 -0.02064691 0.37043807
0000e0 a9 e8 5c 3e d8 03 52 3e df 53 0d 3e 58 2b a6 3e
       0.21573128 0.20509279 0.13801526 0.32454944
0000f0 b2 0b ec be 5f e3 69 bd ee e5 08 be bb 85 ad bd
       -0.46102673 -0.057101604 -0.13368961 -0.08472773
000100 da b8 a3 3e bf fe a3 3d 75 87 70 be ec f3 74 3e
       0.31976968 0.08007573 -0.23489173 0.23921174
000110 47 9d f3 3e 2d 44 61 be 97 a9 35 be 0c fa ab 3d
       0.4758093 -0.21998663 -0.17740475 0.08397302
000120 a1 39 72 bd 5f 5f 72 be 7d f0 dd 3e c7 dd 5d 3e
       -0.05913699 -0.23669194 0.4334754 0.21666633
000130 49 35 46 bd 40 2c 06 be 9a 61 99 3c 8c 49 8d bd
       -0.04839066 -0.13102818 0.018723298 -0.068987936
000140 c0 83 ae 3e f9 7a 5a bd db c9 03 3f e7 46 d3 3e
       0.34084892 -0.053339932 0.5147988 0.41265032
000150 42 fe 3f 3e 22 c3 37 3d 39 40 33 be 4e a3 98 3e
       0.18749335 0.044863828 -0.17504968 0.29812092
000160 4c 3a f5 bd f9 5f 62 3d 5d 3e 9f bd f0 2e f7 3e
       -0.1197401 0.055267308 -0.07775567 0.48277998
000170 27 6c c5 3e 00 dc fc 3d 8a 50 20 3c cd db 34 3e
       0.38559076 0.12346649 0.009784827 0.17661972
000180 99 d3 62 be d9 60 d9 3d dd e6 7e bd 66 04 9f 3e
       -0.2215103 0.10614175 -0.062231887 0.31058043
000190 12 39 2f bc bc 70 b5 3e 9b 7d 98 3d b1 ae a4 be
       -0.010694759 0.35437572 0.07445832 -0.3216453
0001a0 b0 dc 6d 3c f5 58 3a 3d 3b cc fe be 87 d9 c7 3d
       0.014517948 0.045494992 -0.4976519 0.09758287
0001b0 61 7e 4d be df 93 f8 bd 8a c2 88 3e 62 a3 cf 3d
       -0.20067741 -0.12137579 0.26710922 0.10138585
0001c0 83 ed a7 3d 02 be a8 be 0e 23 a3 be 08 5c 85 be
       0.08199599 -0.32957464 -0.31862682 -0.26046777
0001d0 3a 23 a7 be e6 55 8d be e7 98 17 be 53 49 1c 3e
       -0.32644063 -0.27604598 -0.14804421 0.15262346
0001e0 32 0f 43 3e f8 29 31 3e a6 91 f6 3c ec 3a bd 3e
       0.19048765 0.17301166 0.030098747 0.36959016
0001f0 f5 c3 28 3e
       0.16481002

FirstConv.0.bias f4 [25]
000000 bd ec 98 be 4e 2e 1d 3e 75 3e bb 3e 48 03 d4 3e
       -0.29868117 0.15349695 0.36571088 0.41408753
000010 e6 53 d0 be 99 e9 a3 be a8 d0 d9 3d 8b 78 e2 be
       -0.4068901 -0.32014158 0.10635501 -0.44232592
000020 8c ef 65 3e 77 52 8b 3e 5a 8b 3d 3b 50 5b bb 3e
       0.22454661 0.27211353 0.0028922171 0.36593103
000030 d8 d6 e2 be 4a a7 bb be cb e4 cd 3e 73 78 47 3e
       -0.44304538 -0.3665107 0.40213618 0.19479541
000040 3b cb c3 be 5e ca 8b 3e ee 19 25 3e ea 79 9c be
       -0.3824099 0.2730283 0.16123173 -0.30561763
000050 1d 12 15 3a 75 09 a6 bc 2a 76 bd 3e 42 64 de 3e
       0.0005686598 -0.020268181 0.37004215 0.43435866
000060 8c 92 f2 3c
       0.029610895

FirstConv.1.weight f4 [25, 25, 2, 1]
000000 4c ca fb bb 1d 17 60 be c0 6d b0 bd 6c 7b 72 3e
       -0.007684028 -0.21883817 -0.08614683 0.23679894
000010 2d b9 78 3d 1d 17 45 3e da 4c 28 3c 1b da a1 bd
       0.060723472 0.19247098 0.010272229 -0.079029284
000020 c3 a5 82 bd a2 1d 89 bd b8 13 c4 bb f0 6c 2b bc
       -0.06379273 -0.06695105 -0.005983796 -0.010462984
000030 f1 dd 32 be b8 3f 2c be 12 7e 23 bc f6 52 21 3e
       -0.17467476 -0.16821182 -0.009978788 0.15754303
000040 a0 8b 27 be 13 8a 73 be a3 b6 10 be 33 75 c5 bd
       -0.16361856 -0.2378314 -0.1413217 -0.096414946
000050 2e b0 85 3d ff 5c 5c bd c8 f5 29 be 21 bd 7f 3c
       0.06527744 -0.053799625 -0.16597664 0.015609057
000060 d9 1b 97 3a 61 30 37 3e 83 a4 c9 3d d6 01 15 3e
       0.0011528685 0.17889549 0.09845831 0.14551482
000070 5b 93 93 3c 9a bc e4 3a 7a 65 8a bc 96 d2 e5 bc
       0.0180146 0.0017451227 -0.01689409 -0.028054517
000080 1b 0a 8d bd 61 25 60 bd f7 b2 b7 3d f5 c6 f2 bd
       -0.06886693 -0.054723147 0.08969682 -0.11854354
000090 60 75 ce bd fc 26 61 be ef 0a 1a bd b5 17 24 be
       -0.10080981 -0.21987528 -0.037608083 -0.16024669
0000a0 82 5b ea bc 60 66 26 3c 42 b6 ac bd 0c 6b 7e 3c
       -0.028608087 0.010156244 -0.084332004 0.015528452
0000b0 99 7f a0 3d c7 f5 98 3d 10 45 bd 3b 4e 3b c1 bb
       0.07836837 0.07468753 0.005776055 -0.0058969622
0000c0 ea dc c3 3d 77 4a 41 bd 50 3a 65 3e 22 12 70 3d
       0.095636204 -0.047190156 0.22385526 0.058611043
0000d0 41 c4 2c bd 1e 41 58 3d 4f 33 48 be ae 90 ce 3d
       -0.04217935 0.052796476 -0.19550823 0.10086189
0000e0 3b f0 42 3d 4a 91 87 bd 31 62 5c 3e ff 6b 39 be
       0.047592383 -0.066195086 0.21521832 -0.18107603
0000f0 3f a0 a4 bd 9a 3f 76 3d af 54 00 3e dc a7 9c 3b
       -0.08038377 0.06011925 0.12532304 0.0047807526
000100 5b 5c b6 bd 57 1b e6 3d 7c 56 88 3d 7a cd 92 3d
       -0.08904334 0.112356834 0.066571206 0.07168098
000110 2d 18 f7 3d d8 72 e9 bd 62 8d 0d bd 6e 82 60 bd
       0.12065158 -0.11398858 -0.03455866 -0.054811887
000120 09 ad 8d 3c a4 9e bd bd a0 b1 21 3e 39 3c 94 bd
       0.017294424 -0.09258774 0.15790415 -0.07238049
000130 b9 bc ba 3d 14 23 17 3e 5b d3 0d 3c 0d 64 1a 3e
       0.09118027 0.14759475 0.008656348 0.15077229
000140 ee 32 81 3c 0f 58 30 be 49 a6 d2 3d 40 0b 44 bd
       0.015771355 -0.17221092 0.102856226 -0.04786229
000150 95 24 fa 3d 5d 5f 9b bd 9b 3a 15 3e 10 c1 9e 3d
       0.12214009 -0.075865485 0.14573137 0.077516675
000160 ce aa 45 3e 09 bf 14 bd f5 60 a1 bc 38 fa 14 be
       0.19303438 -0.036314998 -0.019699553 -0.14548576
000170 8c f1 4e be 5e e3 07 3e 1b c9 5b 3d 3f b3 84 3d
       -0.2020933 0.13270327 0.053658586 0.06479501
000180 1c 2b 05 be 34 7b 35 bc 6f 83 43 3e c6 ec c2 3a
       -0.13004726 -0.011076737 0.19093107 0.0014871589
000190 d0 02 ec ba 72 1d 04 3d d4 ac f6 bd 25 03 12 3e
       -0.0018006209 0.032254644 -0.12044683 0.14259012
0001a0 9e 8e 8d 3c 0f 4d 6d bc cd 9a 42 3e 5e 0a 9b bd
       0.01727992 -0.014483704 0.19004364 -0.07570337
0001b0 a2 1b 37 bd 47 b5 7a be 80 e7 04 3c 4a 50 41 be
       -0.044704087 -0.24483214 0.0081118345 -0.18878284
0001c0 2b 18 d0 3d 25 eb a1 bc 10 88 a8 3d 0b 02 dd 3c
       0.1016086 -0.019765446 0.08229077 0.026978513
0001d0 6f 34 99 3d e8 a0 52 be 57 0f 7c 3d 93 a3 58 be
       0.07480704 -0.20569193 0.061538067 -0.21156149
0001e0 27 ec 7d 3d 70 89 7d bd eb 37 ea 3d 90 25 1b bb
       0.06199279 -0.06189865 0.11436447 -0.0023673512
0001f0 d5 12 f5 bd cf 1a 00 3e 16 48 3a 3e 5a 73 f4 3d
       -0.119664825 0.12510227 0.18191561 0.11936064
000200 31 4b 29 be f1 72 0d be 7d 62 94 3d d4 43 6e 39
       -0.1653259 -0.13813378 0.07245348 0.00022722717
000210 fe d0 d3 3d 0b e5 b7 bd cf ad 1d 3e ac 65 32 bd
       0.103425965 -0.08979233 0.15398334 -0.043553993
000220 c5 1c b1 3d 47 56 00 be 7e 08 c3 3d 9c 59 28 be
       0.086480655 -0.12532912 0.09523104 -0.16440433
000230 fa 18 02 3e 44 bb a7 bc 34 ef 05 be 23 79 04 3e
       0.1270484 -0.020475037 -0.1307953 0.12936835
000240 b7 36 ea bd af c0 cf bd 2d ff 01 bd ef 95 a5 bc
       -0.11436217 -0.10144173 -0.031737495 -0.020213095
000250 32 49 39 bd 79 8f 12 be b2 c7 83 bd 63 f6 cb bd
       -0.04523582 -0.14312543 -0.06434573 -0.09959104
000260 c4 b9 7c 3d 63 db f2 3d 59 09 e8 3b 34 f4 4c 3e
       0.061700597 0.11858251 0.0070811925 0.20015031
000270 a4 2a 03 be f1 66 b4 bd 9c a5 07 3d 25 62 5e be
       -0.12809235 -0.08808697 0.03311692 -0.21717127
000280 6c 00 c5 bd 14 b9 fc 3d 87 5e d2 3d 6a da 32 be
       -0.09619221 0.12339988 0.10271936 -0.17466131
000290 58 71 16 3d ae 9e a5 3c c0 b7 44 3b 82 a8 f9 bd
       0.036729187 0.020217266 0.003001675 -0.121903434
0002a0 b5 7d 05 3d 12 43 95 3c 15 0e 0e be 63 cf 3d 3d
       0.032590587 0.018220458 -0.1387256 0.046340358
0002b0 ad 4f bb 3d 68 bc bf 3c c4 e5 66 3d d7 51 36 3e
       0.09146056 0.023405269 0.056371465 0.17804657
0002c0 7b 03 4d bc f4 92 3b 3d 70 0b b3 3d b0 d5 bc 3d
       -0.012513037 0.045794442 0.08742416 0.09220445
0002d0 cd 7f e1 bc ac e3 a7 bd 39 35 e4 3d d4 27 41 be
       -0.02752676 -0.08197722 0.11142964 -0.1886285
0002e0 8e 9e 1a be d1 d1 d7 3c 9f 38 08 be 3c e5 43 be
       -0.15099546 0.026345165 -0.13302849 -0.19130415
0002f0 66 2f d9 bc dc 9e de bd 8e 04 d1 3d ab 3d 92 bc
       -0.02651186 -0.10870144 0.10205947 -0.017851671
000300 58 f1 29 bd f5 d6 eb 3d 5b e1 0d be 5d 78 7f 3d
       -0.04148993 0.11515609 -0.13855498 0.062370647
000310 09 1a b8 bd 83 95 cf 3d d3 d3 f3 bd c5 79 2d 3d
       -0.08989341 0.10135939 -0.11905637 0.042352457
000320 e6 59 13 3e 78 a3 5b be 61 56 d7 bd 0c 7c 72 bd
       0.14389762 -0.21449077 -0.10514522 -0.05920033
000330 b4 c0 0e 3d 23 fe 1b 3e 6e 47 a3 3d d2 01 a8 bc
       0.034851745 0.15233664 0.079726085 -0.02050868
000340 6a 19 2f 3e 5f 2b 87 bd e1 91 c7 3d eb d0 94 3d
       0.17099538 -0.06600069 0.09744621 0.072664104
000350 3f dc 30 3e 3e fc 23 be ca 83 7a 3d b6 be 30 3e
       0.17271517 -0.16014192 0.06116084 0.1726025
000360 ac fb 24 3e da ca 84 3b a3 24 5b 3e ad e6 21 be
       0.1611163 0.004052502 0.21400695 -0.15810652
000370 c8 c8 de 3d d4 39 e5 bd 30 66 37 bc 0d 96 42 be
       0.1087814 -0.111926705 -0.011193797 -0.19002552
000380 5b 90 89 bd 3e bc 85 3d bc 0e b0 bd 84 c0 a3 3c
       -0.06716987 0.06530045 -0.0859656 0.01998926
000390 db ec d1 3d 37 e9 c5 3d 63 bd 1b 3e 9a 5f 8d 3d
       0.10250255 0.09663623 0.15208964 0.06903
0003a0 18 80 28 3e f4 a5 79 3c b6 a8 6d 3d ad e2 0e be
       0.16455114 0.01523732 0.058022223 -0.13953657
0003b0 7c 85 c7 3a 5f 74 8f bd d2 ac 70 3d 8c 51 d0 3c
       0.0015222277 -0.07004618 0.058758564 0.02542951
0003c0 ee e3 df 3d a3 cc 9a bc af d3 a0 bd c1 8e 43 3e
       0.10932146 -0.018896407 -0.078528754 0.19097425
0003d0 4e d7 9d 3d cf 8d e7 bd 50 a2 f8 bc c5 6e 11 bd
       0.07707082 -0.11306345 -0.030350834 -0.03550603
0003e0 e9 da 99 3d 92 34 48 bc 8f 95 42 3d 03 4f a3 3d
       0.07512457 -0.012219565 0.04750591 0.07974055
0003f0 bd a5 0f 3e 72 46 d2 bc ae 68 c7 3d ec 48 e7 bd
       0.14028068 -0.025668357 0.09736763 -0.112932056

FirstConv.1.bias f4 [25]
000000 b4 f3 f1 bc 27 3f 5d bd a6 32 70 bd 1c a7 96 bd
       -0.029535152 -0.054015305 -0.058642052 -0.07356092
000010 2f 69 88 bd 3e f2 dc 3d 73 43 ad 3c 7c 07 83 3d
       -0.06660687 0.107883915 0.021150326 0.06397912
000020 3f 8a 23 bd e2 e5 a6 bc 19 b3 fa bc d1 48 fa bd
       -0.039926764 -0.020373289 -0.030602979 -0.1222092
000030 47 60 06 3e 59 2d f6 bc 5d ea 28 bd 1f 09 e3 bd
       0.13122664 -0.03005092 -0.04123913 -0.11085724
000040 61 12 5c bd ac 14 0a 3e c5 ff f4 bd 72 7b 84 bc
       -0.053728465 0.13484448 -0.11962847 -0.016172145
000050 8b 99 a4 3d 7f c5 8e 3d a1 2e f6 3d 99 ac 0b 3e
       0.080370985 0.06971263 0.120206125 0.1364006
000060 64 2b e7 bd
       -0.11287573

FirstConv.2.weight f4 [25]
000000 a1 1a 6d 3d a0 ed 54 3f d8 09 a3 3e 68 d4 42 3f
       0.057886723 0.83175087 0.31843448 0.76105356
000010 ba 7d 20 3f 18 ce b7 3d 59 10 21 3f 70 c1 55 3f
       0.62691844 0.08974856 0.6291557 0.8349829
000020 a8 35 e5 3e 48 de 53 3f d7 70 fd 3e 62 81 72 3e
       0.447675 0.8276105 0.49500152 0.23682168
000030 eb 40 29 3f 7a ed 17 3f 43 71 9a 3e 62 7d 01 3f
       0.6611468 0.59346735 0.30164537 0.50581944
000040 90 a4 be 3e 11 aa e2 3d 0a f2 a1 3e 07 09 e2 3d
       0.37234926 0.11067594 0.31629974 0.11036878
000050 a8 d3 e3 3e a7 cd 56 3e 84 98 b8 3e 62 9f de 3e
       0.44497418 0.20976888 0.3605386 0.43480974
000060 b5 dd 6a 3e
       0.22936137

FirstConv.2.bias f4 [25]
000000 c6 ef 24 be d4 dc 8b bd 95 ad a4 bd 1b 1d c5 bd
       -0.16107091 -0.06829229 -0.08040921 -0.09624692
000010 ea 0b 5a bd e3 82 bb bd ad bd 8b bd 47 3a cb bd
       -0.05323402 -0.09155824 -0.06823287 -0.09923225
000020 32 cf cd bd d5 39 07 be 17 d8 b7 bd 30 7a 01 bd
       -0.10049285 -0.13205655 -0.08976763 -0.031610668
000030 06 80 9f bd e8 ac 69 bd 1c 64 10 be 14 2f a9 bd
       -0.077880904 -0.057049662 -0.14100689 -0.082609326
000040 1c ac f2 bd b9 de fd bd de 23 57 bd 76 f0 da bc
       -0.118492335 -0.123959966 -0.05252444 -0.026725989
000050 d2 85 aa bd 6b d5 18 bd d4 ab 9d bd ee 49 86 bd
       -0.083263054 -0.037312906 -0.07698789 -0.0655707
000060 bc 7f c0 bd
       -0.093993634

FirstConv.2.running_mean f4 [25]
000000 6c 6a c2 bd 19 41 88 be 1e 8c 3b be d1 7c c3 3c
       -0.094929546 -0.26612166 -0.18315169 0.023863228
000010 7e ea 34 be fe 38 bf 3e fb b4 db bd 50 bd 3d 3e
       -0.17667577 0.3734817 -0.10727879 0.18529248
000020 92 47 8e be 70 ad 56 3d b5 8b 9c be 97 d0 83 be
       -0.2778898 0.052411497 -0.30575338 -0.2574508
000030 58 24 96 3e 51 3d d0 bd f5 20 e0 bc 00 b8 58 be
       0.29324603 -0.10167945 -0.027359465 -0.2116394
000040 2c 67 2d be ba 02 a7 3e ae 8f 14 bf 02 05 5b 3d
       -0.16933888 0.32619268 -0.5803174 0.053471573
000050 f4 97 8d bd 3b d9 5f bd 0f bf b7 bd 63 0f 89 3d
       -0.069137484 -0.054650526 -0.089719884 0.06692388
000060 fa 6c a2 bd
       -0.07930942

FirstConv.2.running_var f4 [25]
000000 20 e9 b2 42 dd bb 48 42 15 59 82 41 27 f9 77 42
       89.45532 50.18346 16.293497 61.993313
000010 3a d4 c5 41 16 eb 01 41 ed 51 db 41 d8 06 e8 41
       24.728626 8.119894 27.415003 29.003342
000020 7f 4d 00 42 23 9a 85 42 50 b7 8f 41 4a 85 b8 41
       32.07568 66.80105 17.964508 23.065083
000030 45 4c 2b 42 92 2f ff 41 2c 2d 87 42 14 0c 5c 42
       42.824482 31.898228 67.58823 55.011795
000040 c7 15 cf 42 68 cc b7 41 6a 1c 5e 42 20 c8 32 42
       103.542534 22.974808 55.52775 44.695435
000050 01 5a a0 41 47 31 96 41 5e 9b 6a 41 4e 1e 64 41
       20.043947 18.774061 14.662931 14.257399
000060 6d a3 3c 42
       47.159595

SecondConv.0.weight f4 [50, 25, 1, 5]
000000 10 ec 1f bb 1a 4a d4 bc f7 ea 13 bd 72 f2 9e bb
       -0.0024402179 -0.02591424 -0.03611275 -0.004850679
000010 12 d4 da bd 55 a9 96 bc f5 db 09 bd a5 15 26 bc
       -0.106849805 -0.01839129 -0.033657033 -0.010136996
000020 d9 db b2 bc 54 f4 03 3d bc 71 83 3d 85 c9 09 3e
       -0.021833347 0.03221543 0.064181775 0.1345578
000030 da b3 f0 3d f9 eb 9d bc 3e 76 d1 3b 34 d4 4d 3d
       0.11753054 -0.01927756 0.0063922694 0.0502512
000040 90 0e 89 3c d9 ac a8 3c ad 79 05 3e 38 58 c0 3c
       0.016730577 0.020590233 0.13034697 0.023479566
000050 a4 f1 c2 3d ee 0f 0d 3d af 27 92 3d 44 f0 3d 3d
       0.095187455 0.03443902 0.07136475 0.046371713
000060 4f 4a c7 3c 3b c6 51 bc 8a e1 03 3d 96 c8 1f 3b
       0.024327425 -0.0128036095 0.032197513 0.0024381033
000070 6e 6e ee bd 10 6f 5e be 6f fc 0f 3c 18 f0 ad 3b
       -0.116421565 -0.21722054 0.008788212 0.0053081624
000080 7a 22 5d ba d4 99 ee 3c 9f 3c da 3c 5c cd 2b 3d
       -0.00084356184 0.029126085 0.026640235 0.041943893
000090 aa 9b 0b bc f8 51 4f bb 74 8c bd 3d 58 cb 55 3d
       -0.008521 -0.003163455 0.09255305 0.052195877
0000a0 5a a1 90 bc d0 0e 69 bd ec a2 06 3d 6e 87 16 bd
       -0.017655063 -0.056898892 0.03287022 -0.03675025
0000b0 eb c1 99 bb ed 08 a4 3d 30 ef 11 3c 7c 16 ab 3d
       -0.0046923063 0.08009515 0.008907124 0.08353898
0000c0 3d 57 31 3d c1 63 27 3e 14 d6 7c 3b 35 94 c7 3d
       0.043296088 0.16346647 0.003857975 0.09745065
0000d0 cb 88 9c 3c 29 0e 13 3e ac 12 3e 3e ba 58 ae 3d
       0.019108197 0.1436087 0.1856181 0.08513017
0000e0 ac 6a 57 3d 03 5b aa 3d e0 ef c1 3d b3 cb e7 3c
       0.052591965 0.0831814 0.09469581 0.028295374
0000f0 2d 33 b5 3c 2e ea 10 3e 94 ad a1 3d 55 d3 89 3d
       0.02211913 0.14151832 0.078944355 0.067297615
000100 68 d6 2d 3d c1 0b 27 3e 38 d6 da 3d 3c 15 17 3e
       0.0424408 0.16313078 0.1068539 0.14754194
000110 c1 73 91 3d b3 2e da 3d c2 7a ba 3d 5e bf 1e 3d
       0.071021564 0.106534384 0.091054454 0.03875672
000120 b5 1d 44 3d 8c 06 38 3d 67 f9 2b 3c 19 7c 08 3e
       0.047879893 0.04492812 0.010496474 0.1332859
000130 ab 6c 1e 3e 4d 4e 27 3d d6 b5 9d 3d 70 ea 40 3d
       0.15471141 0.040846158 0.07700698 0.047098577
000140 af a2 8e bd 7b d0 88 bd e7 73 e5 bc 05 a6 ec bc
       -0.06964623 -0.066803895 -0.028009368 -0.028887758
000150 76 9a 3d bd cc d3 25 3c a9 18 f3 bb d3 f2 92 3d
       -0.046289884 0.010121297 -0.007418711 0.07175221
000160 9f 20 e3 3c 3f 1d 89 bd 09 c4 0c 3e 9a 42 98 3d
       0.027725516 -0.066950314 0.13746656 0.07434578
000170 4b 3b 2b 3e d0 10 1a 3e ca 3a d7 3d 56 8e 07 3d
       0.16721837 0.15045476 0.1050926 0.033094727
000180 b6 94 9e 3c 17 f3 01 be 81 49 a3 bd 11 32 05 be
       0.01935802 -0.12690388 -0.07973004 -0.1300738
000190 27 7f 4d bd 30 a7 20 bd da 8a cf 3d a1 c7 c5 3c
       -0.05017009 -0.039221942 0.10133906 0.024143042
0001a0 e7 78 8d 3d cd 00 c5 3c 1b f8 3e 3e e0 b6 13 3e
       0.06907826 0.024048233 0.18649332 0.1442523
0001b0 7d 5c 27 3e 80 2c 00 3e 03 9b e9 3d ec f9 9e 3d
       0.16343875 0.12516975 0.11406519 0.077625126
0001c0 69 47 15 3d 80 66 86 3c 29 96 6c 3d 8e 88 e9 3d
       0.036445055 0.016406298 0.05776039 0.11402999
0001d0 43 ff 1a 3d 40 7c a9 3d fe bc 2d 3e b0 f8 f2 3d
       0.037841093 0.08275652 0.16966626 0.118638396
0001e0 08 bf ae bb 06 a0 b8 bd e4 87 9f bd 50 6a 92 bc
       -0.0053328313 -0.09014897 -0.07789591 -0.01787296
0001f0 ef c4 62 bd 17 fa 8f 3d 8f 6c 60 bc 28 61 45 bd
       -0.05536359 0.07030123 -0.013697757 -0.04818836
000200 8f 8d f0 3d 99 dc 38 3d 1d 5e 68 3c 52 3c 19 bd
       0.1174575 0.045132253 0.014182595 -0.03741104
000210 c1 fd 6b bd e9 6d 67 3d c7 8e 82 bb e1 1a 6f 3c
       -0.057615045 0.056501303 -0.0039843055 0.014593811
000220 83 85 1b 3d 33 90 37 3d aa ba 45 3d 27 9e bd 3d
       0.037969124 0.044815253 0.04827372 0.09258681
000230 d7 a3 87 3d 1d 88 8e 3d 36 91 e2 3d cd 1b 81 3c
       0.06623047 0.06959555 0.11062853 0.015760327
000240 72 1b eb 3d 5f 5b 79 bc ea 53 30 bc 6d 93 a0 bc
       0.11479844 -0.0152195385 -0.010762194 -0.019601548
000250 8e 61 37 3d 88 e8 be 3c a2 ae ce 3b 56 b0 9c bd
       0.04477077 0.023304239 0.006307439 -0.07650821
000260 f0 34 4e bd f2 64 58 bd 8e 9c a0 bd 87 01 5a 3c
       -0.050343454 -0.052830644 -0.078423604 0.013306028
000270 db e9 45 3d 57 98 40 bd ca cd 18 bd b3 1d f3 3b
       0.048318725 -0.047020283 -0.03730563 0.007419312
000280 a9 23 58 3d 56 68 b9 3c 95 b0 eb 3d f1 c2 40 3d
       0.052768383 0.022632759 0.1150829 0.04706091
000290 19 e4 9c 3c c1 42 40 bd ad ff 0f bd 6b dd 19 bd
       0.019151734 -0.04693866 -0.03515594 -0.037564676
0002a0 29 cf 76 bd b4 8c dc 3c bc 9b 30 3d b6 ca 06 3e
       -0.060256157 0.026922561 0.04311727 0.13163266
0002b0 62 0c 84 3d 1b 0e c1 3d d0 b7 d6 3d 08 15 93 bc
       0.06447674 0.094265185 0.10484278 -0.017954364
0002c0 82 b5 b6 3d 70 9c 79 3d 96 a7 b4 3c d7 1a f2 3d
       0.089213386 0.060940206 0.022052567 0.118215255
0002d0 82 93 3c 3e 6b 9d b4 3d d9 dd b4 3d ec 85 04 3e
       0.18415645 0.088190876 0.088313766 0.12941712
0002e0 4c cb ae 3b 0e f7 7d 3d 70 31 e0 3d 8f 41 98 3d
       0.0053342935 0.062003188 0.109469295 0.07434379
0002f0 ff a6 65 3c 0d 92 25 3e 34 a3 c9 3d dd cf 68 3d
       0.014016866 0.16168995 0.09845582 0.05683886
000300 1e 96 22 3e a8 f5 bf 3d 4e 8f ee 3d 96 9e 8e 3d
       0.15877578 0.09373027 0.11648427 0.069638416
000310 43 3f 8e bd 30 ca c7 b9 90 e4 02 bd 2d 9e 12 3e
       -0.0694566 -0.0003810688 -0.031956255 0.14318152
000320 83 48 13 3e ca 2c 1f 3e 99 6f e7 3d a5 e3 9d 3d
       0.1438313 0.1554443 0.113005824 0.077094354
000330 32 d7 f1 3d 34 ea 79 bd 0e cc ef bb 1f 29 6d bd
       0.118086234 -0.06101437 -0.0073180264 -0.057900544
000340 7a d9 a0 bb c1 bf a2 bb 4b ff 1c bd 1b 0b 07 3e
       -0.0049087377 -0.0049667065 -0.038329404 0.1318783
000350 bf 35 b9 3d bf 45 39 bc b3 92 5b bd 90 e4 f6 3c
       0.090434544 -0.011308133 -0.0536067 0.030138284
000360 cd 82 9c 3d d3 ad 30 3e fe c1 9c 3c 9b 32 02 3e
       0.07642136 0.17253809 0.019135471 0.12714617
000370 5e 90 0e be f4 d4 ee 39 d7 d8 9b bd ba 95 23 3d
       -0.13922259 0.0004555356 -0.07609718 0.039937712
000380 0a 2b 3f bd 9c 7d 89 3b 9f cd 4c 3d e6 b5 c1 3b
       -0.046671905 0.004195882 0.050000783 0.0059115766
000390 e0 37 15 3e ff 81 24 3c 20 3b 9d 3b 18 1a e3 3c
       0.14572096 0.010040759 0.004798308 0.027722403
0003a0 2d 5d 99 3d 3c 64 98 3d 68 c6 f2 3d 74 e4 17 3d
       0.07488475 0.07440993 0.11854249 0.037083104
0003b0 50 2a 22 bc e1 a2 03 3e 04 2f be 3d d2 2e cd 3d
       -0.009897783 0.12855102 0.09286311 0.10018696
0003c0 08 69 bc 3c 71 08 0a 3d 38 ee 00 3e d2 e4 46 3d
       0.022999302 0.033699457 0.12590873 0.048558064
0003d0 77 47 0a 3e 4d f0 a1 3d 25 6b 95 bd 8d c7 03 bd
       0.13503824 0.07907162 -0.07295827 -0.03217273
0003e0 80 7f 81 3d 34 d7 c1 bd 41 cf bc 3d 0f 47 a2 3b
       0.06323147 -0.09464875 0.09219218 0.0049523185
0003f0 08 45 74 bd f3 1a ee 3c 73 e5 03 bc 3b 38 f4 3c
       -0.059636146 0.029065585 -0.00805031 0.029811969

SecondConv.0.bias f4 [50]
000000 7d eb 88 3d 21 c4 75 3d be 81 af bd a9 f9 84 3d
       0.06685541 0.060001496 -0.08569668 0.064929314
000010 47 50 a2 bd d0 0a 1f bd 96 5a ae 3c d6 d6 f0 bc
       -0.07925468 -0.03882867 0.02128343 -0.029399317
000020 bf 37 0a 3c 7a 07 65 3d f0 7e c1 3d 75 91 a5 3c
       0.0084361425 0.055915333 0.094480395 0.02021096
000030 13 ce c4 3d c1 d4 90 3d 59 ff d5 bb af dc a1 bd
       0.09609618 0.070718296 -0.006530684 -0.0790342
000040 dc e8 11 bd 5f cd 83 3d a4 73 4d 3c 2b 42 14 3d
       -0.035622463 0.06435656 0.012539778 0.036195915
000050 c8 e9 9a 3d 72 28 5d 3d 77 6b 36 bd 76 7d de bc
       0.075641215 0.05399365 -0.04453608 -0.027159434
000060 ef 88 70 bd ea 2a 95 bd f1 ba 80 3d 96 c9 28 3d
       -0.05872434 -0.07283576 0.06285656 0.041207872
000070 a8 3d a9 3d 95 bf ea bc aa 60 91 3d 18 d0 b1 3d
       0.08263713 -0.028655807 0.07098515 0.08682269
000080 ca 4f 1e bd 6c 67 a4 3b b2 0b 36 bd 39 49 df 3c
       -0.03865031 0.0050172117 -0.044444747 0.027256595
000090 33 80 4c 3c cf 31 55 bd 54 83 34 3c c2 d6 97 3d
       0.012481737 -0.052049454 0.011017639 0.07414009
0000a0 ae aa 27 3d 7c 89 44 3d 24 51 32 3b 96 d6 23 3b
       0.040934257 0.047982678 0.0027209008 0.002499973
0000b0 02 70 38 bd 52 f8 aa 3d b4 da 66 bd ca 4d d7 3c
       -0.045028694 0.083481446 -0.056360915 0.02628221
0000c0 62 e3 f9 bc 25 23 93 bd
       -0.030503932 -0.07184438

SecondConv.1.weight f4 [50]
000000 de fb 35 3f 42 8e 6c 3f ee 0e a5 3e bb 6c 2d 3f
       0.71087444 0.9240457 0.32237953 0.67744035
000010 61 4c 3e 3f 54 1f 66 bd 2a a5 15 3e 94 25 06 3f
       0.74335295 -0.05618222 0.14613786 0.5240109
000020 00 24 06 3f c7 78 27 3f 4c dd 59 3f e2 92 47 3f
       0.5239868 0.65418667 0.851033 0.779585
000030 fa d9 58 3f ed 2e 9f 3e 3e e0 f9 3c 35 46 ab 3e
       0.84707606 0.3109049 0.030502435 0.33452
000040 5e 7f f6 3e 7a 79 f1 3e 6d 23 39 3f ef d8 21 3f
       0.48144048 0.47162992 0.7231968 0.6322164
000050 5b 31 47 3f 8e c0 e6 3e 6e e4 6e 3f a2 d4 0a 3f
       0.77809685 0.45068783 0.93317306 0.542307
000060 b9 ce 35 3f fd 68 d7 3e 8d ff 4d 3f 59 7c 55 3f
       0.7101856 0.42072287 0.80468065 0.83392864
000070 99 9f a1 3e b5 d9 7b 3f ef af 18 3e 9a 97 6d 3e
       0.31567076 0.9837907 0.14910863 0.23202363
000080 9b 98 5f 3f 8a 5c 40 3f 19 9b 5b 3f d1 06 dd 3e
       0.8734223 0.75141203 0.85783535 0.43169263
000090 c8 95 1b 3f bc ff 18 3f eb 16 ed 3e 6e 6b 8b 3e
       0.60775423 0.5976522 0.46306548 0.272304
0000a0 0d 66 f0 3e c9 d9 03 3f 19 27 a7 3e 1c de 17 3f
       0.4695286 0.5150419 0.32647017 0.59323287
0000b0 f8 47 2b 3f 7c a9 4c 3e 41 14 6f 3f f0 97 5e 3f
       0.6690669 0.19986528 0.9339028 0.8695059
0000c0 70 9f 26 3f 6d 2b 10 3f
       0.6508703 0.5631626

SecondConv.1.bias f4 [50]
000000 09 20 e3 bd 88 31 df bd f0 d7 ad bd ac f5 a5 bd
       -0.110900946 -0.10898119 -0.084884524 -0.08103499
000010 13 dd dd bd cf 7d 35 3d 52 ec ec bd c0 b8 d8 bd
       -0.10833182 0.044309434 -0.11568512 -0.10582113
000020 52 b7 98 bd c0 dc d4 bd 5a ef 66 bd 8a 91 bb bd
       -0.074568406 -0.10393667 -0.056380607 -0.09158619
000030 f5 9c 81 bd c5 c9 ab bd 37 af 8e 3d 6f 26 0e be
       -0.06328765 -0.08388094 0.06967013 -0.13881849
000040 27 a9 b5 bd 14 0e 76 bd 55 65 fa bd f6 3b 00 be
       -0.08870154 -0.06007202 -0.12226359 -0.12522873
000050 36 f3 8a bd 4e 0c d9 bd 26 4f b3 bd 71 c2 c6 bd
       -0.0678467 -0.1059805 -0.08755331 -0.097050555
000060 55 6a c1 bd 7e c5 92 bd fe fd bb bd 0d a0 c6 bd
       -0.09444109 -0.07166575 -0.091793045 -0.09698496
000070 3a 81 10 be 81 1a 02 be 3f 76 af bd 6f 0f 05 be
       -0.14111796 -0.12705423 -0.085674755 -0.12994169
000080 5e 03 e7 bd 91 61 ef bd da 7a d5 bd da 1d d6 bd
       -0.11279939 -0.11688531 -0.10423823 -0.104549125
000090 2a 05 ec bd 44 6d b0 bd d3 07 ca bd 54 09 fa bd
       -0.115244225 -0.08614591 -0.098647736 -0.122088104
0000a0 4c bc d3 bd 86 04 fd bd 8e 2b b6 bd cb a7 80 bd
       -0.10338649 -0.123543784 -0.08895026 -0.06282004
0000b0 6b 23 b8 bd 21 82 c5 bd b8 52 b9 bd 28 0e eb bd
       -0.089911304 -0.09643961 -0.090489805 -0.114773095
0000c0 f9 dc c7 bd cd ed 01 be
       -0.09758944 -0.1268837

SecondConv.1.running_mean f4 [50]
000000 d8 fc 0a 3f 61 ca 04 3f 5d 64 8c 3e 82 f0 e1 3e
       0.5429206 0.51871306 0.2742032 0.44128805
000010 79 18 ef 3e 12 7d 69 3e 6f df 40 3e bd a2 71 3c
       0.4669836 0.22801617 0.18835233 0.0147482725
000020 f4 8d f0 3e 0b 33 67 3e 26 c4 97 be c9 05 1c 3f
       0.46983302 0.22578065 -0.29641837 0.6094633
000030 7f ed a5 bd 28 21 ba 3e 0e 1e aa be 29 59 48 3d
       -0.081019394 0.3635342 -0.33226055 0.048913155
000040 12 c2 11 3f 7a fc 28 be c2 81 f4 3e e1 6d 49 3e
       0.5693675 -0.16502562 0.47755247 0.19670822
000050 a7 52 af bd 83 69 23 3f b4 72 08 3f 09 90 e0 3e
       -0.085606866 0.63832873 0.53300023 0.4385989
000060 e0 2b ae 3e 1d a0 e4 3e 73 77 fc 3e e7 0c 25 3f
       0.3401785 0.44653407 0.49309883 0.6447281
000070 1d bf 2e 3f 2d 8c 0d 3f 40 c5 09 bf ab 9a 22 3f
       0.68260366 0.55292016 -0.53816605 0.63517255
000080 fe 17 de 3e b1 fc 05 3f f9 1f 05 3f 7c 31 04 3f
       0.4337768 0.523387 0.5200191 0.5163801
000090 62 70 f1 3e e7 48 d7 be 6e 58 1a 3f b6 22 ea bd
       0.47156054 -0.42047808 0.60291183 -0.11432402
0000a0 b8 da 0e 3f b1 86 03 3f aa 11 00 3f ce fd 04 3f
       0.5580249 0.513774 0.50026953 0.51949775
0000b0 84 6a e9 be 02 d6 20 3e 97 54 d2 be 6e 71 0f 3f
       -0.45589077 0.15706638 -0.41080162 0.56032455
0000c0 fa f0 9f be b2 7f ee 3e
       -0.31238538 0.465818

SecondConv.1.running_var f4 [50]
000000 a7 d6 79 3f cb 69 6b 3f ca bc 31 3f 07 51 49 3f
       0.9759316 0.919583 0.69428694 0.7863926
000010 4d 7e a1 3f c6 dc d6 3e 5f 6e a6 3e 9e 7f 78 3e
       1.2616669 0.41965312 0.3250608 0.24267432
000020 1d c1 85 3f f4 b7 b0 3e 79 a3 34 3f da 65 d3 3f
       1.0449558 0.34515345 0.7056194 1.6515458
000030 11 a1 98 3e 64 f5 ee 3e a1 06 00 3f fd 1c a1 3e
       0.29810384 0.46671593 0.50010115 0.3146743
000040 47 de c0 3f 1f 66 cb 3e eb 3c 60 3f 73 cc d4 3e
       1.5067834 0.3972635 0.87592953 0.41562232
000050 5b f3 7a 3e 29 07 ab 3f 9d b3 aa 3f b0 31 69 3f
       0.24506895 1.336156 1.3336064 0.9109144
000060 e2 0f 5e 3f b5 99 9a 3f 2d 53 5b 3f 70 ce c9 3f
       0.86742985 1.2078158 0.8567379 1.5766125
000070 14 25 b4 3f 70 51 9d 3f 84 32 c0 3f 9a e2 a1 3f
       1.4073815 1.2290478 1.5015416 1.2647278
000080 4c c5 83 3f c9 ac a3 3f 8f c8 ad 3f 94 72 83 3f
       1.0294585 1.2787105 1.3576831 1.0269341
000090 88 75 81 3f e0 4c 24 3f 42 29 ab 3f 51 a8 b6 3e
       1.0113993 0.641798 1.3371966 0.3567529
0000a0 c2 a4 a6 3f 0d d4 7f 3f c0 19 81 3f b0 8f 90 3f
       1.301903 0.9993294 1.0085983 1.129385
0000b0 0a 66 4a 3f c2 b0 82 3e 53 a1 13 3f 00 59 ad 3f
       0.7906195 0.2552548 0.57668036 1.3542786
0000c0 ff 2d 02 3f 3e e5 a5 3f
       0.50851434 1.2960584

ThirdConv.0.weight f4 [100, 50, 1, 5]
000000 a3 fc 1f bd 7c 8e 44 3d c2 14 87 3d a8 f8 9d bd
       -0.039059293 0.047987446 0.06595756 -0.07713443
000010 c5 41 3b 3d bf c3 16 3d 61 77 c4 3d 5d 65 9c 3d
       0.04571702 0.03680777 0.09593082 0.07636521
000020 0f 96 2d 3c 5f 62 ff 3c 2b 2d ba 3b 3b 3b a6 bd
       0.010594859 0.031174837 0.005681654 -0.08116766
000030 97 8b 86 3d c6 de b5 3c 8f 82 da 3c 39 06 80 bd
       0.065695934 0.022200953 0.026673583 -0.06251187
000040 d7 9a fd 3c 5a 40 a1 3d 40 4c 87 3c 96 c2 7f bd
       0.030957622 0.07873602 0.016515851 -0.06244143
000050 50 cf 2b ba 5f 0c 00 3e 78 73 3f 3c 8c a6 55 3d
       -0.00065540243 0.12504719 0.011685245 0.052160785
000060 b0 56 04 3d 20 81 c4 3b d8 f4 eb bd c8 00 82 3c
       0.032309234 0.005996838 -0.115213096 0.015869513
000070 47 d9 50 bc 1e 83 21 bd 18 c8 88 3d fa 95 8c bd
       -0.012747115 -0.039431684 0.0667879 -0.06864543
000080 04 fe 92 3d 99 1f 27 3d cc e0 98 3d 5e a6 1d bd
       0.07177356 0.04080162 0.074647516 -0.03848874
000090 e5 66 f5 bc 30 06 0f be 01 71 94 3d e6 c6 14 bd
       -0.02995629 -0.13967204 0.07248116 -0.036322497
0000a0 07 15 0c bd 8a 05 80 bc 2e 7d 96 3d b1 6a 9b 3d
       -0.03419974 -0.015627641 0.07348095 0.07588709
0000b0 d6 c4 73 3d d8 98 84 bd 24 f8 d0 bc 8b 1f eb bd
       0.05951389 -0.06474465 -0.025508948 -0.11480626
0000c0 41 7b 5e 3d c2 f5 83 bd b9 0a 2f 3c 43 d2 91 3c
       0.054316763 -0.06443359 0.010683709 0.017800456
0000d0 f0 0a 9b bd 96 18 13 bd f9 78 6b bd 9b c2 73 3d
       -0.075704455 -0.03591212 -0.057488415 0.059511762
0000e0 b9 d3 22 3d 62 54 7e 3d 8e f0 7d 3d f3 b4 c5 bd
       0.039752696 0.062092192 0.06199699 -0.09653654
0000f0 b3 c8 eb 3a 5d 27 37 3d 38 0c 95 bc 6e 4e 81 bd
       0.001798889 0.044715274 -0.018194303 -0.063137874
000100 ff ad f8 bc 96 f1 2c bd 0b 6a c7 3d d9 f0 10 3e
       -0.030356405 -0.04222258 0.09737023 0.14154376
000110 f6 ab 58 3b 51 7f 14 3e fc 30 b3 3d 02 38 7a bd
       0.003306148 0.14501692 0.087495774 -0.06108857
000120 a3 08 f2 bb da ea 35 3b cd 10 fd bd 8a af 7a bd
       -0.0073862835 0.002775839 -0.1235672 -0.061202563
000130 d6 ee c2 3c 07 6c 6d bd e8 26 82 3d 6f 6e 3a 3d
       0.023795526 -0.05796435 0.06355077 0.045515474
000140 49 e4 a0 bd 7c ea f8 3d b1 59 3c bd 4a 2b 9a bc
       -0.07856042 0.12154099 -0.045983974 -0.01881947
000150 22 26 1a 3e 19 48 a0 3c 44 0a 71 3d 19 f5 04 be
       0.15053609 0.019565629 0.05884768 -0.12984122
000160 38 ac 95 3c e2 26 86 bd 2b 88 e4 bd 93 94 d1 bc
       0.018270597 -0.06550385 -0.111587845 -0.025583541
000170 96 b5 d3 bc 81 ce 8a bd cc f6 ee bd 04 15 90 bd
       -0.025843423 -0.06777669 -0.116681665 -0.070352584
000180 f8 1c ae bd f6 36 b1 bc a6 72 15 bd 97 f2 8f 3c
       -0.08501619 -0.021632653 -0.03648629 0.01757173
000190 54 5c 29 bd db 3d 84 3c 9a c2 b0 bd f7 1b 12 bb
       -0.041347817 0.016142776 -0.08630867 -0.00222945
0001a0 fd 13 22 3d 36 f8 83 bd cb 40 2f bd b5 a6 ba bd
       0.039569844 -0.06443827 -0.0427864 -0.09113828
0001b0 85 0f 1c bc 6c 4f d8 bd cb 26 c9 3d 66 9b d2 3c
       -0.0095251845 -0.105620235 0.09821852 0.025708865
0001c0 d8 57 9d 3d f5 c6 85 bc 5a 09 97 3d 8a 3c 77 3d
       0.076827705 -0.016330222 0.073748305 0.06036047
0001d0 18 2f 86 bd 2d 01 8a bd 88 98 7a bc 58 0f 8a 3d
       -0.06551951 -0.067385055 -0.015295155 0.06741208
0001e0 23 e9 bc 3d 8f 96 e9 3c e7 42 99 3d 65 5c 0e bb
       0.09224155 0.028514175 0.07483464 -0.0021722552
0001f0 0e f5 03 3d bf f1 a1 bd f4 46 0a be 04 d1 9c 3d
       0.032216124 -0.079074375 -0.13503629 0.07657054
000200 80 6f ad 3d 54 fd a4 3b 4f 90 ce 3c 44 3c 14 3d
       0.084685326 0.005035082 0.025215296 0.036190286
000210 d3 03 6a 3d 8b 97 55 3c b9 4e c3 3c df 71 d4 3d
       0.057132553 0.013036619 0.023841249 0.10373282
000220 e4 ae 1a 3d ed 9b 30 bd d5 ce 89 3d 79 e4 a8 3d
       0.037764445 -0.043117452 0.06728903 0.08246703
000230 18 d4 e3 bc fb 9d 9b 3d b0 7c 65 3d 15 70 cb 3d
       -0.027811095 0.07598492 0.056027114 0.09933487
000240 9f e6 d8 3d be 9a a8 bb 6f 12 fc 3d 35 94 b0 3d
       0.105908625 -0.0051454 0.123082034 0.08622018
000250 f1 c3 4d 3d 74 49 8f 3d b6 57 44 bd 45 c3 d2 bd
       0.050235692 0.06996432 -0.04793521 -0.10291151
000260 e7 d5 a1 bd 78 b9 4e bd 7e 17 bc bc af 91 f2 3b
       -0.07902127 -0.050469846 -0.02296042 0.0074026207
000270 cd a5 a6 bb 90 14 6d 3d 90 44 e1 3c ad 58 b2 bd
       -0.005085683 0.057880938 0.027498513 -0.0870832
000280 b8 50 2e bc 06 1d 04 bd 97 6d 28 bd f9 30 8e bd
       -0.010639362 -0.03225424 -0.041120138 -0.069429345
000290 02 90 7f 3d de f2 24 3e 72 2d 5d bc 98 b2 a9 3d
       0.062393196 0.16108271 -0.013499605 0.08286017
0002a0 a8 5e 28 3d 77 25 d9 3c bc f3 e4 3d ed a6 82 3c
       0.041105896 0.026507122 0.11179301 0.015948737
0002b0 32 50 5c 3d fc ae c4 3b 7f 29 83 bc 0d 26 b3 bd
       0.053787418 0.006002305 -0.016010998 -0.08747492
0002c0 ad 44 82 b9 27 14 94 bc 27 83 ef 3d 4a 5c 35 3d
       -0.000248467 -0.018076016 0.11694937 0.044277467
0002d0 1f f3 d1 3d ac ec 72 bd 2f 9c 74 3c fd 15 79 3d
       0.1025145 -0.05930774 0.014929815 0.060811985
0002e0 d7 52 8e bc 63 ff 5a 3d 9b dd 06 bd ee b7 d5 bd
       -0.017373485 0.053466212 -0.032926183 -0.104354724
0002f0 2d 3c ad ba 34 e3 bb bd b5 fa 7a bd 50 28 4b bc
       -0.0013216786 -0.09174195 -0.06127425 -0.012399748
000300 e4 b8 7c bd d3 e1 8f bd 83 0f 84 3d 61 b2 70 bd
       -0.061699763 -0.070254944 0.06448271 -0.058763865
000310 e1 2d d3 bc 18 f8 4c bd 62 0a 1f bd 93 d4 ca bd
       -0.025778713 -0.05004129 -0.03882826 -0.099038266
000320 80 76 b8 bd eb a1 99 bd 3b ea 1f 3d 75 68 9e 3d
       -0.09006977 -0.075015865 0.03904174 0.07734767
000330 67 c2 5f 3b 46 0f 8c bc 1c 11 f0 ba 74 8b 4a bd
       0.0034142972 -0.017097127 -0.0018315646 -0.0494494
000340 d8 ff 55 3c b1 c7 07 3e 89 d5 ba 3d ae 6f 5f bb
       0.013061486 0.1325977 0.0912276 -0.0034093666
000350 16 fc 91 3b 09 4b c6 3d c5 cd 4c 3d 7c b8 09 3e
       0.0044551 0.096822806 0.050000925 0.13449281
000360 dd 89 08 3d 18 e2 a2 3d 9e c8 f4 3c 52 17 b1 3c
       0.0333346 0.0795328 0.029880818 0.021617565
000370 c7 36 1a be 6d 10 23 bd 8c 8e c4 3d da 2c fa 3b
       -0.15059958 -0.039810587 0.09597501 0.0076347413
000380 55 67 83 bd fc 70 08 bd ba d9 87 3c dd 3f 9e bc
       -0.064161934 -0.033310875 0.016583312 -0.019317562
000390 60 5e 4e 3c 44 62 a5 3d 0b 1b 75 3c f2 7c ad bd
       0.012595743 0.08075383 0.014960061 -0.08471097
0003a0 e3 b9 a1 bd 14 ff 0b bd b4 47 24 be 4a d9 bd bb
       -0.07896783 -0.03417881 -0.16042978 -0.005793725
0003b0 cf ab 98 3c 75 52 0d 3d d1 da 5d 3c 01 44 7b 3d
       0.018636612 0.034502465 0.013540939 0.06134415
0003c0 4f b1 d6 bb fe d5 b6 bd bb f0 90 3d eb 6b 76 bd
       -0.0065518986 -0.089275345 0.07077166 -0.060161512
0003d0 f7 e8 01 be 53 f8 c1 3d 38 c7 0c bd 3d e5 96 3d
       -0.12686525 0.09471192 -0.034369677 0.073679425
0003e0 97 51 46 bd 98 05 a0 3d bc c0 b0 bc 10 a3 93 3b
       -0.048417654 0.07813567 -0.021576278 0.0045055225
0003f0 d3 83 00 3d 26 cd 88 3d 19 05 d8 bd 48 b9 e6 bd
       0.031375717 0.06679754 -0.10547847 -0.11265808

ThirdConv.0.bias f4 [100]
000000 11 6a 78 bd 56 97 1e 3c 46 1c 69 bd 8c 84 db bc
       -0.060648028 0.009679636 -0.05691173 -0.026796602
000010 8e 87 30 bd 21 0e e8 3c 18 f6 68 bd 61 0c bb 3c
       -0.043098025 0.02832705 -0.05687532 0.022833051
000020 03 53 23 3c fa 36 db 3c 39 4d 2c bc 68 ef 42 bd
       0.009968522 0.026759613 -0.010516458 -0.047591597
000030 3e f4 2f 3c 04 29 78 3d b2 73 b5 ba 0b 86 99 3b
       0.010739384 0.06058599 -0.0013843684 0.0046851686
000040 ef 95 4a 3d bd 35 cc bc e7 de 51 bd 08 94 6d bd
       0.049459394 -0.024927968 -0.051237967 -0.0580025
000050 cc 6e 1c bd c0 6a ab bc 40 8b 01 3d 22 5d 95 bc
       -0.0381916 -0.020924926 0.03162694 -0.018232886
000060 f2 3b b4 bc 32 3c 83 3b 3e 5e 94 3b 3b 68 0e 3d
       -0.02200124 0.0040049786 0.004527836 0.03476737
000070 b4 20 40 bd ac e0 60 3c 56 57 32 bd 72 a1 c7 bc
       -0.046906188 0.013725441 -0.04354032 -0.024368975
000080 01 d1 27 3d f4 b4 f0 bb 90 05 38 3d a0 ba 78 3d
       0.040970806 -0.00734579 0.04492718 0.060724854
000090 5b 5f a9 3b 77 2f e8 ba ac 85 83 bc 87 40 0a 3c
       0.005168838 -0.0017714341 -0.01605495 0.008438236
0000a0 9f 75 5c 3d 29 a7 69 bd 17 92 0b 3c db 3b 35 bc
       0.05382311 -0.057044182 0.008518717 -0.011061634
0000b0 00 57 7c 3d 82 ad 45 3c 55 4d 11 bd 64 c9 cc bc
       0.061606407 0.012065293 -0.03547414 -0.024998374
0000c0 0d 97 18 3d cb 43 bd 3b fe ce 30 3d 39 cf 2b 3d
       0.03725343 0.005775904 0.043166153 0.04194567
0000d0 a2 48 0b bc bd 36 4c 3d 6a 04 f7 bb 1f 4c 1f 3d
       -0.008501204 0.04985689 -0.007538368 0.038890954
0000e0 26 58 06 bc 01 4d 4c 3c 20 19 3c 3d 61 40 a1 3c
       -0.008199727 0.012469531 0.0459224 0.019684019
0000f0 a4 7c 9a 3b 2d 2f 0a 3c 11 53 6d bd 25 78 40 3d
       0.0047145654 0.008434099 -0.057940546 0.04698958
000100 44 66 27 bc da 6e 80 bd 26 ba 6b 3d d4 cb 5e bd
       -0.010217253 -0.06271143 0.05755057 -0.054393604
000110 cd 57 1a 3d 4b 5e f2 3c 84 f0 49 3c 8c 92 0a 3d
       0.03768139 0.029585978 0.01232541 0.033831164
000120 99 2f 63 3d 37 86 06 bd d7 68 30 3d e6 55 49 bd
       0.055465315 -0.03284284 0.043068733 -0.049154185
000130 29 fb c9 3b fb 58 47 bd be fb ab bc e5 d7 82 3d
       0.006163974 -0.048668843 -0.020994063 0.06388835
000140 42 31 b0 3b f0 57 bc 3c 50 30 67 bd d1 aa 8c bc
       0.0053769657 0.02299115 -0.05644256 -0.017171295
000150 da 66 3a 3c 68 5c 1f 3c bc 0e c3 3c 12 f7 0e bd
       0.011377061 0.009726621 0.023810737 -0.034903593
000160 42 c1 bc bc 09 1f 70 bd da 27 66 3c a5 f7 81 bd
       -0.023041371 -0.058623347 0.014047587 -0.063460626
000170 e6 d9 fe bb 20 e2 1e bd a8 98 7c bd 96 d1 c8 bc
       -0.0077774404 -0.03878987 -0.06166902 -0.024514
000180 44 0e a9 bb 6d b8 d8 3c e9 01 0a 3d f1 4c df 3c
       -0.0051591713 0.026455129 0.033693228 0.027258368

ThirdConv.1.weight f4 [100]
000000 40 a7 fa 3c ec 24 94 3a b8 96 40 3f 9b e5 ad 3e
       0.03059733 0.0011302507 0.7522998 0.33964238
000010 ca 9e b0 3e 31 25 63 3e 09 a0 19 3f cb 95 5f 3f
       0.34496146 0.22182156 0.6000982 0.8733794
000020 bb c4 32 3f 83 df 13 3f c5 d0 1f 3f 25 96 01 3f
       0.69831437 0.57762927 0.6242793 0.5061973
000030 05 c8 63 3f 1f eb 14 3f a3 59 6a 3f 24 90 7c 3f
       0.8897708 0.58171266 0.91543025 0.9865744
000040 a6 eb 26 3f c3 1b 80 3e 52 57 49 3f 54 a8 96 3e
       0.6520332 0.2502118 0.78648865 0.294253
000050 92 95 86 3e 10 ca 2d 3f e5 61 44 3f 3d 1c 06 3f
       0.26285988 0.6788645 0.76711875 0.5238684
000060 c1 9f 7e 3e f7 2d 53 3f f1 cb 48 3f d5 82 18 3f
       0.24865629 0.8249201 0.7843619 0.59574634
000070 20 69 68 3f 39 8a 72 3f 08 d2 a2 3e 3e 8e 5b 3f
       0.9078541 0.9474216 0.31800866 0.8576392
000080 37 cc a9 3e f7 6e e0 3e a1 80 d4 3e ad 04 03 3f
       0.33163616 0.4383466 0.41504386 0.5117901
000090 e1 b0 d3 3e 29 01 af 3e be b1 e3 3e 61 b3 48 3f
       0.41345885 0.34180573 0.44471544 0.7839871
0000a0 19 61 cd 3c f2 fb 2e 3f 65 4d eb 3d d7 d6 6a 3f
       0.025070714 0.6835319 0.11489371 0.9173407
0000b0 bd a5 1e 3e 1d 54 03 3f 21 7f 8d 3e f9 b4 70 3f
       0.15492912 0.5130022 0.27636054 0.9402614
0000c0 0c fd eb 3d f3 a2 32 3f df ec 7a 3e 21 43 7d 3d
       0.11522874 0.6977989 0.24504422 0.061831597
0000d0 1c 00 31 3f a1 d3 53 3f c4 30 06 3f d3 71 19 3f
       0.6914079 0.82744795 0.5241816 0.59939307
0000e0 f0 73 32 3f 39 ba 1d 3f a3 8e 87 3f f9 61 1c 3f
       0.69708157 0.6161228 1.0590404 0.61086994
0000f0 2b 05 10 3f bc a0 d9 3d fb 58 fe 3d ac 3a 52 3f
       0.56257886 0.10626361 0.124193154 0.82120776
000100 7b f9 d7 3e 48 50 16 3f fd 6f f1 3e 69 e3 cc 3e
       0.42182526 0.5871625 0.47155753 0.4001725
000110 99 5d 83 3e 0a 25 50 3f d9 c5 c3 3e 53 48 cc 3e
       0.25657347 0.8130652 0.38236883 0.3989893
000120 8f e5 5a 3f f2 ab 3b 3e 69 74 01 3f 10 f7 1f 3f
       0.8550653 0.1832731 0.5056825 0.6248636
000130 28 f7 00 3f 7d 4f 2e 3c 0a a0 49 3f 57 bf 3f 3f
       0.5037713 0.010639069 0.78759825 0.74901336
000140 b6 4c 50 3f bd fc d1 3d 06 72 9c 3e 51 ac 20 3f
       0.8136705 0.10253284 0.30555743 0.62762934
000150 52 44 46 3f 7c ad 5c 3f c4 be 67 3f 7f 13 06 3e
       0.77448 0.86202216 0.9052546 0.13093375
000160 14 14 48 3f 6d 4c 44 3f 58 0b 8a 3d 62 4b c0 3e
       0.78155637 0.76679116 0.06740445 0.37557513
000170 ce e3 de 3d 40 d4 fc 3e 58 b4 c1 3e 08 57 2e 3f
       0.10883294 0.49380684 0.37832904 0.6810155
000180 66 ed cb 3e 87 af 10 3e 81 ba de 3e 2a 09 40 3f
       0.39829558 0.14129458 0.43501666 0.75013983

ThirdConv.1.bias f4 [100]
000000 67 82 96 3c 35 cc cb bd d0 b2 a6 bd c7 47 ce bd
       0.018372728 -0.09951059 -0.081395745 -0.10072284
000010 49 93 0a be d0 84 29 be f8 7b ff bd 8d c2 aa bd
       -0.13532747 -0.1655457 -0.12474817 -0.08337889
000020 6a d5 1d be 45 47 c5 bd 52 29 03 be 35 bb 07 be
       -0.15413442 -0.09632734 -0.12808731 -0.13255008
000030 b0 bc 16 be 78 5d 90 bd 59 72 10 be 83 9c 8b bd
       -0.14720416 -0.07049078 -0.1410612 -0.068169616
000040 0a f5 18 be 03 93 6e 3c 61 b8 14 be 78 f1 20 bd
       -0.14937225 0.0145614175 -0.1452346 -0.039292783
000050 92 e5 87 bd 36 8d 1e be d9 b0 cd bd eb f8 c0 bd
       -0.06635584 -0.15483555 -0.10043497 -0.09422477
000060 39 5a 21 be b4 08 04 be 77 a5 f6 bd 0f b5 ff bd
       -0.15757073 -0.12893945 -0.12043279 -0.12485706
000070 d8 e3 d5 bd 7a ac ca bd 2e 8d 06 be d5 4b a8 bd
       -0.10443848 -0.098961785 -0.13139793 -0.08217589
000080 bb 46 d1 bd 62 e9 f2 bd 83 ee 37 bd ad 06 86 bd
       -0.10218569 -0.118609205 -0.044905197 -0.06544242
000090 c0 2a c6 bd a3 a7 a4 bd 19 15 21 be ee bb 85 bd
       -0.09676123 -0.08039787 -0.15730704 -0.06529985
0000a0 19 cf fa bd 97 08 fd bd 63 1e 75 bd c3 0a af bd
       -0.12246532 -0.12355154 -0.059843432 -0.085469745
0000b0 8b 08 e6 bd 1c d1 d9 bd 3e 25 d4 bd 1e da fe bd
       -0.11232098 -0.106355876 -0.10358666 -0.12443946
0000c0 97 3e d5 bb a8 06 d8 bd 67 c6 42 bd 8a ad 6d 3d
       -0.0065077054 -0.105481446 -0.047552492 0.058026828
0000d0 49 33 c3 bd 07 43 b5 bd 01 4b d3 bd ea 7e 8e bd
       -0.09531266 -0.08850675 -0.1031704 -0.06957801
0000e0 fc 8a 26 be ed 1b b3 bd 0a af 0e be b5 9f f2 bd
       -0.16263956 -0.08745561 -0.1393396 -0.11846868
0000f0 a0 89 97 bd a2 65 28 be 90 cf 39 be 4f a6 ea bd
       -0.07399297 -0.1644502 -0.18145585 -0.11457502
000100 fe 20 c2 bd 72 b8 9c bd 4e 80 cf bd 5c 7e b9 bd
       -0.09478949 -0.07652368 -0.10131894 -0.09057304
000110 3d 75 03 be ce b7 b8 bd 05 2d e2 bd 87 f1 02 be
       -0.12837692 -0.09019433 -0.11043743 -0.12787448
000120 1f 2f 04 be 2e 66 ce bd fe 7a 2b be 71 c0 aa bd
       -0.129086 -0.10078083 -0.16746137 -0.083374865
000130 6c 4b a8 bd e8 cf 4a bd 94 cf b4 bd bc e5 b0 bd
       -0.082175106 -0.04951468 -0.08828655 -0.08637568
000140 31 e1 cf bd 01 fd a0 bd 5e f1 4a bd 3b d2 13 be
       -0.10150374 -0.07860757 -0.049546592 -0.14435665
000150 9f c4 fd bd fe 79 11 be 5a 32 95 bd 39 3d 2d be
       -0.12391018 -0.14206693 -0.072849944 -0.16917886
000160 b9 56 9a bd f2 b3 d7 bd 87 83 13 be 06 e2 a9 bd
       -0.07536072 -0.10532369 -0.14405642 -0.08295064
000170 d3 65 00 bd 1a 5b 94 bd f1 0d 0a be fc c5 d4 bd
       -0.031347107 -0.07243939 -0.1348188 -0.10389325
000180 33 5e 26 bd ba 88 f8 bd 7c ea a8 bd 3e 79 d0 bd
       -0.04061718 -0.121354535 -0.08247849 -0.10179375

ThirdConv.1.running_mean f4 [100]
000000 f6 14 2c 3e c6 50 af be 95 16 84 3f e0 0e 8c 3f
       0.16804871 -0.34241313 1.0319391 1.094204
000010 0c 09 38 3f 21 23 5d 3f d6 22 7a 3f 15 7a 84 3f
       0.71888804 0.8638173 0.97709405 1.0349756
000020 ab 94 63 3f ec 22 6b 3f d8 17 93 3f 16 30 fb 3e
       0.88898724 0.9185016 1.1491652 0.49060124
000030 42 c9 31 3f 22 a2 3e 3f 65 e0 8a 3f b4 24 97 3f
       0.6944772 0.74466145 1.084973 1.1808076
000040 e7 c7 86 3f 80 4f f6 3e 92 66 8f 3f 2b bc a3 be
       1.0529755 0.4810753 1.1203177 -0.31979498
000050 64 9c 91 3d 8d aa 90 3f f3 cd 92 bf e1 fc 4d 3f
       0.07109907 1.1302048 -1.1469101 0.8046399
000060 b9 56 60 3f 2a 15 5e 3f c7 f1 9d 3f 4c a7 3b 3f
       0.8763233 0.86751044 1.233941 0.7330215
000070 14 6a 98 3f c3 9c b6 3f 3e dd 03 3f e0 29 72 3f
       1.1907372 1.426659 0.51509464 0.94595146
000080 09 f5 93 3f 09 a1 52 3f 9f 5b 4f 3f 2a 96 22 3f
       1.1559154 0.8227697 0.8099918 0.6351038
000090 6b 01 7c 3f 3a 06 40 3f 6a a4 3a 3f 0f 0e 78 3f
       0.98439664 0.750095 0.72907126 0.9689645
0000a0 f8 52 08 bf b9 0e 9d 3f 86 98 06 3f 5c 85 57 3f
       -0.532516 1.2270118 0.5257648 0.84187865
0000b0 fe ab b4 be 87 c6 83 3f d1 50 29 be c5 e0 8a 3f
       -0.3528747 1.0294961 -0.16534735 1.0849844
0000c0 34 47 f3 be 2c e9 8c 3f 81 80 13 3e 92 e1 bb 3e
       -0.4751526 1.1008658 0.14404489 0.36695534
0000d0 d3 c1 1f 3f 7f 30 bc 3f 61 48 81 3f 92 94 7e 3f
       0.6240513 1.47023 1.0100213 0.9944545
0000e0 1a 29 08 3f 12 94 8a 3f 4a db c5 3f 2c 3c 4e 3f
       0.53187716 1.0826437 1.5457547 0.80560565
0000f0 cf 0d c3 3f 5d a3 34 3f 05 41 d6 3e ea 39 a3 3f
       1.5238589 0.7056177 0.4184648 1.2752049
000100 7d 7b 79 3f d3 f3 68 bf 72 7c aa 3f 14 9e 63 3f
       0.97454053 -0.90997046 1.3319228 0.88913083
000110 85 ee 6a 3f e5 8f 6f 3f 53 95 85 3f 1b ad 9d 3f
       0.917702 0.9357894 1.0436195 1.2318453
000120 57 cc 93 3f 53 ae 0f 3f 25 52 a0 3f f3 f4 34 bf
       1.1546735 0.5612537 1.2525069 -0.7068626
000130 44 01 84 3f 3a f0 13 bf ca 52 96 3f 7e 35 55 3f
       1.0312886 -0.5778843 1.1744015 0.8328475
000140 40 11 8f 3f f9 6c 8a 3e 9c 43 24 bf 6e 6a 79 3f
       1.1177139 0.27036265 -0.64165664 0.97428024
000150 c3 85 83 3f 1b 9c b1 3f 13 da 66 3f 8e 6e 6e 3f
       1.0275196 1.3875765 0.90176505 0.93137443
000160 f6 a5 bd 3e 0c cc 9e bf 1a 9d 2f 3f 44 9c 55 3f
       0.3704068 -1.240602 0.6859909 0.8344157
000170 7e 82 d5 be 1d 65 a8 3f 48 3b 8e 3f 92 b2 7b 3f
       -0.4170112 1.3155857 1.1111841 0.9831935
000180 96 49 8c bf a1 cd 9f 3f 3e 66 89 bf 51 f8 8c 3f
       -1.0959957 1.2484628 -1.0734327 1.101328

ThirdConv.1.running_var f4 [100]
000000 9d a4 2b 40 c2 9b bb 3f 2e 96 83 41 0c 43 46 41
       2.6819222 1.4656909 16.44833 12.391369
000010 8a f9 17 41 a4 79 4c 41 de 49 74 41 0e 56 7a 41
       9.498423 12.779697 15.268034 15.646009
000020 6b 2d 0e 41 b8 25 16 41 0f b9 9c 41 4c 08 e9 40
       8.886088 9.384209 19.59036 7.282263
000030 2f e0 12 41 92 1b 09 41 12 04 64 41 83 25 63 41
       9.179732 8.569231 14.250994 14.196658
000040 bb dd 39 41 96 cb ec 3f 6d 13 5f 41 01 5b ec 3e
       11.616633 1.849963 13.942243 0.4616318
000050 ec d5 7f 3f 3e 92 87 41 0c 77 72 41 45 2d 38 41
       0.99935794 16.946407 15.154064 11.511052
000060 b3 45 35 41 a1 5b 23 41 fa a8 5d 41 29 03 c3 40
       11.329516 10.20987 13.853754 6.0941358
000070 5c 94 9c 41 e4 ca a1 41 06 68 d4 40 ad 44 94 41
       19.572441 20.224068 6.637698 18.533533
000080 47 57 56 41 b0 62 1d 41 6e 02 2b 41 bc 8c c8 40
       13.396308 9.836594 10.688093 6.2671795
000090 ac 6e 46 41 f5 e2 39 41 63 e1 1a 41 44 fa 41 41
       12.4020195 11.617909 9.680026 12.1236
0000a0 01 34 63 40 23 fb 80 41 f5 b6 94 40 74 7e 4d 41
       3.550049 16.122625 4.6473336 12.843372
0000b0 db 4f 04 40 91 c8 70 41 fa 5d 92 3f 99 ed 98 41
       2.067374 15.048966 1.1434929 19.116014
0000c0 4c 1e a7 40 48 0d 7b 41 ac df 42 3f fb 01 ad 40
       5.2224483 15.6907425 0.76122546 5.4064918
0000d0 c7 98 1f 41 18 cf aa 41 28 1b 6c 41 fc 1f 37 41
       9.974799 21.35112 14.75663 11.445309
0000e0 1b 3a ec 40 e7 67 57 41 24 fb a2 41 3d 99 10 41
       7.382093 13.462867 20.372627 9.037412
0000f0 52 7c 8c 41 2a d9 04 41 2d 42 e5 40 91 89 71 41
       17.560703 8.303019 7.164328 15.096086
000100 55 b9 50 41 c6 7b 5d 41 d6 2f 45 41 51 46 3b 41
       13.045247 13.842718 12.324179 11.704667
000110 09 52 20 41 c9 03 05 41 ac 1f 5c 41 0d c8 5b 41
       10.020028 8.313424 13.757732 13.7363405
000120 75 67 9b 41 27 35 ca 40 28 43 8f 41 e3 7c 8e 40
       19.425516 6.3189883 17.907791 4.452745
000130 82 37 71 41 18 29 99 40 db f1 a2 41 05 48 1b 41
       15.076052 4.7862663 20.368093 9.705083
000140 38 4d 7e 41 3e 5c 18 40 4c 57 07 40 95 c3 30 41
       15.893852 2.38063 2.1147032 11.0477495
000150 b3 8b 3c 41 d3 6b 8c 41 f3 7b 66 41 2a 07 6d 41
       11.784106 17.552649 14.405261 14.814249
000160 65 56 9b 3f 31 9d 70 41 c5 c4 02 41 c4 48 1c 41
       1.213574 15.038377 8.173039 9.767765
000170 35 c2 23 3f 30 14 65 41 8e 6f 4b 41 10 2c 5f 41
       0.6396821 14.317429 12.714735 13.948257
000180 af a0 7e 41 e7 eb 66 41 9e 64 5d 41 ea 9a 60 41
       15.914229 14.432593 13.837065 14.037821
