NCTU2/EEGNet/EEGNet_ReLU.pkl (torch_old, 75525 bytes, 17 tensors)

Firstconv.0.weight f4 [16, 1, 1, 51]
000000 81 5f 3f bd ba 71 d4 bd c6 e3 30 be 70 c5 cb bd
       -0.04672194 -0.10373254 -0.17274389 -0.099497676
000010 b9 60 48 be 28 53 c6 bd f5 87 d2 bc c8 95 b9 bc
       -0.19568147 -0.096838295 -0.025699595 -0.02265443
000020 14 e3 f3 bc d7 aa fe bd 66 7c b0 bd 7a 3f 8e 3d
       -0.029771365 -0.12434929 -0.08617477 0.06945701
000030 d9 a4 c3 3c 77 34 09 be fc 30 5d bb 37 4a 1e be
       0.023882316 -0.1339892 -0.003375112 -0.15457998
000040 f2 3e 90 3c f0 7b 9d bc df 7a 7b bd a8 e9 83 3d
       0.01760814 -0.019224137 -0.061396476 0.06441051
000050 c6 9c cb 3d af 1c b3 bd 07 ce ba 3d 08 27 e8 3c
       0.099420115 -0.08745705 0.09121328 0.028338924
000060 74 02 83 bd cf 3f e9 bb 9a d6 31 3d 85 a1 38 be
       -0.06396952 -0.0071182023 0.04341755 -0.18030365
000070 ca 3f c0 bd fc 81 b0 3d 37 b0 b9 3d 26 04 c5 bd
       -0.09387167 0.086185426 0.090668134 -0.09619932
000080 8e 29 fd 3d b1 95 ff bd ba 33 99 bc 11 74 f2 bc
       0.123614416 -0.12479723 -0.018701423 -0.02959636
000090 8f 8f ea bc 34 5c 36 bc 56 e8 a0 bc fd 5d 92 bd
       -0.028632907 -0.011130381 -0.019642036 -0.07146833
0000a0 49 47 ae 3d 2f 81 d3 bd 97 ce 35 3c 77 fb 88 ba
       0.0850969 -0.10327374 0.011096618 -0.0010450919
0000b0 7e ca 0d 3d ea 44 f6 3d 2a f0 95 bd 32 e3 13 3e
       0.03461694 0.12024863 -0.07321198 0.14442137
0000c0 70 08 21 3e 0f 28 4c 3d 0a 24 c6 3d ff ff 4e be
       0.15725875 0.04984289 0.09674843 -0.20214842
0000d0 e2 42 4b 3c ab 3a 8e 3d f5 32 ff 3c dd f0 93 bd
       0.012406083 0.06944784 0.031152228 -0.072236754
0000e0 bf 65 5f be 06 4c 4d be 3f fb a2 bd a1 f3 6b bd
       -0.21816157 -0.20048532 -0.07958078 -0.05760539
0000f0 2f e8 1f be db ac bc bd d1 3d 97 bc cd 99 c0 bc
       -0.15615915 -0.09212657 -0.018462094 -0.023510838
000100 ad 33 ce 3d 99 cd 1b be 25 c8 10 bd 2b ce 15 be
       0.1006845 -0.15215148 -0.035347123 -0.14629428
000110 9f 53 fb bd 58 d8 af 3c e7 f3 d5 bc d7 92 2d be
       -0.12271809 0.021465465 -0.026117278 -0.16950546
000120 57 e2 fb bd 33 9c 00 3d 74 cf d6 3d 4a 76 0e be
       -0.1229903 0.031398963 0.10488787 -0.13912311
000130 74 f3 9a bc 24 97 e1 3c 2f 14 1a be 5c 97 ba 3c
       -0.018914916 0.02753789 -0.15046762 0.022777252
000140 9c 1a 28 be 76 ea cf bd d6 da a6 bc db 74 29 be
       -0.164164 -0.10152142 -0.020368021 -0.16548483
000150 1e 15 06 be 83 61 2c bc fe ff a7 bd ae 50 04 3d
       -0.13093993 -0.0105212955 -0.082031235 0.032303505
000160 6a f5 15 be 7e ee ac bd 78 a6 ce 3d 95 a3 ac bd
       -0.146444 -0.08443926 0.10090345 -0.08429638
000170 cb 35 04 3c ca 6b a4 bd 7b 03 1c 3d 8c 6d 87 bd
       0.008069466 -0.08028372 0.038089257 -0.06612691
000180 0d 8d d8 3c 5c 56 b4 bd a8 c8 a0 bd 02 c6 a0 3b
       0.026434446 -0.08805534 -0.07850772 0.004906417
000190 0c d1 b9 3d d1 3b 34 be 53 42 c0 3c 51 4d af 3c
       0.09073076 -0.17600943 0.023469126 0.021399172
0001a0 78 a9 79 bd e9 cf 01 3d 71 1d 3f 3e c8 e5 8a bc
       -0.060952634 0.03169242 0.18663575 -0.016955271
0001b0 dc f3 d7 3d 17 dc 83 bc 19 cb 34 3e ad 2e b2 3d
       0.10544559 -0.016096158 0.176556 0.08700309
0001c0 55 8e bf 3b ac 2f dc 3d 98 4b f9 3d b8 39 ae 3c
       0.0058458247 0.1075128 0.121726215 0.021267757
0001d0 31 29 a1 3c 30 29 b9 3c f8 68 7b bd b6 39 be 3d
       0.019672962 0.022602648 -0.061379403 0.09288351
0001e0 c0 27 11 3e 57 dd 68 3d 4f 26 2a bd c8 68 9a bc
       0.1417532 0.05685171 -0.04154044 -0.018848792
0001f0 b2 4f 15 3d 45 6a 9b bd 28 7c f3 3c 0c 7a f1 3d
       0.036452956 -0.07588629 0.029722288 0.11790857
000200 80 b4 89 3c 90 d0 fb 3d d4 43 41 bc ea 26 51 bd
       0.016809702 0.122956395 -0.011795957 -0.051062502
000210 05 d8 8f bd 32 d8 25 be 79 1b fe 3c e2 dc 0b be
       -0.07023624 -0.16195753 0.03101896 -0.13658479
000220 70 62 91 bd df 5f 89 bd 38 83 0b be b8 4e 7d 3d
       -0.070988536 -0.06707739 -0.13624275 0.06184265
000230 98 25 02 be 92 02 1e 3c b5 f8 d3 3d 8a 92 33 bd
       -0.12709653 0.0096441675 0.103501715 -0.043840922
000240 ec 4f 56 3c 30 39 0c 3e 78 92 b8 3c 25 1b 91 3d
       0.013080578 0.1369369 0.02253078 0.070852555
000250 4b 0a 86 3d c6 ab 1f be 34 c3 52 be 2d 6d a3 bd
       0.06544932 -0.1559287 -0.20582277 -0.07979808
000260 85 ba aa bd 79 88 cc 3d 66 ae 72 3e eb a0 65 3e
       -0.08336357 0.099869676 0.2369934 0.22424667
000270 f8 17 de 3c 35 17 26 3e e7 cf 3c 3e 9a 16 d4 3d
       0.027111039 0.1621979 0.18438683 0.103558734
000280 2d a7 c8 bc 22 27 96 3d 7e 86 d2 3d 9c bc f4 3d
       -0.024493778 0.07331683 0.102795586 0.11950037
000290 c5 c1 29 bd 2d 7e 5a 3e da 58 8a bc 5b 28 d8 3d
       -0.04144456 0.21337195 -0.01688807 0.10554572
0002a0 51 4b 03 3e ad 4c ef bc 3d b9 f7 3d 0a ac 9f 3d
       0.128217 -0.029211367 0.12095878 0.07796486
0002b0 d7 6c 5a 3e 16 ce fa 3d 83 34 4e 3d 79 cc 56 3d
       0.21330582 0.12246339 0.050343048 0.052441094
0002c0 21 c5 a8 3d fd d7 11 3e 4e 94 46 3e ba 49 03 3e
       0.08240724 0.14242549 0.19392511 0.12821093
0002d0 db fd dc 3d 23 a3 94 3d 9d d4 8a bd b3 ba 6a 3d
       0.107906066 0.07257678 -0.06778834 0.057306956
0002e0 2f d2 1f 3e e0 23 ce 3d 8b 3c a8 bd 77 8a 20 3e
       0.15607522 0.10065436 -0.08214673 0.1567782
0002f0 2d df 05 3d d6 08 14 bd 2c 8b 13 3d 8f 86 43 3d
       0.03268354 -0.03614124 0.036021397 0.047735747
000300 fd 68 86 bd d7 8e 28 3e 34 1d 0c bd c8 6b 12 3e
       -0.06562994 0.16460739 -0.034207538 0.14298928
000310 ba 63 d5 3d 7d c6 e3 3c ef 99 a1 3b 85 83 ee 3b
       0.10419412 0.027804608 0.0049316804 0.007278862
000320 b0 65 e7 3d 81 ae a9 3d cd f6 fc bc 53 27 fe 3d
       0.11298692 0.08285237 -0.030879403 0.12409844
000330 8e f0 e1 bd e2 46 87 3d 11 89 09 be 43 3e 5f 3c
       -0.1103221 0.06605317 -0.13431193 0.013625684
000340 ee ce b6 3d 67 77 06 be 58 75 d2 3b a6 ea dc bd
       0.089261875 -0.13131486 0.00642268 -0.10786943
000350 03 d6 d7 3d c8 32 e6 3d 6d 6b c8 bd ba 95 9b 3d
       0.10538866 0.112401545 -0.09786115 0.075969175
000360 54 9c c2 bd 14 6e 05 be 43 ea 0e bc 3c c3 c6 bd
       -0.095024735 -0.13030273 -0.0087228445 -0.09705207
000370 3f 0b ad 3c 76 d7 0e 3e 69 a0 72 bd f4 9e 05 3d
       0.021123527 0.1394938 -0.05923501 0.032622293
000380 ab 56 88 bd 08 48 cf 3b 82 24 53 3d 7e 31 d2 3d
       -0.066571556 0.0063257255 0.05154849 0.10263346
000390 60 8e 18 be dc bf fd bd d7 ea cd bd be 10 cb bd
       -0.14898062 -0.1239011 -0.10054558 -0.09915303
0003a0 e4 5b 3f 3e 91 4b 3e 3e 2e 5f b4 3d 76 9c e2 3a
       0.18687397 0.18583514 0.088072166 0.0017289061
0003b0 e8 d6 a4 3d 29 61 33 be c5 4f 73 3d 88 7e ca bd
       0.080488026 -0.17517532 0.059402246 -0.09887415
0003c0 8b 96 4f 3d 2b e4 4d bd ba 40 d7 3d 67 9e bc 3c
       0.05068068 -0.050266426 0.105103925 0.02302475
0003d0 5d 99 1b 3e 50 54 35 bd fc 6f f4 bb 49 48 a6 3d
       0.15195222 -0.04426986 -0.0074596386 0.08119256
0003e0 be 88 2c 3e e5 85 fc bc 40 ae 1d be 72 47 4f bc
       0.16849038 -0.030825565 -0.15398502 -0.012651311
0003f0 b6 3e b7 bc c2 8f 89 bc 01 19 8a 3d b5 76 0b 3b
       -0.02236877 -0.016792182 0.0674305 0.0021280472

Firstconv.1.weight f4 [16]
000000 7a 64 34 3f c6 67 ce 3e 1e 1f 0b bd 47 b3 34 3f
       0.70465815 0.40313548 -0.033965223 0.70586056
000010 fd cf 5f 3e 8a aa 85 3e 07 f4 98 3e 19 de 97 3e
       0.21856685 0.26106673 0.29873678 0.29661635
000020 b7 38 29 3f 4b 77 67 3e c9 35 34 3f 4b 25 1d 3f
       0.66102165 0.226041 0.7039457 0.6138503
000030 6e 8e 44 3f 4a 3f 30 3f cf 6b d6 3d 54 f5 17 3f
       0.7677983 0.6884657 0.104697816 0.59358716

Firstconv.1.bias f4 [16]
000000 e8 d2 5f b8 59 0a 7f b8 56 26 e9 3a 71 f4 8c 38
       -5.3363765e-05 -6.0806375e-05 0.0017787914 6.721251e-05
000010 21 81 bd 38 17 08 c8 b7 d0 c4 70 b9 a5 63 bf b8
       9.0362744e-05 -2.3845625e-05 -0.00022961502 -9.12615e-05
000020 62 f4 84 38 79 c2 48 39 8c e2 81 36 9c 72 da 37
       6.33977e-05 0.00019145933 3.870873e-06 2.6040994e-05
000030 5d c7 f5 b8 5c cb 88 b8 ea a5 b1 b9 b6 29 3f b6
       -0.00011719645 -6.522864e-05 -0.00033883686 -2.8485497e-06

Firstconv.1.running_mean f4 [16]
000000 0c 9e 7b 3c f7 2f ad 3d 20 77 75 b7 34 36 f4 bd
       0.0153575055 0.08456414 -1.4630874e-05 -0.11924401
000010 26 fc 1a 3b cb 0f c3 3d f9 78 07 bd c5 d4 8d bd
       0.0023648827 0.09524497 -0.033074353 -0.06925348
000020 fa 83 ae bd 7c 83 0c 3e f8 ae 0d 3c b7 06 e6 bc
       -0.08521266 0.13722032 0.008647673 -0.028079374
000030 11 6d 2f 3d 38 24 2c bd 52 06 4a 3d 1d 8d bb bd
       0.042828623 -0.04202673 0.049322434 -0.091577746

Firstconv.1.running_var f4 [16]
000000 bb d6 16 42 01 70 bb 42 8f c5 d4 41 23 81 2e 43
       37.709698 93.71876 26.596464 174.50444
000010 d2 b0 37 41 3c ee 27 43 65 db 3a 42 ae 57 98 42
       11.480669 167.9306 46.714252 76.17125
000020 65 55 c3 42 18 82 86 43 48 d9 b1 41 01 ee 93 42
       97.66679 269.01636 22.231094 73.96485
000030 69 4d 97 42 23 6b 34 42 29 fb 61 42 24 9b 94 42
       75.65119 45.104626 56.495274 74.30301

Depthwiseconv.0.weight f4 [32, 1, 2, 1]
000000 07 84 c7 3e d4 4b 0c be 95 7b 1c 3f 19 54 26 3f
       0.38967916 -0.13700801 0.6112607 0.6497207
000010 78 ed f8 bd 2d e3 2c 3f 09 b3 2b bf 65 79 1d be
       -0.121546686 0.6753414 -0.6707006 -0.1537834
000020 18 19 cf 3d 5d 26 ae be 56 9b 8d 3e 9e e1 e2 bb
       0.10112208 -0.34013644 0.27657574 -0.0069238683
000030 be e9 39 3f 47 e9 3c bd 40 6f 85 be f6 2a 13 3f
       0.7262229 -0.046120908 -0.2606144 0.5748743
000040 4b f3 2e bf 6c 48 55 3e be e8 13 bf 06 df 58 3e
       -0.68339986 0.20828408 -0.5777701 0.21178827
000050 e2 90 46 bf 97 0b 2a 3e bc 14 72 3e 9b 29 ef 3e
       -0.77564824 0.16605984 0.23640722 0.4671143
000060 c9 af 27 3e 7e 1a 52 be b2 62 06 3f 22 6a cc bd
       0.1637565 -0.20517918 0.5249435 -0.09981181
000070 c3 8f b1 be e1 45 33 bf ed 86 c6 3e 90 be 1b 3f
       -0.34679994 -0.700285 0.38774815 0.6083765
000080 4e bb 8d bd ad df 20 3f 2f 1f 0e bd c1 c2 ee 3d
       -0.06920491 0.628413 -0.034697708 0.1165824
000090 6d ff 04 bf 3a 58 cf be 77 3f 16 3f 3f ed 1b bf
       -0.5195225 -0.40497 0.5869059 -0.60908884
0000a0 44 95 0a be 7e 31 d6 be 07 30 be 3e 74 2e b9 3d
       -0.13533503 -0.41834635 0.37146017 0.09042063
0000b0 df 38 ab be 0d a1 41 bf e7 72 14 bf 7e 29 8a be
       -0.33441827 -0.7563637 -0.5798783 -0.2698478
0000c0 8e 99 69 be e9 d5 7d 3e ad 09 7c 3e 69 04 b3 be
       -0.22812483 0.24788631 0.24613066 -0.34964302
0000d0 b1 13 ce 3d ca 0d b3 3c 8a d4 a6 bc 6c cc 11 bf
       0.100623496 0.021857161 -0.020365018 -0.5695255
0000e0 11 28 50 be b5 a6 84 be 18 74 44 3c 6f 67 13 3f
       -0.20327784 -0.25908437 0.0119905695 0.575797
0000f0 15 f4 8f 3e 63 a6 35 bf 5a 72 69 3d 41 d8 0c bf
       0.28115907 -0.7095701 0.05699382 -0.5501748

Depthwiseconv.1.weight f4 [32]
000000 04 a7 bf 3d f4 e1 21 3f 98 5f 0d 3f b4 16 19 3f
       0.093580276 0.632354 0.5522399 0.5980027
000010 b9 f4 6c 3f 0d dd e7 3e b7 1a ce 3e 60 57 4a 3e
       0.9256092 0.45285836 0.40254757 0.19759893
000020 83 7c a0 3e 12 22 04 3f b8 36 c2 3e a3 6e 21 3f
       0.31344995 0.5161449 0.37932372 0.63059443
000030 f8 1f a0 3e 0d ca 1b 3f 89 79 b0 3e 8e d3 70 3f
       0.3127439 0.6085518 0.34467724 0.94072807
000040 a0 35 de 3e bc 2b f5 3e 96 af 25 3e 8b 45 63 3f
       0.43400288 0.4788493 0.16180262 0.8877799
000050 57 17 2f 3f 5b 31 92 bd 9e d1 2e 3e 4e cf a9 3e
       0.6839499 -0.0713832 0.1707215 0.33165973
000060 cf 11 1b 3f 0a 30 02 3e 5b 7b 5e 3f 33 df 24 3f
       0.6057405 0.12713638 0.86906976 0.64403075
000070 c6 c5 36 3f aa ae ae 3e 30 e6 9d 3d 33 61 7e 3d
       0.7139553 0.34117633 0.077099204 0.062104415

Depthwiseconv.1.bias f4 [32]
000000 a0 cc 63 3d ac 38 96 bd b5 77 21 3e 7b dc 56 3c
       0.055615067 -0.07335028 0.15768321 0.01311409
000010 98 f6 d5 bc c7 9b c0 3d f1 15 a9 3c 7f f6 fd 3d
       -0.026118562 0.09404712 0.020640345 0.12400531
000020 25 89 90 bd f9 71 e6 bc a4 6e 83 3d 8d 92 39 3d
       -0.07057408 -0.028130518 0.064175874 0.045305777
000030 04 a3 2b 3e d0 0f a7 3d bb 29 68 3d b7 0a de bd
       0.16761404 0.08157313 0.056680422 -0.108418874
000040 e5 72 32 3e 65 78 f9 3d d6 c0 9e bd ce 87 c7 3d
       0.17426641 0.121811666 -0.07751624 0.097426996
000050 5a 0d a1 bd e3 7b 99 bd e2 25 48 ba 78 f6 af 3b
       -0.07863875 -0.07494333 -0.00076350395 0.0053699575
000060 dc 0c 23 3e eb 7b a7 3d 39 aa b9 3d 5c 06 23 3e
       0.15922874 0.08177932 0.090656705 0.15920395
000070 a8 2a e0 bd 27 b5 04 bd 4f 7e 32 bd c8 9d dc bc
       -0.10945636 -0.032399323 -0.04357749 -0.026930705

Depthwiseconv.1.running_mean f4 [32]
000000 cc 24 4c ba 9e 48 f7 b7 0d ca 77 3a a0 52 24 3a
       -0.00077874656 -2.947851e-05 0.000945241 0.00062684156
000010 26 4d 48 b9 89 1c 49 39 d6 63 e9 3a 55 c3 f9 ba
       -0.00019102226 0.00019179484 0.0017806243 -0.0019055406
000020 36 98 e7 38 32 c2 cf 38 ee 4e 38 3a 95 b1 d1 38
       0.0001104329 9.906701e-05 0.00070308044 9.998974e-05
000030 8f 59 2d 39 3c 00 85 39 04 5a a3 39 4f a4 7d b9
       0.00016531929 0.0002536791 0.0003115685 -0.0002418917
000040 1c ae b5 ba 0d 7b 97 b9 35 f5 a4 36 65 5d 57 ba
       -0.0013861093 -0.00028892644 4.9161267e-06 -0.0008215516
000050 5a 2f 61 b9 c4 83 a0 b9 77 cb fc b8 5c b0 ca 38
       -0.00021475312 -0.0003061575 -0.00012054195 9.66496e-05
000060 f9 0f 60 3a 41 26 8c ba b7 9d 16 39 62 c9 78 3a
       0.0008547302 -0.0010692553 0.00014363868 0.00094904576
000070 e3 75 e7 38 c5 38 59 b8 04 34 fc 3a 18 90 94 3a
       0.000110368965 -5.1789702e-05 0.0019241576 0.0011334447

Depthwiseconv.1.running_var f4 [32]
000000 10 c9 d9 3d 80 b3 30 3f 4b 50 d9 3d bf e7 0c 3e
       0.10634053 0.69023895 0.10611018 0.13760279
000010 e4 60 6e 3d 5d 5b 6e 3d e8 ba 81 3e 56 94 33 3e
       0.05819787 0.0581926 0.2533791 0.17537054
000020 09 3c 95 3d 27 5e 8c 3d b5 c5 ab 3d 1a 12 aa 3d
       0.072868414 0.06853896 0.08387319 0.08304234
000030 e5 80 76 3d a1 b7 9a 3d a7 e8 09 3e 1e cc 01 3e
       0.060181517 0.07554556 0.13467656 0.12675521
000040 79 84 5a 3e 45 ae 79 3d c5 7f b8 3d 05 8a 93 3d
       0.21339597 0.060957212 0.09008745 0.072040595
000050 02 dc 3e 3e a1 73 1b 3e 6b 99 d9 3e 43 41 90 3e
       0.18638614 0.15180828 0.4249986 0.2817479
000060 7d f9 a4 3d eb 49 c7 3d 1c b6 7e 3d d8 8d 54 3e
       0.080553986 0.097308956 0.06218539 0.20757234
000070 b4 05 75 3d f6 3c 7b 3d 2f 31 33 3e 9a 55 1e 3e
       0.059819892 0.061337434 0.17499231 0.15462342

Seperableconv.0.weight f4 [32, 32, 1, 15]
000000 5e 62 aa 3b e6 c5 62 bc 9c b6 84 bd a7 0c a6 bd
       0.0051997146 -0.013841128 -0.064801425 -0.08107882
000010 c2 1b 2f bd ec b6 f2 bb 69 6b ef bc 04 bb c4 bc
       -0.04275108 -0.00740706 -0.029226022 -0.024014957
000020 69 6a 43 3d 82 3e d1 3b 8c f9 07 bd 27 35 46 3c
       0.047708903 0.0063856253 -0.03319697 0.012097633
000030 74 a5 e4 bc f8 1c 8b 3c bd 68 cc bb b3 ec 6d bd
       -0.027910925 0.016981587 -0.0062380717 -0.058087062
000040 80 0d 4f bd 95 36 f7 bc 89 5d 16 bd 53 61 16 bc
       -0.050549984 -0.030177394 -0.036710296 -0.009178477
000050 b2 99 24 bd 5c 2d 29 bd 9c af f9 bc 63 68 33 bd
       -0.040185638 -0.041303024 -0.030479245 -0.043800723
000060 ae 6d e4 bb 0d 29 df bc 39 2d 11 bd ec f2 b7 bc
       -0.0069710827 -0.027241254 -0.03544352 -0.022454701
000070 72 3b c0 bc e4 de eb bc d9 57 ac bd d4 43 fe bd
       -0.023465846 -0.028792806 -0.08415193 -0.12415281
000080 ef 28 b2 bd 26 86 7f bd 2d ab 0b be 54 0e 0b be
       -0.08699214 -0.062383793 -0.13639517 -0.13579684
000090 2c 2e 9e bd 11 b1 d5 bd 05 76 9d bd 2c 6c 16 be
       -0.0772365 -0.10434163 -0.07688526 -0.14689702
0000a0 a1 67 c6 bd 98 6f 25 be b3 8d 1a be d8 23 d1 bd
       -0.096877344 -0.16155851 -0.15093116 -0.10211915
0000b0 72 29 ed bd 23 31 be bd 27 d5 1c bd f1 bb ba bd
       -0.11580171 -0.09286716 -0.038289215 -0.09117878
0000c0 ba f4 8e bd 80 2f c8 bd b1 4f 94 bd ea 63 00 bd
       -0.06980272 -0.09774685 -0.072417624 -0.031345285
0000d0 4d ba 44 bd ac ad 81 bd 74 46 5c bd be 32 8c bc
       -0.048029233 -0.063319534 -0.053778127 -0.01711404
0000e0 82 e1 12 bd fe 02 06 3d ab 53 4d 3c 0e 89 e6 bb
       -0.035859592 0.032717697 0.012532155 -0.007035381
0000f0 c0 a9 32 3c 44 88 28 3d 5d c2 1b bd 0f 79 46 3d
       0.010904729 0.041145578 -0.038027156 0.048455294
000100 70 27 6d 3d 10 13 5b b9 bb ab 55 3d 86 28 a5 bc
       0.05789894 -0.00020892569 0.052165728 -0.020160925
000110 b0 e0 2d 3d aa b5 6b 3d 2f 8b 21 bd 06 32 cd bc
       0.042450607 0.057546295 -0.039439376 -0.025048267
000120 1f 4d 45 3d 48 1f 86 bb f3 a8 89 3b 9f 37 93 3d
       0.04816925 -0.0040930845 0.0042010485 0.07188343
000130 38 70 81 39 e0 cd d5 3c 38 79 95 3c 5c 37 26 3c
       0.00024688407 0.026099145 0.018246278 0.010145035
000140 29 89 2e 3d 37 9e 8f 3d ab 14 20 3d b8 1d 6d 3d
       0.042611275 0.07012599 0.03908221 0.05788967
000150 3f ae af 3d 05 18 a1 3d 18 42 c9 3d 4c fe 2e 3d
       0.08578157 0.078659095 0.098270595 0.042722985
000160 1e f1 80 3b ce a6 2f 3d 2c f9 84 bd eb 44 16 be
       0.0039349934 0.042883687 -0.06492838 -0.14674728
000170 52 12 fd bd 30 43 89 bd ad 99 93 bd 1a b7 e0 bd
       -0.1235701 -0.06702268 -0.07207046 -0.10972424
000180 ea 08 ac bd 8e a7 04 bd be 59 24 bc 7a 05 8b bd
       -0.08400138 -0.032386355 -0.010031162 -0.06788154
000190 32 85 3e bd b5 a8 40 bd 11 39 f6 bc 85 41 79 bc
       -0.046513744 -0.04703589 -0.030056508 -0.015213375
0001a0 6e 13 52 3c 0c bb 19 3d 4c bc 68 3d 3a 7f 85 3c
       0.012822015 0.037531897 0.0568202 0.016296018
0001b0 59 17 98 3c ce e9 07 3c 5a 4a 52 3c 64 36 9e 3d
       0.01856582 0.0082954895 0.01283511 0.07725218
0001c0 11 b5 92 3c 28 74 24 3d 61 f4 6c 3d cf 10 16 3c
       0.017908605 0.040149838 0.057850245 0.009159281
0001d0 b8 79 2b 3d 0f 89 4c 3d f3 89 8b bc 9b d4 ed bb
       0.041864127 0.049935397 -0.017033553 -0.0072580106
0001e0 10 21 98 bb 10 02 53 b8 81 72 a0 bd de b1 e7 bc
       -0.004642613 -5.030824e-05 -0.0783434 -0.028283056
0001f0 e3 6a 6d bd 9e d4 e2 3b 3b 62 43 bd af fc 34 bd
       -0.057963263 0.0069223186 -0.0477011 -0.04418629
000200 08 23 ed bc 5f 78 1f 3c 84 47 db bc c9 79 02 bb
       -0.028947368 0.009733289 -0.0267675 -0.0019909015
000210 a8 17 e0 bc 00 39 94 bd 08 39 83 bd 09 60 2c 3c
       -0.02735503 -0.072374344 -0.06407362 0.010520943
000220 61 9c c9 bb 6e 8e f7 bc 6e 58 9d bd e3 60 b1 bc
       -0.006152675 -0.030219283 -0.07682882 -0.021652645
000230 73 23 21 bc d5 c3 95 bb 98 c2 72 bb b2 25 92 bd
       -0.009835112 -0.004570464 -0.0037042256 -0.07136096
000240 0c f0 d7 bc ec 3e 80 bc da 5a ab bd 98 10 29 bd
       -0.02635958 -0.015655003 -0.08366938 -0.04127559
000250 3b f7 03 bd eb e2 96 bc 1a 2b 9b bd 8f 07 c9 bd
       -0.0322182 -0.01841875 -0.0757658 -0.09815895
000260 a6 92 07 be 80 4f c4 bd f4 e7 9e bd 3a dc 76 bd
       -0.13239536 -0.09585476 -0.07759085 -0.06026862
000270 21 3f ad bd c9 a7 c1 bd 6a aa e3 bd ae 41 89 bd
       -0.084593065 -0.094558306 -0.11116488 -0.067019805
000280 dd 73 f9 bd 83 68 89 bd 2b dd 2a bd 01 dc 52 bd
       -0.12180302 -0.06709387 -0.04171483 -0.051479343
000290 43 ce 74 bd 08 6e 66 bd 5b 9a 86 bc fc f0 00 bd
       -0.05976702 -0.056257278 -0.016431024 -0.03147982
0002a0 de bd 8e bd 50 37 93 bd 41 77 15 bc 95 70 cd bc
       -0.06969808 -0.071882844 -0.009122671 -0.025078097
0002b0 31 fc a7 bd 6e 62 bb bd 84 61 48 bd 82 91 cc bd
       -0.082023986 -0.09149633 -0.048921123 -0.09988691
0002c0 e0 30 34 bd 4c e3 6b bd ba 9c d6 bd 7d 1e a6 bd
       -0.043991923 -0.057589814 -0.10479112 -0.08111284
0002d0 9c 7b d6 bd db 5b a2 bd 68 c6 02 be 1e f1 95 bd
       -0.10472795 -0.07927676 -0.12770998 -0.0732138
0002e0 53 0f ca bd 7c 5b 07 be 4f 0e b0 bd e2 5f 17 be
       -0.09866204 -0.13218492 -0.08596479 -0.1478267
0002f0 c5 0e 0a be 43 23 f0 bd 76 99 29 be df 04 32 be
       -0.13482197 -0.11725476 -0.16562447 -0.1738467
000300 b5 f9 f1 bd 61 04 1b be f7 40 02 be 7c 10 16 be
       -0.11815206 -0.15138389 -0.12720095 -0.14654726
000310 7e 34 0f be 68 d4 8e bd 8c 15 a0 bd 42 66 14 be
       -0.13984868 -0.06974107 -0.0781661 -0.14492133
000320 86 fd d8 bd 07 5d 04 be 29 94 89 bd 2d dc 96 bd
       -0.10595231 -0.12926112 -0.067177124 -0.07366214
000330 af e1 7a bd 78 7f 0c be 84 2a 9f bd 3f 4e e1 bd
       -0.061250385 -0.137205 -0.07771781 -0.110012524
000340 f1 54 f9 bd 77 1d be bd 74 06 a3 bc d1 ec b8 bd
       -0.121744044 -0.09282964 -0.019900538 -0.09029544
000350 16 55 ab bd 18 2d 2c bd b6 49 09 bd ae 5a 47 bd
       -0.08365838 -0.042035192 -0.03351756 -0.048670463
000360 cd 7f b9 bc 92 35 c4 bc 3e bb a7 bc 77 3c 83 bd
       -0.022643948 -0.023951326 -0.020475026 -0.06408017
000370 d9 e6 80 bd 65 3d 03 bd 15 e2 10 bd 07 9b 59 bd
       -0.06294031 -0.032040972 -0.03537186 -0.05312636
000380 ad 30 ab bd a6 59 f1 bd 3e 18 b2 bd fe 43 62 bd
       -0.083588935 -0.11784677 -0.0869603 -0.055240624
000390 bf a9 b4 bd 68 a8 ce bd 8d bb 3d bd 7c b4 6d bd
       -0.08821439 -0.10090715 -0.04632144 -0.05803345
0003a0 93 c6 31 bd c7 79 32 bd 2b 05 46 bd dc 64 13 bd
       -0.043402266 -0.043573167 -0.048344772 -0.03598486
0003b0 54 cb 14 3b fa 56 fb bc b0 d6 29 3b 19 ee db bc
       0.00227042 -0.030681122 0.0025915317 -0.026846932
0003c0 ae e8 2f bd 32 d2 97 3c 62 f1 b2 bb 0b 72 92 3b
       -0.04294651 0.018532846 -0.005460904 0.0044691614
0003d0 71 27 ea bc bc ee 27 3d 39 8a db 3c 92 48 01 3d
       -0.02858326 0.04099916 0.026799308 0.03156335
0003e0 82 ce 1c 3d 12 74 36 3d f3 9d 6f 3d 70 88 6f 3d
       0.03828288 0.044544287 0.05850024 0.058479726
0003f0 8e b2 29 3d ec 22 60 3d 92 20 6f bc 96 6e 95 3c
       0.04143005 0.054720804 -0.014595168 0.018241208

Seperableconv.1.weight f4 [32]
000000 5d 44 73 3f dc fe 35 3f d8 b0 92 bd 97 b8 03 3f
       0.9502619 0.7109201 -0.071626365 0.51453537
000010 17 12 a3 3e 11 0e 57 3e 7a 87 5f 3e 2a a7 10 3c
       0.3184974 0.2100146 0.21829024 0.0088289175
000020 a6 5f 52 3e 1a 77 6b 3e 67 04 8d 3e 7d 4b 5d 3f
       0.205443 0.22994652 0.2754242 0.8644331
000030 f6 ad 08 3f 32 41 20 3f ca a7 21 bd e8 f2 4d 3f
       0.53390443 0.6259948 -0.039466657 0.8044877
000040 6c d0 8f 3e ef d6 f8 3e 51 dc cd 3e 9e a6 f6 3e
       0.280887 0.4860148 0.4020715 0.48173994
000050 62 3b 0a 3f 01 ab 82 3e 04 d3 d3 bb 98 1a 7e 3d
       0.5399686 0.2552109 -0.006464364 0.06203708
000060 e5 c4 c2 3e 6e 0c 20 3f fe 81 f1 3e e2 31 03 3e
       0.38040844 0.62518966 0.4716949 0.12811998
000070 36 88 0c 3e 54 b7 53 3e c4 67 1f 3f 6f 33 6a 3d
       0.13723835 0.20675403 0.6226771 0.057177957

Seperableconv.1.bias f4 [32]
000000 0e c5 08 bb e0 34 a0 bd d5 0c 01 bd d0 ca 2c bd
       -0.0020869407 -0.07822585 -0.03150638 -0.042185605
000010 c1 5d 31 bd ee 7e 01 be b6 df 47 3c cb b6 e2 bd
       -0.0433023 -0.12646076 0.012199333 -0.11070021
000020 29 4c e9 3b 76 51 ad bc 7c b2 6f bd 86 85 5d bd
       0.0071196747 -0.021157008 -0.058519825 -0.054082416
000030 c4 b9 4b bc 48 4f 05 bd 4e 06 eb bc 63 d3 b7 bd
       -0.012434427 -0.03254631 -0.02868953 -0.08975866
000040 ce b7 12 3d 3d be c4 bd 89 fb f1 bc 50 65 e1 bc
       0.03581982 -0.096065976 -0.029538887 -0.02751413
000050 da 57 c9 bd 19 63 9d 3c 75 b5 81 bd ec aa 3f bd
       -0.098312095 0.019212293 -0.06333438 -0.046793863
000060 fe 05 11 be 9f 70 a7 bd 22 d5 a2 bc 97 58 3f bb
       -0.14162442 -0.08175778 -0.01987702 -0.002919709
000070 d6 23 f1 bd a3 51 1c bb 40 1d ad bc 36 53 c8 bc
       -0.11774413 -0.002385237 -0.021132112 -0.02445374

Seperableconv.1.running_mean f4 [32]
000000 92 c0 11 c0 35 01 ba bf ab cf ba bf 1f dc 86 bf
       -2.2773786 -1.4531618 -1.4594625 -1.0535926
000010 89 14 96 bf 7c 77 50 3f 86 d9 ee bf 79 6b 07 c0
       -1.1725017 0.8143232 -1.8660133 -2.1159346
000020 cb 37 7d be 48 20 5a bf 11 8f f7 be 69 09 ba bf
       -0.24728315 -0.8520551 -0.48351339 -1.4534122
000030 09 58 2f c0 d8 23 01 c0 0a dc 2a 3f 04 82 f7 bf
       -2.7397482 -2.0178127 0.66742 -1.9336553
000040 5b 94 85 bf d4 07 e7 3f 96 c6 cc bf 05 df 32 c0
       -1.04359 1.8049264 -1.5998104 -2.794862
000050 c4 ef c3 bf 59 02 9e bf c9 16 ac 3e e8 12 83 3f
       -1.5307546 -1.2344466 0.33611134 1.0240145
000060 03 4c d2 be 41 65 c1 3e 84 66 af bf 2e b5 af 3c
       -0.41073617 0.37772563 -1.370316 0.021448698
000070 61 05 56 3e 76 9e 8c bf 2d 46 bf bf 7b 37 df bf
       0.2090049 -1.0985858 -1.4943291 -1.7438806

Seperableconv.1.running_var f4 [32]
000000 a6 95 8e 40 e7 c0 59 40 df de 45 40 63 ec 0a 40
       4.4557676 3.4023988 3.091728 2.170678
000010 e2 73 fc 3f 95 96 23 40 cc 97 4c 40 4a 84 14 40
       1.9722865 2.5560658 3.196765 2.3205743
000020 6b 6f 07 40 40 8b ff 3f fe 3c 24 40 80 b9 4a 40
       2.1161754 1.9964371 2.5662227 3.167572
000030 f7 20 9d 40 b3 1c 7b 40 61 ab fe 3f 16 bb 22 40
       4.910274 3.9236267 1.9896051 2.5426688
000040 1b 93 5d 40 94 3e 72 40 98 0d 70 40 8f 43 ab 40
       3.4621036 3.7850695 3.7508297 5.351997
000050 7e 9d 24 40 f6 e9 3c 40 08 29 a9 3f 82 a3 2a 40
       2.5721126 2.9517798 1.3215647 2.6662297
000060 0d 47 f9 3f 64 57 55 40 b7 85 6a 40 0e 51 0c 40
       1.9474808 3.333459 3.6644113 2.1924472
000070 66 32 16 40 9b 70 2d 40 6b b3 2a 40 53 a6 1f 40
       2.346826 2.709998 2.6672008 2.4945266

Classfier.0.weight f4 [2, 736]
000000 b9 88 08 3e 85 6e f1 3d 19 4c df 3d 23 26 ee 3d
       0.13333406 0.11788658 0.10903186 0.11628368
000010 8f 73 90 3d d3 d4 e9 3c 6c 50 36 bd 1f 2e 79 bd
       0.07053291 0.028543865 -0.04451029 -0.060835
000020 bb c7 cd 3c ef 47 46 bc c2 76 80 bd 56 53 04 bd
       0.025119653 -0.012102111 -0.06272651 -0.032306038
000030 a3 62 18 3d 72 18 5a 3d 82 bf 40 bc 26 7e c5 bd
       0.037203442 0.05324597 -0.011764409 -0.096432015
000040 2f 5e 30 3d 1e 9f e0 3c 8e f8 30 3d 0f 45 a4 bc
       0.04305857 0.027419623 0.04320579 -0.020052461
000050 03 78 0f bd 83 ec a0 bc 25 6d 5d bd e6 10 e0 bd
       -0.03502656 -0.019644028 -0.054059166 -0.10940723
000060 f6 d9 d9 ba fa bd a1 bc ba 29 7c bd a4 3b 9f bd
       -0.0016620744 -0.019743908 -0.06156323 -0.077750474
000070 5c 04 e7 bc 23 7a 60 bc d9 a1 a7 bc 70 cc 4d bd
       -0.02820032 -0.013700995 -0.020462917 -0.050243795
000080 c1 ad b0 3d de 7c b9 3d 94 d4 83 bd 28 34 a1 3c
       0.08626891 0.0905702 -0.064370304 0.01967819
000090 84 1d 54 bb 9b 4f 5c 3d a4 8e 97 3c 88 54 31 3d
       -0.0032366225 0.053786855 0.018500634 0.043293506
0000a0 c0 ee 87 3c 80 98 bc 3c b2 d4 44 3c 49 d8 36 3d
       0.016593337 0.023021936 0.012013601 0.04463986
0000b0 4d e5 11 3c 40 0e 96 bd a6 3c dc bd 8d 89 c2 bd
       0.008904767 -0.07326937 -0.10753755 -0.09498892
0000c0 38 c8 e5 bd f0 f5 df bd a1 51 af bd 91 86 b4 bd
       -0.11219829 -0.10935581 -0.08560491 -0.08814729
0000d0 d4 77 e9 ba f3 71 8e 3c d5 c3 1a 3d 84 79 bf bc
       -0.0017812201 0.01738832 0.037784416 -0.023373373
0000e0 3d 0e 6d bd 72 53 24 3d ce af 0c bd 0e 3d 6f bc
       -0.057874907 0.040118642 -0.034347348 -0.014601959
0000f0 65 c6 ad 3d 48 13 34 3d 8d 75 ba bd c8 b3 cc bb
       0.084851064 0.0439637 -0.09104452 -0.0062470175
000100 64 59 21 3c 50 11 14 bd 3b 14 57 bd bb 62 6f bd
       0.009847973 -0.036149323 -0.052509528 -0.058443766
000110 3b 8a b0 3d 51 2f 07 bd c7 bb cb 3d 32 a6 95 3d
       0.08620115 -0.03300411 0.09947925 0.0730709
000120 33 82 90 3d 79 39 7f bb c0 5c 84 3d c4 ad 62 3b
       0.070560835 -0.0038944168 0.06463003 0.0034588436
000130 8e 79 e7 bc b5 21 60 3c 50 a9 94 bc 43 51 05 bd
       -0.028256204 0.013679911 -0.01814714 -0.0325482
000140 af a2 05 3d d3 4d f9 bb d2 57 01 3d 0c 9a c5 bd
       0.03262585 -0.0076081543 0.031577893 -0.09648523
000150 28 35 07 bd 2a 8b 03 3d 80 ce d3 3c 35 2e eb bb
       -0.033009678 0.03211514 0.025855303 -0.007177139
000160 70 c2 48 bc ba 53 0e bc e4 9d 3f bd 02 32 d5 bb
       -0.012253389 -0.008686954 -0.046781436 -0.0065062055
000170 76 0a c6 bc a3 84 8b bd 52 db 27 bd 74 04 05 be
       -0.02417491 -0.06812408 -0.040980645 -0.1298998
000180 99 8c d1 bd f3 f3 c7 bc eb 71 db 3c 67 b3 09 bd
       -0.10231895 -0.024408316 0.026787719 -0.033618357
000190 ef d7 cc bc 81 5c a8 3c 64 5e da bc 4b a4 bd bc
       -0.025005309 0.020551922 -0.026656337 -0.02314963
0001a0 2a 4b 8e bb 6b f8 31 3d f7 fd 67 bc ca 12 bf bc
       -0.0043424563 0.0434498 -0.014159671 -0.023324389
0001b0 64 2c b2 bd 9a 3d 01 bd 5a 93 e1 bc 46 75 d2 3b
       -0.08699873 -0.03155289 -0.027536083 0.0064226715
0001c0 ac 99 08 bd 48 3d d1 bc b3 1e 13 bd fc af 09 3d
       -0.033349678 -0.025541916 -0.03591795 0.033615097
0001d0 a1 4e 57 3d cf 66 dc 3d 04 cc 58 3d 02 cf dd 3c
       0.05256522 0.10761797 0.05292894 0.027076248
0001e0 5f e9 55 3d 86 3e 21 3d 41 0a bf bb 58 f2 08 bd
       0.052224513 0.039366268 -0.00583008 -0.033434242
0001f0 25 03 67 bd 66 07 d3 bc 14 b2 ff bb a2 61 c7 3c
       -0.056399483 -0.025760364 -0.007803211 0.024338547
000200 72 93 87 bc 67 a0 57 bc 15 d2 d8 3d db d7 68 3d
       -0.0165498 -0.0131608015 0.10586945 0.05684648
000210 15 06 10 ba 27 b2 ee 3c c9 98 e3 3b b9 4b f2 bc
       -0.00054940704 0.029137684 0.0069457036 -0.029577123
000220 b8 24 16 3c ad b5 b9 3c 1e 1a 92 bd d5 9d db bd
       0.009164028 0.022669638 -0.07133888 -0.107234634
000230 0d 78 00 be 62 86 04 be 05 bc b5 bd e1 15 80 bd
       -0.12545796 -0.12941888 -0.088737525 -0.06254173
000240 f1 84 3a 3d d0 96 96 3c fa e7 70 3d 82 8d 48 3c
       0.04553694 0.01838246 0.05881498 0.012240769
000250 3d b5 a8 bc de fc c5 3b 9b b9 4a bc 3d c1 80 bc
       -0.020594234 0.006042107 -0.012373353 -0.015717143
000260 b7 ca 92 3c b0 3e 03 bd 2d ee 55 bd e4 67 fe b9
       0.017918928 -0.032042205 -0.052229095 -0.0004852406
000270 95 b8 2c 3d e8 c2 73 b9 e3 17 e3 bc 62 bd de bb
       0.04216822 -0.00023246894 -0.027721351 -0.0067974785
000280 0f e2 bc 3c 3f b6 49 3d 2d a7 9a 3c e1 33 52 3d
       0.023057012 0.04924607 0.018878544 0.051319007
000290 07 01 0f 3d c6 77 53 3d 55 cf a9 3d 68 36 a8 3d
       0.03491309 0.051627897 0.082914986 0.08213502
0002a0 52 ed 5b 3d fa 09 7d 3c e9 f8 34 3d cc b5 b5 3d
       0.053693123 0.015444273 0.04418269 0.088725656
0002b0 81 12 b7 3d 61 14 f9 3c 98 75 ec 3c 4c 76 5c 3d
       0.08939076 0.030405225 0.028864667 0.053823754
0002c0 71 33 81 3c 17 34 9a bc 6b b6 fd bc 55 91 bf 3b
       0.0157716 -0.018823666 -0.030970773 0.0058461824
0002d0 16 20 58 3d 0a e0 f2 3b cc 46 d9 bd 18 52 ec 3c
       0.052764975 0.0074119614 -0.106092066 0.02884774
0002e0 9f 53 d2 3d 19 8c 8c 3d a4 72 e3 3d 6e 7e 5f 3d
       0.10269856 0.06862659 0.1110585 0.054563932
0002f0 aa 5f 93 bc dc 38 a1 39 cb 2e a7 bd c8 8a b7 bd
       -0.017989952 0.00030750677 -0.08163222 -0.08962017
000300 5b f0 3c bd bc 0d 39 3c 88 04 48 bd 36 7c e4 3c
       -0.04612766 0.011294778 -0.048832446 0.02789126
000310 d4 61 a7 3c 94 b9 89 3d e7 92 67 3c 37 c9 77 bd
       0.02043239 0.06724849 0.014134145 -0.060494628
000320 51 35 e6 3c 93 55 14 3d 42 ff d3 bc b1 b2 cf bc
       0.028101595 0.036214422 -0.025878552 -0.025353761
000330 77 e4 60 bd ec a5 fb bc 1e e8 c1 3c 4e da 42 bd
       -0.05490538 -0.030718766 0.023670252 -0.047571473
000340 34 14 3e bd 96 2a 14 be 74 bc b7 bc 61 e5 88 bd
       -0.046405986 -0.1446937 -0.022428729 -0.066843756
000350 57 61 0d bd ba a5 c7 bc bd 66 14 bd bf df c9 bc
       -0.03451666 -0.024371017 -0.03623079 -0.024642823
000360 87 a1 fb bc f8 5b 7b 3c 24 f1 f1 bc fe de 90 3b
       -0.03071667 0.015341751 -0.02953393 0.004421114
000370 29 e3 66 bb 1b e3 84 3c 76 73 c2 3c a9 18 81 bd
       -0.0035230613 0.016221574 0.023736697 -0.06303532
000380 7e 21 44 bd ae 65 86 bd 55 b0 5d bd 7f 23 a7 bc
       -0.047883503 -0.065623626 -0.05412324 -0.020402668
000390 ae 39 22 3b d0 fc ce bc fb 2b 0f bd a7 72 74 bd
       0.0024753618 -0.025267035 -0.034954052 -0.059679653
0003a0 0a cc 57 bd 69 87 31 bd a6 50 aa bc e3 fa 6b 3c
       -0.05268482 -0.043342028 -0.02079041 0.014403078
0003b0 32 46 2d 3d 7f c1 10 bd 76 bd 24 bd 03 84 51 bc
       0.04230327 -0.035340782 -0.040219747 -0.012787822
0003c0 79 17 79 bd f4 25 2d bd 5c e0 f2 bc c7 f7 3c 3d
       -0.0608134 -0.042272523 -0.029647999 0.046134736
0003d0 ad fa e8 3b 8a 33 89 3c 1f fe 83 bd 32 1b 11 3d
       0.007109961 0.016748209 -0.06444954 0.035426326
0003e0 06 2a 90 ba 96 73 4d bd 61 b9 d1 bc c2 ee 71 bd
       -0.0010998852 -0.05015906 -0.02560109 -0.059065588
0003f0 f0 3b f2 bc 1a 7a c3 bd a9 77 f2 bd a2 84 17 be
       -0.029569596 -0.095447734 -0.118392296 -0.14796689

Classfier.0.bias f4 [2]
000000 7e 8d c2 bb be 44 83 bc
       -0.0059372773 -0.01602399
