NCTU2/EEGNet/EEGNet_ELU.pkl (torch_old, 75523 bytes, 17 tensors)

Firstconv.0.weight f4 [16, 1, 1, 51]
0.05805041 0.060825944 -0.0019274284 0.13133433 0.11557326 0.11117096 0.122954905 0.18056297
0.19735608 -0.0042439797 0.03953333 -0.016350195 0.1938768 0.14245072 0.137708 0.13288261
0.12423643 0.089453034 -0.014874273 0.033794917 0.12463387 0.1874237 0.1080566 0.116353855
-0.025601098 0.10547822 0.0144652575 -0.028774088 0.11484919 0.011430973 -0.11686702 0.14807364
-0.09888757 0.07259451 0.035246123 -0.12305669 0.03512106 0.047254004 0.00783727 0.006619017
0.08205477 0.04059811 -0.049715847 0.052885354 0.0923491 -0.010529047 -0.04709242 0.15755658
0.11387986 0.17104296 -0.049195606 -0.11404577 -0.17778945 -0.06303301 -0.20423976 -0.21306789
-0.13669424 -0.08620479 -0.14156438 -0.081899926 -0.13479935 0.0024608725 -0.05953352 -0.020703727
0.05029285 0.0482372 -0.16077617 -0.077031955 0.099513255 0.014845157 0.08010091 0.13207896
-0.016295925 0.012701325 0.028942516 0.10601239 -0.13627586 -0.09753107 0.00026409974 0.07317833
-0.025738528 -0.10436796 -0.014748625 -0.12593585 -0.026425656 0.019562976 0.16419128 -0.026767286
0.06347501 -0.00073089916 0.06583192 0.1347144 -0.0423447 -0.0022379195 0.08680923 0.14400494
0.064927444 -0.061638415 0.06894573 0.030747786 0.04179806 -0.061091043 -0.09685331 0.13139975
-0.00954595 0.015939903 -0.06294728 0.12640743 0.04481911 0.050140675 0.0019896172 0.091341004
0.18513775 0.10200471 -0.038594164 0.1995433 0.04006885 0.19215143 0.115106925 0.20006229
0.08284107 0.11010485 0.14003786 0.16941352 0.118031815 0.14941512 0.22178806 0.008200089
0.013850156 0.05209652 0.064705364 0.18264982 0.12610185 0.14187595 0.057877403 0.11939479
0.017183123 0.14534917 0.09550313 0.022889325 0.021457639 -0.07472809 -0.03019652 -0.020056024
0.11131971 0.03901068 0.09024232 -0.115325004 0.1711637 -0.1041154 0.13688056 0.04421607
0.07100251 -0.08840459 -0.21577933 -0.19741811 -0.08062637 -0.074265316 -0.044069964 -0.100923486
0.04965241 0.12648848 0.06354957 0.04094914 0.1313076 0.10166062 -0.09687936 -0.11166057
-0.030702595 0.046557866 0.02759037 -0.15153652 -0.020454317 0.057706125 0.0919618 -0.08952533
0.12818666 0.010707342 0.10205957 -0.15102604 -0.14108795 0.018358555 -0.035553653 -0.05005587
0.1611014 -0.072189435 0.05941842 -0.082665205 0.07540364 0.11562818 0.08978265 0.03354326
0.056318086 0.0690442 -0.15709342 0.13031526 0.11349731 0.1170365 0.0057742093 -0.061921276
-0.17990616 -0.1472801 -0.10858996 0.02774318 0.10839231 -0.03346544 0.15146099 0.1352237
0.08740632 -0.118917264 -0.09441672 -0.043099046 -0.108280495 -0.103688456 -0.13994324 -0.11249503
0.0007243947 -0.11485221 -0.12590817 -0.019526538 0.043333307 -0.03841844 -0.14505589 -0.08608531
-0.035187785 -0.18047023 -0.09400628 -0.14722896 -0.19231425 -0.19196565 -0.010663003 0.017773712
-0.046713065 -0.042754244 -0.12599058 0.009816031 0.08942277 -0.01695817 0.0669987 0.029637361
-0.012072926 -0.11937894 0.0042828596 -0.16354738 0.037584122 -0.012204574 0.09008065 0.009564512
0.052139588 -0.037343524 -0.062452264 0.08518681 -0.1498784 -8.430303e-05 0.08200382 -0.02844356
00000000: 44c6 6d3d a024 793d c4a1 fcba 827c 063e
00000010: acb1 ec3d 9aad e33d c8cf fb3d 80e5 383e
00000020: b617 4a3e 1511 8bbb b3ed 213d d8f0 85bc
00000030: a487 463e 9ade 113e 5303 0d3e 6112 083e
00000040: ab6f fe3d 2733 b73d 39b3 73bc 8a6c 0a3d
00000050: 0b40 ff3d 00ec 3f3e c74c dd3d ee4a ee3d
00000060: 65b9 d1bc f704 d83d b0ff 6c3c a3b7 ebbc
00000070: 0d36 eb3d fa48 3b3c fa57 efbd 9ea0 173e
00000080: 9185 cabd 6eac 943d 3d5e 103d 2505 fcbd
00000090: 1adb 0f3d 6a8d 413d e567 003c 57e4 d83b
000000a0: 550c a83d 344a 263d d8a2 4bbd 509e 583d
000000b0: 8621 bd3d 0682 2cbc fbe3 40bd 8356 213e
000000c0: d839 e93d e325 2f3e 5581 49bd d490 e9bd
000000d0: 700e 36be 7317 81bd 3a24 51be 782e 5abe
000000e0: 93f9 0bbe 238c b0bd 41f6 10be 26bb a7bd
000000f0: d708 0abe 9746 213b 6cd9 73bd dd9a a9bc
00000100: e0ff 4d3d 5f94 453d 82a2 24be eec2 9dbd
00000110: 9bcd cb3d 1a39 733c f20b a43d b53f 073e
00000120: 087f 85bc 3819 503c db18 ed3c 061d d93d
00000130: e68b 0bbe 5fbe c7bd de76 8a39 85de 953d
00000140: 9bd9 d2bc debe d5bd 38a4 71bc 54f5 00be
00000150: 9e7a d8bc 8942 a03c c221 283e 1147 dbbc
00000160: 30ff 813d d099 3fba e3d2 863d 92f2 093e
00000170: a371 2dbd 0faa 12bb 0ac9 b13d 0876 133e
00000180: aef8 843d 9078 7cbd 6b33 8d3d c8e2 fb3c
00000190: 7134 2b3d 9a3a 7abd 075b c6bd a88d 063e
000001a0: 9e66 1cbc 6694 823c 81ea 80bd f370 013e
000001b0: 3e94 373d 4f60 4d3d 3d64 023b fe10 bb3d
000001c0: c094 3d3e d8e7 d03d ea14 1ebd 1455 4c3e
000001d0: 3c1f 243d 58c3 443e 2ebd eb3d 21dd 4c3e
000001e0: 94a8 a93d a77e e13d 1666 0f3e bd7a 2d3e
000001f0: aaba f13d 4700 193e 691c 633e ab59 063c
00000200: c4eb 623c 2963 553d 3f84 843d 8e08 3b3e
00000210: d820 013e ee47 113e db10 6d3d 4185 f43d
00000220: 9fc3 8c3c 6ad6 143e 2597 c33d 6582 bb3c
00000230: eec7 af3c 0a0b 99bd b15e f7bc 884c a4bc
00000240: 97fb e33d aac9 1f3d f7d0 b83d 842f ecbd
00000250: 8945 2f3e 743a d5bd 6b2a 0c3e e91b 353d
00000260: c469 913d 770d b5bd 42f5 5cbe f927 4abe
00000270: 701f a5bd 6a18 98bd b582 34bd f9b0 cebd
00000280: 5360 4b3d 3286 013e 4726 823d 49ba 273d
00000290: 8075 063e 7133 d03d b068 c6bd 4cae e4bd
000002a0: 0284 fbbc 76b3 3e3d 3305 e23c 642c 1bbe
000002b0: d08f a7bc 425d 6c3d 7856 bc3d 0e59 b7bd
000002c0: 5d43 033e d96d 2f3c 9c04 d13d 92a6 1abe
000002d0: 5c79 10be ae64 963c b5a0 11bd 6207 4dbd
000002e0: c4f7 243e 0ed8 93bd bb60 733d 604c a9bd
000002f0: 396d 9a3d 78ce ec3d f7df b73d a864 093d
00000300: cbad 663d 0c67 8d3d 19dd 20be 5d71 053e
00000310: 4771 e83d d5b0 ef3d 9435 bd3b 2aa1 7dbd
00000320: 5239 38be 98d0 16be 6a64 debd aa45 e33c
00000330: cafc dd3d 0f13 09bd 9718 1b3e 1578 0a3e
00000340: 1602 b33d e58a f3bd 8e5d c1bd a088 30bd
00000350: 2ac2 ddbd 9d5a d4bd 484d 0fbe cb63 e6bd
00000360: 4ee5 3d3a a337 ebbd 12ee 00be 1ef6 9fbc
00000370: 447e 313d a75c 1dbd 8889 14be 7f4d b0bd
00000380: 1121 10bd 30cd 38be 5d86 c0bd 30c3 16be
00000390: 07ee 44be a592 44be e0b3 2ebc 2d9a 913c
000003a0: 3356 3fbd 131f 2fbd ad03 01be 6bd3 203c
000003b0: 4923 b73d dceb 8abc 9d36 893d 0dca f23c
000003c0: 86cd 45bc f27c f4bd 3b57 8c3b f778 27be
000003d0: cff1 193d b2f5 47bc 347c b83d 79b4 1c3c
000003e0: 5290 553d 86f5 18bd f2cd 7fbd 6c76 ae3d
000003f0: b979 19be d8cb b0b8 9ef1 a73d 7802 e9bc

Firstconv.1.weight f4 [16]
-0.05881638 0.34737772 0.4851548 0.19441587 0.2298814 0.75877035 0.8976484 -0.011583429
0.5793157 0.33969003 0.72600967 0.7643346 0.34074146 0.9841001 0.5762628 0.081253074
00000000: 72e9 70bd 7edb b13e 3666 f83e f414 473e
00000010: 0866 6b3e c63e 423f 49cc 653f 6cc8 3dbc
00000020: 094e 143f daeb ad3e c5db 393f 6fab 433f
00000030: aa75 ae3e fced 7b3f f585 133f 0368 a63d

Firstconv.1.bias f4 [16]
0.00038353004 0.0004369613 0.00023171405 -2.3375651e-05 -8.8374916e-05 -8.3610874e-05 -4.5565186e-05 -0.004732765
0.00010375835 0.00038758563 -2.84539e-06 -9.4738054e-05 -9.545566e-05 -0.00013858649 -5.7852463e-05 3.589822e-05
00000000: 8814 c939 f417 e539 44f8 7239 d416 c4b7
00000010: ec55 b9b8 3f58 afb8 3f1d 3fb8 4f15 9bbb
00000020: d798 d938 dd34 cb39 6ef3 3eb6 1bae c6b8
00000030: 5e2f c8b8 8751 11b9 9ca6 72b8 6c91 1638

Firstconv.1.running_mean f4 [16]
-0.09884402 0.027956491 -0.12023573 0.028159969 0.047697548 0.060738612 -0.10483918 0.08467258
0.061322443 -0.03296986 0.060308434 -0.07250625 -0.13662119 0.03545108 0.06200365 -0.03133558
00000000: bc6e cabd 0305 e53c 273e f6bd bcaf e63c
00000010: 815e 433d 0dc9 783d edb5 d6bd d168 ad3d
00000020: 3e2d 7b3d 670b 07bd fa05 773d 287e 94bd
00000030: 6de6 0bbe 2735 113d 8af7 7d3d bd59 00bd

Firstconv.1.running_var f4 [16]
108.42208 44.413033 172.97322 25.680737 65.63942 87.782845 114.20441 69.661064
48.318695 42.28194 63.946194 97.45028 189.51662 53.315315 89.67376 50.338825
00000000: 1bd8 d842 f2a6 3142 25f9 2c43 2672 cd41
00000010: 6247 8342 d190 af42 a868 e442 7752 8b42
00000020: 5846 4142 b520 2942 e7c8 7f42 8be6 c242
00000030: 4184 3d43 e242 5542 f758 b342 f55a 4942

Depthwiseconv.0.weight f4 [32, 1, 2, 1]
-0.32305723 -0.7309114 -0.18334909 -0.4874662 -0.53249466 -0.5548356 0.29623473 -0.37379268
0.047348514 -0.43175685 -0.5886655 0.49357334 0.007171098 0.6618814 0.3397893 0.11617707
-0.65180945 0.50155216 0.12896523 -0.49972034 0.33579415 -0.6209101 -0.6782392 0.048499223
-0.25487888 0.023348197 -0.46550477 0.5858892 -0.6867564 0.1547687 0.04089663 -0.5353647
-0.2283683 0.5133318 -0.47490478 -0.63913494 0.68131304 0.42496046 0.33646885 -0.51396465
-0.1584766 -0.13778998 -0.525964 -0.46924543 -0.5051713 0.50623786 0.20778121 -0.6088554
-0.30296636 0.13395523 -0.4080003 0.5874411 0.6174302 0.27204663 0.7207313 -0.3635222
-0.67883456 -0.6045457 -0.6688752 0.08422251 -0.6785121 0.18794599 -0.038936015 -0.72800153
00000000: c267 a5be 021d 3bbf ddbf 3bbe 2b95 f9be
00000010: 9251 08bf b509 0ebf 14ac 973e c161 bfbe
00000020: 84f0 413d 3c0f ddbe c8b2 16bf a5b5 fc3e
00000030: 88fb ea3b 0f71 293f ddf8 ad3e 3eee ed3d
00000040: fcdc 26bf b965 003f 760f 043e 58db ffbe
00000050: 36ed ab3e f7f3 1ebf 16a1 2dbf 1fa7 463d
00000060: 7c7f 82be b844 bf3c a456 eebe d6fc 153f
00000070: 44cf 2fbf b07b 1e3e 3a83 273d a90d 09bf
00000080: 61d9 69be b669 033f b826 f3be 599e 23bf
00000090: 886a 2e3f 6b94 d93e a545 ac3e 3093 03bf
000000a0: b147 22be d118 0dbe 94a5 06bf f040 f0be
000000b0: e852 01bf ce98 013f 99c4 543e f3dd 1bbf
000000c0: 681e 9bbe 8f2b 093e 6ae5 d0be 8a62 163f
000000d0: e80f 1e3f b249 8b3e d981 383f 951f babe
000000e0: 1ac8 2dbf 82c3 1abf 683b 2bbf da7c ac3d
000000f0: f8b2 2dbf ea74 403e 5f7b 1fbd 4f5e 3abf

Depthwiseconv.1.weight f4 [32]
0.1923485 0.25746885 0.6952125 0.9726767 0.8639205 0.9255741 0.94646174 0.8058558
0.5661597 0.85157746 0.104133345 0.7842553 0.41392672 0.07715181 0.60005057 0.8601947
1.018532 0.12052226 0.15442137 0.77771896 0.36899787 -0.030799612 0.7043301 0.79248965
0.44566482 0.13242811 0.8952281 0.6766063 0.8185751 0.13385029 0.1339109 0.17192139
00000000: 01f7 443e f5d2 833e 72f9 313f 5701 793f
00000010: e529 5d3f 6df2 6c3f 514b 723f 914c 4e3f
00000020: d8ef 103f fb00 5a3f dd43 d53d f5c4 483f
00000030: 34ee d33e c501 9e3d ea9c 193f b835 5c3f
00000040: 425f 823f 60d4 f63d a320 1e3e 9718 473f
00000050: 4aed bc3e 784f fcbc fa4e 343f 9ae0 4a3f
00000060: 2e2e e43e 3c9b 073e ab2d 653f 1236 2d3f
00000070: 238e 513f 0d10 093e f01f 093e 290c 303e

Depthwiseconv.1.bias f4 [32]
0.112537876 0.01309579 0.04032333 -0.028045759 -0.028992811 0.0076633706 -0.02797619 0.017097643
-0.066000395 0.037656408 0.015769977 -0.057735518 0.046306264 -0.0044990657 -0.017801639 -0.1288244
0.04805773 0.013896514 -0.03139902 0.059940044 -0.05784385 -0.044686764 -0.0019279359 -0.028017826
-0.02669838 0.03382529 0.083953895 0.0047217133 0.03149339 -0.036125213 0.061495144 0.037819363
00000000: 427a e63d b98f 563c 132a 253d 38c0 e5bc
00000010: 5582 edbc 031d fb3b 532e e5bc 5b10 8c3c
00000020: 372b 87bd 9b3d 1a3d 0a30 813c 147c 6cbd
00000030: a3ab 3d3d e66c 93bb bed4 91bc 8bea 03be
00000040: 2fd8 443d 34ae 633c 429c 00bd b183 753d
00000050: aced 6cbd 7809 37bd cbb2 fcba a485 e5bc
00000060: 90b6 dabc 638c 0a3d 05f0 ab3d 9ab8 9a3b
00000070: 37ff 003d 08f8 13bd 55e2 7b3d 7ae8 1a3d

Depthwiseconv.1.running_mean f4 [32]
-0.00047027305 -0.0002995888 -0.0002659937 -0.00030882822 0.00021954074 -0.000646296 0.0001203351 -4.0041257e-05
0.00025804946 -0.00011702408 -0.0008908038 0.0007149993 -0.00027466685 -0.001344891 0.00137182 0.0013202776
0.00045800133 -0.00016069897 0.00026967315 0.0001576806 1.7597602e-05 5.0871775e-05 -0.00062209636 0.00052161573
-0.00016598175 -0.00041040938 -0.00038158573 -0.0011083971 9.4817464e-05 0.0005473737 7.590277e-06 -1.0006813e-05
00000000: fb8e f6b9 2112 9db9 1275 8bb9 39ea a1b9
00000010: 8534 6639 316c 29ba 6a5c fc38 f9f1 27b8
00000020: d04a 8739 d36a f5b8 d584 69ba ca6e 3b3a
00000030: 2901 90b9 0e47 b0ba a4ce b33a 2a0d ad3a
00000040: e61f f039 4d81 28b9 eb62 8d39 1057 2539
00000050: 909e 9337 275f 5538 2e14 23ba 0abd 083a
00000060: 630b 2eb9 372c d7b9 920f c8b9 a347 91ba
00000070: bdd8 c638 a17d 0f3a fcaf fe36 efe2 27b7

Depthwiseconv.1.running_var f4 [32]
0.06044309 0.05908275 0.16134627 0.06755005 0.09021061 0.10650257 0.0746362 0.065429464
0.072464645 0.06926209 0.18964432 0.26170105 0.09129744 0.24025628 0.058169693 0.058164872
0.10772289 0.35560548 0.15622325 0.07261571 0.09429481 0.4759605 0.16049686 0.19332102
0.06372568 0.082577676 0.6482139 0.32166144 0.47214133 0.16827588 0.059871856 0.06127036
00000000: 2c93 773d c100 723d f537 253e ae57 8a3d
00000010: 57c0 b83d 051e da3d ddda 983d e2ff 853d
00000020: 5868 943d 48d9 8d3d 1f32 423e aefd 853e
00000030: 27fa ba3d be05 763e 5843 6e3d 4a3e 6e3d
00000040: d29d dc3d ec11 b63e fdf8 1f3e 8cb7 943d
00000050: a31d c13d 18b1 f33e 4a59 243e f2f5 453e
00000060: 9c82 823d 7c1e a93d 59f1 253f cfb0 a43e
00000070: 82bc f13e 8350 2c3e 313c 753d a1f6 7a3d

Seperableconv.0.weight f4 [32, 32, 1, 15]
-0.0037744315 -0.028199762 -0.041089457 0.0063913455 0.046803202 -0.040494777 -0.0065559326 -0.0067968452
-0.024662634 0.025745625 0.08960332 0.030387752 0.0714381 0.020576907 -0.0127546955 0.04458965
0.015270096 -0.028919779 -0.008244191 0.012260871 0.008875828 -0.038466755 0.037261453 0.042239048
-0.0063334624 0.07718191 0.066151656 0.019907378 0.07472335 0.021538034 0.1268481 0.09351817
0.16351777 0.10788641 0.075798824 0.06442162 0.08872748 0.058879368 0.11540823 0.12543103
0.12445035 0.12390918 0.018569367 0.014571511 -0.06624088 0.02827396 0.093648255 0.06517793
0.02333254 0.009487879 0.00052409095 0.078125626 0.0619766 0.096421294 0.070900545 0.017876467
0.03199165 0.070487075 0.03743897 0.042573817 -0.046031304 0.014634316 -0.036823697 -0.011639051
-0.030635893 -0.050700333 -0.01898178 -0.023638979 0.050201196 0.048975863 0.022452243 0.108007096
0.12042679 0.07989526 0.12613904 -0.021962183 0.05857039 -0.0055396096 -0.011385694 -0.034769822
0.03937886 -0.041123886 -0.0018457448 -0.013956356 -0.04826362 -0.03259175 -0.012453916 0.06670806
0.046013705 0.061982125 0.08518943 0.10328398 0.051702663 -0.013567829 0.063497126 0.07294876
0.094856516 -0.018041654 0.0075221085 0.019477746 -0.02289352 0.10754984 0.05499218 0.09721588
0.044112235 0.042512253 0.017349487 -0.013767842 -0.0065475935 -0.00501824 0.043087684 0.05251687
-0.08256006 -0.042793587 -0.0014042977 -0.0755453 -0.013581592 -0.032722134 0.00218654 -0.0196193
-0.036094964 -0.05181548 -0.03907639 -0.026407495 -0.050610796 -0.035630602 0.018694472 0.018999241
0.014061304 0.05586613 -0.017294427 -0.03605198 -0.011540657 -0.083433636 -0.05971849 -0.010538958
0.06251657 0.023292337 0.023678493 0.04718599 0.08683489 0.060776036 0.113277175 -0.030259522
0.048098397 0.027841294 -0.018693225 0.044760678 0.058362167 0.01604271 0.011145998 0.096577086
0.02808376 0.034819916 0.0704888 0.043220006 0.077147745 0.0785843 0.027769761 0.022878693
-0.017449966 -0.015514992 0.020035792 0.0050174547 -0.04017107 0.08285795 0.109475896 0.089592785
0.031174168 0.10182411 0.04963375 0.12715897 0.08759793 0.06508896 0.13647051 0.036525518
0.073016405 0.050690334 -0.05039172 -0.08819318 -0.11491257 -0.0953404 -0.029605733 -0.057209875
-0.07672117 -0.087653786 -0.06879706 -0.076518536 -0.08368974 -0.07751405 -0.07871646 -0.009137694
0.017704189 -0.026139053 0.019278044 0.011560472 0.02555294 -0.042356644 0.018095186 0.005845145
0.032206036 -0.043184284 0.00061875087 -0.043730628 -0.012269256 -0.045281895 -0.059050117 -0.104635075
-0.07426714 -0.08535457 -0.022563659 0.03432079 -0.012346753 -0.016267262 0.052262876 0.04634511
-0.009695888 -0.017113442 0.020314554 0.023843085 0.022223147 0.014900522 -0.032317527 0.056380577
0.016844321 0.100151904 0.060529158 0.059512764 0.06831757 0.041345302 0.071264975 0.09186781
0.007852628 0.020165483 0.017595105 0.07476303 0.037081342 0.0712807 0.12543102 0.10249702
0.008668382 0.0130782025 0.090871036 -0.004815136 0.01112595 0.012055901 -0.06490931 0.028796038
0.06464941 -0.0046828715 0.058032278 0.04119932 0.06557209 0.1139003 0.056715615 0.046927888
00000000: 745c 77bb 3003 e7bc 6b4d 28bd 7e6e d13b
00000010: b7b4 3f3d dadd 25bd 26d3 d6bb 12b8 debb
00000020: 4b09 cabc 7de8 d23c f281 b73d bcef f83c
00000030: 234e 923d e790 a83c 12f9 50bc a3a3 363d
00000040: 6d2f 7a3c 2ce9 ecbc a512 07bc d2e1 483c
00000050: ec6b 113c 518f 1dbd 779f 183d da02 2d3d
00000060: ef88 cfbb 8d11 9e3d 857a 873d cc14 a33c
00000070: 8e08 993d 8870 b03c 78e4 013e 7486 bf3d
00000080: 3471 273e 8df3 dc3d 6a3c 9b3d 7bef 833d
00000090: c1b6 b53d 7e2b 713d 265b ec3d fe70 003e
000000a0: d3df fe3d 19c4 fd3d c91e 983c 59bd 6e3c
000000b0: 4ca9 87bd cb9e e73c a8ca bf3d 027c 853d
000000c0: e223 bf3c 0d73 1b3c 2663 093a 5400 a03d
000000d0: 2ddb 7d3d 8778 c53d 4e34 913d ab71 923c
000000e0: ad09 033d 875b 903d 9b59 193d e261 2e3d
000000f0: 528b 3cbd c5c4 6f3c 72d4 16bd b8b1 3ebc
00000100: 20f8 fabc 27ab 4fbd ae7f 9bbc 88a6 c1bc
00000110: c59f 4d3d ea9a 483d c4ed b73c d332 dd3d
00000120: 52a2 f63d 20a0 a33d 982a 013e 09ea b3bc
00000130: 81e7 6f3d 9d85 b5bb 108b 3abc cd6a 0ebd
00000140: ba4b 213d 8571 28bd ebec f1ba 33a9 64bc
00000150: 13b0 45bd ed7e 05bd 820b 4cbc 3c9e 883d
00000160: de78 3c3d f8e0 7d3d cc77 ae3d 8d86 d33d
00000170: 2cc6 533d 994b 5ebc c80a 823d 2966 953d
00000180: 2244 c23d 17cc 93bc 057c f63b cb8f 9f3c
00000190: 318b bbbc 1743 dc3d 7b3f 613d 1f19 c73d
000001a0: 08af 343d 5421 2e3d 8320 8e3c 8492 61bc
000001b0: 328d d6bb 0c70 a4bb b67c 303d ee1b 573d
000001c0: 4015 a9bd 5448 2fbd 6910 b8ba 7fb7 9abd
000001d0: 5385 5ebc a507 06bd 0e4c 0f3b a7b8 a0bc
000001e0: 50d8 13bd 783c 54bd 910e 20bd 8854 d8bc
000001f0: 444d 4fbd 65f1 11bd 2625 993c 4ca4 9b3c
00000200: 6261 663c e2d3 643d 0bad 8dbc 3eab 13bd
00000210: 0615 3dbc 41df aabd 609b 74bd 98ab 2cbc
00000220: b008 803d 92cf be3c 66f9 c13c 1946 413d
00000230: 7ed6 b13d 4bf0 783d ddfd e73d d1e2 f7bc
00000240: d302 453d 6d13 e43c 8922 99bc f956 373d
00000250: 2b0d 6f3d 006c 833c b49d 363c 35ca c53d
00000260: ea0f e63c 549f 0e3d 6f5c 903d 7607 313d
00000270: a3ff 9d3d cef0 a03d 697d e33c 196c bb3c
00000280: 3bf3 8ebc 9832 7ebc 1a22 a43c 7669 a43b
00000290: 6b8a 24bd 6eb1 a93d e634 e03d 6c7c b73d
000002a0: f860 ff3c 2989 d03d c24c 4b3d f635 023e
000002b0: 8b66 b33d 5c4d 853d edbe 0b3e c89b 153d
000002c0: a089 953d aba0 4f3d 8c67 4ebd a09e b4bd
000002d0: 4857 ebbd d441 c3bd b987 f2bc e754 6abd
000002e0: fd1f 9dbd d483 b3bd 79e5 8cbd c0b5 9cbd
000002f0: 8765 abbd b0bf 9ebd 1836 a1bd 44b6 15bc
00000300: 6008 913c 9121 d6bc fdec 9d3c 2268 3d3c
00000310: 6654 d13c 297e 2dbd 5b3c 943c a188 bf3b
00000320: 7aea 033d 01e2 30bd ab33 223a e31e 33bd
00000330: fd04 49bc 8279 39bd 89de 71bd ea4a d6bd
00000340: 5f19 98bd 60ce aebd 6cd7 b8bc f593 0c3d
00000350: 094a 4abc ec42 85bc 9911 563d 5fd4 3d3d
00000360: 80db 1ebc 7d31 8cbc b56a a63c 9352 c33c
00000370: 510d b63c 5221 743c 625f 04bd 52ef 663d
00000380: 1afd 893c 711c cd3d 6ced 773d a8c3 733d
00000390: 15ea 8b3d b159 293d 5ff3 913d 3125 bc3d
000003a0: 4fa8 003c 1532 a53c 9c23 903c 5c1d 993d
000003b0: 9be2 173d 9efb 913d fd70 003e f5e9 d13d
000003c0: d405 0e3c f545 563c 981a ba3d 4ac8 9dbb
000003d0: 9e49 363c 1d86 453c 2cef 84bd abe5 eb3c
000003e0: e966 843d c672 99bb 41b3 6d3d 9ec0 283d
000003f0: a94a 863d 8f44 e93d a24e 683d 7537 403d

Seperableconv.1.weight f4 [32]
0.5694474 0.27666757 0.23866202 0.34116971 0.18210731 0.09685432 0.19204114 0.7832876
0.284101 0.89187986 0.08751993 0.62822 0.6493106 0.8111392 -0.025333365 0.39655218
0.34408063 0.9461683 0.021202516 0.7470706 0.32921264 0.23881805 0.6692876 0.2018801
0.6089046 0.0008726333 0.1341971 0.7031621 0.071944445 0.25866675 0.12275501 0.7456138
00000000: 4ec7 113f 5fa7 8d3e d163 743e ccad ae3e
00000010: 577a 3a3e 8f5b c63d 6fa6 443e 8985 483f
00000020: b075 913e 3d52 643f a63d b33d 07d3 203f
00000030: 3839 263f d2a6 4f3f eb87 cfbc e308 cb3e
00000040: 562b b03e 1638 723f e6b0 ad3c 0540 3f3f
00000050: 8f8e a83e b88c 743e 6f56 2b3f a8b9 4e3e
00000060: 2ce1 1b3f 6ec1 643a f76a 093e 6e02 343f
00000070: 9c57 933d f86f 843e fb66 fb3d 8ce0 3e3f

Seperableconv.1.bias f4 [32]
-0.084077656 -0.032814898 0.013053808 -0.024028914 -0.02192771 -0.038873293 -0.057468537 -0.013130575
-0.022231758 -0.04359851 -0.014306404 -0.06071518 -0.013370852 -0.12532678 0.02984941 -0.007853342
-0.011067397 -0.08988392 -0.019913692 -0.0628221 -0.063018605 0.0124335345 -0.073055774 -0.01969591
-0.0012478365 -0.046150587 -0.03856859 -0.015648942 -0.02763006 -0.026438318 -0.036801938 -0.02699255
00000000: e830 acbd ea68 06bd a4df 553c 49d8 c4bc
00000010: bea1 b3bc 9a39 1fbd 2164 6bbd a021 57bc
00000020: 601f b6bc 5a94 32bd 6865 6abc 7bb0 78bd
00000030: 6b11 5bbc aa55 00be c086 f43c 4eab 00bc
00000040: 0754 35bc 1015 b8bd 0a22 a3bc e0a8 80bd
00000050: e60f 81bd 06b6 4b3c 449e 95bd 5159 a1bc
00000060: 728e a3ba 6608 3dbd 19fa 1dbd 3632 80bc
00000070: 7058 e2bc 2c95 d8bc a1bd 16bd 7b1f ddbc

Seperableconv.1.running_mean f4 [32]
0.49166128 -0.07634993 -0.34428325 -0.10839811 -0.09036432 -0.16045995 -0.02364972 -0.36348128
0.25927082 -0.056674317 -0.20294379 -0.19627656 -0.21491152 0.1653341 0.018924536 -0.23584872
0.44690567 0.09124832 0.13057262 -0.29682112 -0.46995965 -0.077217735 -0.36577913 0.06458704
0.039722804 0.25289306 -0.17914397 -0.4613584 0.09039732 -0.2200073 0.36408272 -0.22001268
00000000: 07bb fb3e 5a5d 9cbd e545 b0be d4ff ddbd
00000010: ee10 b9bd 9d4f 24be 0fbd c1bc 381a babe
00000020: 25bf 843e 5423 68bd 7fd0 4fbe b9fc 48be
00000030: c411 5cbe 584d 293e a107 9b3c 5482 71be
00000040: d2d0 e43e 66e0 ba3d d4b4 053e f0f8 97be
00000050: 8d9e f0be 5524 9ebd 6747 bbbe 3646 843d
00000060: 61b4 223d 337b 813e 8471 37be 2b37 ecbe
00000070: 3b22 b93d 9849 61be 0d69 ba3e 014b 61be

Seperableconv.1.running_var f4 [32]
4.544707 4.2220445 7.8646207 4.8014426 3.8235462 9.17325 5.3372345 7.611266
9.477318 4.5180335 9.575206 8.381601 10.296513 7.202211 4.077792 4.805977
9.777212 10.649818 7.705908 8.868472 4.8831525 9.339796 1.7150109 7.2077584
10.358333 9.657769 7.925109 9.632312 10.853533 11.490693 10.559971 4.731054
00000000: 3d6e 9140 fd1a 8740 f9aa fb40 6ba5 9940
00000010: fbb4 7440 a2c5 1241 a0ca aa40 7e8f f340
00000020: 18a3 1741 bb93 9040 0b34 1941 0a1b 0641
00000030: 84be 2441 8378 e640 467d 8240 90ca 9940
00000040: 766f 1c41 a865 2a41 cc96 f640 43e5 0d41
00000050: c942 9c40 ce6f 1541 7a85 db3f f5a5 e640
00000060: bbbb 2541 3986 1a41 7e9a fd40 f31d 1a41
00000070: 12a8 2d41 e1d9 3741 a4f5 2841 cb64 9740

Classfier.0.weight f4 [2, 736]
-0.02209562 -0.048536938 -0.075215414 -0.02634195 -0.09074985 -0.035374865 0.0074213957 -0.046936806
0.014347017 -0.0584804 0.11042763 0.03186619 0.056237392 0.03304982 0.014117482 0.07753394
-0.008238611 0.015905596 -0.012635731 0.027506158 -0.059650727 0.018507019 0.054438204 -0.019993031
0.007856633 -0.056167822 -0.002903178 0.0012670499 -0.025343498 0.020025894 0.0045519434 0.05350673
-0.02747904 0.01635415 -0.041413147 0.002671623 0.016477993 0.041844815 -0.046447977 0.026568213
0.021409633 0.0088268705 0.020227067 -0.01631305 -0.01846999 0.05577716 0.025916258 -0.0239095
0.06505185 -0.017314557 0.05786145 -0.05441024 0.014565624 -0.03941001 0.04701213 -0.05045452
-0.022569438 -0.0832479 0.012689735 -0.07702302 0.0024829092 -0.02561517 0.023912553 -0.03088224
-0.02599294 0.05299269 -0.03953735 0.041912705 0.01682179 0.060272332 -0.05373011 0.0670514
-0.006277263 -0.040045444 -0.013649259 0.03575382 -0.11990563 -0.0029273862 0.03696374 0.043953348
0.033416126 0.096003465 -0.046306916 -0.06296675 0.07623675 -0.0007942668 0.046804577 0.0028727571
-0.008470755 0.06303895 0.0464131 -0.020098187 -0.022456579 -0.03062324 -0.04011029 -0.019466428
-0.03526391 -0.046098396 -0.016414773 0.02636733 -0.012218247 0.02235101 -0.02522504 -0.0048878104
-0.025958108 -0.017001169 0.041813206 -0.010482 0.006738243 -0.036844116 -0.0036931764 0.009559365
0.06708549 0.04579333 0.039702725 -0.15426892 -0.013046934 -0.10809875 -0.04239271 -0.008759898
0.034120005 0.05295687 0.07194508 -0.0069559384 0.0012854486 0.040696796 -0.075815834 -0.034813255
0.010022742 0.0020048013 -0.034586865 -0.014561929 -0.022387657 -0.043262403 0.035035755 0.009961335
0.052911833 0.08867859 0.01761372 -0.02068115 -0.0034763203 -0.038862858 -0.017108152 -0.08771911
0.0042114747 0.070796564 -0.054145057 -0.068221346 0.0076658325 0.03535919 -0.051600836 0.044766758
-0.011067764 -0.04368428 -0.015621191 1.8779654e-05 -0.0031025044 -0.043086577 0.003169173 -0.034262516
0.020260165 0.0875245 0.08590765 0.09534213 0.0645325 -0.0030661384 0.017242512 0.04886984
-0.02956373 0.007287993 -0.00062428357 -0.028637322 -0.04014953 0.009943061 0.018044058 -0.0043368917
-0.00461948 0.038839947 0.008530745 0.020520072 0.04822945 -0.06688511 0.0032264374 -0.05962933
-0.10435105 0.023214279 0.05528385 -0.03802286 0.043239497 -0.021969544 -0.066537425 0.0014568076
-0.047800377 -0.008297505 -0.06113494 0.040841375 -0.026638027 0.09171686 0.11906841 0.0117181
-0.05314933 0.006586222 0.02728862 0.037828464 0.0064354087 -0.00807967 -0.0028780038 -0.008583519
0.08928412 -0.006577964 0.046179753 -0.06939169 0.029905954 -0.0070246444 0.013156469 0.012983071
-0.014714404 -0.034618195 0.057793073 0.008495585 0.038990367 0.040973842 0.053099856 0.023471005
-0.027726404 -0.045408405 -0.007651847 0.008244562 0.033179946 0.011795344 0.036668126 0.070373125
0.011854668 -0.0093955705 0.040881325 -0.06840351 -0.010853796 0.038395155 0.0128083965 -0.038163237
-0.032035407 -0.054111198 0.00063227525 -0.017195566 -0.0073352354 0.07469493 0.01017484 -0.01064951
-0.0027706397 -0.02254427 -0.04580352 -0.033557083 -0.052319568 -0.038905025 -0.04008372 -0.112170905
00000000: e001 b5bc abce 46bd 8a0a 9abd 13cb d7bc
00000010: 0fdb b9bd 3ce5 10bd 2e2f f33b cf40 40bd
00000020: c00f 6b3c 2589 6fbd e227 e23d 1f86 023d
00000030: 2e59 663d 405f 073d 034d 673c 1dca 9e3d
00000040: 3dfb 06bc 744c 823c 1906 4fbc 9854 e13c
00000050: 5254 74bd 089c 973c 98fa 5e3d 6dc8 a3bc
00000060: 1bb9 003c 3b10 66bd 3f43 3ebb 2413 a63a
00000070: 2b9d cfbc 580d a43c 7828 953b df29 5b3d
00000080: b91b e1bc 23f9 853c d5a0 29bd 6516 2f3b
00000090: dbfc 863c 7865 2b3d 3c40 3ebd 95a5 d93c
000000a0: 4163 af3c 949e 103c 3cb3 a53c f2a2 85bc
000000b0: 604e 97bc 9776 643d 554e d43c dbdd c3bc
000000c0: e839 853d 42d7 8dbc 2100 6d3d 46dd 5ebd
000000d0: a8a4 6e3c 646c 21bd cb8f 403d 66a9 4ebd
000000e0: 8be3 b8bc e07d aabd 9be8 4f3c 3fbe 9dbd
000000f0: 4eb8 223b e8d6 d1bc 42e4 c33c c0fc fcbc
00000100: 25ef d4bc dd0e 593d ebf1 21bd a8ac 2b3d
00000110: dacd 893c 1fe0 763d 1b14 5cbd 3f52 893d
00000120: 80b1 cdbb b106 24bd 24a1 5fbc 9972 123d
00000130: 1591 f5bd 64d9 3fbb 4a67 173d 6d08 343d
00000140: 59df 083d 779d c43d 52ac 3dbd b6f4 80bd
00000150: 0322 9c3d 5836 50ba 28b6 3f3d de44 3c3b
00000160: ecc8 0abc 911a 813d aa1b 3e3d f4a4 a4bc
00000170: dcf6 b7bc 97dd fabc b04a 24bd 0f78 9fbc
00000180: e470 10bd acd1 3cbd 4678 86bc 4d00 d83c
00000190: 0b2f 48bc 7719 b73c bea4 cebc ed29 a0bb
000001a0: 19a6 d4bc 0946 8bbc 5344 2b3d b2bc 2bbc
000001b0: 7bcc dc3b dbe9 16bd 3809 72bb e29e 1c3c
000001c0: 1e64 893d c991 3b3d 539f 223d acf8 1dbe
000001d0: cfc2 55bc e162 ddbd faa3 2dbd ad85 0fbc
000001e0: 6bc1 0b3d 4ee9 583d f157 933d a4ee e3bb
000001f0: 7f7c a83a afb1 263d 5545 9bbd 5898 0ebd
00000200: 6d36 243c fc62 033b f5aa 0dbd 2895 6ebc
00000210: 5266 b7bc eb33 31bd a781 0f3d de34 233c
00000220: 14ba 583d 1f9d b53d a64a 903c 846b a9bc
00000230: fad2 63bb a92e 1fbd 6526 8cbc 14a6 b3bd
00000240: 6900 8a3b cafd 903d 35c7 5dbd a2b7 8bbd
00000250: aa31 fb3b ccd4 103d 665b 53bd 595d 373d
00000260: 9155 35bc 4aee 32bd 06f0 7fbc 0089 9d37
00000270: 6353 4bbb 8d7b 30bd e6b1 4f3b da56 0cbd
00000280: a5f8 a53c 0c40 b33d 5af0 af3d bc42 c33d
00000290: 9e29 843d 44f1 48bb 2b40 8d3c be2b 483d
000002a0: a32f f2bc 1ed0 ee3b f6a6 23ba d198 eabc
000002b0: d573 24bd 38e8 223c 22d1 933c 7c1c 8ebb
000002c0: 025f 97bb a316 1f3d 8ac4 0b3c b619 a83c
000002d0: 3e8c 453d 10fb 88bd a372 533b e23d 74bd
000002e0: 01b6 d5bd df2b be3c 5171 623d dcbd 1bbd
000002f0: e61b 313d 79f9 b3bc c644 88bd 5af2 be3a
00000300: 54ca 43bd 42f2 07bc a168 7abd 4949 273d
00000310: fe37 dabc 0dd6 bb3d 23da f33d 46fd 3f3c
00000320: 1db3 59bd 3cd1 d73b 628c df3c 05f2 1a3d
00000330: 1fe0 d23b 9860 04bc e49c 3cbb e3a1 0cbc
00000340: 98da b63d f68b d7bb fb26 3d3d 3b1d 8ebd
00000350: 55fd f43c fd2e e6bb 3b8e 573c f2b6 543c
00000360: af14 71bc cfcb 0dbd 6eb8 6c3d 1131 0b3c
00000370: 5db4 1f3d 30d4 273d 3c7f 593d 4446 c03c
00000380: 7c22 e3bc 2afe 39bd 58bc fabb 3314 073c
00000390: b2e7 073d 4241 413c 5131 163d c91f 903d
000003a0: 153a 423c e1ef 19bc 2d73 273d 2417 8cbd
000003b0: 1fd4 31bc 3d44 1d3d 4fda 513c 0e51 1cbd
000003c0: 8f37 03bd b4a3 5dbd 46bf 253a b7dd 8cbc
000003d0: 6a5c f0bb a8f9 983d 5fb4 263c 487b 2ebc
000003e0: 9f93 35bb c3ae b8bc 799c 3bbd 2773 09bd
000003f0: 0b4d 56bd e05a 1fbd d42e 24bd dcb9 e5bd

Classfier.0.bias f4 [2]
-0.008687045 0.008890985
00000000: 1c54 0ebc 7eab 113c
