NCTU2/EEGNet/EEGNet_ReLU.pt (torch_old, 75525 bytes, 17 tensors)

Firstconv.0.weight f4 [16, 1, 1, 51]
0	0xbcf791a0	-0.030220807
1	0x3dd0a5d7	0.101878814
2	0x3da37c24	0.07982662
3	0x3db80c96	0.089867756
4	0x3b68b4a5	0.0035508063
5	0xbca1eac9	-0.019765275
6	0x3e23caba	0.15995303
7	0x3d91ca67	0.07118683
8	0x3e5bdf17	0.21471821
9	0x3e2de9c4	0.16983706
10	0x3d8c46cd	0.06849442
11	0x3cf1958a	0.029490251
12	0xbd411f35	-0.047148902
13	0xbd15c55a	-0.036565162
14	0xbde6f66f	-0.11277472
15	0x3df800fc	0.12109563
16	0x3da24b74	0.07924548
17	0xbd85fce9	-0.065423794
18	0xbdc71ee1	-0.097226866
19	0xbdb8d612	-0.09025206
20	0x3ca1da21	0.019757332
21	0x3d23e16b	0.040009897
22	0xbd3b4172	-0.04571671
23	0xbe204405	-0.15650947
24	0x3c178d7f	0.009250044
25	0xbb8ffae8	-0.004393924
26	0x3d2dea60	0.042459846
27	0xbd98ec3f	-0.07466935
28	0xbdee5853	-0.1163794
29	0x3dc2ad96	0.09505765
30	0x3cb93d23	0.02261216
31	0x3d2130f6	0.039353333
32	0x3c800feb	0.01563259
33	0x3d7f4ae8	0.062327296
34	0x3c5315c4	0.012883607
35	0xbd9194ea	-0.07108481
36	0xbe319920	-0.17343569
37	0xbe618856	-0.22024664
38	0xbd96862f	-0.07349812
39	0xbd90780d	-0.07054148
40	0xbe2d7b57	-0.16941582
41	0xbdc8ac83	-0.09798529
42	0xbdc19348	-0.0945192
43	0xbe040ae0	-0.12894773
44	0x3d0a30f5	0.033738095
45	0xbbe80b58	-0.0070814304
46	0xbd502966	-0.05082073
47	0x3c86137b	0.01636671
48	0xbe6f55be	-0.23372552
49	0xbe522ffd	-0.20526119
50	0xbe133a41	-0.14377691
51	0x3d0449d2	0.032296963
52	0x3cb85e5f	0.022505937
53	0xbdc1116c	-0.09427151
54	0xbe4b7aec	-0.1987111
55	0xbc5c629d	-0.013451246
56	0xbe0db1eb	-0.13837402
57	0xbe37190c	-0.17880648
58	0xbe6048da	-0.2190279
59	0xbdb058ab	-0.08610662
60	0x3bf115e3	0.0073573454
61	0xbe2e6776	-0.17031655
62	0xbcf5bebc	-0.029998176
63	0xbdd88f79	-0.1057424
64	0x3d219868	0.039451987
65	0xbe15b198	-0.14618528
66	0xbe4fdc2b	-0.20298831
67	0x3d433708	0.047659904
68	0xbddf3264	-0.10898283
69	0xbc82da94	-0.015973367
70	0x3da1fb9f	0.07909321
71	0xbcb2fce3	-0.021849101
72	0xbd19524e	-0.037432007
73	0xbdb26020	-0.08709741
74	0xbc8010ce	-0.015633013
75	0xbd8963ed	-0.067085125
76	0xbd625644	-0.05525805
77	0xbde54d2f	-0.11196362
78	0xbe1471b9	-0.14496507
79	0xbe0f9012	-0.14019802
80	0x3d9775d5	0.073955216
81	0x3cc781f5	0.02435396
82	0xbdd34076	-0.10315029
83	0x3d1d2b5d	0.038371433
84	0xbd9ee0f2	-0.07757749
85	0xbe0e34c0	-0.1388731
86	0xbe19e20c	-0.15027636
87	0x3cf379b9	0.029721128
88	0xbdc92843	-0.098221324
89	0xbe1a8322	-0.15089086
90	0xbd672e5c	-0.056440696
91	0xbcb214c1	-0.021738412
92	0xbc182260	-0.009285539
93	0xbd22158a	-0.039571323
94	0x3d628a4e	0.05530768
95	0xbe341630	-0.17586589
96	0xbe112e81	-0.14177896
97	0xbdabca48	-0.083881915
98	0xbd885472	-0.06656732
99	0x3dd1a00c	0.10235605
100	0xbe102d47	-0.14079772
101	0x3d28c17c	0.041200146
102	0x3cdeb90b	0.027187845
103	0xbde1d446	-0.11026816
104	0x3d65da54	0.056116417
105	0x3d676616	0.05649384
106	0xbd84700c	-0.06466684
107	0x3c81b544	0.015833504
108	0xbe34049d	-0.17579885
109	0x3d1fa7d1	0.0389784
110	0xbdc4049e	-0.09571193
111	0xbe400c32	-0.18754652
112	0x3d8bb4d0	0.068215966
113	0xbd90b82b	-0.07066377
114	0xbdeb3b9c	-0.11485979
115	0xbe0cb30a	-0.13740173
116	0xbc81e802	-0.0158577
117	0xbdbf18cb	-0.09330901
118	0x3d72b731	0.059256736
119	0xbdf33136	-0.118746206
120	0xbe4c1613	-0.19930296
121	0xbe1e6df5	-0.15471633
122	0xbe021d03	-0.1270638
123	0xbbcc0704	-0.0062264223
124	0xbd511bab	-0.051051777
125	0xbe4abd45	-0.19798763
126	0xbca95294	-0.02066926
127	0x3d79dfb2	0.061004348
128	0xbe3221ec	-0.17395753
129	0xbde65465	-0.11246566
130	0xbd4e04c7	-0.050297525
131	0xbc9709dd	-0.01843732
132	0xbe02bc6c	-0.1276719
133	0x3d55aaa3	0.052164685
134	0xbe317868	-0.17331088
135	0xbc122b42	-0.008921446
136	0xbd44bb16	-0.04802998
137	0x3d165d73	0.036710214
138	0xbc9452e5	-0.018105933
139	0xbddd347f	-0.108010285
140	0xbd547467	-0.051868822
141	0xbe0c07ae	-0.13674805
142	0xbdaf16be	-0.085492596
143	0xbe57d467	-0.21077119
144	0xbe192675	-0.14956076
145	0x3ca09085	0.019600162
146	0xbcd95fbe	-0.026534911
147	0xbe0ff8de	-0.14059779
148	0x3d1ecb51	0.038768116
149	0xbe3dce3f	-0.18535708
150	0xbda860a9	-0.082215615
151	0x3d272d64	0.040814772
152	0xbe1e95a5	-0.15486772
153	0xbe455a30	-0.19272685
154	0xbd9c8de4	-0.07644251
155	0xbd0458e0	-0.03231132
156	0xbceb58e1	-0.028728904
157	0x3c78aece	0.015178395
158	0xbdccf20d	-0.10007105
159	0xbd083c99	-0.033260915
160	0xbe0033fd	-0.12519832
161	0xbd16ae69	-0.036787424
162	0xbd9fb0b5	-0.07797376
163	0x3d6ff128	0.058579594
164	0x3d6ac63b	0.057317954
165	0xbd7fcfbb	-0.062453967
166	0xbe0f1d55	-0.13976033
167	0x3d0bc234	0.034120753
168	0xbccea236	-0.025223833
169	0xbe3da9c1	-0.18521787
170	0xbc5ebf68	-0.0135954395
171	0xbdf2f34c	-0.118628114
172	0x3d88f0fa	0.06686588
173	0xbe354782	-0.1770306
174	0xbdd5a462	-0.10431744
175	0x3cce731c	0.025201373
176	0xbd9300fb	-0.071779214
177	0xbdd0f2f8	-0.102025926
178	0xbc9c44ab	-0.019075712
179	0x3ba286bf	0.0049599106
180	0xbe270c63	-0.16313319
181	0xbdb32d3e	-0.08748864
182	0xbde8ed4e	-0.11373387
183	0x3d46d593	0.048543524
184	0xbd8a9efa	-0.067686036
185	0xbd246255	-0.04013284
186	0xbe2136ce	-0.15743563
187	0x3c9ba9e3	0.019001907
188	0xbd7a6452	-0.06113083
189	0xbd569ea9	-0.052397404
190	0x3c7b0e4e	0.015323235
191	0xbe297d61	-0.16551735
192	0xbd9bb046	-0.07601981
193	0xbd6d9fc8	-0.058013707
194	0xbdc8a9cb	-0.097980104
195	0x3d0f4d4c	0.034985825
196	0xbe25ea8d	-0.16202755
197	0xbe33fd40	-0.17577076
198	0xbe22a247	-0.15882216
199	0xbd039433	-0.032123756
200	0x3d54c2f7	0.051943745
201	0xbe090805	-0.13381965
202	0xbe1ba4bf	-0.15199564
203	0x3d6ba177	0.05752703
204	0x3dc1e18f	0.0946685
205	0x3ddac54f	0.10682165
206	0x3dacd665	0.0843933
207	0x3d909006	0.0705872
208	0xbd8b8443	-0.06812336
209	0x3da9a1cb	0.08282813
210	0xbd058a56	-0.03260263
211	0xbe250557	-0.16115318
212	0x3ddbc985	0.10731796
213	0x3d8782df	0.066167586
214	0x3dd46db8	0.1037249
215	0xbe14550f	-0.14485572
216	0x3c726140	0.014793694
217	0x3cfe6e7c	0.031058542
218	0x3d9ffa74	0.07811442
219	0x3b8eac6e	0.0043540513
220	0xbd038150	-0.032105744
221	0x3bb08d08	0.005387906
222	0xbd47cfc1	-0.048782114
223	0x3de47de2	0.11156823
224	0xbe2b9d25	-0.16759165
225	0xbd8d006f	-0.06884848
226	0xbcf154e2	-0.02945942
227	0x3e018eb8	0.12652099
228	0xbc8ad4a2	-0.016947094
229	0x3d5e5d09	0.054287944
230	0xbc9ada19	-0.018902825
231	0xbd6e9c77	-0.058254685
232	0xbd8516b4	-0.06498471
233	0xbd2f58d9	-0.04280934
234	0x3d5205cd	0.051275063
235	0x3cfe76e7	0.031062556
236	0x3dbdebaf	0.09273469
237	0x3da96f55	0.08273188
238	0x3dba9f19	0.09112377
239	0x3ca620ae	0.020279255
240	0x3e56ca90	0.20975709
241	0x3e58b1c4	0.21161562
242	0x3df26a1d	0.11836646
243	0x3e6f3d0f	0.23363136
244	0x3d6d440e	0.05792623
245	0x3e55bbd7	0.20872436
246	0x3e11c189	0.14233984
247	0x3da0be94	0.0784885
248	0x3ca031a1	0.019554915
249	0xbded3de6	-0.11584072
250	0x3d078462	0.033085234
251	0x3df1a750	0.117994905
252	0xbdb520e1	-0.08844162
253	0x3ddf6a5b	0.109089576
254	0x3cccc090	0.024994165
255	0xbccf4e1b	-0.025305798

Firstconv.1.weight f4 [16]
0	0x3ead2609	0.3381808
1	0x3ee56b2c	0.44808328
2	0xbd4cbf79	-0.04998729
3	0x3e5821b8	0.21106613
4	0x3e3c1e14	0.18370849
5	0x3e897b54	0.26851904
6	0x3f86cb20	1.0530739
7	0x3ef49440	0.47769356
8	0x3f7a06ba	0.97666514
9	0x3ed3b1f7	0.41346714
10	0x3e4cf6d3	0.20016031
11	0x3f2a2286	0.6645893
12	0x3e9d0eca	0.30675346
13	0x3f3dffc0	0.7421837
14	0x3eb7816f	0.35840937
15	0x3e86a6dc	0.2629918

Firstconv.1.bias f4 [16]
0	0xb864f6ca	-5.4589276e-05
1	0x38a016ff	7.633678e-05
2	0x3837c9ea	4.3818647e-05
3	0x3841f3e7	4.6241938e-05
4	0xb948543a	-0.00019104863
5	0xb8ab44d9	-8.166739e-05
6	0x375dfdfc	1.3231762e-05
7	0x38e2d0fe	0.000108154476
8	0x386417d8	5.4381642e-05
9	0x38f4d70a	0.00011674881
10	0x38d2221e	0.00010019935
11	0x39129cd4	0.00013982068
12	0xb842cc46	-4.644345e-05
13	0x3829ffa9	4.0530842e-05
14	0xb74dfdf6	-1.2278082e-05
15	0xb8bc3d89	-8.9760004e-05

Firstconv.1.running_mean f4 [16]
0	0x3d6d48e2	0.057930835
1	0x3dcf2f9d	0.101165034
2	0x3de191d2	0.11014141
3	0x3dd16a49	0.102253504
4	0xbd7803b0	-0.06055039
5	0x3d429827	0.047508385
6	0xbe068230	-0.131356
7	0xbdef2cd8	-0.11678475
8	0x3d9250c8	0.07144314
9	0x3ded5b70	0.11589706
10	0xbd83cb3a	-0.06435247
11	0xbe09865f	-0.13430165
12	0x3dcd439b	0.1002266
13	0x3da8c59a	0.082408145
14	0x3cf32099	0.02967863
15	0xbdd0d59f	-0.10196995

Firstconv.1.running_var f4 [16]
0	0x428b9efc	69.81052
1	0x42dd53d7	110.66375
2	0x430117c3	129.09282
3	0x42c4e66f	98.450066
4	0x42249a6b	41.1508
5	0x428ab127	69.346
6	0x43351754	181.09113
7	0x431c1546	156.0831
8	0x424a78d7	50.618008
9	0x4309674a	137.40347
10	0x4252af41	52.671146
11	0x4352e9e7	210.91368
12	0x430d26f4	141.15216
13	0x427c2650	63.037415
14	0x4223db99	40.96445
15	0x42b0acf9	88.33784

Depthwiseconv.0.weight f4 [32, 1, 2, 1]
0	0x3e87be6f	0.26512477
1	0x3db5d715	0.08878914
2	0xbedfbf09	-0.43700436
3	0xbf22df40	-0.636219
4	0x3e50713e	0.20355698
5	0xbf09794f	-0.5370073
6	0xbeb969b5	-0.3621346
7	0x3ddf8b1f	0.10915207
8	0x3ebb81a6	0.3662235
9	0x3f32fcd2	0.69917023
10	0xbebd9428	-0.37027097
11	0xbf190fbf	-0.5978965
12	0xbd1283d3	-0.03577025
13	0x3eea891d	0.45807734
14	0x3eb31e84	0.3498422
15	0xbe3167f8	-0.17324817
16	0x3f03ad3b	0.51436204
17	0x3e8d57ba	0.27605993
18	0xbf310b67	-0.69158024
19	0x3d94581a	0.072433665
20	0xb9a1238a	-0.00030734792
21	0x3ecfde09	0.40599087
22	0x3e7b03d2	0.24513176
23	0x3f378e0e	0.71701133
24	0xbec39e0e	-0.38206524
25	0xbec5bc21	-0.38620093
26	0xbee3afa2	-0.44469935
27	0x3f0ab686	0.5418476
28	0x3eb7e49a	0.35916597
29	0xbc0e3ada	-0.0086810235
30	0xbeba9409	-0.36441067
31	0x3e8bddfa	0.27317792
32	0xbef1e642	-0.47245985
33	0x3f19da85	0.6009906
34	0xbf26a08d	-0.6508873
35	0xbf020b57	-0.50798553
36	0x3d6b29e7	0.057413008
37	0x3f3d45fd	0.7393492
38	0xbf2b962b	-0.67026013
39	0x3f0b843c	0.5449865
40	0x3e96298e	0.2932858
41	0x3ed5f34d	0.41787186
42	0xbd5d9070	-0.054092824
43	0xbdbced9b	-0.09225007
44	0xbf22acfb	-0.635452
45	0x3f2928e3	0.66078013
46	0x3f24dd43	0.6440012
47	0x3e9419ab	0.28925833
48	0xbf33b98f	-0.70205015
49	0x3ca9177a	0.020641077
50	0xbf081bea	-0.53167593
51	0xbf0a2889	-0.539681
52	0xbf339f8b	-0.7016532
53	0xbe1e23dd	-0.15443368
54	0x3f174313	0.5908672
55	0x3ee89366	0.45424956
56	0x3f1ef549	0.62093025
57	0x3ed6e0fa	0.41968518
58	0x3ed7023b	0.4199389
59	0x3ec6dcf9	0.38840464
60	0x3f05e1bd	0.52297574
61	0x3d54c17f	0.051942345
62	0x3f1120be	0.56690586
63	0x3f0730e9	0.52809006

Depthwiseconv.1.weight f4 [32]
0	0x3e8a2cab	0.26987204
1	0x3edea8cd	0.4348816
2	0x3f6ae9a8	0.9176278
3	0x3f4250ec	0.75904727
4	0xbb96eb52	-0.004605689
5	0x3ecbf8c4	0.3983823
6	0x3ee8030b	0.45314822
7	0x3ee1a79d	0.4407319
8	0x3f517414	0.81817746
9	0x3e143a06	0.14475259
10	0x3f3392a1	0.7014561
11	0x3e65ba02	0.22434238
12	0x3e7b3258	0.24530923
13	0x3f84a008	1.0361338
14	0x3ed515d5	0.4161822
15	0x3e0c7f70	0.13720489
16	0x3ded65ec	0.11591706
17	0x3efdfef2	0.4960857
18	0x3f6291d1	0.8850375
19	0x3f3cefde	0.7380351
20	0x3e035b0c	0.128277
21	0x3f25b2c2	0.6472589
22	0x3ed576bf	0.4169216
23	0x3f2282bd	0.6348074
24	0x3ea892a3	0.32924375
25	0x3eb49a73	0.35274085
26	0x3e874091	0.26416448
27	0x3f2e50fc	0.6809232
28	0x3f1c8b53	0.6115009
29	0x3e17cdbe	0.14824578
30	0x3f1ce216	0.6128248
31	0x3f3f7df5	0.7480157

Depthwiseconv.1.bias f4 [32]
0	0xbb99a5eb	-0.0046889684
1	0xbdeb78a9	-0.114976235
2	0x3d1794b5	0.037007052
3	0x3d2c725e	0.042101257
4	0xbd0af783	-0.03392745
5	0xbd9e6051	-0.07733215
6	0xbd8b8a6e	-0.06813513
7	0x3c819aa0	0.015820801
8	0xbdf5ae48	-0.11996132
9	0x3c52a6f2	0.012857186
10	0xbc3f53cc	-0.011677694
11	0x3c9988f8	0.01874207
12	0xbdb2e238	-0.08734554
13	0x3e2a5ad0	0.16636205
14	0xbc7b4313	-0.015335816
15	0x3c7b1200	0.015324116
16	0xbd1ef448	-0.038807184
17	0xbe1eac17	-0.15495335
18	0xbce05b15	-0.027387181
19	0x3dd1ddff	0.102474205
20	0xbdcabd6e	-0.09899412
21	0x3d1b4ee4	0.037917033
22	0x3e2094e2	0.15681794
23	0xbdd4e2e8	-0.103948414
24	0x3d5b4610	0.053533614
25	0xbe1f14ef	-0.1553533
26	0xbcda7d93	-0.026671207
27	0xbcd952e8	-0.02652879
28	0x3c21774c	0.009855103
29	0xbd984eca	-0.07436903
30	0x3d31ab1a	0.043376066
31	0xbe01f6df	-0.1269183

Depthwiseconv.1.running_mean f4 [32]
0	0xb7c0bf7c	-2.297735e-05
1	0x380a302d	3.294663e-05
2	0xba166400	-0.0005736947
3	0x39b9971a	0.0003539853
4	0x37e30efd	2.7067488e-05
5	0xb80c51d5	-3.3454813e-05
6	0x3912ef8c	0.00014012883
7	0xb905eb9e	-0.00012771643
8	0xb80ce980	-3.3596065e-05
9	0xb81e725b	-3.7776637e-05
10	0xb51f1d9a	-5.927519e-07
11	0xb81883d2	-3.636239e-05
12	0xb8da8943	-0.00010420617
13	0xbae1e443	-0.0017234165
14	0x39a3f481	0.00031271952
15	0xba087d63	-0.00052066724
16	0x3a89cd2f	0.001051342
17	0x3920a068	0.00015318545
18	0x39ec5e45	0.00045083664
19	0x3a54dcd6	0.00081200653
20	0x3800b5af	3.0686784e-05
21	0x3696f81e	4.499233e-06
22	0xbaa9c290	-0.0012951661
23	0x39ee7c85	0.00045487672
24	0x39c362a8	0.00037266803
25	0x38611228	5.366109e-05
26	0x3a08c119	0.0005216762
27	0xb9128135	-0.00013971778
28	0xb8414bd2	-4.60854e-05
29	0xb7d04482	-2.4827434e-05
30	0x39608f50	0.00021415693
31	0x3816076d	3.5769703e-05

Depthwiseconv.1.running_var f4 [32]
0	0x3d916472	0.070992365
1	0x3e36f112	0.17865399
2	0x3dd0b725	0.10191182
3	0x3d9b33c1	0.07578231
4	0x3d7311be	0.059343092
5	0x3d723596	0.059133135
6	0x3d835c75	0.06414119
7	0x3d78acac	0.060711548
8	0x3d9b9885	0.0759745
9	0x3d94320d	0.07236109
10	0x3d8a177c	0.067427605
11	0x3dd99f60	0.106261015
12	0x3f090aaa	0.535319
13	0x3e8ee2ca	0.279074
14	0x3da4166c	0.08012089
15	0x3d9fc7fe	0.07801817
16	0x3e87f8bf	0.26556966
17	0x3f83bf48	1.029275
18	0x3e208874	0.15677053
19	0x3de132d5	0.109960236
20	0x3d939de1	0.072078474
21	0x3d6fd96d	0.058556963
22	0x3e415251	0.18879057
23	0x3ea96d32	0.33091122
24	0x3dc2ffae	0.09521423
25	0x3e0da555	0.138326
26	0x3ec35e1d	0.3815774
27	0x3f00c6cf	0.5030336
28	0x3e36dc34	0.17857438
29	0x3e054632	0.13015059
30	0x3d9fdcba	0.07805772
31	0x3dfb9917	0.12285059

Seperableconv.0.weight f4 [32, 32, 1, 15]
0	0x3b737a52	0.0037151766
1	0xbc50dad3	-0.012747484
2	0x3d28431b	0.04107962
3	0x3c9fb7a8	0.019496754
4	0xbda23d8d	-0.07921896
5	0xbd57acb6	-0.052654944
6	0xbd14e4aa	-0.036350884
7	0xbd938246	-0.07202582
8	0xbdc57151	-0.09640754
9	0xbdf55229	-0.119785614
10	0xbd9e5b8e	-0.077323064
11	0xbd7e0888	-0.062019855
12	0xbbdb813c	-0.0066987555
13	0x3d2c5bfa	0.042079903
14	0xbc5ba999	-0.013407134
15	0xbd35068a	-0.04419569
16	0xbcd778e6	-0.026302766
17	0xbda89340	-0.08231211
18	0xbbc210d1	-0.005922415
19	0x3d4b3fb5	0.049621303
20	0xbd7e018c	-0.062013194
21	0xbb299618	-0.0025876816
22	0x3cdccb02	0.02695227
23	0x3cad8497	0.021181388
24	0x3d717d88	0.058957607
25	0xbaffdd08	-0.0019520829
26	0x3db70933	0.089373015
27	0xba89489c	-0.001047391
28	0x3c5d2c12	0.013499277
29	0x3d1e9952	0.038720436
30	0xbd54a717	-0.05191716
31	0xbd9c2824	-0.07624844
32	0xbdb05839	-0.08610577
33	0x3d1e861b	0.03870211
34	0x3c24becd	0.010055256
35	0x3b8a30d3	0.004217246
36	0x3d48166f	0.04884952
37	0x3d21cd9c	0.039502725
38	0x3d859710	0.065229535
39	0x3d90f988	0.07078844
40	0xbc8b7be2	-0.017026845
41	0x3dbe4ae6	0.092916295
42	0x3ddc13dd	0.10745976
43	0x3c4e9f76	0.012611261
44	0xbcd2972a	-0.025706846
45	0xbda057fa	-0.0782928
46	0xbd7c1a85	-0.06154873
47	0xbdaeb735	-0.08531038
48	0xbdaa5440	-0.08316851
49	0xbd8a8824	-0.06764248
50	0x3bc01934	0.0058623794
51	0xbd68ce9f	-0.056837674
52	0xbcfecdbf	-0.031103967
53	0x3cff51bc	0.031166904
54	0x3d24b214	0.04020889
55	0x3caec19b	0.021332553
56	0xbc1ff71f	-0.009763508
57	0x3d8cfc41	0.06884051
58	0xbc2ae39e	-0.010430245
59	0xbd56c7c3	-0.0524366
60	0x3ccd2968	0.025044158
61	0xbc20f7f8	-0.009824745
62	0x3cb75a38	0.022381887
63	0x3cc7922d	0.024361694
64	0xbd4d6560	-0.050145507
65	0x3d76ea3f	0.06028199
66	0x3d543f86	0.051818393
67	0xb90a8444	-0.00013209978
68	0xbd6ec56c	-0.058293745
69	0x3cec42b4	0.0288404
70	0x3d8da187	0.069155745
71	0xbd952cb4	-0.07283917
72	0xbcc060fb	-0.023483744
73	0xbdf5e9f2	-0.12007512
74	0xbdec6fe4	-0.11544779
75	0x3d776c5d	0.060406078
76	0xbacd7948	-0.0015676403
77	0xbdab1c47	-0.08355003
78	0xbd021667	-0.031759646
79	0x3d0cb75a	0.034354545
80	0xbcf181d6	-0.029480856
81	0xbd3433df	-0.04399478
82	0xbdcfab36	-0.10140078
83	0x3d4c277c	0.049842343
84	0x3bff3960	0.007788822
85	0xbd402476	-0.04690977
86	0xbb80f468	-0.0039353855
87	0x3b7e0f4a	0.0038766437
88	0xbce3bc94	-0.027799882
89	0x3b2fc479	0.0026819988
90	0xbde08f5b	-0.10964843
91	0xbbbfe164	-0.005855726
92	0xbdd18d34	-0.102320105
93	0xbd4605dc	-0.04834543
94	0xbc331721	-0.010930807
95	0xbdee0a12	-0.116230145
96	0xbd319d56	-0.043362938
97	0xbd9457f7	-0.072433405
98	0xbde002be	-0.10938023
99	0x3c99cd43	0.018774634
100	0xbcecc4dc	-0.028902464
101	0xbb689ffa	-0.0035495744
102	0xbd0734b8	-0.03300926
103	0xbd55adb8	-0.052167624
104	0x3b91b273	0.0044463216
105	0x3d8a0e24	0.06740978
106	0x3e0a12c1	0.13483717
107	0x3dae1c9d	0.08501551
108	0x3d1a988d	0.03774314
109	0x3d61c060	0.055115104
110	0x3d8c4ff9	0.06851191
111	0x3d96d411	0.07364667
112	0x3d8c9875	0.06865016
113	0x3d967016	0.073455974
114	0x3d3ae1d6	0.04562553
115	0x3db323d2	0.087470666
116	0x3d7fa0e0	0.06240928
117	0x3d75230e	0.059847884
118	0x3c42ccb1	0.011889623
119	0x3d2fc49d	0.042912114
120	0x3ccdee1a	0.02513795
121	0xbdd2c70c	-0.102918714
122	0xbd3a1b6b	-0.045436304
123	0xbd83bcf1	-0.06432522
124	0xbc9486c8	-0.018130675
125	0xbd02cc00	-0.03193283
126	0xbd804432	-0.06263007
127	0xbcd7bb2b	-0.026334366
128	0xbd47b6f1	-0.04875845
129	0xbd87b1ea	-0.06625731
130	0xbd6bfad9	-0.057612274
131	0xbaacaf74	-0.0013174848
132	0xbb8b3082	-0.004247726
133	0xbd22dde2	-0.039762385
134	0xbd8d1134	-0.06888047
135	0x3d3f5b81	0.046718124
136	0x3cbb8113	0.022888696
137	0x3daf68e5	0.08564929
138	0x3dc3a1ae	0.09552322
139	0xbc1af46a	-0.009457687
140	0x3d055fff	0.032562252
141	0x3d824462	0.06360699
142	0x3d9bc40c	0.07605752
143	0x3d908029	0.070556946
144	0x3d6a0b31	0.05713958
145	0x3dd69f54	0.10479608
146	0x3da778ff	0.08177375
147	0x3d78a594	0.060704783
148	0x3d8911fd	0.06692884
149	0x3d0325a0	0.032018304
150	0x3dcc49e6	0.099750325
151	0x3d6227cf	0.055213746
152	0x3d52d9d9	0.051477287
153	0x3dbcef2c	0.09225306
154	0x3d32cc81	0.04365206
155	0xbc348c90	-0.011019841
156	0xbe088546	-0.1333209
157	0xbe07c5e7	-0.13259088
158	0xbd04ba6d	-0.032404352
159	0x3cbb119b	0.022835543
160	0xbdc811aa	-0.09768994
161	0xbd8f3d8c	-0.06994161
162	0xbd421375	-0.047381837
163	0x3d3a8e2d	0.045545746
164	0x3c724010	0.0147857815
165	0x3bef81cc	0.007309174
166	0x3cfe0b59	0.03101127
167	0x3d27356f	0.040822443
168	0x3ad70222	0.0016403834
169	0x3cf25b79	0.029584633
170	0xbca53ec1	-0.020171525
171	0xbe0933de	-0.13398692
172	0xbe1e88f7	-0.15481935
173	0xbdfc93d1	-0.12332881
174	0xbd45f676	-0.048330747
175	0xbdba278e	-0.09089576
176	0xbd629cce	-0.05532532
177	0xbd8ea6fc	-0.069654435
178	0xbcfc0ea4	-0.0307687
179	0xbd652dce	-0.055951886
180	0xbae995a4	-0.0017821086
181	0xbc6e048b	-0.01452745
182	0xbd69ecc6	-0.05711057
183	0xbd957a67	-0.07298737
184	0xbd4055e3	-0.046956908
185	0xbc3cf53e	-0.01153308
186	0x3d9eb05c	0.07748482
187	0x3dc69357	0.096960716
188	0x3ca7207c	0.020401232
189	0x3ce04113	0.02737478
190	0x3d24dce4	0.04024972
191	0x3da29b74	0.079398066
192	0x3d1e30d1	0.038620774
193	0x3d3a9d4b	0.045560163
194	0xbd2010c6	-0.039078496
195	0xbc4548f0	-0.012041315
196	0x3c1d2261	0.009590716
197	0xbc1500f5	-0.009094466
198	0x3d873e65	0.06603698
199	0x3d0130ac	0.031540558
200	0xbcadcd18	-0.02121596
201	0xbd878678	-0.06617445
202	0x3cbb1862	0.022838775
203	0xbba01b7a	-0.004886088
204	0x3c5bc714	0.013414163
205	0x3d53aba5	0.051677365
206	0x3d1c0a0a	0.03809551
207	0x3da85727	0.08219748
208	0x3c87fc72	0.016599867
209	0x3da4d6bd	0.080487706
210	0xbd3b17f9	-0.04567716
211	0xbd9b1cdd	-0.075738646
212	0xbdc575c5	-0.096416034
213	0xbd69c5d4	-0.05707343
214	0xbdd2632f	-0.10272824
215	0xbc8d3c9a	-0.017240811
216	0xbc8a4418	-0.016878173
217	0xbcb091ed	-0.021553958
218	0x3ce44af2	0.027867768
219	0xbce8df06	-0.028426658
220	0x3d1a195b	0.037621837
221	0x3d28af6b	0.041182917
222	0xbd7081e8	-0.05871764
223	0xbd84fcc5	-0.064935245
224	0xbd2aef9b	-0.04173241
225	0x3d967f40	0.0734849
226	0x3ddd16cb	0.10795363
227	0x3d934d0f	0.07192432
228	0x3d50c109	0.050965343
229	0x3d1ae581	0.03781653
230	0x3dda556c	0.10660824
231	0x3d827710	0.063703656
232	0x3d81fd89	0.06347186
233	0x3cddc16a	0.027069766
234	0x3dd28708	0.102796614
235	0x3c4d5796	0.012533089
236	0x3d56fdca	0.052488126
237	0x3c7cc270	0.015427217
238	0x3cfdc76a	0.030978877
239	0x3d92fa75	0.07176677
240	0x3dafc297	0.08582037
241	0x3db7a46f	0.0896691
242	0x3ce11333	0.027474975
243	0x39ee21d4	0.000454201
244	0x3da72b01	0.08162499
245	0x3d5218a8	0.051293045
246	0x3c512fc5	0.012767737
247	0x3cb56f08	0.02214767
248	0x3d4f272c	0.050574467
249	0x3d8bacd9	0.068200774
250	0x3db533e3	0.08847787
251	0x3d1a068c	0.0376039
252	0x3ccb095e	0.02478474
253	0x3cbdc60b	0.023165723
254	0xbc464486	-0.012101298
255	0x3d2ce84c	0.042213723

Seperableconv.1.weight f4 [32]
0	0x3e3e25c3	0.18569092
1	0x3d0f002c	0.034912273
2	0x3ec79a2f	0.3898482
3	0x3f24b91b	0.6434495
4	0x3f1bbddc	0.6083658
5	0x3ec2c10d	0.3803791
6	0x3f48fd0d	0.78511125
7	0x3f29824e	0.66214454
8	0x3f145ef1	0.5795737
9	0x3e3d865a	0.18508282
10	0xbcaba91c	-0.020954661
11	0x3eeef393	0.46670207
12	0x3f41e3ff	0.7573852
13	0x3e8ebe82	0.2787972
14	0x3f2be737	0.6714968
15	0x3cb7cc65	0.02243633
16	0x3f0360f9	0.51319844
17	0x3db3b287	0.08774286
18	0x3f52a396	0.8228086
19	0x3f1bb790	0.6082697
20	0x3da537ae	0.08067261
21	0x3e9d60ba	0.3073786
22	0x3f61497b	0.8800275
23	0x3f0434d0	0.51643085
24	0x3d3f3c87	0.046688583
25	0x3dec4d2d	0.115381576
26	0x3f50048d	0.81256944
27	0x3ed3e051	0.41382077
28	0x3e960b83	0.29305658
29	0x3e02b596	0.12764582
30	0x3ea397d3	0.3195177
31	0xbbe16e43	-0.0068795993

Seperableconv.1.bias f4 [32]
0	0xbd8fa5ce	-0.070140466
1	0xbdb5b17c	-0.08871743
2	0xbd82c24b	-0.06384715
3	0xbde600d8	-0.1123063
4	0xbda4be29	-0.08044083
5	0xbd86e340	-0.06586313
6	0xbe24566d	-0.16048594
7	0xbe281dc6	-0.16417608
8	0xbe1fce91	-0.15606143
9	0xbdebfbb4	-0.11522618
10	0xbd976482	-0.07392217
11	0xbdbb2d5b	-0.0913951
12	0xbd7003c6	-0.05859735
13	0xbdc1f3ec	-0.094703525
14	0xbda9d9f9	-0.08293528
15	0xbd9b086a	-0.07569964
16	0xbd4606bc	-0.048346266
17	0xbd683bce	-0.05669766
18	0xbe0101c7	-0.12598334
19	0xbdff02de	-0.12451719
20	0xbdefd134	-0.11709824
21	0xbd946fcd	-0.07247887
22	0xbd98f57d	-0.07468698
23	0xbddb745c	-0.10715553
24	0xbd9814b0	-0.07425821
25	0xbde83fff	-0.11340331
26	0xbd430d35	-0.047620017
27	0xbe0a7753	-0.13522081
28	0xbe052b28	-0.13004744
29	0xbdee4583	-0.11634352
30	0xbdc66d8d	-0.09688864
31	0xbd8a9acc	-0.067678064

Seperableconv.1.running_mean f4 [32]
0	0xbf1dc542	-0.61629117
1	0xbfada8b6	-1.3567111
2	0x3f942e28	1.1576586
3	0xbdaa0185	-0.08301071
4	0xbd982ee6	-0.0743082
5	0xbfb5a554	-1.4191079
6	0xc04511fe	-3.0792232
7	0x3a684126	0.00088598055
8	0xc02b1d69	-2.67367
9	0xc01ebdd1	-2.4803355
10	0x3ed9d716	0.4254691
11	0xbf648cfc	-0.89277625
12	0xbf50b170	-0.8152075
13	0xbf847805	-1.0349127
14	0x3e8c28b1	0.27374795
15	0x3fb4c4a9	1.4122516
16	0xbfaaa468	-1.3331423
17	0xbfd419c3	-1.6570362
18	0xbf3891cb	-0.7209746
19	0xc002b420	-2.042244
20	0xc00b3588	-2.1751423
21	0x40058672	2.086331
22	0xbf6be85a	-0.92151415
23	0xbf08f36f	-0.5349645
24	0xc007d6fa	-2.1224961
25	0xbfbd0f7c	-1.477035
26	0xbf532aba	-0.8248707
27	0xbfd2eebc	-1.6479106
28	0xbfbc5433	-1.4713196
29	0xbf00c3f4	-0.50299
30	0xbe6ca4b4	-0.23109704
31	0xbeb45fbf	-0.35229298

Seperableconv.1.running_var f4 [32]
0	0x40328a43	2.7896888
1	0x409b0d80	4.845398
2	0x403ad4a8	2.9192295
3	0x409055ac	4.510458
4	0x40da27a3	6.8173385
5	0x40ac07a6	5.3759336
6	0x4105b2e1	8.356172
7	0x405af507	3.4212053
8	0x40d0ea5a	6.5286074
9	0x40d109c9	6.5324445
10	0x40dc0bee	6.8764563
11	0x40a72691	5.223458
12	0x40bb9770	5.862236
13	0x40c260b1	6.074303
14	0x4087d7b0	4.245079
15	0x4040b2f8	3.0109234
16	0x40d290c7	6.580173
17	0x40c8f4a5	6.279864
18	0x40ac65ee	5.3874426
19	0x40c46c22	6.1382
20	0x409cbc00	4.897949
21	0x409efb11	4.9681478
22	0x40bb8b6e	5.86077
23	0x406ceb14	3.701848
24	0x40cbc6bc	6.3680096
25	0x40a47db2	5.1403437
26	0x4065d943	3.5913856
27	0x40a5086e	5.157279
28	0x40c6f74e	6.2176886
29	0x3fd1c72e	1.638891
30	0x40a08251	5.015908
31	0x406f529e	3.7394176

Classfier.0.weight f4 [2, 736]
0	0x3d9c58c1	0.07634116
1	0x3d862f47	0.06551986
2	0xbccc3758	-0.024928734
3	0x3d62efb9	0.0554044
4	0x3d227f29	0.03967205
5	0x3d4e52b1	0.05037183
6	0xbd660044	-0.056152597
7	0xbd3678f4	-0.044548944
8	0xbced2481	-0.02894807
9	0xbcf4b2b8	-0.029870376
10	0xbd477998	-0.048699945
11	0x3a0a7726	0.0005282037
12	0xbb19d81b	-0.0023474756
13	0x3cfaaf16	0.030601066
14	0xbd396805	-0.045265216
15	0x3c9f1e21	0.019423546
16	0xbc489a3b	-0.012243803
17	0x3cbb18b4	0.022838928
18	0x3bc3ef1a	0.005979431
19	0x3c7f5059	0.015583121
20	0xbcf37d85	-0.029722938
21	0xbd0910d7	-0.033463325
22	0xbc664525	-0.014054571
23	0xbd038baa	-0.032115616
24	0xbd0b3dbc	-0.03399442
25	0xbdee2cb2	-0.11629619
26	0xbd92dfbb	-0.071715795
27	0xbdc5f9d5	-0.09666792
28	0xbd2579a4	-0.04039921
29	0xbc4b9f62	-0.012428137
30	0xbc29fa23	-0.010374579
31	0x3b7a19db	0.0038162384
32	0x3c86379a	0.016383935
33	0x3bbb9717	0.0057247984
34	0x3ceeb29b	0.0291379
35	0xbca424dd	-0.020037109
36	0x3c46e962	0.012140604
37	0x3c3a2caf	0.011363192
38	0x3c8d05cc	0.017214678
39	0xbc7d2b8a	-0.015452275
40	0x3d29d6a6	0.04146447
41	0xbcff7c72	-0.03118727
42	0xbcefd5d3	-0.029276764
43	0x3caafa79	0.020871388
44	0x3d487ebe	0.048948996
45	0xbcd10723	-0.025516098
46	0x3d03807b	0.03210495
47	0x3d5f6eb8	0.05454895
48	0x3c30a63e	0.010781823
49	0xbc47645f	-0.012169926
50	0xbd10fba9	-0.03539625
51	0xbd152590	-0.036412776
52	0xbc2b887d	-0.010469553
53	0xbdc240dd	-0.09485028
54	0xbd57c23a	-0.052675463
55	0x3cd38819	0.025821732
56	0x3ce35841	0.027752044
57	0x3caf0594	0.021364965
58	0x3c7fdf2c	0.015617173
59	0xbc2178f6	-0.0098554995
60	0x3c844372	0.016145442
61	0x3d534c4d	0.051586438
62	0x3cd61736	0.026134115
63	0x3c419e7e	0.011817573
64	0xbcf1ce52	-0.029517327
65	0xbd1af175	-0.037827928
66	0xbcee3772	-0.029079173
67	0xbd3a9217	-0.04554948
68	0xbcab23df	-0.020891128
69	0x3d740df1	0.059583608
70	0x3dd38e67	0.103298955
71	0x3da47689	0.08030421
72	0x3d2f740a	0.042835273
73	0xbc080a0f	-0.008303179
74	0xbd89a73d	-0.06721351
75	0xbcc0a96a	-0.023518283
76	0xbd29b176	-0.041429006
77	0xbd0606b6	-0.032721244
78	0xbd080e59	-0.033216808
79	0xbd42d9b8	-0.047570914
80	0xbc552b48	-0.013010807
81	0xbcc005a9	-0.023440199
82	0xbb6f9e8e	-0.0036563012
83	0x3cbf75b3	0.023371553
84	0x3d4f674c	0.05063562
85	0xbc1f55c8	-0.009725042
86	0xbd3ebf2a	-0.046569027
87	0xbd28e49c	-0.041233644
88	0xbbef928b	-0.0073111705
89	0xbcedc9f0	-0.029026955
90	0x3c780011	0.015136735
91	0x3c81d429	0.015848236
92	0xbd86f913	-0.06590476
93	0xbca5897e	-0.020207163
94	0x3c59d208	0.013294704
95	0xbd15bbc1	-0.03655601
96	0xbc0c3590	-0.008557692
97	0x3c8d177f	0.017223118
98	0xbd27e672	-0.040991254
99	0x3bd2b03a	0.0064296992
100	0x3c67921b	0.014133955
101	0x3d432fe6	0.0476531
102	0x3d286bc5	0.041118402
103	0x3c4b5a56	0.0124116745
104	0xbd8eb382	-0.06967832
105	0x3d28cd2b	0.04121129
106	0x3d29521d	0.041338075
107	0x3d0817a7	0.03322568
108	0x3cf967f0	0.03044507
109	0x3ca95472	0.02067015
110	0x3cfb2fc5	0.030662427
111	0x3d291a7a	0.041285016
112	0x3c784c37	0.01515489
113	0xbbb0885d	-0.0053873495
114	0x3cf4ae74	0.029868342
115	0x3d3ce4b5	0.04611655
116	0x3d3735d0	0.044729054
117	0x3db2bb64	0.08727148
118	0x3dd813c5	0.10550646
119	0x3cd7d7e5	0.026348064
120	0xbc4a373a	-0.012342269
121	0xbd538355	-0.05163892
122	0x3c1f53ba	0.009724552
123	0xbd0b35cb	-0.033986848
124	0xbd4e8911	-0.050423685
125	0xbab842d9	-0.0014058008
126	0xbc17464b	-0.009233068
127	0x3ce3411a	0.027741004
128	0xbc2f2f64	-0.010692451
129	0xbc45b4d4	-0.012067039
130	0xbce6ce39	-0.028174507
131	0xbd195634	-0.037435725
132	0x3cb65a3d	0.022259826
133	0xbd24ed26	-0.040265225
134	0xbcca8f4d	-0.024726534
135	0xbd645a05	-0.05574991
136	0xbca3b218	-0.019982383
137	0xbc2cfa00	-0.0105576515
138	0x3c6da574	0.014504779
139	0xbd2bd37d	-0.041949738
140	0xb9edd7f0	-0.0004536505
141	0x3b2001d3	0.002441515
142	0xbbd05973	-0.0063583194
143	0x3bedb013	0.0072536557
144	0x3bca30dd	0.0061703757
145	0xbcdf4568	-0.027254775
146	0x3c9780e4	0.018494077
147	0x3c16a8c1	0.0091955075
148	0xbd19756a	-0.03746549
149	0x3cf936e5	0.030421684
150	0x3c085e9a	0.008323336
151	0x3c9cdba1	0.019147696
152	0x3cd1714e	0.025566723
153	0x3d17585f	0.03694951
154	0x3c9725d7	0.01845066
155	0x3bcf8d75	0.0063340017
156	0x3ca8b773	0.020595288
157	0x3b84f8e4	0.0040579904
158	0xbc317998	-0.010832213
159	0x3d02db3e	0.031947367
160	0x3c830ece	0.01599827
161	0xbd3d9159	-0.046281192
162	0xbabf2c18	-0.0014585285
163	0xbc9c5f81	-0.019088509
164	0x3c3ec2da	0.011643136
165	0xba647140	-0.00087143853
166	0xbd0323f1	-0.0320167
167	0xbd09be50	-0.03362876
168	0xbc050acd	-0.008120251
169	0xbbb0b3bd	-0.00539252
170	0xbbb8904d	-0.0056324364
171	0x3d0c5ba2	0.034267075
172	0xbbdeda79	-0.0068009463
173	0xbba3addd	-0.0049950914
174	0xbc9931dc	-0.018700533
175	0x3d6c7740	0.057730913
176	0x3baad696	0.005213569
177	0x3bae2743	0.005314739
178	0xbbc6c7bd	-0.006066291
179	0x3c4a64f5	0.012353172
180	0x3c978aa3	0.018498724
181	0xbd41d67b	-0.047323685
182	0xbc3ad2b8	-0.011402778
183	0x3c6ff229	0.014645138
184	0x3cc52b85	0.024068603
185	0x3d26d694	0.04073198
186	0x3d83e858	0.064408004
187	0x3d60149f	0.054707166
188	0x3cd3aadf	0.025838314
189	0xbca96518	-0.020678088
190	0xbd2be288	-0.041964084
191	0xbd72488f	-0.05915123
192	0xbcd9f428	-0.02660568
193	0xbd0f715f	-0.03502023
194	0xbca52e95	-0.020163814
195	0x3c0f91fa	0.008762831
196	0x3d931705	0.07182125
197	0x3d1959f7	0.037439313
198	0x3b9473bc	0.004530398
199	0xbacb0ef6	-0.001549213
200	0x3ccb738c	0.02483537
201	0x3d09ce2f	0.033643898
202	0x3cb0d890	0.02158764
203	0xbc10e497	-0.008843563
204	0x3c2b974d	0.010473085
205	0x3d461669	0.048361216
206	0xbc03a577	-0.008035055
207	0x3d45c555	0.048283894
208	0x3cf6b73d	0.030116672
209	0x3d017358	0.03160414
210	0x3cea91b8	0.028633937
211	0x3d2eed34	0.042706683
212	0x3b4fe522	0.0031722267
213	0xbbd900a8	-0.0066223927
214	0xbd2a0f10	-0.04151827
215	0xbd0cf5c4	-0.034414068
216	0xbd1cd14e	-0.038285546
217	0x3c917e34	0.017760374
218	0x3c60d490	0.013722554
219	0x3cceaef4	0.025229909
220	0x3ca83400	0.020532608
221	0x3d07a6a2	0.033117898
222	0xbd1425e0	-0.036168933
223	0xbcd94465	-0.02652187
224	0x3ce69e9a	0.028151799
225	0xbcc47719	-0.023982571
226	0xbc5f67c6	-0.013635581
227	0x3d0a9eb1	0.033842746
228	0xbba8fb83	-0.0051569357
229	0x3c2865c5	0.01027817
230	0xbd3e827a	-0.04651115
231	0xbdaaf07f	-0.08346652
232	0xbdbf759e	-0.093486056
233	0xbdbae078	-0.09124845
234	0xbc95abcf	-0.018270401
235	0xbbc105e3	-0.0058905943
236	0x3c8d1d1a	0.01722579
237	0x3cffa78f	0.031207828
238	0x3cafd0e4	0.021461911
239	0x3d4cde2b	0.050016563
240	0xbb57dc07	-0.0032937543
241	0x3d20f06f	0.039291795
242	0x3d11a748	0.035559922
243	0xbd12ff75	-0.035888154
244	0x3d2288d6	0.03968128
245	0x3d02d7fb	0.031944256
246	0xbc543f26	-0.012954509
247	0x3cd1aa6c	0.025593959
248	0x3d1ab43b	0.037769537
249	0xbcc9a54d	-0.024614954
250	0xbd2824e7	-0.041050818
251	0xbc936adf	-0.017995296
252	0x3d5f9153	0.05458195
253	0x3de9f32f	0.11423337
254	0x3db653aa	0.089026764
255	0x3dcc344f	0.099709146

Classfier.0.bias f4 [2]
0	0xbac62ed1	-0.0015120154
1	0x3c5e5c98	0.013571881
