NCTU2/EEGNet/EEGNet_LeakyReLU.pkl (torch_old, 75535 bytes, 17 tensors)

Firstconv.0.weight f4 [16, 1, 1, 51]
000000 26 72 58 3d 13 cd 38 be a9 08 d1 bc 28 b9 8e bd
       0.052843235 -0.1804698 -0.025516825 -0.069689095
000010 33 0b 2e bd cd 68 96 bc 21 6a 2c bd 3d c3 1b be
       -0.04249115 -0.01836052 -0.0420934 -0.15211196
000020 41 31 05 bd e3 58 9a bb 06 bd a9 bd e5 98 14 be
       -0.032517675 -0.004710303 -0.082880065 -0.1451145
000030 ca ec bc bd 70 21 2c be 1a 4f da bd b2 5c d1 bd
       -0.092248514 -0.1680963 -0.10659619 -0.10222758
000040 91 e6 55 be 37 44 3b bc 6f 72 56 be 12 dc 8f be
       -0.20888735 -0.011429838 -0.2094209 -0.28097588
000050 8f 1b 18 be d7 1b 3a be b7 79 60 be 34 2d 82 bd
       -0.14854263 -0.18174683 -0.2192143 -0.06356278
000060 7c aa 9e bd 36 47 d7 3d 8e f9 0b be ca ee c2 bd
       -0.07747361 0.10511629 -0.13669416 -0.09518202
000070 fc 10 bf 3d 95 27 d5 bd 38 fa 2c 3a 48 dd a8 3c
       0.093294114 -0.1040794 0.0006598565 0.020613328
000080 dc c5 43 bd 18 5b 58 bd 98 6e b0 3d 20 81 3c bb
       -0.047796115 -0.05282125 0.08614844 -0.0028763488
000090 00 c7 23 be fd 82 8b bc 30 0b b9 bd dd b3 24 3c
       -0.15993881 -0.017030234 -0.09035337 0.010052648
0000a0 75 e6 01 bd 2d ff 21 bc 30 e2 64 3c 93 04 b7 bd
       -0.03171392 -0.009887499 0.013969943 -0.08936419
0000b0 ee 98 a8 bd 6a 03 92 bd 17 90 62 bc 60 7a f6 bc
       -0.08232294 -0.071295574 -0.013828299 -0.03008765
0000c0 87 8f a4 3d 69 71 bb bd 69 0a f4 3b 83 05 06 be
       0.08035188 -0.09152491 0.00744753 -0.1308804
0000d0 9c 53 d0 bb df 98 a0 bd 01 03 18 3d 33 71 51 3b
       -0.0063576233 -0.07841658 0.03711224 0.003195834
0000e0 8f c3 03 be 81 07 ac bd 6f 68 ba bb 59 74 8c bd
       -0.12867568 -0.08399869 -0.005688719 -0.06858129
0000f0 8f 24 f0 bc 68 71 7c bd b6 ec 09 be de 6c 3e bc
       -0.029314307 -0.06163159 -0.13469204 -0.011622636
000100 d6 f4 23 be 54 bb 26 be c2 b4 ca bc d0 f7 c2 bd
       -0.16011366 -0.16282398 -0.024744395 -0.09519923
000110 53 be f0 bd cf cc 9c bd 5f f6 75 bd d4 19 c2 bd
       -0.117550515 -0.07656252 -0.06004941 -0.094775826
000120 0c 1c 23 be d6 0e 0a be a4 fd 46 be 04 7c af 3c
       -0.15928668 -0.13482222 -0.19432694 0.02142144
000130 71 c2 0e be a4 0f 23 bd 0d f2 ba bd 1b cc c9 bd
       -0.13941361 -0.039809838 -0.09128199 -0.09853383
000140 8f b7 b0 bd 12 00 ab 3c 84 ae ce bd 00 1b 35 be
       -0.08628761 0.020874057 -0.1009188 -0.17686081
000150 67 1a c7 bd d0 51 9a bd 65 56 2c be 7f 94 9d bd
       -0.09721833 -0.07535136 -0.16829832 -0.07694339
000160 3f f2 34 3d 4b 71 f8 bd 1b 86 a3 bd f5 aa 2b bd
       0.044176336 -0.12130984 -0.07984563 -0.041911084
000170 ef 0b c4 bd 69 12 36 be 1b 37 93 3d 98 aa 0c be
       -0.09572589 -0.1778046 0.07188245 -0.13736951
000180 cf 29 f2 bc 6c 74 1e bd c6 c6 d1 bd 20 8d 03 be
       -0.029560952 -0.038685247 -0.10242991 -0.12846804
000190 1e 1b 3b 3d 91 fb b9 bc b1 43 2b 3c 30 2d ca bd
       0.045680158 -0.022702964 0.010453151 -0.098719
0001a0 2d 70 53 bd d4 19 90 3d a0 cf 0b bd 99 90 22 be
       -0.05162065 0.07036176 -0.034133554 -0.15875472
0001b0 1f 92 c2 bd d1 09 54 be 02 66 32 be 46 62 53 be
       -0.09500527 -0.2070687 -0.17421725 -0.20642957
0001c0 99 c9 21 3d 9e 99 c5 bd f3 de 19 3d fa 4f 4a be
       0.0394989 -0.09648441 0.037566137 -0.19757071
0001d0 9f 52 23 be 88 ad 34 be 93 e5 3b bd e1 ad b1 bd
       -0.15949486 -0.17644322 -0.045873236 -0.08675743
0001e0 90 22 55 bd cf 8d 4f be 37 8b fc bd 23 bd 9e 3d
       -0.052034914 -0.2026894 -0.123312406 0.07750919
0001f0 11 c1 81 bb 1a 92 89 bd 56 8b 4c 3b 95 31 18 be
       -0.003959783 -0.0671732 0.003121098 -0.14862664
000200 61 cc ac bd e4 e9 84 bc 8b 2f 93 bb 26 54 41 be
       -0.0843742 -0.016224809 -0.0044917515 -0.18879756
000210 94 1e 74 bd fe 73 a8 3a 9b c0 1e be 28 40 1a 3c
       -0.059599474 0.0012851951 -0.1550316 0.00941471
000220 97 a9 cb 3c 3b 72 b6 bd da 9e df bd 76 6e 1d 3d
       0.02486114 -0.089085065 -0.109189704 0.038435422
000230 76 35 68 bd 7d 7a 08 be e4 50 80 bc 19 26 49 bc
       -0.05669161 -0.13327976 -0.015663572 -0.01227715
000240 28 4e a1 3d 39 02 b1 3d 75 e2 97 bb f2 de 01 be
       0.07876235 0.08643002 -0.00463515 -0.12682703
000250 12 e5 2b be 5c 3a 2d be 14 0b 72 3d 3d 2e 6e 3d
       -0.16786602 -0.16916794 0.059092596 0.058149565
000260 36 6c de 3c 83 47 e1 bc ac 05 2d bb 2a 72 ef 3d
       0.027151208 -0.02749992 -0.0026401086 0.11691697
000270 56 74 37 3d 80 24 16 bd bc 80 08 3e af 7f f3 3d
       0.04478868 -0.036655903 0.13330358 0.11889588
000280 d8 ac ed bb 31 2f 91 3d 4c fa e5 3c 82 47 b7 3d
       -0.0072532706 0.07089079 0.028073452 0.08949186
000290 8b 8b ff 3d 72 88 8c 3b ea e6 ed 3b fa 62 58 3e
       0.124777876 0.0042887265 0.007260193 0.21131507
0002a0 cd c5 75 bc ff 26 a5 3d 36 f8 0b bd 8a dd d8 3d
       -0.015000773 0.080640785 -0.03417226 0.1058913
0002b0 08 f4 41 3e 3a 13 67 3e 72 e2 8a 3e 11 68 43 3e
       0.18940747 0.22565928 0.2712589 0.19082667
0002c0 e1 25 ca 3d f0 dc 42 3d 7c 67 55 3e d4 67 46 3e
       0.09870506 0.047573984 0.20840257 0.19375545
0002d0 17 b1 2b 3d 44 05 07 3d de 16 ae 3c 40 71 b0 3c
       0.041916933 0.032964006 0.021251138 0.021538377
0002e0 17 d2 d1 bd 94 50 f7 3b 9b ba 00 3e 52 4d ea 3c
       -0.102451496 0.0075474475 0.12571184 0.028601322
0002f0 d5 0d 05 bd 5a d0 d8 3c 09 7f 02 3e e1 6b b3 3d
       -0.032483894 0.026466537 0.12743773 0.08760811
000300 ae 16 20 3e d0 6e e7 3d 00 3c 80 ba c1 dd ab bc
       0.15633652 0.11300433 -0.0009783506 -0.020979764
000310 58 84 7a 3d eb 6f 54 bd a1 9c d6 3c b3 c1 83 3d
       0.06116137 -0.051864546 0.026197733 0.064334296
000320 21 fe 1c 3e fe e8 24 3d df 9e c0 3c a7 d6 49 3d
       0.15331317 0.04026126 0.023513256 0.049276974
000330 58 61 76 bd 46 d0 b4 bd 97 02 87 bd 68 c5 7b bd
       -0.060151428 -0.088287875 -0.06592291 -0.06146756
000340 67 48 fb bd 92 5c 5e bd 93 7d ed bc 68 5e d1 bd
       -0.12269669 -0.0542875 -0.028990543 -0.10223085
000350 d6 a1 16 be 64 2b f0 bd 3c 65 28 bc 3a a4 9c 3c
       -0.14710173 -0.11727026 -0.010278042 0.019121278
000360 29 23 71 bd cc 53 3e be 14 7e d1 bd f8 b0 1d be
       -0.058871422 -0.18586653 -0.102291256 -0.1539954
000370 e0 32 4c be 23 67 4a be f7 cd 27 bd a7 6c 31 3d
       -0.19941282 -0.19765906 -0.040967908 0.04331651
000380 dc 50 75 bc db 3d 02 bd 88 6d e1 3c ca b2 e8 bd
       -0.014972892 -0.03179727 0.027518049 -0.11362226
000390 b6 98 a7 3c 09 ef b1 bd f8 9f 05 3d 3b 50 94 bd
       0.02045856 -0.086881705 0.03262326 -0.07241865
0003a0 c0 ac 01 be 5e b3 29 be 2d f7 21 bd 8d 36 dd 3d
       -0.12663555 -0.1657233 -0.039542366 0.1080142
0003b0 af 30 40 bc 6a 15 c0 bd 1e 3f ce 3c 35 c3 c6 3b
       -0.011730357 -0.093790844 0.025176581 0.006065751
0003c0 96 72 70 bd 4a 7f ba 3b 4f 96 45 be 54 01 e3 bd
       -0.058703028 0.0056914436 -0.1929562 -0.11084238
0003d0 51 aa df bd cf 78 33 be 08 2b 52 3d 82 ac 18 3d
       -0.10921157 -0.17526554 0.05131057 0.03727389
0003e0 60 1b 7a 3b d0 20 7a 3d 60 ec 6b 3c ce 3d 06 be
       0.003816329 0.06106645 0.014399618 -0.13109514
0003f0 d4 6e c5 bd a4 70 93 bc 61 3e 8c bd bd 78 c0 3d
       -0.096402794 -0.017998047 -0.06847835 0.09398029

Firstconv.1.weight f4 [16]
000000 63 40 41 3f de 64 30 3f 65 f8 43 3f 0e 47 17 3f
       0.7548887 0.6890391 0.76550895 0.59092796
000010 a1 cc 3e 3f 25 df 79 3f de e4 51 3f ff 39 38 3f
       0.7453099 0.97606117 0.8198985 0.71963495
000020 c6 9d 4b 3f d8 d1 e3 3e 2e d5 3f 3f 0c 6a 36 3f
       0.7953762 0.44496036 0.7493466 0.71255565
000030 dc ee 58 3f de db bf 3d ad 77 c3 3d 66 72 8c 3d
       0.8473947 0.09368108 0.09544311 0.06857757

Firstconv.1.bias f4 [16]
000000 69 4f 56 b7 8c 62 e2 b7 e7 f3 a3 b8 39 41 31 38
       -1.2773883e-05 -2.6987189e-05 -7.817876e-05 4.2260832e-05
000010 bd f0 3d 38 f1 4a 98 b7 0c 61 bc b8 ee 5e 12 38
       4.5285316e-05 -1.815471e-05 -8.982615e-05 3.4897523e-05
000020 8d c4 af 37 a8 1c 7e 39 44 c9 2c 37 96 c1 c8 b7
       2.0953152e-05 0.00024234003 1.029886e-05 -2.3932003e-05
000030 40 89 b1 37 94 e8 e9 39 08 86 b2 39 57 5e 6e 3a
       2.1163956e-05 0.00044614507 0.00034050667 0.0009093037

Firstconv.1.running_mean f4 [16]
000000 10 09 ca 3d 2d cd 02 3e d0 20 b1 3d 7b ee f1 bd
       0.0986501 0.12773581 0.086488366 -0.11813065
000010 a6 05 8d 3d 3e e8 d6 3d 91 41 b0 3d cb 82 0c bd
       0.06885843 0.104935154 0.08606256 -0.03430442
000020 e4 f4 b1 bd 8a 46 ba 3d ca cf 13 bd 63 12 a6 3d
       -0.08689287 0.090954855 -0.036086835 0.08108976
000030 45 52 b0 3d b2 d2 f2 bc 1e 07 04 3e 4b 0f ee bd
       0.08609442 -0.029641483 0.1289334 -0.11624011

Firstconv.1.running_var f4 [16]
000000 74 85 10 43 10 5a 2d 43 3c 3b c4 42 09 3c 22 43
       144.5213 173.3518 98.11569 162.23451
000010 39 52 9a 42 ff a3 f7 42 6c 4e 1c 43 5c dc cf 41
       77.16059 123.820305 156.30634 25.982597
000020 23 82 c2 42 3d 5d 88 42 fb 74 08 42 fa a8 7b 42
       97.25417 68.182106 34.11424 62.915016
000030 f2 ee 85 42 4e 4a aa 42 1d c3 10 43 af 96 11 43
       66.96669 85.14513 144.76216 145.58861

Depthwiseconv.0.weight f4 [32, 1, 2, 1]
000000 2a eb 01 3e 85 b6 ed 3e 9c 36 59 3d 49 ae 3c 3e
       0.12687364 0.46428314 0.053030595 0.1842586
000010 1f 18 85 be 9a fb 86 be 22 82 0e 3f 3c 21 e1 be
       -0.25994965 -0.26363832 0.55667317 -0.43970668
000020 66 f2 3f bf 4f 83 04 bf 6c 32 f4 be a7 f1 85 be
       -0.74979246 -0.5176286 -0.4769472 -0.2616093
000030 82 25 26 bf 57 8c a4 be 36 d3 d0 be 99 00 4a 3e
       -0.6490098 -0.3213832 -0.4078614 0.1972679
000040 fc 4e 08 3f 70 e7 68 be 75 56 d0 3e 8a ff 30 be
       0.5324552 -0.22744536 0.4069096 -0.1728498
000050 f0 63 ea be e7 1b d7 be 7e ce 68 3e 5a c6 2b 3f
       -0.4577937 -0.42013475 0.2273502 0.67099535
000060 db 1d f1 be c4 ee 76 3e 30 2f a1 be de 8e 29 3f
       -0.4709309 0.2411452 -0.31481314 0.66233623
000070 89 28 97 3e 39 93 8e 3e 63 ec 8e 3d 13 c2 3b 3f
       0.29523113 0.27846697 0.06978681 0.7334301
000080 40 ee 12 bf 9d 06 07 be 9d 25 de be 7e 1a 88 3e
       -0.5739479 -0.13186117 -0.43388072 0.26582712
000090 68 57 f8 be 31 48 03 3f e0 8b 23 be 43 e6 1a 3f
       -0.48504186 0.5128203 -0.15971327 0.605076
0000a0 47 d2 db bd 1c 4f c9 be 5a 25 2b bf e7 57 89 be
       -0.107334666 -0.39318168 -0.6685387 -0.26824877
0000b0 31 7e 0c 3f bc 5a 3c be fa 24 0e be 95 05 a9 3e
       0.5488005 -0.18393987 -0.13881293 0.3301207
0000c0 5a a2 27 bf 7b 7d bb be 07 78 09 3f 7a 3d 74 3e
       -0.65482104 -0.36619172 0.5369877 0.23851576
0000d0 6f f3 66 3e ec 32 30 be f5 40 61 bd 6b d1 09 3f
       0.225538 -0.17206925 -0.05499359 0.5383517
0000e0 0e dd af 3e 65 96 1e 3f 97 17 39 bf 2a 79 2d bd
       0.3434834 0.61948234 -0.7230162 -0.04235188
0000f0 cb 8c ac be 06 c8 4d 3e 93 8e bf be f9 27 2f bf
       -0.33701167 0.20095834 -0.37413463 -0.6842037

Depthwiseconv.1.weight f4 [32]
000000 b1 39 ac 3e 33 48 95 3e 50 a8 1c 3a 57 a8 30 3f
       0.33637765 0.29156646 0.0005976008 0.69006866
000010 d4 c2 36 3f bc d8 2f 3f bd fd c3 3e f4 53 4c 3f
       0.71391034 0.68690085 0.38279524 0.798156
000020 c0 80 5e 3e 2a e6 f0 3e 71 82 ad 3e b1 9c 74 3f
       0.21728802 0.470506 0.3388858 0.9555159
000030 a5 7a 5b 3f 1c 28 3d 3e ca c0 27 3f 92 08 d9 bc
       0.85734016 0.18472332 0.6552855 -0.026493344
000040 17 61 13 3f 80 ae 6d bd 40 7e 76 3f ae cd ae 3e
       0.5757002 -0.058027744 0.9628639 0.34141296
000050 4d 2b 87 3e 0b 05 fd 3e fc 24 c3 3e 12 dc 42 3d
       0.26400223 0.4941791 0.38114154 0.047573157
000060 5b d3 16 bb 77 c9 33 3e ce 70 d9 3e dd 16 5b 3f
       -0.0023014161 0.17557321 0.42468876 0.8558176
000070 90 1c c8 3e 8d 0a ce 3e a2 81 5b 3f 39 15 ed 3e
       0.3908429 0.40242425 0.8574468 0.46305254

Depthwiseconv.1.bias f4 [32]
000000 ff e7 74 3d 94 0c cc 3d 9c f8 7a bd b1 7f 10 3e
       0.05979156 0.099633366 -0.06127225 0.1411121
000010 2c 21 06 be 9d 8e b2 bd 0e 12 8d bd 21 d6 e4 3c
       -0.13098592 -0.087186076 -0.06888209 0.027934136
000020 85 0f c4 bd 17 3c c3 bd 8e 62 ab bd bb 7b 15 bd
       -0.095732726 -0.095329456 -0.08368407 -0.03649495
000030 49 68 d8 3d a8 ee fc 3d 27 ed e0 bd d8 7e 7d bd
       0.10566766 0.123502076 -0.10982733 -0.061888546
000040 ae 77 59 bd 19 fd 75 bd ac ce 1a 3e ec f6 b1 3d
       -0.05309265 -0.060055826 0.15117902 0.08689675
000050 b8 a9 8c bd c8 64 a2 bb 83 a3 d4 bd 02 e8 01 3d
       -0.06868309 -0.0049558617 -0.1038275 0.0317154
000060 08 83 8c bd 67 c4 c5 bb 23 5e b8 3d 1f ee bf bc
       -0.0686093 -0.006035376 0.0900233 -0.023428975
000070 df d4 81 3c 98 67 ee bc 7d 72 8b 3d 20 10 84 bd
       0.015848575 -0.029102132 0.06808946 -0.06448388

Depthwiseconv.1.running_mean f4 [32]
000000 32 d8 68 3a 8e 32 d2 39 4d 00 c0 37 a2 be 1e bb
       0.0008882313 0.00040091987 2.2888324e-05 -0.0024222513
000010 2b 63 20 3a f4 5b 14 3a d3 ac 35 ba 57 9c 9f ba
       0.0006118293 0.0005659454 -0.0006930355 -0.001217733
000020 45 85 04 bb 8d 4a c9 ba 6f 13 f6 38 1d 9b a3 3a
       -0.0020221036 -0.0015357301 0.00011733814 0.001248214
000030 d7 8a 01 3b e6 95 30 3b ec e1 f4 37 d3 5d 81 ba
       0.0019766593 0.0026944815 2.919227e-05 -0.0009869881
000040 a5 0b 9f ba 18 c9 ff ba 5b 08 e0 3a 6b 4b b3 3a
       -0.0012134208 -0.0019514887 0.0017092334 0.0013679093
000050 cd 8f 95 38 15 5a ea b8 70 99 00 bb 4f d6 a0 3a
       7.131659e-05 -0.000111747686 -0.0019622706 0.00122709
000060 e0 d5 39 3a bc 98 3b ba 1d 6e 00 39 c8 3c cf 38
       0.000708906 -0.0007156243 0.00012248052 9.8818506e-05
000070 94 85 85 39 67 03 99 38 64 38 7d b9 bc 07 4f ba
       0.0002546726 7.296242e-05 -0.00024148967 -0.0007897576

Depthwiseconv.1.running_var f4 [32]
000000 7a b0 56 3e 7e 3c a1 3d 85 13 1e 3e 53 b5 1a 3e
       0.20965758 0.07872866 0.15437134 0.15108232
000010 0b f4 46 3f 80 8d 9b 3e 5b 13 9e 3e 49 aa bf 3d
       0.7771613 0.30381393 0.30874142 0.09358651
000020 60 7d 33 3e 32 3d 04 3e fe b3 1c 3f 73 f7 2c 3f
       0.17528296 0.12913969 0.61212146 0.6756508
000030 77 f7 12 3e f8 59 61 3e ed f4 44 3e 4c 4c b6 3e
       0.14352213 0.22006977 0.19234057 0.35605085
000040 61 49 a3 3e 25 d2 02 3e c0 68 c8 3d bb 8a d9 3d
       0.3189192 0.12775476 0.097856045 0.10622164
000050 d6 f9 38 3e ce a5 f0 3e 4e 9f 3a 3e 4f 21 bd 3d
       0.18064055 0.470015 0.18224832 0.09234869
000060 16 54 22 3f 39 47 ca 3e 06 08 6f 3d 75 88 75 3d
       0.63409555 0.39507464 0.05835726 0.05994459
000070 e7 99 81 3d ca f5 7c 3d 72 3e 6f 3d 31 6c 7b 3d
       0.06328183 0.06175784 0.058409162 0.061382476

Seperableconv.0.weight f4 [32, 32, 1, 15]
000000 e6 93 91 3d ce 70 99 3c c3 73 38 3d 90 7f d5 3c
       0.071082875 0.018730547 0.045032274 0.026061803
000010 0f 95 22 bc b7 71 07 bd b6 6e 4a bc 22 80 e9 bb
       -0.009923234 -0.03306743 -0.012355497 -0.0071258703
000020 b6 dd 57 3d 2b 1b ec 3c 8e 21 a3 3b ce 6a 06 bd
       0.052701674 0.028821548 0.0049783653 -0.0328167
000030 57 b8 18 3d ec 7b 3a 3d c4 52 09 bd d5 2c 5d 3d
       0.037285175 0.045528337 -0.033526197 0.053997833
000040 d9 28 19 3d 8e b0 5a 3d be a7 95 bc 8b b3 26 bc
       0.03739247 0.053391032 -0.018268462 -0.010174642
000050 53 10 3c 3d 54 27 db bb a5 04 02 3d 90 08 6d 3d
       0.045914005 -0.006688038 0.03174271 0.057869494
000060 d6 46 40 3d ee 29 3f 3c 3d 62 0c 3d fb d5 17 3d
       0.046942554 0.011667712 0.034273375 0.037069302
000070 96 76 dc 3c 4a 13 94 bb af 5b c9 bc ab df 2c bc
       0.026912015 -0.004518901 -0.024579851 -0.0105513735
000080 c2 24 fc bc a8 fa 38 3b 86 16 1b bd 73 e2 d6 bc
       -0.030779246 0.0028225575 -0.037863277 -0.026231026
000090 f3 a4 87 bc 93 87 fd bb 3e 3b 1d bc 40 c2 0d bd
       -0.016558146 -0.007737109 -0.009596644 -0.03460908
0000a0 34 90 bd 3b 51 a5 85 bd 80 7a 92 b7 60 e7 24 bd
       0.0057850126 -0.06525672 -1.74616e-05 -0.04025972
0000b0 40 ce 0a bd bb 9a 68 3d c8 af 26 3d 6b e2 2d 3d
       -0.0338881 0.056788187 0.04069498 0.042452257
0000c0 62 29 4d 3c 62 ba 28 bb cf 59 4d 3d 50 e3 30 3d
       0.012522073 -0.0025745858 0.050134476 0.043185532
0000d0 d5 92 d1 3b e4 5a 12 3d 36 3f af 3d f3 a1 ee 3c
       0.0063956776 0.03573121 0.085569784 0.029129958
0000e0 1d a2 c6 3d 2c 75 0e 3d 3b 90 e0 3c 18 82 9e 3d
       0.096988894 0.034779713 0.027412524 0.07739657
0000f0 ae 6d bd bc cc c0 4f bd 3b d3 dd bc 98 ad 65 bc
       -0.023123588 -0.050720975 -0.027078262 -0.014018439
000100 b9 9a d7 bd da 71 73 bd 8e d3 30 bd 77 b8 6e bd
       -0.10527558 -0.05943475 -0.043170504 -0.058281388
000110 52 c8 7a bd 2c 65 68 bd b1 19 a2 bd 42 9f 90 bd
       -0.061226197 -0.05673711 -0.079150565 -0.07061626
000120 94 e3 62 bd e3 4c d3 bd 00 26 b3 bd ac 8e 01 3c
       -0.055392817 -0.10317399 -0.08747482 0.007907551
000130 35 71 32 bd c2 cd fe bc d2 d9 7e bc 39 05 4c bd
       -0.043564994 -0.031103972 -0.015554862 -0.04980967
000140 4e 00 d2 bd 38 74 ad bd 87 30 ad bd 44 b3 c5 bd
       -0.10253964 -0.084694326 -0.084565215 -0.09653333
000150 85 96 93 bd 28 ea 23 bd 47 cf b3 bd 73 e2 d5 bd
       -0.07206444 -0.04001823 -0.087797694 -0.104435824
000160 1a a3 30 bd d6 3f 33 bd 83 66 00 3d bb 7f 85 3d
       -0.043124296 -0.04376205 0.031347763 0.06518503
000170 29 63 02 3d 56 d6 bc 3c b6 fc a8 3d 8e 8f e2 3d
       0.031832848 0.023051422 0.08251326 0.11062537
000180 3e c0 65 3d 17 cf 53 3d 68 f3 d3 3d 7b 88 ce 3c
       0.05609154 0.05171117 0.103491604 0.025211563
000190 6e dc fa 3c c2 e0 20 3d 02 0c 52 3d 0e cb 23 3b
       0.030622687 0.039276846 0.051280983 0.0024992856
0001a0 26 76 1d bb 87 7c f1 3d 35 b3 e5 3d b8 7a 46 3d
       -0.002402672 0.1179133 0.11215822 0.048456877
0001b0 f3 f5 0e 3e 57 cd ff 3d a6 c0 9b 3d f9 ed bf 3d
       0.1396101 0.12490337 0.07605104 0.093715616
0001c0 31 d5 7b 3d 3c 0a b1 3d ed 42 61 3d 6c 49 50 3d
       0.061482612 0.0864453 0.054995466 0.05085127
0001d0 3e aa aa 3d 41 3a 0d 3d cc 09 ee 3c ae 3c 99 3d
       0.08333252 0.034479383 0.029057406 0.07482277
0001e0 d0 a3 1d bc bb 21 6b 3d 61 12 92 3d eb 12 a7 3d
       -0.0096215755 0.057405215 0.07132412 0.08157905
0001f0 14 2f 90 3d e5 ed 38 3d d3 b2 ab 3c c9 40 37 3d
       0.070402294 0.04514875 0.020959293 0.04473952
000200 60 1c 29 3c 86 a6 e5 3c 0a 1c 6c bc 58 16 2b 39
       0.0103217065 0.028033506 -0.014410982 0.00016316155
000210 1b 1b bc ba 1c 3f 0d bc cb 00 b9 bc 55 ac d6 bc
       -0.001435134 -0.0086210035 -0.022583386 -0.026205221
000220 e4 20 17 3d a4 83 1a 3d 98 c1 37 3c ee 27 4f 3d
       0.0368966 0.0377232 0.01121559 0.05057519
000230 5d 91 d8 3c 76 89 83 3c 3e 71 68 bb e1 03 48 3d
       0.026436502 0.016056757 -0.0035467888 0.048831824
000240 66 f1 4c 3c 49 fc 2b 3c 9c 66 0d bb 04 ec a5 bb
       0.012508726 0.010497161 -0.0021576053 -0.0050635356
000250 74 4b 93 bc 6b 6d 8c bc 78 77 41 3c c5 7d a1 bc
       -0.017980315 -0.017142018 0.011808269 -0.019713292
000260 59 e4 0d bd 01 83 96 bb 9f 0a 53 3d 7a 43 09 3d
       -0.034641597 -0.0045932536 0.0515238 0.033511616
000270 01 11 03 3c ed b3 31 bc 20 7f 9c 3c bd 68 09 bc
       0.0079996595 -0.01084612 0.019103587 -0.008386788
000280 ef fc d0 bc 88 57 88 bd 91 45 f2 bc d0 76 a9 bd
       -0.025511233 -0.0665732 -0.029574187 -0.08274615
000290 03 52 be bd ec 13 35 3d 24 45 4a 3d b8 d7 a3 3d
       -0.09292986 0.044208452 0.049382344 0.080001295
0002a0 92 40 02 3d 35 56 02 3d 8a e8 81 3d c4 e2 b7 3d
       0.03179986 0.031820495 0.063431814 0.08978799
0002b0 6a 65 af 3d a7 03 b5 3d 98 4c b5 39 75 72 be 3c
       0.08564265 0.08838587 0.00034580077 0.023247937
0002c0 7c 1b df bc d7 f7 58 3d 51 1c 26 3d 54 0a 5e 3d
       -0.027234785 0.052970733 0.04055435 0.05420907
0002d0 37 fe b0 bd 1f b5 cf bd 4f fa 95 bd 0d 4c fa bd
       -0.08642238 -0.10141968 -0.07323133 -0.12221537
0002e0 7c 4c f4 bd d7 71 7c bd d8 9e f2 bd 9b 60 a7 bd
       -0.11928651 -0.061632004 -0.11846703 -0.08172723
0002f0 cb 7b 85 bd d6 93 88 bd 5b aa 67 bd 0f fa c1 bd
       -0.06517752 -0.066688225 -0.056558948 -0.09471523
000300 c2 9f 96 bd 86 b0 e4 bd e8 d8 08 be 67 e8 ed bb
       -0.0735469 -0.11166482 -0.13363993 -0.0072603705
000310 c2 3f 96 3c 0f 30 04 3c c4 2b 1b bc 3b 20 24 bd
       0.018340949 0.008068099 -0.009470884 -0.0400698
000320 40 72 20 bd 23 64 65 bd ab c2 c4 bc 94 b9 a6 bd
       -0.039171457 -0.0560037 -0.024018606 -0.08140865
000330 5c af 49 bd 1a 4c a7 bc 18 00 e2 bc 98 d9 7a bb
       -0.0492395 -0.02042203 -0.027587935 -0.0038276669
000340 fd cb 70 3c 25 e5 78 3c c7 4b dc bd f1 86 da bd
       0.014697072 0.015191351 -0.10756641 -0.10670269
000350 8e 0c 3e bd 81 00 35 bd a4 53 8b bd d1 9f c3 bd
       -0.04639869 -0.044189934 -0.068030626 -0.09551967
000360 fc 32 c9 bd 3f 62 8d bd 63 e3 02 be 3d 98 4f bd
       -0.098241776 -0.069035046 -0.12782054 -0.050682295
000370 24 68 cb bd a7 7d 00 be 40 cc ac bd 87 68 26 bd
       -0.099319726 -0.12547933 -0.08437395 -0.04062703
000380 e0 93 19 bd 92 9d 0d bd d5 29 28 bd f3 67 f3 bc
       -0.03749454 -0.0345741 -0.04105552 -0.029712653
000390 79 e7 eb bd 90 64 8a bd 3a b1 cd bd 9f 37 90 bd
       -0.11518759 -0.06757462 -0.10043569 -0.07041859
0003a0 ed a0 87 bd c4 4c e5 bc ed f6 7c 3b f6 4f 65 bc
       -0.06622491 -0.027990706 0.0038599328 -0.013996115
0003b0 ae e2 b7 bd 3d c4 66 bd 65 64 86 bd a5 94 94 bd
       -0.089787826 -0.05633949 -0.065621175 -0.07254914
0003c0 8d e7 d9 bc 2e ca 26 bd 21 85 50 bd 50 82 cf bb
       -0.02659967 -0.040720157 -0.05090821 -0.006332673
0003d0 7f ea 5c 3d 02 2d 5a 3d 86 44 95 3c 75 75 24 3d
       0.05393457 0.05326558 0.018221151 0.04015108
0003e0 69 f9 67 bd f2 a1 57 bd 2d ea d3 bc 8e 4a cc bc
       -0.05663434 -0.052644677 -0.0258685 -0.024937894
0003f0 77 1f dd bc 11 e6 ce bb 5e 20 1b 3b 1a a6 14 bd
       -0.026992543 -0.006314047 0.0023670415 -0.03629122

Seperableconv.1.weight f4 [32]
000000 c5 6e 4a 3f d8 30 41 3e a2 76 cb 3e 32 2e 10 bc
       0.7907527 0.18866289 0.39738947 -0.008800076
000010 1c 90 3a 3f 74 01 bc 3e da c7 46 3f ab ed 1f 3f
       0.72876143 0.3671986 0.776487 0.6247203
000020 de e4 4b 3f 62 e5 28 bd 32 04 30 3f 57 8b 4e 3f
       0.796461 -0.04123438 0.687564 0.80681366
000030 c7 10 06 3f 24 a1 9b 3e 77 1a 2f 3f ed 00 80 3e
       0.5236935 0.30396378 0.6839976 0.25000706
000040 6d 0e 1c 3f 5b e5 1e 3f e0 70 03 3d be 3d 34 3f
       0.6095951 0.6206872 0.032090068 0.7040671
000050 d0 1f a0 3b c2 07 20 3e ac 8f 89 bc 61 b3 6a 3f
       0.004886605 0.1562796 -0.01679214 0.9167996
000060 d5 f7 d4 3e db ef d9 bb 13 fc 58 3e 04 c8 15 3f
       0.4159533 -0.0066509075 0.21189909 0.58508325
000070 b0 86 53 3f 84 d4 27 3f 8a 23 d6 3d 85 b3 25 3f
       0.8262739 0.6555865 0.10455997 0.6472705

Seperableconv.1.bias f4 [32]
000000 d6 1a e4 bd 50 c6 51 bd 6a 19 ed bd cc 32 1d bd
       -0.11137931 -0.051214516 -0.11577113 -0.03837852
000010 e5 2a 50 bd b6 17 20 be 61 38 ac bd 9b ae 1e be
       -0.050822157 -0.15634045 -0.08409191 -0.15496294
000020 a2 44 18 be c9 5c 2c bd f6 72 05 be 72 46 ee bd
       -0.14869931 -0.042080674 -0.13032135 -0.1163453
000030 51 e9 21 be e4 b9 91 bd ce 80 e9 bd 01 a3 86 bd
       -0.1581166 -0.07115534 -0.11401521 -0.06574059
000040 c0 cd bc bd 1d d9 ba bd 8e 0b 41 bd a0 32 f0 bd
       -0.09218931 -0.09123442 -0.04713016 -0.11728406
000050 de b0 d1 bb 07 15 9b bd a6 5e 22 bd f8 4d ca bd
       -0.006399258 -0.0757237 -0.039641045 -0.098781526
000060 32 06 59 bd 14 7b 67 bd 9e ca 8b bd 78 51 f3 bd
       -0.052984424 -0.05651386 -0.068257555 -0.11880773
000070 17 cd fe bd fa a6 58 bd 2f 6d 90 bd 6d f8 dc bd
       -0.124414615 -0.052893616 -0.07052075 -0.10789571

Seperableconv.1.running_mean f4 [32]
000000 2d 5e 3c be 84 32 c2 be df 92 a3 bf 15 f2 69 3f
       -0.183953 -0.37929165 -1.2779197 0.9138501
000010 f8 57 aa 3f 95 2a 74 bf 85 61 66 bf 75 32 37 bf
       1.3308096 -0.95377475 -0.89992553 -0.71561366
000020 b6 5f e3 bf 9c ea 69 bf 55 ff d9 bf ca 9f 41 bf
       -1.7763584 -0.9137361 -1.7031046 -0.75634444
000030 a9 3e 65 bf be d4 55 bf d3 33 50 bf 6d 23 57 3e
       -0.89548737 -0.83527744 -0.8132908 0.21009608
000040 7d ed 63 bf ba 36 8c be c8 7d b4 bf 07 72 fe bf
       -0.89034253 -0.27385503 -1.4100885 -1.9878548
000050 5b 85 be 3c f3 fd 80 bf 10 e0 bb bf d7 32 c4 bf
       0.023256948 -1.0077499 -1.4677753 -1.5328015
000060 5a 25 98 3e 0e 39 92 bf 56 b5 84 bf 46 ed 5a bf
       0.29715997 -1.1423662 -1.0367839 -0.855183
000070 df 2b e1 bf ca 0b 83 bf f7 ca d2 bf 16 ee ab bf
       -1.7591513 -1.0237973 -1.646819 -1.3432033

Seperableconv.1.running_var f4 [32]
000000 c4 bd 0e 41 b8 8d 28 41 aa bb cd 40 b8 db 40 40
       8.9213295 10.534599 6.429158 3.0134106
000010 83 ad 81 40 18 ad d6 40 13 dc d6 40 70 4f 27 41
       4.0524306 6.7086296 6.7143645 10.456894
000020 3e df d2 40 07 00 eb 40 c1 53 c4 40 68 51 00 41
       6.5897512 7.3437533 6.135224 8.019875
000030 95 54 0c 41 60 c6 ec 40 f8 bd 0e 41 81 ee 88 40
       8.77065 7.3992157 8.921379 4.2791142
000040 c3 77 d4 40 98 af 2c 40 63 6e 2e 41 01 14 94 40
       6.6396194 2.6982174 10.90195 4.627442
000050 28 a2 85 40 5d 01 9f 40 6b 78 1d 41 8d 11 83 40
       4.1760445 4.9689164 9.841899 4.0958924
000060 92 3f 19 40 89 68 1b 41 4e 02 15 41 0c 61 a2 40
       2.394505 9.713021 9.313063 5.0743465
000070 76 8c a9 40 c5 f3 e9 40 3e 4f a2 40 a7 22 2b 41
       5.298396 7.311007 5.072173 10.69596

Classfier.0.weight f4 [2, 736]
000000 8a 7d a6 3d ab ae 62 3d 7d d6 00 3d 86 06 27 3d
       0.081294134 0.055342358 0.031454552 0.040777706
000010 9a dd 3a 3b cd 3f bd 3c 66 05 27 bb b0 33 cc bc
       0.0028513432 0.023101712 -0.0025485395 -0.02492699
000020 fe 72 9a 3c 1c ac f1 bb a9 ab 0a 3d a2 9f 4f 3d
       0.01885366 -0.0073752534 0.033855114 0.050689347
000030 30 c8 58 3d 38 f1 98 bc 19 4a a4 bd e1 48 22 3b
       0.05292529 -0.01866971 -0.080219455 0.0024762677
000040 c4 67 35 3d 54 5e a2 bc f1 ec ca 3c db 41 f1 3b
       0.04428841 -0.01982037 0.024771186 0.007362587
000050 e3 71 e2 bc f1 59 61 bd 0f 69 d5 3c e6 9f 5d bd
       -0.027642196 -0.055017415 0.026051072 -0.05410757
000060 c7 af 8e bd a3 a8 4a bd c7 61 a0 bc 8b 99 10 3d
       -0.069671206 -0.04947723 -0.019577874 0.03530268
000070 18 77 70 3b 85 aa 85 bb d3 e6 4e bd 23 16 d9 3b
       0.003669208 -0.0040791654 -0.0505131 0.0066249534
000080 82 8c db bc d6 bd 3b 3d f8 d3 16 bd 2c 64 87 3c
       -0.026800398 0.04583534 -0.036823243 0.016527258
000090 95 de f5 3c 73 c0 47 3c dd 02 63 3c 5c d9 99 bb
       0.030013362 0.01219188 0.013855663 -0.0046951007
0000a0 93 fc 33 3d 2e 24 2a bd 03 83 d3 3d 06 af b5 bb
       0.043942045 -0.04153841 0.10327723 -0.005544546
0000b0 1f 64 9b bc aa 0f 86 3d ac de 65 3d 17 2e 94 3d
       -0.01896864 0.065459564 0.05612056 0.072353534
0000c0 f9 55 c4 3c 79 35 2c 3d c4 4f c0 3c ae cd 02 bd
       0.023966776 0.042043183 0.023475535 -0.031934433
0000d0 08 71 88 bd 77 f7 b2 bb a8 56 74 bb bc 76 15 3d
       -0.06662184 -0.005461629 -0.0037283096 0.036490187
0000e0 65 59 27 bd ef d9 d5 3b 2c 16 9a bb 1d 6e 6f 3d
       -0.040856738 0.006526224 -0.00470235 0.05845462
0000f0 64 a2 3a 3c 77 76 13 bd dc 17 fd bc a4 d4 b3 bd
       0.011391256 -0.03600165 -0.030895166 -0.08780792
000100 66 e2 7f bc b9 db 88 3c 1e e3 1e bd 10 61 9a b9
       -0.015617942 0.016706334 -0.038790815 -0.00029445486
000110 b1 f9 99 bc 00 13 71 bd f6 d3 2f bd 58 8c b5 bc
       -0.01879582 -0.05885601 -0.04292675 -0.022161648
000120 24 d0 99 bc 20 08 0e 3c de c6 8c 3c 91 2a 07 3d
       -0.018776007 0.008668929 0.017184671 0.03299958
000130 e0 ca df 3c 00 54 1f 3d 03 44 80 3c 6a c7 bb 3c
       0.027318418 0.038898468 0.01565743 0.022922236
000140 5b 22 a0 3c 7d 71 46 3d 77 96 f6 3c 2c fe 72 3c
       0.019547632 0.048448075 0.030101044 0.014831107
000150 69 cf 20 bc 7d fc ad 3c c0 ff 28 3d d7 f0 1f 3d
       -0.009815075 0.02123856 0.041259527 0.039048042
000160 b2 10 02 3d 7e 48 8f 3d ec b0 c6 3c fc 10 08 3d
       0.031754203 0.06996249 0.024254285 0.033219323
000170 40 03 e2 3c 36 da fb 3c ab e1 8c bd 19 ed 8e bd
       0.02758944 0.0307437 -0.0687898 -0.069788165
000180 61 78 a3 bc 1d 59 fd bd 73 79 ba bd 0e a1 91 bd
       -0.019954862 -0.12370513 -0.09105196 -0.07110797
000190 fc ce 1d 3d 4f 3b 90 bd 08 2b 23 3d b1 e3 0c bd
       0.038527474 -0.07042562 0.03983596 -0.03439683
0001a0 f0 17 fb 3b 88 41 5d 3c 10 99 0a 3d 8e 89 2f 3d
       0.0076627657 0.013504393 0.033837378 0.04285579
0001b0 92 a2 32 bb f4 3c 76 3b a5 ff fb 3c 5a 42 8b 3b
       -0.0027257544 0.0037572952 0.03076155 0.004249853
0001c0 fe ee 49 bd e8 4e 04 bd c4 e5 f3 3b a1 0e ae 3d
       -0.049300186 -0.032301813 0.0074431617 0.08498884
0001d0 36 04 2a 3d ce a5 06 3c 83 00 4d bb 67 c1 9a 3c
       0.041507922 0.008218242 -0.0031280823 0.01889105
0001e0 0c a8 52 bc a4 bf 23 bd 50 ac ff bc 22 55 90 bc
       -0.012857448 -0.039977685 -0.031210095 -0.01761872
0001f0 3c c7 99 bc 6b 1a f6 bc b1 8b 3a 3d 40 59 ad 3d
       -0.01877176 -0.030041894 0.045543376 0.08464289
000200 5f 5f c6 3c 41 36 6b bd de 8a 47 bb 3a e8 19 3d
       0.024215398 -0.057424787 -0.0030447762 0.037574984
000210 39 8d 9b 3c 31 4d 24 bd 94 43 ac bc 90 d6 09 bd
       0.018988239 -0.040112678 -0.021028318 -0.03365189
000220 cb 80 1b bd ef f9 b2 bc dc 0f 67 3d b8 65 d1 3d
       -0.037964623 -0.021847693 0.05641161 0.102244794
000230 b0 7a 20 3d 08 b2 a0 3d 34 43 1f bb 00 bd 51 bc
       0.039179504 0.07846457 -0.002430153 -0.012801409
000240 29 ea cd bc 84 1e 36 bd d3 05 4b bd 2a 87 0b bd
       -0.02513607 -0.044462696 -0.0495661 -0.03406445
000250 9e ce c9 bc 93 f1 9c bd ea 87 5c bb bf 78 f7 3d
       -0.024634656 -0.07663264 -0.0033650347 0.12083577
000260 7b b7 84 3d ae d3 f2 3c a3 fc e5 3b 84 33 77 bc
       0.064803086 0.029641952 0.007018642 -0.015087966
000270 00 89 ba 3c de 1f 9d bc a4 7c 1a 3b 93 8c 06 bd
       0.022770405 -0.019180235 0.0023572827 -0.032848906
000280 20 44 f8 bc 78 81 3f 3d 00 f3 4e 3d 02 3b ee 3c
       -0.030305922 0.04675433 0.05052471 0.029080871
000290 ab d3 a8 3c bc bd e3 bb 77 84 d8 3c 2c 57 44 3d
       0.020608744 -0.0069501083 0.026430352 0.047934696
0002a0 44 69 f0 bc 6d 3d e2 bc 95 b6 89 bc 4b d7 1b 3c
       -0.02934707 -0.02761718 -0.016810695 0.009511779
0002b0 76 13 45 3b f4 39 5b 3d 58 85 2b bd 21 6f 3e bd
       0.0030071414 0.053522065 -0.041875213 -0.0464927
0002c0 25 e1 4b 3c 6b 49 93 3c 80 4e c8 bc c2 a8 2d bd
       0.012443815 0.017979344 -0.024451494 -0.042397268
0002d0 e6 fd 9a bc 45 49 21 bd e0 b0 ca bb 12 36 95 3d
       -0.018919896 -0.039376516 -0.006185636 0.07285704
0002e0 10 84 39 bd 71 5c 80 bd 10 d9 fb bc d3 fa 30 bd
       -0.04529196 -0.06267632 -0.030743152 -0.043207955
0002f0 ef dd 16 bd c3 f4 ad bc 7c a0 82 3c c9 3b f3 3c
       -0.036832746 -0.021234876 0.015945666 0.029691594
000300 ec ad 92 bc ad d4 2d bd b2 04 4d 3b 5f 36 8a bd
       -0.017905198 -0.04243915 0.0031283316 -0.06748652
000310 43 5c 08 bd 90 7b 67 3d 14 ea d9 3c c8 03 d1 3a
       -0.033291113 0.056514323 0.026600875 0.0015946561
000320 26 c2 7a 3c 60 87 48 3d c4 dc 3e 3d ac 25 8e 3d
       0.015305078 0.04895723 0.046597257 0.06940779
000330 a3 65 68 3d 1b c5 ca 3c 55 06 c6 bc 7d 46 be 3d
       0.056737553 0.02475219 -0.024172941 0.09290788
000340 64 1c f2 3d 26 da ea 3d e7 14 35 3c 59 4d 3d 3d
       0.11821821 0.1146739 0.011052347 0.046216343
000350 b9 c3 1e 3d 18 fc 33 3d 58 fb 15 bc c6 a8 88 bc
       0.038760874 0.043941587 -0.009154163 -0.01668204
000360 43 ef 39 bd 61 dc 7f 3c 7f 44 1a bc 3f ae 00 3d
       -0.045394193 0.015616507 -0.009415745 0.031416174
000370 a9 27 37 3d c5 0e 8e 3d 1e c3 a5 3c 78 a4 20 3a
       0.044715557 0.06936411 0.02023464 0.00061280234
000380 e5 7c 0a 3d d2 ad 9a 3c b6 a2 8c bb 40 4e 58 bb
       0.033810515 0.018881712 -0.0042918576 -0.0033005625
000390 3f 18 3c 3d 3a d5 82 ba b4 34 8b 3d 5d 5a 3c 3d
       0.04592156 -0.0009981759 0.06797162 0.045984615
0003a0 61 2e e1 3c 1f a5 a1 3d 75 06 16 3d 3b c2 1a 3b
       0.027487935 0.078928225 0.03662725 0.0023614306
0003b0 83 1b 97 bb ba b6 80 bb 58 24 68 bd 43 55 08 bd
       -0.004611434 -0.0039280327 -0.056675285 -0.033284437
0003c0 01 ee cd bc 72 c1 f3 bc 31 21 04 3c 88 80 80 39
       -0.025137903 -0.029755328 0.008064554 0.00024509826
0003d0 82 88 50 bc 7c e9 4d bd f2 31 5d bd 05 cc 66 3d
       -0.0127278585 -0.050271496 -0.05400271 0.056346912
0003e0 96 a9 b8 ba 75 1b 17 3c 2a e7 29 bc f0 32 10 bd
       -0.0014088626 0.009222855 -0.010370055 -0.035204828
0003f0 fb 8a 8b 3c 16 10 e5 bc ec a6 88 bd a3 60 9f bd
       0.017034044 -0.027961772 -0.06672463 -0.07782104

Classfier.0.bias f4 [2]
000000 59 e1 b6 3c 56 15 90 bb
       0.022324251 -0.0043970747
