NCTU2/CPU_version/EEGNet/EEGNet_LeakyReLU.pkl (torch_old, 75667 bytes, 17 tensors)

Firstconv.0.weight f4 [16, 1, 1, 51]
00000000: 97f1 2c3e 325f 1dbe 3437 c6bd 9500 be3d
00000010: 8713 693e 84ef d4bd 34ff 94be 655a 89be
00000020: 6894 853e 6b3d c23e 925d da3c 283f bdbe
00000030: 55ae cbbd e7d6 863e 30eb b93e 299f 2dbe
00000040: 919b a7be 469c d1bc 3fa9 e23e fcc1 1b3e
00000050: 52ba a6be 43fd 09bf 792a 843d cd1a 053f
00000060: 0013 d23e 1716 bbbe 32f2 37bf f137 09bd
00000070: ecd3 113f 0032 ec3e 09c0 91be 73dd 30bf
00000080: dbed f3bd 1b86 0b3f 7c29 e43e 2ad9 3abe
00000090: 707a 0abf 34d9 a3be 857b 633e 3309 ed3e
000000a0: 5072 493e 97ae 4dbe a9ac aebe c09e 48be
000000b0: a723 5c3e 065d c23e db52 373d 472a 26be
000000c0: a019 86be d92f f2bd a7df cf3e 5cf8 07bf
000000d0: 611b 04be ded3 e4bd 1963 59be 4ed6 683d
000000e0: e453 3d3d c2df 4b3e 8c35 193e ad68 cb3e
000000f0: 4754 e33e b20e 0d3f c4a7 383f 5ac6 553f
00000100: 67e6 623f 7ada 853f cdf7 7f3f 3f19 823f
00000110: dbc2 883f 7f33 6a3f a201 273f 95f7 3e3f
00000120: c914 153f 7690 f03e 8588 903e b842 9b3e
00000130: cfc5 913e cccb d6bc 2e51 503d 90b3 e5bd
00000140: 5ee8 40bc 17fe 46be 54c4 08be fc85 16ba
00000150: ae29 44be f04e ddbd ebb5 67be 7700 e6bd
00000160: f882 75be b430 1fbe 4579 50bd 2e2a 7fbd
00000170: f2d8 563d b767 95bc deb8 023e a382 b43d
00000180: 4d89 7a3e a177 7e3e 4b9a d63e fd23 523e
00000190: ecdc 8a3e 25cd 1a3e e336 03be 637b d4bd
000001a0: 3f87 a0be 9faa a9be 8dce abbe f662 37be
000001b0: 7923 2ebe e5b5 8fbb 50e1 26bd 51f2 1b3e
000001c0: ac84 a53e c040 3c3e 31e0 483e 8e1b 483e
000001d0: 798c 3ebd 2f43 fabd e868 cfbd eda5 90be
000001e0: ba53 2dbe bc71 91be f158 9dbe 9a6b c6be
000001f0: 295d 95be c9ae f8bd deb9 06bd e7b3 1fbe
00000200: e06b 85be b044 b5be b691 bfbe bbc2 98be
00000210: ee69 c2be 21d1 e6be 3bc9 26bf 2a6c 3cbf
00000220: d20e 19bf 5041 bfbe 48ca 84be 910a 6fbe
00000230: 9d86 c9be 10a3 b5be 390a 3cbe e765 15be
00000240: cc1c dbbd 47b1 97be ff19 0dbf 0df9 f4be
00000250: 38f5 d9be 3e54 8fbe ad93 a2be de46 e0be
00000260: 14af 04bf 79ce 9e3f 562b 333f 3bbf 133f
00000270: 755a f23e 9334 d83e 7dcd 823d cfba 3cbe
00000280: 9999 c0be eb56 9ebe 31d0 05bf c26f 46bf
00000290: 0119 63bf 8f14 2dbf 8cc8 6ebf f829 7ebf
000002a0: 1513 6abf d33f 31bf a406 fbbe 462f 9ebe
000002b0: 0f1f aabe ffef fcbd 9d9a 28be 1327 373b
000002c0: 5f61 a7bd 85cf da3d 827f ae3c 223b fa3d
000002d0: 937f ef3d fcf1 0a3e 0bc7 103e 466f 993e
000002e0: 9fba 953e 4e8f 193e 996d 953e 320e a73e
000002f0: 0803 da3e 10ef 8e3e 77d3 da3e 67ed 603e
00000300: 21b4 173e b252 6e3e 1fd5 803e fd55 803e
00000310: b8d3 d83d d44b 193e ee2c aabd 7ed1 5bbe
00000320: ae6c 71be 912a e1be bfee 93be 1896 20bf
00000330: 71ae 093a 6d9a 21be 9e80 dcbe 841c a6be
00000340: d8a1 d4be 4a5f b73d 5eaf 013f bcaf de3e
00000350: 28ab 443f 43e2 033f dcf7 fe3e a24a 20be
00000360: eac0 0abf ddd6 c1be b4cb 4cbe c3f2 533d
00000370: 5bcf 5e3d f404 7b3d 1e0d 463e 4e56 ad3e
00000380: 35f0 ce3b cadc 1e3a 9bf2 c6bd 552e d4bd
00000390: 1844 0d3e 7d50 56bc 097e 843e 0836 d53e
000003a0: d452 09bd 4483 093c 720a c5be 08b9 2cbf
000003b0: b58d 31bf a631 8abe c995 39bd 5f65 c63e
000003c0: 923b e83e 807b 9c3e c306 a93e 3763 3b3d
000003d0: fb10 f7be 34e6 06bf e562 36bf e8d0 cebe
000003e0: 902b 55be dce3 0e3e a3a8 d73e 81ea 063f
000003f0: 6a05 053f cbb0 283e 2d7a 23be a401 6abd
0.16889034 -0.15368345 -0.09678498 0.09277455 0.22761355 -0.103972465 -0.29100955 -0.26826778
0.26089787 0.37937483 0.026655946 -0.36962247 -0.099453606 0.26335832 0.36312246 -0.16955246
-0.32735875 -0.025587212 0.4426975 0.15210718 -0.32564026 -0.5390207 0.064534135 0.5199402
0.4103012 -0.3654029 -0.71853936 -0.033500616 0.5696399 0.46131897 -0.28466824 -0.69087905
-0.11910602 0.54501504 0.445629 -0.18246904 -0.54093075 -0.3200165 0.22215088 0.4629608
0.19672513 -0.20086132 -0.34116104 -0.19591808 0.21497975 0.37961596 0.04475675 -0.16227065
-0.26191425 -0.118255325 0.4060032 -0.5311334 -0.12901069 -0.11173223 -0.21229209 0.056845002
0.046222582 0.19909576 0.14961833 0.397283 0.44400236 0.5510055 0.7213099 0.83505785
0.88632816 1.0457299 0.9998749 1.0163954 1.0684465 0.91484827 0.65236866 0.7459653
0.5823484 0.46985215 0.28229156 0.3032434 0.28471228 -0.026220225 0.05085867 -0.112158895
-0.011774151 -0.19432865 -0.13356143 -0.0005742011 -0.19156525 -0.10806072 -0.2262799 -0.112305574
-0.23975742 -0.15545923 -0.0508969 -0.062296085 0.05245299 -0.018237932 0.12765834 0.088139795
0.24466439 0.24850322 0.4191459 0.20521541 0.27121675 0.15117319 -0.12813906 -0.10375097
-0.31353185 -0.33137986 -0.33556023 -0.17908844 -0.17005719 -0.004385697 -0.04074222 0.15229155
0.32327783 0.18384075 0.19616772 0.19541761 -0.046520684 -0.122198455 -0.10127431 -0.2825159
-0.1692647 -0.28407085 -0.3073192 -0.38753968 -0.29172638 -0.121427126 -0.0328921 -0.15595971
-0.26058865 -0.35403967 -0.37415856 -0.29836068 -0.37971443 -0.45081428 -0.65150803 -0.73602545
-0.5978824 -0.37354517 -0.25935578 -0.23343875 -0.39360514 -0.3547597 -0.18363275 -0.14589654
-0.10698852 -0.2962744 -0.5511779 -0.4784626 -0.425699 -0.2799396 -0.31753293 -0.43804067
-0.5182965 1.240676 0.69988 0.5771367 0.47334638 0.4222761 0.0638685 -0.18430637
-0.37617186 -0.30925688 -0.522708 -0.7751428 -0.8871003 -0.67609495 -0.9327476 -0.9928279
-0.91435367 -0.69238013 -0.49028504 -0.30895442 -0.3322682 -0.12350463 -0.1646523 0.0027946874
-0.08172869 0.106841125 0.021301035 0.1221831 0.11694255 0.13568872 0.14138429 0.29967707
0.29243943 0.14996073 0.2918518 0.32628018 0.42580438 0.27916765 0.4273946 0.21965562
0.14814807 0.23273733 0.25162598 0.25065604 0.10587257 0.14970332 -0.08309351 -0.21466634
-0.23576614 -0.43977788 -0.28893086 -0.62729025 0.0005252129 -0.15781565 -0.43066877 -0.3244363
-0.41529727 0.08953722 0.50658214 0.4349345 0.76823664 0.51517123 0.49798477 -0.1565347
-0.54200613 -0.3785924 -0.19999582 0.051745187 0.05439697 0.06128402 0.19340941 0.33854908
0.006315256 0.0006060122 -0.09714242 -0.103604 0.13795507 -0.013080713 0.25877407 0.41642785
-0.033526257 0.008393113 -0.38484532 -0.67469835 -0.6935685 -0.26991004 -0.045308862 0.38749215
0.4535795 0.30562973 0.3301297 0.045748916 -0.48255143 -0.5269501 -0.7124465 -0.40393758
-0.20817399 0.13954109 0.42120847 0.52701575 0.51961386 0.16473691 -0.15964575 -0.05713047

Firstconv.1.weight f4 [16]
00000000: b777 903f 499b 2e3f fcc4 8a3e 6eca 4f3f
00000010: a16e e23e 3710 db3e 4dff a73e 439f d43e
00000020: a7d8 663e 4a28 ae3e b404 a93f 87b7 aa3f
00000030: 98ad 453f 253e d63f 7f4c 343e 872f e03e
1.1286534 0.68205696 0.27103412 0.8116826 0.44225028 0.42785808 0.32811967 0.41527757
0.22543584 0.34015113 1.320456 1.3337258 0.7721801 1.6737715 0.17607306 0.4378626

Firstconv.1.bias f4 [16]
00000000: e784 e23d ea52 dd3d 41e6 c8be 53e5 013e
00000010: 9cdb 17be 6e2c 873c ef06 303e e7e2 8bbc
00000020: 2d58 70be 0df1 62be b177 de3d f404 40be
00000030: c440 9cbc 4bf7 023d 0d09 a2bd 6f0f 173d
0.11060505 0.1080683 -0.3923817 0.12685136 -0.14829868 0.016500678 0.17190145 -0.017075969
-0.23471136 -0.22162266 0.10862673 -0.1875189 -0.019073851 0.03197412 -0.079118825 0.036879953

Firstconv.1.running_mean f4 [16]
00000000: 91f4 a3bb 2e54 bbbe feee 063f 6701 ad3d
00000010: 33e7 04bd 7466 08bf 0516 d6be 3ad6 20be
00000020: c2a1 d93e 3e05 713e 0745 e6bc 11af 723c
00000030: e8f5 fd3e ee23 6bbd bf31 e8bd 52ef 283f
-0.00500352 -0.36587662 0.52708423 0.08447533 -0.03244705 -0.5328133 -0.41813675 -0.15706721
0.42506224 0.23537156 -0.028109087 0.014812247 0.49601674 -0.057407312 -0.11337613 0.65990174

Firstconv.1.running_var f4 [16]
00000000: 8863 4742 dea8 3845 2623 2145 9a2e 7c44
00000010: fd0d e643 029d 2145 3789 2045 28d9 dd44
00000020: fe11 0c45 c581 b044 19e7 0144 b287 1c44
00000030: 525a 8745 ca0e 7f44 2637 1144 7acc 4e45
49.8472 2954.5542 2578.1968 1008.72815 460.10928 2585.813 2568.576 1774.7861
2241.1245 1412.0553 519.6109 626.12024 4331.29 1020.2311 580.8617 3308.7798

Depthwiseconv.0.weight f4 [32, 1, 2, 1]
00000000: 9255 1a3e 4a8a 67bf 622d 1ebe 5450 863f
00000010: 6398 40be f109 793f e7ee 223f d73f 62be
00000020: aaf4 8e3d 1c9b 8b3f 6a82 bdbc 5a1a b73f
00000030: e76b e8be 7782 123f 54e0 42bf 4f14 9e3e
00000040: 67a2 f83d a5e7 70bf 5b88 ed3e c6dd efbe
00000050: a59a d2bc 4b22 96bf c616 23bf 86d0 2f3e
00000060: 7c10 dd3e caa3 2c3f 3df2 47bf 2deb 4e3e
00000070: e019 f7be 2be3 d9be aa1d a6be 2eee 223f
00000080: 8a97 023e 4dd1 bcbe da04 dbbe d2fc 0f3f
00000090: 6e93 383e 7bcc 7d3f 1d35 a13e 21cd 833f
000000a0: 7105 a43f c2f3 d7bd 0b4e a13e 1554 1dbf
000000b0: 4e93 65be ad97 633f b552 73bf bff6 ba3e
000000c0: 13fb 5d3e 1ede 17bf 5781 8bbf 4577 893e
000000d0: e5b5 073f 137d bdbe 98cf 3bbd f09b c1bf
000000e0: 13fe 93bf 04c9 47bc 8df4 6fbf f853 203e
000000f0: 8b44 eabe 54bc 1cbf bf81 5dbe 8ef3 1b3f
0.15071705 -0.9044539 -0.15447 1.0493264 -0.18808131 0.97280794 0.63645786 -0.22094665
0.0698026 1.0906711 -0.023133475 1.4304917 -0.45394823 0.57230324 -0.7612355 0.3087487
0.12140351 -0.9410346 0.46393093 -0.46848887 -0.025708506 -1.1729215 -0.63706625 0.17169389
0.4317664 0.6743742 -0.78104 0.202069 -0.4826193 -0.42556128 -0.32444507 0.63644683
0.1275312 -0.36878434 -0.4277714 0.5624515 0.1802499 0.9914014 0.31485835 1.0296975
1.281416 -0.1054454 0.31504855 -0.61456424 -0.22419474 0.88903314 -0.95048076 0.36516377
0.21677808 -0.593233 -1.0898846 0.26848808 0.53011924 -0.37009487 -0.045852274 -1.5125713
-1.1561912 -0.012193922 -0.9373253 0.15657032 -0.4575542 -0.61224866 -0.21631525 0.6091851

Depthwiseconv.1.weight f4 [32]
00000000: bcdf ae3f 0929 b23f 464d ae3e 597d 033f
00000010: efbf 703e c35b 643e eb0f 213f 595b fa3e
00000020: c01e 903f 8c6c 3f3f 79a3 233e c26f b63e
00000030: fff6 293f bde9 c13e 447c e33e 56c2 b13e
00000040: 5c08 873e b7b7 c43e e86e 763e 7ab7 cb3e
00000050: be99 913f 6bd4 833f 7db0 7b3f 5bf1 b73f
00000060: ef43 d03e 891a 013f adca 373f 1ecc 673f
00000070: d173 513f bd3e 3e3f 04f7 c33e 6e86 f53e
1.3662028 1.3918773 0.3404333 0.5136314 0.23510717 0.2230063 0.62914914 0.48897818
1.1259384 0.74775004 0.15980329 0.3563214 0.6639251 0.3787364 0.44430745 0.3471858
0.26373565 0.38421413 0.24065745 0.3978842 1.1375043 1.02992 0.98316175 1.4370531
0.4067683 0.50431114 0.71793634 0.90545833 0.81817347 0.7431448 0.38274395 0.47954124

Depthwiseconv.1.bias f4 [32]
00000000: 7a50 17bf 072f 3ebf 526b ccbe 9454 c9bc
00000010: eb8a 663c 0210 163b f6e5 a03d eea2 02bd
00000020: ae53 f8be cea3 64be 9e27 843c a2a5 d7bd
00000030: 0417 8bbe dae8 9dbd 62e5 ccbd 95b1 f13d
00000040: 6d21 a43d d139 413e bb37 ecbe c0e5 973c
00000050: 2827 ddbe a55e a3be 549f 02bf b6e5 45bf
00000060: 8272 6c3d e1cf 323d 620a e5bd 284b c5be
00000070: e21d 6abe 9854 e0bd d052 0fbf ed61 b6be
-0.5910717 -0.7429051 -0.3992563 -0.024576463 0.014071207 0.0022897725 0.078563616 -0.031893663
-0.48501343 -0.22328112 0.016132172 -0.10529639 -0.27165997 -0.077104285 -0.10004689 0.11801449
0.08014188 0.18869711 -0.4613627 0.01854217 -0.43193936 -0.31908146 -0.51024365 -0.77303636
0.05772639 0.04365528 -0.11183621 -0.38533902 -0.22862962 -0.10953635 -0.55985737 -0.35621586

Depthwiseconv.1.running_mean f4 [32]
00000000: 8774 9cbd 8f43 b93d 77b4 b63d f3dc 463d
00000010: b836 e3be d2e7 0abf 7ff1 5a3c a38c 69bd
00000020: c6e9 ef3d 0cf5 0ebb 5941 30bc d28f b0bb
00000030: 7055 4c3e a8a1 cdbd 4de7 323c be80 91bb
00000040: 2913 6e3d 0f7f 1fbd 6f9c 85be b24c 98be
00000050: 9868 f13d d62a 05bd 225f 03be 64f5 eb3d
00000060: fe82 113c 9688 cc3c 1f26 973b 4be2 19bd
00000070: 9ed0 973d 8ade 4b3d 2039 1dbd f0d1 713c
-0.07639413 0.09046089 0.0892114 0.048550557 -0.44377685 -0.5425998 0.013363241 -0.057018887
0.117145106 -0.002181354 -0.010757768 -0.0053882385 0.19954467 -0.10040599 0.010919404 -0.004440396
0.05812374 -0.038939532 -0.26095912 -0.29746014 0.11787528 -0.032511555 -0.12829259 0.11521414
0.008881329 0.024967473 0.0046126987 -0.037569325 0.074128374 0.049772777 -0.038384557 0.014759526

Depthwiseconv.1.running_var f4 [32]
00000000: 97cb 6b3f d81a a03f 07e7 b43e cd31 f53d
00000010: ea60 c53d 0f31 1c3e 2a4f df3d c9a6 6c3e
00000020: 7147 0d3e c01a d03c 24b0 8b3e 3d61 643d
00000030: 8448 e73d f5c6 413d c9b5 fa3d 2d99 303d
00000040: f4b1 a73b 7de4 363c 6624 163e ee86 3c3e
00000050: 3802 2540 b604 d23e 9236 8c3f 4ee7 673f
00000060: 6366 163e 6215 093f bfbd cb3e 81be c540
00000070: ed79 263d d80c ad3c 8504 393e 8cfe 573d
0.9210753 1.2508192 0.3533251 0.11972389 0.096376255 0.1525309 0.10903771 0.23110498
0.13796784 0.02540338 0.27282822 0.055756796 0.11293128 0.04730888 0.12241704 0.04311483
0.005117649 0.011162874 0.14662322 0.18410847 2.5782604 0.4101922 1.0954154 0.9058732
0.14687495 0.5354825 0.39793202 6.179505 0.04064362 0.021124288 0.1806813 0.05273299

Seperableconv.0.weight f4 [32, 32, 1, 15]
00000000: aca0 03be 36a7 d93d af5c 3f3f d1b5 613e
00000010: a283 063e b45d d0bc bd23 123d 5f4b de3e
00000020: a245 4abd 0974 f6bc 9f2f 2b3e 5438 d63e
00000030: 1163 393f 1e61 f43e 81e5 7f3e 3125 4f3e
00000040: 29b3 b9be 282b 97be 0b5d 733e 0e77 e23e
00000050: 5e82 583e 3fdc 98be 261a 37be 6db1 82be
00000060: fee4 f73e e94e 653e 84e4 733c 38ba eebd
00000070: cbf1 993e b241 903f 11a6 99be 6e89 6c3e
00000080: 9c85 903e 875b c73e 911b 223f be62 503f
00000090: c4da 1b3f ad3f cd3e 64b4 8e3e 5865 4d3e
000000a0: 8b76 f2bc 8ea8 46be 2502 82be bd15 19bd
000000b0: 101f bc3e fa25 1cbd 587f a33d 9867 1c3e
000000c0: 3cf9 443e c5b4 213e cfa1 b53d a591 4c3d
000000d0: 777d a1be 98fe 10bf efe3 fcbe 9cbb 2bbf
000000e0: aed3 23bf 007b ffbe 6f80 25bd 90d5 d13e
000000f0: c330 003d 85f6 3b3c 0bc4 d4bc cec9 2f3e
00000100: 4a00 ef3e f060 6c3e 5691 0e3e b713 bc3e
00000110: f029 bd3e da81 683e 9231 943e 65a2 183f
00000120: 35ec a23e e195 6c3d 821d 393e 5bdd 94bd
00000130: 1457 3bbd 9298 c6bd 6d40 f3bb 8c7a 5e3e
00000140: 5592 cb3d 0c24 073e 00e3 cc3e 486d a93e
00000150: aa9a 173e 9a40 923e 620f f13e ba2f 253e
00000160: 298e 0d3e 48bb b03e dd5c bfbc addd af3d
00000170: d9ec 3e3e db51 f33c 02e3 92be 6748 a8be
00000180: 2f0c 7f3d 49b0 473e adcc c83d 86eb 223e
00000190: 4fa5 ec3b c117 c5bd b136 b83b a2f0 edbd
000001a0: 4258 8e3e 1b90 533e cff9 753e 8b92 a33e
000001b0: c528 a13e d68f aa3d 665d 9d3e b247 d33e
000001c0: 811f e43d 0359 dabe 6e95 42bf b18c 72bf
000001d0: 1fba 2abf 1c1b bfbe f718 aebd d880 d03e
000001e0: 69e2 aa3d fda6 fbbe 2315 c83e ab90 943e
000001f0: 3c93 8dbe b2c2 c5be daa8 e23e 3006 8cbd
00000200: 86bb 0cbf d7c5 b93d 38eb b53e e3ec aebe
00000210: d677 48bf 54a1 843e 136d d23e caa4 7cbd
00000220: 0103 e6bd 4cd0 8cbe 2493 adbd 870a 0bbe
00000230: e977 a1be 9972 b13e 9c34 c7bd e5ca 4abe
00000240: 9592 873e 7f7d 973e 7acd 7bbe 3ba8 c23e
00000250: 5d76 713f 7fa9 513d 451c 25be f98f 543d
00000260: 4ea0 083d 78e4 03bd 2d96 903d 448b 873d
00000270: 3154 dd3c 8910 9f3e 49a0 bb3e 7528 533e
00000280: e87a 983e a13d 953e d644 853e 637c 4cbd
00000290: 9ea5 8a3d 4823 0cbf c082 b7be 2a89 40be
000002a0: b58d f4bd ae45 15be 2a8f 86be 0fea 9fbe
000002b0: 20ce acbe 92e1 79be af8c 84be af43 6fbe
000002c0: 25de 2abe cdd3 81be 42d1 cdbe aed9 f0be
000002d0: a608 70be 07ad 84be 3f3d a9be 7b0e 14be
000002e0: fc7c 50bd de33 31bd a97c 263e 204f c23e
000002f0: bd5d 633e b9dd 083e ff61 f53b 0f29 2d3e
00000300: 200f 753e 4eaf 863e f513 423e 562e 15bf
00000310: 1f23 eabe 78f9 e5be f99a fcbe 9211 9dbe
00000320: 09b8 34be 5e52 16be 2f99 eabd 9349 27be
00000330: ecb8 68be c16d 7bbe af6a 8dbe cefb 97be
00000340: 542a b6be 537d 99be 9250 eabe b687 91be
00000350: d979 4dbe 14cc 30bd 41a6 213d a64e 103e
00000360: 6c07 2a3e f264 a23e 10ad c03e 2997 363e
00000370: 5f29 47bc 920d 55be 4cc4 98bd 771f 1abd
00000380: 6687 083e ba44 87bf 8423 38bf acc0 e0be
00000390: 54a1 d5be f293 8cbe d1e9 dcbd a761 e4bd
000003a0: ce80 29bd f717 0c3e 3b1d 18bd 52ac 0cbe
000003b0: cd17 32be 3dcc 67bd fd8a f8bd e25f 57be
000003c0: 1a20 31be a804 10bf d829 46bf b7ed 02bf
000003d0: c262 23bf 4ea9 05bf d030 9dbe a8b3 afbe
000003e0: 4e4f 6abe c7f4 c4bd 8b4a 2cbe 3920 603d
000003f0: d2a9 883b b4d5 5fbe 2bad 72be 1024 913d
-0.1285426 0.10627596 0.747508 0.22042014 0.13136151 -0.025435306 0.035678614 0.4341688
-0.049382813 -0.030084627 0.16717385 0.4183985 0.7241679 0.47730345 0.24989893 0.20229031
-0.362695 -0.29525113 0.23765962 0.44231457 0.21143481 -0.29855534 -0.17881069 -0.2552599
0.48416895 0.22393383 0.014886025 -0.11656612 0.30067286 1.1270049 -0.3000951 0.230993
0.28226936 0.38937017 0.63323313 0.8140067 0.60880685 0.40087643 0.27872002 0.20058191
-0.029597541 -0.19400236 -0.2539226 -0.037374247 0.3674245 -0.038122155 0.07983273 0.15273893
0.192357 0.15791614 0.08868753 0.049943585 -0.31541035 -0.5663848 -0.4939265 -0.67083144
-0.6399487 -0.4989853 -0.040405687 0.40983248 0.031296503 0.011472349 -0.025972387 0.17166826
0.46679908 0.23083854 0.13922629 0.3673379 0.36946058 0.22705784 0.2894407 0.59622794
0.31820837 0.057760123 0.18077663 -0.07268783 -0.04573734 -0.09697069 -0.0074234516 0.21726435
0.0994002 0.13197345 0.40016937 0.33091187 0.14805093 0.28564912 0.4708205 0.16131487
0.13823761 0.34517884 -0.02335971 0.08587203 0.18645038 0.029702118 -0.28688818 -0.3286774
0.06226748 0.19500841 0.09804664 0.15910158 0.0072218548 -0.09623671 0.005621754 -0.11618163
0.2780171 0.2066044 0.24021076 0.3194774 0.31476417 0.08328216 0.3073532 0.41265637
0.111388214 -0.42646036 -0.7600926 -0.9474593 -0.6669025 -0.3732537 -0.085008554 0.407233
0.083439656 -0.4915084 0.39078626 0.29016623 -0.27651393 -0.38625103 0.4426945 -0.06837118
-0.5497364 0.09070938 0.3553102 -0.34165105 -0.78307855 0.25904334 0.41098842 -0.061680593
-0.11231042 -0.27502668 -0.084753305 -0.13578235 -0.31536797 0.34657744 -0.09726831 -0.1980396
0.2647902 0.29587933 -0.24590102 0.38018975 0.94321233 0.051187035 -0.16124065 0.051895116
0.033356003 -0.032200307 0.07059894 0.0661836 0.027017685 0.31067303 0.36645725 0.20620902
0.2978127 0.29148582 0.2602908 -0.049923312 0.0676987 -0.54741335 -0.35841942 -0.18802324
-0.11941091 -0.14577362 -0.262811 -0.3123326 -0.3375101 -0.24402454 -0.25888583 -0.23365663
-0.16686304 -0.25356904 -0.40198714 -0.47041076 -0.23440799 -0.2591326 -0.3305454 -0.14458649
-0.050900444 -0.043262355 0.16258492 0.37950993 0.22203727 0.1336583 0.0074884887 0.16910194
0.23931551 0.26305622 0.18952926 -0.5827383 -0.4572992 -0.44916892 -0.49336985 -0.30677468
-0.17648329 -0.14679858 -0.11454999 -0.1633666 -0.22726792 -0.24553587 -0.27620456 -0.296843
-0.3557917 -0.29978427 -0.45764595 -0.28423852 -0.20066012 -0.043163374 0.039465193 0.14092502
0.16604394 0.3171764 0.37632036 0.178311 -0.01215586 -0.20805958 -0.07459316 -0.037627663
0.133329 -1.0567849 -0.7192919 -0.43896997 -0.41724646 -0.27456623 -0.107867844 -0.11151438
-0.041382603 0.13681017 -0.03713725 -0.1373761 -0.17391892 -0.05659126 -0.12135885 -0.2103267
-0.17297402 -0.56257105 -0.774076 -0.51143974 -0.6382257 -0.52211463 -0.30701303 -0.34316754
-0.22881815 -0.09617 -0.16825311 0.05471823 0.004170635 -0.21858865 -0.23698871 0.070869565

Seperableconv.1.weight f4 [32]
00000000: 7f32 8f3f c47a 2e3f d717 ef3e 2a45 0e3f
00000010: 990f 993f 1b81 39bf 73a8 14bf e2c3 2f3f
00000020: 3faa 383f a2ce d63e d198 273f 09e9 683f
00000030: 67fb 213f b8f3 363f 1ea2 6a3f 1ab9 843f
00000040: 809a 2a3f 9c3d e4be 59c7 903f ece9 fbbe
00000050: 75b5 a53f 2ca4 653f 53b6 183f 33e8 2e3f
00000060: f59b 853f 9a18 443f 2b7d 783f 20d7 793f
00000070: ced9 643e d106 b03f 1a0f 553f 5e1f 263f
1.1187285 0.68156075 0.46697876 0.55574286 1.1957885 -0.72462624 -0.58069533 0.6865827
0.72134775 0.41954523 0.65467554 0.90980583 0.63274235 0.71465635 0.9165362 1.0368989
0.66642 -0.44578254 1.1310836 -0.49201906 1.2946001 0.8970363 0.59653205 0.6832306
1.0438219 0.7660004 0.9706599 0.9759388 0.22348711 1.375208 0.8322617 0.6489161

Seperableconv.1.bias f4 [32]
00000000: cca3 dfbe 7095 2cbe 657f 99be 14db 9cbe
00000010: 2226 07bf 1895 cfbe 0c97 b1be 3f5c b4be
00000020: 6f77 8abe a045 4cbe 2c8d aebe 85c4 dbbe
00000030: 2cd7 68be 5d50 d3be bf61 bbbe bf91 04bf
00000040: a98f 97be 427d 5abe 1871 07bf 1887 83be
00000050: ceda 1ebf fc75 b7be a367 67be 2d47 a6be
00000060: cd71 09bf 8aab d7be b50a d0be 398b 09bf
00000070: fe2a a2bd 0498 28bf 930a aebe 71d2 8abe
-0.43679655 -0.16853881 -0.29980007 -0.30635893 -0.5279256 -0.40543437 -0.34685552 -0.35226628
-0.27044246 -0.19948435 -0.3409208 -0.4292337 -0.22738332 -0.4127225 -0.36598012 -0.5178489
-0.29601792 -0.21336845 -0.5290694 -0.25689006 -0.6205262 -0.35832202 -0.22598128 -0.32476178
-0.5368927 -0.4212306 -0.4063317 -0.5372806 -0.07918356 -0.6585696 -0.33992442 -0.2711368

Seperableconv.1.running_mean f4 [32]
00000000: 8898 59c0 9cbf 88c0 8906 f73e a926 e83f
00000010: 2414 2fbf bae9 a540 def6 7a40 b5da 62c0
00000020: 04bc 03c0 ef01 3140 54b1 adba 26ee 8cc0
00000030: 2a6a 0e3d b843 8bc0 c0ea 86bf 4db2 68c0
00000040: a8ad 8dbf c6f4 abbe f3d8 0ac0 b081 1640
00000050: a99a dbbf 8203 cfbf 3c6b 1fbf 5b1b 0abf
00000060: 2250 20c0 9c65 623e c4f0 2fc0 2648 8fbf
00000070: 5ffb 45c0 79d4 94bf dfcf 9cc0 03f9 70bf
-3.3999348 -4.27339 0.48247173 1.8136798 -0.6839011 5.184781 3.9213176 -3.5445988
-2.0583506 2.765743 -0.00132517 -4.404071 0.034769215 -4.3520164 -1.054039 -3.6358826
-1.1068621 -0.33585185 -2.1694915 2.3516655 -1.7156574 -1.6172945 -0.62273 -0.5394799
-2.504891 0.22109073 -2.7490702 -1.1193893 -3.0934675 -1.1627342 -4.900375 -0.9412996

Seperableconv.1.running_var f4 [32]
00000000: a977 1642 73ef 0d42 a4d6 0042 6863 3c42
00000010: 8147 fe41 e970 a042 99fc 8042 5098 3842
00000020: 4887 5d42 e65e 8e42 1bd7 db41 13be c641
00000030: bfb2 c841 0b90 3242 54af e241 302b ec41
00000040: 1442 1f42 6c41 5042 ec63 0442 0cc9 6f42
00000050: 8fb0 e341 d021 0442 4e1a c541 0349 2742
00000060: a3d5 f141 9d09 4842 4bb3 0742 fb82 0642
00000070: 6d72 ed41 40df 4542 85b2 1f42 8011 f441
37.616856 35.483837 32.20961 47.097076 31.784914 80.22053 64.493355 46.148743
55.38211 71.18535 27.480032 24.84281 25.087278 44.640667 28.33561 29.521088
39.81453 52.06389 33.09758 59.946335 28.46121 33.03302 24.637844 41.8213
30.229315 50.009388 33.92509 33.62791 29.680872 49.468018 39.924335 30.508545

Classfier.0.weight f4 [2, 736]
00000000: f6de 20bf 5b5c 15bf 11ea 7bbe 8abf b5be
00000010: 10a8 b23e 1752 30be 84ab 1bbb 3c32 d4be
00000020: fee0 8a3e 42aa 903e aacf 903e 2cf1 3c3e
00000030: ddd5 36bf 3084 433e 29e6 f33d 3fbf 183f
00000040: 105d 0cbe e4d3 02be 4291 92bd d7b9 b33e
00000050: cb93 c0bd bcb6 c33e 618a 503e 7885 8d3e
00000060: 64d5 933d b4a4 7e3e f9fc 143d 1f0e 28be
00000070: e33c 063e 0a4f b43d c957 4e3d a11f cebe
00000080: c08b 17be 729c 4fbe 9225 e3bc cb00 0bbe
00000090: 3c46 05bf 9507 3a3e be61 093f e557 523f
000000a0: caa5 dabd d5b5 9cbc 12a4 b03e 2f8c c0bd
000000b0: 235b 8ebd a247 173e aaf7 ba3e e6f3 623e
000000c0: f487 8e3c c8d6 26be 6139 a1be af40 0e3e
000000d0: 8251 183e 73e2 e4bc c78d c0bd cbe0 22be
000000e0: be6a bb3d 21c0 923c abd1 91be 941b 633e
000000f0: b3f7 b23c 4104 afbd d85d 28be bcd0 d6bd
00000100: a558 33be ae49 023e 6a85 2cbb 64da 65bf
00000110: b4b7 2abd 39c6 fd3e 8df2 703e dc75 b33d
00000120: 9887 cf3d a741 8bbe 91b1 003e 1aeb 99be
00000130: 6f84 0abf 1b19 2cbe 1439 563e c66c 3a3e
00000140: de82 893e 7d35 c7bd 6962 40bd f319 6c3e
00000150: e792 0b3e 4062 223d ec73 4f3e 0320 8f3e
00000160: 0fa5 a43e 3861 793d d4a9 1a3e be60 383d
00000170: 829c b93e 725d 863e fa7f d83e 93cc 23bf
00000180: 950f 2f3e 52be 2c3d ff08 28bd 8b49 e7be
00000190: 25ce e3be a3c0 173d 8a3b 003e 7cad 9ebe
000001a0: 1d52 193e 5d4f a93e 1075 213d 40b7 833a
000001b0: a2ce 5dbe b520 b63a f27c d2be 4f86 71be
000001c0: f647 9fbd abe3 09bd 504a c5be 38e6 be3e
000001d0: a877 51bf 0516 60be 53b1 513f e5ae 6ebf
000001e0: d071 a4be 9c6e a53f 0a9b 0cbf 1c31 ba3e
000001f0: 355a 763f e697 a8be f566 823f 2dca 53be
00000200: f54a ebbe 93ae a13c bb2d 673e 845e 70be
00000210: ddf6 dc3e 17d5 cd3d 4e5c 30be 5727 42be
00000220: 4940 95be 7279 7fbe 4a7b 9cbe 25c3 f6bb
00000230: 892b 01bf 260c eebe 54d9 483e 2e53 d23e
00000240: ebfe dd3d ec44 c63e 9351 8e3e 94d7 053e
00000250: b11f b73e 4ec8 19bd 2ea7 46be 548c 07bf
00000260: 1ba4 4e3f 1620 223f e8af 0ebe bd43 603e
00000270: c3e9 99bd 8780 a9be c873 95bd 4c55 4fbf
00000280: 3472 353f ac05 4a3f 2da7 223f 5c52 c13e
00000290: 0f85 793e a89a b1bd 19d7 c3bd 95e6 0bbe
000002a0: ae13 71be 0b4d adbe 8dcb 96be b5ac 86be
000002b0: 36b2 e0bd 91de f9be 2cb6 623e 5708 383d
000002c0: 0420 5abe 46cf edbd a0f0 893d 1eaf 4e3d
000002d0: 7a79 db3d fb42 9a3d 3787 56bd ca98 64bd
000002e0: c491 133e 01c5 fcbe 4a88 39be 87de 7abf
000002f0: 43e1 2fbe e2b9 033e 81ca 023f 3097 0e3d
00000300: 89f0 4a3e e4f6 b63d 9ecb 38bf 0f08 f43d
00000310: b788 a9be 89c1 c33d bd7b b2be 1f9c 38be
00000320: b34a d03e 73b2 bf3d 8872 f63d ae2b c03d
00000330: 56e6 4b3d 2b79 07be fe3f b2bc 65bc 193f
00000340: c89b ba3d 854b 293d f402 cf3d 0490 2abe
00000350: 27ce b2be 6746 f2be 3808 99bf 950d 21bf
00000360: a917 713e f60b 903d 5fb4 33bd d503 3dbf
00000370: a3ab acbe adca ad3e 33b8 693e 3940 cfbc
00000380: 8200 3c3e aa39 223e 18ea 863e 8a64 563d
00000390: 0a27 313e ee2b 593e 3343 3a3f 4348 bb3e
000003a0: fd48 8cbe 1e6b 1c3e 0c25 8abf c725 e53e
000003b0: 07b3 fabe a870 5fbe c566 c83e e2df 10bf
000003c0: 6445 383d fe2e edbe 5cb1 22bf aa5c 523e
000003d0: 8297 edbd 551f 223e adb9 273e 5043 84bd
000003e0: dfad 0a3d 72bf 20be e431 a6be bfb9 11be
000003f0: 5e5d 923e 7cf4 4e3e 7be0 8f3e 443f 763e
-0.6284021 -0.5834405 -0.24601008 -0.35497695 0.34893847 -0.17218815 -0.0023753354 -0.41444576
0.2712478 0.28254896 0.28283435 0.18451375 -0.7142008 0.19093394 0.11909134 0.5966682
-0.13707376 -0.12776142 -0.07156612 0.35102722 -0.09403189 0.38225353 0.20365287 0.2764089
0.072184354 0.24867517 0.036374066 -0.16411637 0.13109164 0.08804138 0.050376687 -0.40258506
-0.14799404 -0.20274523 -0.027727876 -0.13574521 -0.52060294 0.18166955 0.5366477 0.82165366
-0.10676153 -0.019129673 0.34500176 -0.09401738 -0.06950977 0.1477342 0.36517078 0.22163352
0.017398812 -0.1629287 -0.3148909 0.13891862 0.14874843 -0.02794001 -0.09402042 -0.15906064
0.09151219 0.01791388 -0.28480276 0.22178489 0.021846628 -0.08545733 -0.16442049 -0.10489032
-0.17514284 0.12723419 -0.0026324638 -0.8978636 -0.0416791 0.49565294 0.23530026 0.08762714
0.10133284 -0.27198526 0.12567736 -0.3006218 -0.5410833 -0.16806452 0.20920211 0.18205556
0.26857656 -0.09726999 -0.04696885 0.23056774 0.13630258 0.03964448 0.20259064 0.2795411
0.3215718 0.06088373 0.15103847 0.045014136 0.36252218 0.26243168 0.42285138 -0.6398403
0.17095788 0.04217369 -0.041024204 -0.45173296 -0.44493213 0.037048947 0.12522712 -0.30991733
0.1497273 0.33068362 0.03941828 0.001004912 -0.21660855 0.0013895246 -0.4111095 -0.23586391
-0.07777397 -0.033664387 -0.38533258 0.37285018 -0.81823206 -0.218834 0.819112 -0.9323562
-0.32118082 1.292438 -0.5492407 0.36365592 0.96231395 -0.3292839 1.018767 -0.20682593
-0.45955625 0.019736564 0.22576039 -0.23473555 0.43157092 0.10050409 -0.17222711 -0.1896032
-0.29150608 -0.24948671 -0.30562812 -0.0075305873 -0.50457054 -0.46493644 0.19614154 0.41079086
0.10839637 0.38724458 0.2779661 0.13070518 0.35766366 -0.03754454 -0.19399711 -0.529485
0.80719155 0.6333021 -0.1393429 0.2190084 -0.0751529 -0.3310587 -0.07297474 -0.8098953
0.70877385 0.78914905 0.6353634 0.37758148 0.24367164 -0.086720765 -0.09562511 -0.13662179
-0.23542663 -0.33847842 -0.29452172 -0.2630364 -0.10971491 -0.48802617 0.22139806 0.04492983
-0.21301275 -0.116118 0.06735349 0.050459974 0.10716529 0.07532307 -0.052375045 -0.055809774
0.14411074 -0.49369052 -0.18118396 -0.979958 -0.17175774 0.12863877 0.51090246 0.034812152
0.1981832 0.089338094 -0.72185695 0.119155996 -0.33112118 0.09558398 -0.3486003 -0.18028305
0.4068199 0.09360208 0.12033564 0.09383331 0.049780212 -0.13229816 -0.02175903 0.6005309
0.09111744 0.041331787 0.10107985 -0.166565 -0.34922907 -0.47319338 -1.1955633 -0.6291135
0.23544182 0.07033531 -0.043873187 -0.7383397 -0.33724698 0.33943692 0.22824173 -0.025299178
0.18359569 0.1584231 0.26350474 0.052341975 0.17300048 0.21208164 0.7275879 0.3657857
-0.27399436 0.15275237 -1.0792556 0.44755384 -0.48964712 -0.21820319 0.39140907 -0.5659162
0.04498805 -0.46324915 -0.6355188 0.20543161 -0.116011634 0.15832265 0.16379423 -0.06458151
0.033857223 -0.1569803 -0.3245994 -0.14231013 0.2858686 0.20210451 0.28100953 0.24047571

Classfier.0.bias f4 [2]
00000000: 10c4 ebbd 4895 1e3e
-0.11512005 0.15486634
