NCTU4_new/D.pt (torch_old, 969735 bytes, 17 tensors)

main.0.weight f4 [64, 1024, 1, 1]
00000000: a08c 34bd dc08 bbbb 7182 b7bc 534b a9ba
00000010: fd3c bdbb 491c b4bc 37df 3f3c d6d1 0f3d
00000020: a5bf d73c 094e d33c cede 253d efe4 6d3c
00000030: 2d3c 88bc 1777 5dbd 1149 29bc b716 53bb
00000040: 978b d63c 040c 573c 0c16 2f3c 2f8b ac3a
00000050: 3d99 143d 8854 e13b 4e4a ecbc 1c37 ebba
00000060: 7412 8abc 6db9 843c 922f 4a3c 8e91 85bc
00000070: bf39 36bc f418 a33c 61fe 263c 4349 803c
00000080: 8a1c b53b 66a7 ba3c 3149 683c f318 11bc
00000090: df61 bfba fa62 573b e5a6 09bc 5759 913c
000000a0: 51a2 b9bc 5f52 f23b e4cc 1abd e80f 753c
000000b0: 44fd 33bd 4b7b 9abc 3a90 dd3c e3d7 eabb
000000c0: 13c0 f7bc ccd3 95bc 6a3e 543c ffe4 d8bb
000000d0: 25c7 b63c 6c8b 39b9 5a8d 0bbc b8b3 c2ba
000000e0: e401 333c 38a3 0bbd e0f7 68ba 7bf9 c63a
000000f0: 4c50 6cbc 73a5 313d 3ad6 c33c 60f7 433d
00000100: 08df d43c c9be 29bc c682 7e3c f427 27bd
00000110: c254 13bc 2583 d6bc 3842 ddbc 1fb6 013c
00000120: c4d4 8ebb 8a90 09bd 1656 6d3c 15f0 8abc
00000130: 81dd 503c 322d 153c 7fa9 a83c 7d1d fd3b
00000140: 1449 783c 8037 3bbc 173d 3dba 7222 b03c
00000150: 6869 0e3d 94c6 7cbb 7720 2abd e082 bbba
00000160: 44be 0b3c ba0a 82bc 7720 3d3b 5896 033c
00000170: a41b 19bc b4d3 a7bc 2815 5b3c c35c 9c3d
00000180: d866 a6bc 732d 59bc 7f25 2bbc 3a6f 193c
00000190: 4930 61bc a114 30bd 24a1 e53c 727f cfbc
000001a0: c664 d7ba cd8e a0bc 74a3 5dbc 1ad1 28bb
000001b0: 0081 c6bc 54aa 8cbb c32a 7c3c e899 84bc
000001c0: 71f9 1bbc da6a 003d c1f1 df3b 0887 38bc
000001d0: f4f1 28bd c6ac a93c 9d69 8bbd d417 0bbc
000001e0: ba00 abbb f7d0 3a3c ddc1 003a 3b37 d5bb
000001f0: f30f cebc 73f9 70bc ad0e c73b a9a0 5d3c
00000200: 66ff cabc ec0e 9f3c 7c12 2ebc a6d1 613c
00000210: 246b 7a3d 064c b6bc bf4e b33c e4a4 de3b
00000220: cac4 c6b9 3a95 87bc 9a5a f03c 0caf 10bb
00000230: 7d82 903c 4a4a b53c f799 88bc c5c8 313c
00000240: d3d5 473c 54f6 31bc d192 043d fe77 0b3c
00000250: ecd5 00ba d1f0 e4bc 4365 113d ca69 bdbc
00000260: e356 8e3b 760f 453c 2396 6b3c 8345 633c
00000270: fa13 aa3b 6a67 99bc 0cc0 043c 038d 62bc
00000280: 3a4d c6bb f3e1 bd3b 24ae 783a da58 f53b
00000290: 7b3d 913c 1a22 87bb 6927 4e3c 0342 173b
000002a0: fa48 9cbb e9f5 523b 8d1e 7db7 655e d9bb
000002b0: 6535 473c 3424 8b3c c4b5 fe3c 1800 ddbc
000002c0: c8ec 4ebc d38c 6e3c b683 963b 6a0f 4c3b
000002d0: 805a 0cbb bde4 b9bc b32d 8e3c 6db9 5d3c
000002e0: 49a0 e9bc 7311 eebc b458 a13c 9f17 1e3b
000002f0: 07b6 1dbc 0389 893c a17e 533b 861f 4dbc
00000300: 747a 263b c3ad 873c 387d 61bb e541 b7bb
00000310: 7f0b cebb 1a48 67bd 3cb4 583c b880 10bc
00000320: b1c7 da3c a98c 25bd 7391 193d 88fc a5bc
00000330: 3856 95bc 1af3 0cbb f847 7dbb bb43 843c
00000340: 7102 63bb 40a5 3c3d 6dac edbc 3137 3abc
00000350: 0442 2f3d 2a77 983c 84a0 f63c 069c 63bc
00000360: 3824 123b 2c47 7c3b 4f57 78ba 9096 06bc
00000370: ac04 4dbc 5bdd 033d d8a8 0f3d 0e90 a6bc
00000380: 9345 483c 9184 ae3c 3350 d9bc 563a acbc
00000390: 546c 6bbb a343 953c eecc af3c 1717 b0bc
000003a0: b720 91bb 13a9 453c f129 58bc ea6d c93c
000003b0: 44d6 a53c 1fae 99bb e396 83bb cd42 34bb
000003c0: d29b abbb 2615 703c f955 873c 03ee f8bb
000003d0: 9acf b53c bcff 013d f334 9cbb 1c65 95bb
000003e0: ba71 d9bb 4f3e 99bb 1462 5bbc 0bd6 033c
000003f0: f366 a6bc 5329 c9bc 761c 78bc 5ba1 7cbc
-0.044079423 -0.005707843 -0.022401066 -0.0012916125 -0.0057750926 -0.021986144 0.011710933 0.035112225
0.0263365 0.025794046 0.040495686 0.014519914 -0.016630257 -0.05406865 -0.010332362 -0.0032209584
0.026189608 0.013125423 0.010686409 0.0013164039 0.036278952 0.006876532 -0.028844025 -0.0017945501
-0.016854502 0.0162017 0.012340443 -0.016304757 -0.011122166 0.01990936 0.010192485 0.015659934
0.0055270838 0.0227849 0.014177606 -0.008856046 -0.0014601311 0.003286539 -0.008401607 0.017742796
-0.022660406 0.0073950733 -0.037793055 0.014957406 -0.043942705 -0.018857619 0.027046312 -0.007166849
-0.030242955 -0.01828947 0.012954334 -0.0066190953 0.022311756 -0.00017694914 -0.008517588 -0.0014854586
0.010925744 -0.034091204 -0.0008887034 0.0015180552 -0.014423441 0.043370675 0.023905862 0.047843337
0.025985256 -0.010360428 0.0155341085 -0.040809587 -0.008992376 -0.026185581 -0.027009115 0.007916956
-0.0043588597 -0.03358511 0.0144858565 -0.016960183 0.012748123 0.009105014 0.020588635 0.0077244625
0.015154142 -0.011426806 -0.0007218881 0.0215008 0.034768492 -0.003857051 -0.041534867 -0.0014305972
0.00852925 -0.015874255 0.0028858462 0.00803145 -0.009344969 -0.02048669 0.013371743 0.076348804
-0.020312712 -0.013255465 -0.0104459515 0.009364897 -0.013744422 -0.042988423 0.02803094 -0.025329325
-0.0016433231 -0.019599343 -0.01352774 -0.00257594 -0.024231434 -0.0042927656 0.015391055 -0.01618667
-0.009519921 0.0313519 0.0068342392 -0.011262663 -0.04124637 0.020712268 -0.068072535 -0.008489568
-0.0052185925 0.01140236 0.00049117004 -0.006506828 -0.02515409 -0.014707911 0.0060747475 0.013527074
-0.024779987 0.019416295 -0.010624524 0.013782894 0.061137334 -0.022253048 0.021888135 0.006794559
-0.00037912122 -0.016550649 0.029340077 -0.0022076992 0.017640347 0.02213015 -0.016674979 0.01085109
0.012196976 -0.010861952 0.032366578 0.008512495 -0.00049146893 -0.027946861 0.03549696 -0.023121733
0.004343854 0.012027612 0.014379057 0.013871553 0.0051903697 -0.01872607 0.008102428 -0.013827565
-0.0060516866 0.0057947575 0.0009486398 0.0074873986 0.017729511 -0.0041239383 0.012582638 0.0023080118
-0.0047694417 0.003219003 -1.5087088e-05 -0.006633567 0.012158726 0.016985036 0.031092532 -0.026977584
-0.012629695 0.014559942 0.004593338 0.0031137117 -0.0021416247 -0.022692079 0.017355775 0.0135329785
-0.028518813 -0.029061055 0.019695617 0.0024122966 -0.009625918 0.016788965 0.0032271522 -0.012519723
0.0025402578 0.016562348 -0.0034406912 -0.005592572 -0.0062879915 -0.056465246 0.013226565 -0.008819751
0.026706548 -0.040417347 0.037492227 -0.020262018 -0.018229589 -0.0021507205 -0.0038647633 0.016145578
-0.0034638906 0.046056032 -0.029012883 -0.011365698 0.042787567 0.01861151 0.030105837 -0.013892179
0.002229942 0.003849457 -0.0009473459 -0.008214608 -0.012513321 0.032193523 0.03507313 -0.020332363
0.012223619 0.021303447 -0.0265275 -0.02102391 -0.0035922723 0.018220728 0.021460023 -0.021495385
-0.0044289487 0.012064236 -0.013193593 0.024588544 0.020243771 -0.0046899463 -0.00401579 -0.0027505637
-0.005237081 0.01465348 0.016520487 -0.0075967326 0.022193719 0.031738028 -0.004767054 -0.0045591723
-0.0066358717 -0.004676617 -0.013390083 0.008046637 -0.020312762 -0.024555838 -0.015143504 -0.0154193295

main.2.weight f4 [128, 64, 1, 1]
00000000: 317a d4bc cbeb a0bc 5790 a8bc f41e a9bc
00000010: 5144 aa3b c44c 1abc d646 623c eec8 c53b
00000020: acc9 21ba 6cbc b0bb 8c91 0d3c 5d71 d83b
00000030: 1a6a eb3b 8f77 933c 1b42 e1b9 323f c43c
00000040: d680 aabc 6ec4 8abc 3622 ed3c 4aaf 363b
00000050: 5fe6 003c 5fc8 853c d8e4 d8bb e8b3 f33c
00000060: bb8a 6cbb 41ca a73c 2338 86bc 6fc1 b53b
00000070: efd1 ca3b ec4d 74bc 36e8 89bc 7a2e 25bd
00000080: f8b6 9fbb 1f51 cfbc 7c9b 7b3b fa8c 6abc
00000090: 2e3c b43c 3d12 bb3c 5427 dfbc 6c57 a5bb
000000a0: d147 27bc df27 b0bc 3248 d1bc 091a 55ba
000000b0: aa28 8fbc 08cd 91ba 18fa 01bb 9435 6f3c
000000c0: 684e 9f3c 45ea 023d 5333 9f3b d7c4 e1bc
000000d0: 49cd 263d 0f41 6c3c 236a 17bb 8da5 b6bb
000000e0: b717 d5bc 86ce ff3a baf6 bebc cc2b 20bc
000000f0: 77a1 313c 4a42 d8bb afde 933c 9259 fcbb
00000100: 1b65 a4bb ea14 803c 8d66 debc ee68 9ebc
00000110: e3ff 313c ed07 11bd 1d4f c3bc bd98 003d
00000120: 267b b0bc 40cb fe3c 3db9 363b ea28 183d
00000130: 7c46 b4bb 1fe0 b2bb bfb2 333b 01c8 3b3c
00000140: 2ac4 82bb c063 5fbb 7d51 e53c c839 f4bc
00000150: aaf1 a93c 41ba 5b3b d7d0 6d3c 78ec 353a
00000160: f6ec 44bd 0de6 54ba 24ad 97bc 7266 b4bc
00000170: b20e 9f3b 44bf 053c 5d8f ce3b d8dd 25ba
00000180: 9e48 0e3d c411 6cbc c977 e6bb 8d53 9c3b
00000190: 0cbf 14bc 7226 a7bb 637e 88bc ffd3 973c
000001a0: 169a 3739 a57e 0a3c 5757 fd3a 811a bb3b
000001b0: 2e5a bbb8 8b9d 233b 9a34 26bc 7375 f4bc
000001c0: 333c 31bb 26e7 083c 7ded 863a eae1 62b9
000001d0: b67c f13a b1c3 683c 0672 e73c e81c 7e3a
000001e0: 6cff babc ae99 76bc a76d 923c f7c9 403b
000001f0: da0d 693c f7df 0bbc ff4f 17bd a24c 9abc
00000200: d8ba d1ba 43b4 183c 3a14 2fbc 8dc6 63bc
00000210: a3cf 1d3c e480 eb3b c4c5 24ba cf52 bc3c
00000220: c438 913c 65b4 6fbc 9c45 d83c 9403 f33b
00000230: 6034 ce39 eed1 77bb ad52 b73c 4d71 bebc
00000240: 05cc 44bb 6195 d63b 899b 033d 1139 793b
00000250: 12a2 af3a b472 07bd 36d3 d2bc c450 583c
00000260: 4edd 48bc 4c13 303c 3c1c ebbb fac3 abbc
00000270: 72fb 433c 73da c23c 0a8f 03bd ad80 5f3a
00000280: 6a64 c4bc c473 f73c 76c7 713c 81d2 d53b
00000290: fd94 603b df0b e13b 91c9 0b3c 4017 e13b
000002a0: 92de bebc b2fb 79ba b2ec 8a3c 0eee f9bb
000002b0: 2344 ef3a 995d 113b d712 ab3a bbdc 4d3c
000002c0: 4296 a0bb 9b76 ba3b 0960 0ebd b3dd 53bc
000002d0: 133c 2b3d 3cef a4bc 7a7f e6bc 78ab 1c3d
000002e0: e6e5 febb c066 4c3b 5229 50bc d13d c5bc
000002f0: 4331 a73c 8cd2 b4bc 4ca2 b43c b4c8 d7bb
00000300: b98e 04bd 43f5 afbc 7d67 963b dafa 133d
00000310: c825 29bc 5c86 ecbb 58c5 59bb 5aeb ed3a
00000320: 4e95 3bbd d29e c7bb a4b6 9ebb 5be4 32ba
00000330: 573c 9b3c 66f2 203a f2e3 a13a efeb 5739
00000340: 9c61 44bc 4557 7f3c 74b3 693c f479 783b
00000350: eda5 c13c 1ea9 84bc 3157 efbb e04a c33c
00000360: ebc3 17bc 653c e0bc eef9 eebb e8f3 eb3c
00000370: 3867 26bc 93c0 b7bb 7d14 28bc da45 fa3b
00000380: e5e5 5cbc 8caf 0abd b4f5 bfbc 0650 50bc
00000390: 2dbc 4a3c 0a19 ad3b 18b6 78bc 1f89 0a3d
000003a0: 9800 17bc 3d50 83bc 94cc 26bb f982 9a3c
000003b0: 5118 a6bb 12ba dfbb a59d 99bc b16c 973c
000003c0: e5f3 a6bc 0caa 4a3c 1875 8c3b 7a33 ffba
000003d0: cc80 ffbc 6f88 f13c 2045 fe3b 364a 31bd
000003e0: 053b ffbb bc28 d4bc 6cee 483b 771f 5abc
000003f0: fdc9 dfbb 0e2a 7f3b 80b7 733c a40c bebc
-0.025937172 -0.019643685 -0.02057664 -0.020644642 0.005196132 -0.009417716 0.013810834 0.0060359156
-0.0006171714 -0.0053935554 0.008640658 0.006605311 0.007184279 0.018001346 -0.00042964597 0.023955915
-0.020813387 -0.016939368 0.028946977 0.0027875477 0.007867425 0.016330896 -0.006619077 0.029748872
-0.0036093432 0.020482184 -0.01638419 0.0055467407 0.006189577 -0.014911156 -0.01683436 -0.040327527
-0.0048741065 -0.025307236 0.0038392236 -0.014315838 0.022001352 0.022835845 -0.027240433 -0.005045822
-0.010209993 -0.021503387 -0.02554712 -0.0008129185 -0.017475445 -0.0011123726 -0.0019832905 0.014600176
0.019446567 0.031961698 0.0048584132 -0.02755968 0.04072312 0.014419808 -0.0023104034 -0.0055739344
-0.026012285 0.0019516505 -0.023311008 -0.009776067 0.010841719 -0.006599699 0.01805052 -0.0077011073
-0.0050169355 0.015634973 -0.02714851 -0.019337144 0.010864231 -0.03540795 -0.023841435 0.031395663
-0.021543097 0.031102777 0.0027881407 0.037148394 -0.0055015665 -0.005458846 0.0027419773 0.011461259
-0.0039906697 -0.0034086555 0.027992958 -0.029812708 0.020745117 0.0033527764 0.014515123 0.00069398386
-0.048077546 -0.00081214384 -0.018515177 -0.022021506 0.0048540467 0.008163277 0.0063037113 -0.0006327308
0.034737222 -0.0144085325 -0.0070333225 0.004770702 -0.009078752 -0.0051010186 -0.016661828 0.018533705
0.00017509641 0.008453046 0.0019328397 0.0057099466 -8.933652e-05 0.002496573 -0.010144377 -0.02984116
-0.0027043938 0.008355891 0.0010294166 -0.00021637199 0.0018424008 0.014206813 0.028252613 0.00096936384
-0.022826873 -0.0150512885 0.017874552 0.0029417255 0.014224494 -0.008537284 -0.036941525 -0.01883537
-0.0016001118 0.0093203215 -0.010685975 -0.013902319 0.009632024 0.007186996 -0.0006285573 0.022988705
0.017727263 -0.014630412 0.02640038 0.007416198 0.00039330404 -0.0037814337 0.02237829 -0.023247385
-0.0030028832 0.006548569 0.03213075 0.00380284 0.0013399741 -0.033068374 -0.025735479 0.01320285
-0.012259794 0.010746788 -0.0071749967 -0.020967472 0.011961805 0.023785805 -0.032118835 0.0008525949
-0.023973662 0.030206569 0.014757028 0.006525338 0.0034268491 0.00686787 0.008531944 0.0068692267
-0.02329949 -0.0009536102 0.016958568 -0.0076272553 0.0018254559 0.0022181033 0.0013051879 0.012564833
-0.0049007246 0.0056904084 -0.034759555 -0.012931275 0.041805338 -0.020133607 -0.028136957 0.038249463
-0.007778871 0.0031189173 -0.012705164 -0.024077328 0.020409232 -0.022073053 0.022050045 -0.006585205
-0.032362673 -0.021479255 0.0045899735 0.036127903 -0.010323949 -0.0072181653 -0.0033229198 0.0018151805
-0.045796685 -0.006091931 -0.00484355 -0.0006824189 0.01894967 0.0006139636 0.0012351258 0.0002059189
-0.0119861625 0.0155847715 0.014263976 0.0037914487 0.02363869 -0.016193923 -0.007304095 0.023839414
-0.009263019 -0.027372548 -0.0072929775 0.028802827 -0.010156445 -0.0056076734 -0.010258791 0.0076377215
-0.0134825455 -0.03385882 -0.02343259 -0.012714392 0.012373966 0.005282526 -0.015180133 0.033822175
-0.00921645 -0.016029472 -0.0025451528 0.01886128 -0.0050688167 -0.006827601 -0.018751929 0.018484445
-0.02037997 0.012369644 0.0042864196 -0.0019470297 -0.031189345 0.029484002 0.007759705 -0.043283664
-0.007789018 -0.02589833 0.0030659689 -0.013313166 -0.006829499 0.0038934979 0.014875293 -0.023199387

main.3.weight f4 [128]
00000000: fd40 803f 5ef4 7b3f 871c 7c3f e16c 803f
00000010: a67f 7e3f acae 7d3f 26f1 833f d089 813f
00000020: 4779 823f 7f70 823f 4fba 813f 07a1 823f
00000030: 5f10 813f 0fda 7c3f fe77 803f e863 783f
00000040: dc4b 813f 1b3f 7e3f 2ddb 823f d7ed 7c3f
00000050: ff50 843f f4f7 833f 7461 793f 8563 7d3f
00000060: 4f4f 803f 52bc 793f 7c1f 873f ccd4 763f
00000070: 8f47 843f 89d6 7a3f d79d 803f a451 803f
00000080: a123 793f b0bb 753f fb2c 803f 0ed8 823f
00000090: 8e12 7d3f 2d91 843f 4693 803f 233d 853f
000000a0: a487 7c3f 138e 823f e001 803f f238 723f
000000b0: 5a60 823f be7d 753f 1016 7d3f 662e 803f
000000c0: 5dee 7c3f 2c01 833f 2958 803f 8dae 773f
000000d0: c462 803f bd30 803f 15a6 813f a409 853f
000000e0: 5593 793f 7c21 853f 725a 813f 1078 7f3f
000000f0: dd5a 823f ce2c 7a3f c64d 793f 3c30 7f3f
00000100: 7475 863f 5e68 7f3f 2e69 7a3f 2df1 7b3f
00000110: 31b2 7a3f 7fc7 7e3f cac1 823f 9851 7f3f
00000120: 6a8e 793f fada 773f 0705 853f 9e20 813f
00000130: d4a1 833f 02ed 833f a41f 833f 3b5a 743f
00000140: ef30 7b3f e2b5 7d3f 815b 823f 896c 783f
00000150: 4cec 783f b4b7 7c3f 4015 7b3f 0084 7e3f
00000160: 1f5a 7e3f c939 793f 2858 843f b527 813f
00000170: 34df 7e3f 3a6c 773f d1cf 793f a20e 863f
00000180: 30c1 833f 7d8a 7f3f 4f81 7b3f cce0 813f
00000190: 7d1c 813f 17c7 823f 2cd8 7e3f 05f2 853f
000001a0: 6852 843f db43 7e3f 0540 833f ff59 843f
000001b0: f03e 7c3f a40d 7a3f 6e02 823f a59f 7d3f
000001c0: e957 823f 54a4 833f f1a8 753f cacc 803f
000001d0: 29a3 7f3f 6c4c 7d3f d2f6 773f b766 7c3f
000001e0: 3ac6 803f d0a5 7a3f 9af0 823f f2f0 823f
000001f0: 4c6e 7d3f 7eb1 7f3f 3fed 7a3f 9e06 7b3f
1.0019833 0.9841975 0.9848103 1.0033227 0.99413526 0.99094653 1.0307968 1.0120182
1.0193261 1.0190581 1.0134982 1.0205392 1.0083121 0.9877023 1.0036619 0.97027445
1.0101275 0.9931504 1.0223137 0.98800415 1.0337218 1.0310044 0.97414327 0.9897998
1.0024203 0.9755298 1.0556483 0.9641845 1.0334338 0.97983605 1.0048169 1.0024915
0.9731999 0.95989513 1.0013727 1.0222185 0.9885644 1.0356804 1.0044944 1.0409282
0.9864447 1.0199608 1.0000572 0.9461814 1.0185654 0.9589499 0.9886179 1.001416
0.98801214 1.0234733 1.0026904 0.9675072 1.0030141 1.0014874 1.0128809 1.0393567
0.97490436 1.0400844 1.0105727 0.99792576 1.0183979 0.97724617 0.973843 0.99682975
1.0504594 0.99768627 0.9781674 0.9841488 0.9792815 0.99523157 1.021539 0.9973388
0.9748293 0.96818507 1.0392159 1.0088079 1.0283761 1.0306704 1.0244031 0.9545018
0.9812154 0.99105656 1.0184175 0.9704061 0.9723556 0.9871781 0.980793 0.99420166
0.99356264 0.973538 1.0339403 1.0090243 0.9955933 0.96649516 0.9758273 1.0473216
1.0293331 0.9982069 0.98244184 1.0146728 1.0086819 1.0217007 0.995486 1.0464483
1.0337648 0.9932229 1.0253912 1.0339965 0.98533535 0.97677064 1.0156991 0.99071723
1.0183078 1.0284524 0.9596091 1.0062497 0.9985834 0.98944736 0.9686099 0.9859423
1.0060494 0.9790926 1.0229676 1.0229781 0.98996425 0.99880207 0.9801826 0.9805697

main.3.bias f4 [128]
00000000: 0000 0000 0000 0000 0000 0000 0000 0000
00000010: 0000 0000 0000 0000 0000 0000 0000 0000
00000020: 0000 0000 0000 0000 0000 0000 0000 0000
00000030: 0000 0000 0000 0000 0000 0000 0000 0000
00000040: 0000 0000 0000 0000 0000 0000 0000 0000
00000050: 0000 0000 0000 0000 0000 0000 0000 0000
00000060: 0000 0000 0000 0000 0000 0000 0000 0000
00000070: 0000 0000 0000 0000 0000 0000 0000 0000
00000080: 0000 0000 0000 0000 0000 0000 0000 0000
00000090: 0000 0000 0000 0000 0000 0000 0000 0000
000000a0: 0000 0000 0000 0000 0000 0000 0000 0000
000000b0: 0000 0000 0000 0000 0000 0000 0000 0000
000000c0: 0000 0000 0000 0000 0000 0000 0000 0000
000000d0: 0000 0000 0000 0000 0000 0000 0000 0000
000000e0: 0000 0000 0000 0000 0000 0000 0000 0000
000000f0: 0000 0000 0000 0000 0000 0000 0000 0000
00000100: 0000 0000 0000 0000 0000 0000 0000 0000
00000110: 0000 0000 0000 0000 0000 0000 0000 0000
00000120: 0000 0000 0000 0000 0000 0000 0000 0000
00000130: 0000 0000 0000 0000 0000 0000 0000 0000
00000140: 0000 0000 0000 0000 0000 0000 0000 0000
00000150: 0000 0000 0000 0000 0000 0000 0000 0000
00000160: 0000 0000 0000 0000 0000 0000 0000 0000
00000170: 0000 0000 0000 0000 0000 0000 0000 0000
00000180: 0000 0000 0000 0000 0000 0000 0000 0000
00000190: 0000 0000 0000 0000 0000 0000 0000 0000
000001a0: 0000 0000 0000 0000 0000 0000 0000 0000
000001b0: 0000 0000 0000 0000 0000 0000 0000 0000
000001c0: 0000 0000 0000 0000 0000 0000 0000 0000
000001d0: 0000 0000 0000 0000 0000 0000 0000 0000
000001e0: 0000 0000 0000 0000 0000 0000 0000 0000
000001f0: 0000 0000 0000 0000 0000 0000 0000 0000
0.0 0.0 0.0 0.0 0.0 0.0 0.0 0.0
0.0 0.0 0.0 0.0 0.0 0.0 0.0 0.0
0.0 0.0 0.0 0.0 0.0 0.0 0.0 0.0
0.0 0.0 0.0 0.0 0.0 0.0 0.0 0.0
0.0 0.0 0.0 0.0 0.0 0.0 0.0 0.0
0.0 0.0 0.0 0.0 0.0 0.0 0.0 0.0
0.0 0.0 0.0 0.0 0.0 0.0 0.0 0.0
0.0 0.0 0.0 0.0 0.0 0.0 0.0 0.0
0.0 0.0 0.0 0.0 0.0 0.0 0.0 0.0
0.0 0.0 0.0 0.0 0.0 0.0 0.0 0.0
0.0 0.0 0.0 0.0 0.0 0.0 0.0 0.0
0.0 0.0 0.0 0.0 0.0 0.0 0.0 0.0
0.0 0.0 0.0 0.0 0.0 0.0 0.0 0.0
0.0 0.0 0.0 0.0 0.0 0.0 0.0 0.0
0.0 0.0 0.0 0.0 0.0 0.0 0.0 0.0
0.0 0.0 0.0 0.0 0.0 0.0 0.0 0.0

main.3.running_mean f4 [128]
00000000: 0000 0000 0000 0000 0000 0000 0000 0000
00000010: 0000 0000 0000 0000 0000 0000 0000 0000
00000020: 0000 0000 0000 0000 0000 0000 0000 0000
00000030: 0000 0000 0000 0000 0000 0000 0000 0000
00000040: 0000 0000 0000 0000 0000 0000 0000 0000
00000050: 0000 0000 0000 0000 0000 0000 0000 0000
00000060: 0000 0000 0000 0000 0000 0000 0000 0000
00000070: 0000 0000 0000 0000 0000 0000 0000 0000
00000080: 0000 0000 0000 0000 0000 0000 0000 0000
00000090: 0000 0000 0000 0000 0000 0000 0000 0000
000000a0: 0000 0000 0000 0000 0000 0000 0000 0000
000000b0: 0000 0000 0000 0000 0000 0000 0000 0000
000000c0: 0000 0000 0000 0000 0000 0000 0000 0000
000000d0: 0000 0000 0000 0000 0000 0000 0000 0000
000000e0: 0000 0000 0000 0000 0000 0000 0000 0000
000000f0: 0000 0000 0000 0000 0000 0000 0000 0000
00000100: 0000 0000 0000 0000 0000 0000 0000 0000
00000110: 0000 0000 0000 0000 0000 0000 0000 0000
00000120: 0000 0000 0000 0000 0000 0000 0000 0000
00000130: 0000 0000 0000 0000 0000 0000 0000 0000
00000140: 0000 0000 0000 0000 0000 0000 0000 0000
00000150: 0000 0000 0000 0000 0000 0000 0000 0000
00000160: 0000 0000 0000 0000 0000 0000 0000 0000
00000170: 0000 0000 0000 0000 0000 0000 0000 0000
00000180: 0000 0000 0000 0000 0000 0000 0000 0000
00000190: 0000 0000 0000 0000 0000 0000 0000 0000
000001a0: 0000 0000 0000 0000 0000 0000 0000 0000
000001b0: 0000 0000 0000 0000 0000 0000 0000 0000
000001c0: 0000 0000 0000 0000 0000 0000 0000 0000
000001d0: 0000 0000 0000 0000 0000 0000 0000 0000
000001e0: 0000 0000 0000 0000 0000 0000 0000 0000
000001f0: 0000 0000 0000 0000 0000 0000 0000 0000
0.0 0.0 0.0 0.0 0.0 0.0 0.0 0.0
0.0 0.0 0.0 0.0 0.0 0.0 0.0 0.0
0.0 0.0 0.0 0.0 0.0 0.0 0.0 0.0
0.0 0.0 0.0 0.0 0.0 0.0 0.0 0.0
0.0 0.0 0.0 0.0 0.0 0.0 0.0 0.0
0.0 0.0 0.0 0.0 0.0 0.0 0.0 0.0
0.0 0.0 0.0 0.0 0.0 0.0 0.0 0.0
0.0 0.0 0.0 0.0 0.0 0.0 0.0 0.0
0.0 0.0 0.0 0.0 0.0 0.0 0.0 0.0
0.0 0.0 0.0 0.0 0.0 0.0 0.0 0.0
0.0 0.0 0.0 0.0 0.0 0.0 0.0 0.0
0.0 0.0 0.0 0.0 0.0 0.0 0.0 0.0
0.0 0.0 0.0 0.0 0.0 0.0 0.0 0.0
0.0 0.0 0.0 0.0 0.0 0.0 0.0 0.0
0.0 0.0 0.0 0.0 0.0 0.0 0.0 0.0
0.0 0.0 0.0 0.0 0.0 0.0 0.0 0.0

main.3.running_var f4 [128]
00000000: 0400 0000 0400 0000 0400 0000 0400 0000
00000010: 0400 0000 0400 0000 0400 0000 0400 0000
00000020: 0400 0000 0400 0000 0400 0000 0400 0000
00000030: 0400 0000 0400 0000 0400 0000 0400 0000
00000040: 0400 0000 0400 0000 0400 0000 0400 0000
00000050: 0400 0000 0400 0000 0400 0000 0400 0000
00000060: 0400 0000 0400 0000 0400 0000 0400 0000
00000070: 0400 0000 0400 0000 0400 0000 0400 0000
00000080: 0400 0000 0400 0000 0400 0000 0400 0000
00000090: 0400 0000 0400 0000 0400 0000 0400 0000
000000a0: 0400 0000 0400 0000 0400 0000 0400 0000
000000b0: 0400 0000 0400 0000 0400 0000 0400 0000
000000c0: 0400 0000 0400 0000 0400 0000 0400 0000
000000d0: 0400 0000 0400 0000 0400 0000 0400 0000
000000e0: 0400 0000 0400 0000 0400 0000 0400 0000
000000f0: 0400 0000 0400 0000 0400 0000 0400 0000
00000100: 0400 0000 0400 0000 0400 0000 0400 0000
00000110: 0400 0000 0400 0000 0400 0000 0400 0000
00000120: 0400 0000 0400 0000 0400 0000 0400 0000
00000130: 0400 0000 0400 0000 0400 0000 0400 0000
00000140: 0400 0000 0400 0000 0400 0000 0400 0000
00000150: 0400 0000 0400 0000 0400 0000 0400 0000
00000160: 0400 0000 0400 0000 0400 0000 0400 0000
00000170: 0400 0000 0400 0000 0400 0000 0400 0000
00000180: 0400 0000 0400 0000 0400 0000 0400 0000
00000190: 0400 0000 0400 0000 0400 0000 0400 0000
000001a0: 0400 0000 0400 0000 0400 0000 0400 0000
000001b0: 0400 0000 0400 0000 0400 0000 0400 0000
000001c0: 0400 0000 0400 0000 0400 0000 0400 0000
000001d0: 0400 0000 0400 0000 0400 0000 0400 0000
000001e0: 0400 0000 0400 0000 0400 0000 0400 0000
000001f0: 0400 0000 0400 0000 0400 0000 0400 0000
6e-45 6e-45 6e-45 6e-45 6e-45 6e-45 6e-45 6e-45
6e-45 6e-45 6e-45 6e-45 6e-45 6e-45 6e-45 6e-45
6e-45 6e-45 6e-45 6e-45 6e-45 6e-45 6e-45 6e-45
6e-45 6e-45 6e-45 6e-45 6e-45 6e-45 6e-45 6e-45
6e-45 6e-45 6e-45 6e-45 6e-45 6e-45 6e-45 6e-45
6e-45 6e-45 6e-45 6e-45 6e-45 6e-45 6e-45 6e-45
6e-45 6e-45 6e-45 6e-45 6e-45 6e-45 6e-45 6e-45
6e-45 6e-45 6e-45 6e-45 6e-45 6e-45 6e-45 6e-45
6e-45 6e-45 6e-45 6e-45 6e-45 6e-45 6e-45 6e-45
6e-45 6e-45 6e-45 6e-45 6e-45 6e-45 6e-45 6e-45
6e-45 6e-45 6e-45 6e-45 6e-45 6e-45 6e-45 6e-45
6e-45 6e-45 6e-45 6e-45 6e-45 6e-45 6e-45 6e-45
6e-45 6e-45 6e-45 6e-45 6e-45 6e-45 6e-45 6e-45
6e-45 6e-45 6e-45 6e-45 6e-45 6e-45 6e-45 6e-45
6e-45 6e-45 6e-45 6e-45 6e-45 6e-45 6e-45 6e-45
6e-45 6e-45 6e-45 6e-45 6e-45 6e-45 6e-45 6e-45

main.4.weight f4 [256, 128, 1, 1]
00000000: f831 afbb 45ea abbc 4eb8 713c 6cee cb3c
00000010: 7ba4 98bb 7fc5 8dbb c11e a8bc 632f 85bc
00000020: 71b8 823b d38f 433c 56bb 663c 8215 1db9
00000030: 517e 6e3b 3dd0 563c 9a1e 3b3c 6021 3abc
00000040: 86cf d93c 6ff0 04bc ebf6 1e3c 386a a0bc
00000050: 6ffa 59bd 3270 e0bc 34b3 6cbc 6cdd 54bc
00000060: 810e 95bc 84b9 aabc 9211 d0bc 9ab5 09bd
00000070: 6db8 92bc 2f56 efbb 677a 933b e37f 843b
00000080: bf99 173d fb6f 863c 580f 48bc 4f84 1f3d
00000090: 6c61 a73a e473 25bc 3e8f 0c3b b473 e6bb
000000a0: f2f4 2fba bdb4 e53b 141a 57bc 511c 08bc
000000b0: ae90 30bc 68db 193d 13db a33c 831b 2c3c
000000c0: f76d cc3c 3256 2a3c bbcd 76ba 14b7 c3bc
000000d0: 6f1c 083c f28d 6739 0c07 d33c ca07 d03c
000000e0: 9616 873c ccc9 903c 9792 213d 39ca 88bc
000000f0: 5bce 5f3c b4ec 293d 4d96 debc 8976 8fbc
00000100: 4e7a a23c 52d1 9bbc bc67 e1bc 3cb0 1ebd
00000110: adee 8dbc a0ef 883b ff56 b7bb d380 093c
00000120: 11e3 36ba 9135 8abb f91f 91bc 98e7 283d
00000130: 11a5 b2b8 2f0e b1bc 4c80 aebc f300 b03c
00000140: c8b5 1ebd 91a4 213c 6f3e 9a39 0119 6a3d
00000150: 73d3 5ebc 4199 213d a3a7 8eba 9cad 12bb
00000160: f0dd 943c e935 24bc 33be 453b 1d17 32bc
00000170: 94e2 b63b 0993 8abc 01bc bb3c 012f adbc
00000180: 5667 a0bc 3d8c 97bb 6f38 e9ba 3109 1ebc
00000190: ef81 c4bc dcfe d7bc bd5a 4ebd 21d2 c53b
000001a0: 2cbc 3ebb 90a5 053a 12bd 0dbc 4072 d0bc
000001b0: b2cb 203c 322c c73b 568a 293c 0c1c 9cbc
000001c0: 8af0 913b 277d 1c3c 4d9f e43c ee1f 56bc
000001d0: d252 113d d286 033d 0c2a 0f3c a840 983c
000001e0: 07a9 1c3b 2f80 183d 19f0 1fba 8f1f 55bc
000001f0: 6a0b 4e3a 7a38 ee3b 76cd 5cbc dc3a 053c
00000200: 4e82 b3bc 5c02 9d3b 0d7f 81bd afe9 7abc
00000210: bdd8 0c3c 5d4b 8b3c 517f 3ebd b1c5 b23c
00000220: 0eb2 2e3c 7f70 94bc 510c b43b ad04 d3bc
00000230: 1d97 e8b9 e99f 6e3d 469e b5bc 01a0 1d3c
00000240: 7233 e13b 0708 1abc 54b6 853c 2f6d 4dbd
00000250: 52a1 29bc 9244 4e3c 40a1 bfbb 6785 883c
00000260: 36aa 073b 124f 2abc 5a1c 7dbb 9c4f 3c3d
00000270: 01c6 9a3c 032d 2b3c f1f2 aebb d173 da3b
00000280: b313 7bbc 9c7c 313c 1ca4 153b 48cb 8ebb
00000290: d8f4 2e3c bce3 193d 5539 18bc 97a5 79bc
000002a0: c574 b6bc fd86 81bc a500 193c cdf4 4139
000002b0: 96ba 7c3c efea 51bc 3728 6dbb d9e6 023d
000002c0: 51a3 90bb 21cb 8e3c e8f8 97bc a34c e8ba
000002d0: 1a8a 853c 09d4 633c 135d c83b 883c 993c
000002e0: 8a3b 2c3b 29e3 d9bb 3661 52bb ae1b 5abc
000002f0: b256 ecb9 b4ea 1d3d 3811 ca3b 8925 d83a
00000300: aaac c83c 4ef3 803c 4470 9db8 a61c 5a39
00000310: 838c 453c 29f8 b4bc e1cd 42bc acda 183c
00000320: bac6 c63b 7b62 61bc 63f3 893c 41b5 bebc
00000330: ee61 613c 0a8f 033d 9b93 8d3c 0040 293c
00000340: 208d 2f3c 0631 ba3c fc30 1cbb 6448 3d3c
00000350: 1deb 2a3d 277d 8e3b 4587 b6bb bd93 e63c
00000360: 8997 ecbb 5bd9 ae3c 8d63 20bc 203a a0bc
00000370: 730b 9e3c ca9b 343c b42f 5c3b 8e6f bd3b
00000380: 0a5a cfbc 8423 2cbc 4eec 88bb f214 b0bc
00000390: 7116 a8bc fd1c 5e3c e9db 393d 6ce8 b93b
000003a0: e8cb ca39 b1fb 9cbc c066 b13c bb9d a1bc
000003b0: a8da af3c 546d 23bc 5c56 153d 923b dabc
000003c0: d28b 36bd ac37 5b3b f652 eb3c f2e9 e43c
000003d0: e559 c4b8 474c 073d 4f9d b93b d27d 31bd
000003e0: 0ac3 07bd 2fcd 1c3d c302 1dbc 4885 57bd
000003f0: 4ecb 393c 730b a33b 4513 a9bb 1cd9 353c
-0.005346533 -0.020985732 0.014753414 0.024893962 -0.0046582795 -0.004326522 -0.020522477 -0.016257947
0.0039892723 0.011936146 0.01408275 -0.00014980699 0.0036391208 0.013111171 0.01142087 -0.011360496
0.026588213 -0.008113964 0.0097024245 -0.019581899 -0.053217348 -0.027397249 -0.014447022 -0.012992244
-0.018195393 -0.020840414 -0.025399003 -0.033620454 -0.017910207 -0.007303975 0.0045006755 0.0040435656
0.037011858 0.016410818 -0.0122106895 0.03894454 0.0012770123 -0.010098431 0.0021447684 -0.007032836
-0.000671222 0.007010071 -0.013128776 -0.008307532 -0.010776682 0.037562758 0.020001924 0.010504606
0.02495478 0.010396527 -0.00094148115 -0.02389101 0.00830756 0.00022082755 0.025760196 0.02539434
0.016490262 0.01767435 0.03944644 -0.01669799 0.013660039 0.041485503 -0.027171278 -0.017512577
0.01983371 -0.01902071 -0.027515285 -0.03874229 -0.017325724 0.004178956 -0.0055950875 0.0083925305
-0.00069765846 -0.0042178114 -0.017715441 0.04123649 -8.5184474e-05 -0.021613209 -0.021301411 0.021484828
-0.03874758 0.009865896 0.00029419686 0.05715275 -0.013600218 0.039452795 -0.00108837 -0.0022381311
0.018172234 -0.010022619 0.0030173182 -0.010869768 0.0055812094 -0.016915815 0.022916796 -0.021140577
-0.019580524 -0.004624872 -0.0017793308 -0.009645746 -0.023987738 -0.026366644 -0.050379504 0.006037012
-0.0029103858 0.0005098218 -0.008651035 -0.025445104 0.00981419 0.0060782665 0.010347923 -0.019056343
0.0044537233 0.009551323 0.027907992 -0.013069136 0.035479374 0.032110997 0.008738052 0.018585518
0.002390446 0.03723162 -0.0006101146 -0.013008012 0.0007859977 0.007269916 -0.01347672 0.008131709
-0.02191272 0.004791541 -0.06323061 -0.015314504 0.008596596 0.01700371 -0.046508137 0.021822782
0.010662569 -0.018120049 0.0054946323 -0.025759066 -0.00044363076 0.05825797 -0.022170197 0.009620667
0.006872588 -0.009401328 0.016322292 -0.050152954 -0.010353403 0.012589591 -0.00584808 0.016665174
0.002070082 -0.010394828 -0.0038621635 0.04597436 0.018893244 0.010447743 -0.0053390195 0.0066666384
-0.015324521 0.010832932 0.0022833413 -0.004357729 0.0106784925 0.0375707 -0.009291013 -0.015237234
-0.022272477 -0.015811438 0.009338533 0.0001849711 0.015425345 -0.01281236 -0.00361873 0.031958435
-0.004414 0.017430844 -0.018551305 -0.0017723035 0.016301204 0.013905534 0.006114611 0.018705621
0.0026280605 -0.006649394 -0.00321014 -0.013312263 -0.0004507802 0.03855391 0.0061666034 0.0016490679
0.024496395 0.015741017 -7.5072545e-05 0.00020800772 0.012057426 -0.022090988 -0.011889906 0.009329479
0.0060661705 -0.01375639 0.016839689 -0.023279788 0.013756258 0.032118835 0.017282298 0.0103302
0.010714799 0.022728454 -0.0023832908 0.011552904 0.041728128 0.0043484154 -0.0055703246 0.028146619
-0.007220213 0.021343878 -0.00978936 -0.019558966 0.019292569 0.011023471 0.003359777 0.0057811206
-0.025311489 -0.010506514 -0.0041785603 -0.021494363 -0.020518513 0.013556716 0.04537574 0.005673459
0.00038680364 -0.019162985 0.02165544 -0.019728532 0.021466568 -0.009974796 0.03645931 -0.026639733
-0.044566937 0.003344993 0.028726082 0.027943585 -9.3627525e-05 0.033031728 0.0056645046 -0.043332882
-0.033144988 0.038281616 -0.009583178 -0.05261734 0.0113399755 0.00497573 -0.005159768 0.011099126

main.5.weight f4 [256]
00000000: bc36 803f 36df 7e3f 8471 803f 08f8 803f
00000010: 43c1 793f 9ec0 7b3f 944e 843f 5dd6 813f
00000020: 9c0c 7a3f 9f98 7a3f 46e9 833f 6cc7 863f
00000030: 0ee6 803f a882 803f b15d 773f fe67 7d3f
00000040: 888e 7c3f 95de 763f b272 7b3f 4741 7c3f
00000050: d58d 7b3f 3fac 793f de27 813f 1040 7c3f
00000060: 8387 803f 343d 803f bf93 813f ac5a 743f
00000070: 46b2 763f 84e9 7b3f 892a 823f 7db9 803f
00000080: 3412 7b3f a4ee 823f d950 7a3f 8224 743f
00000090: bef0 813f bf61 7f3f 95f9 833f d642 7d3f
000000a0: 3f94 843f a7f5 7d3f 8d34 7d3f 08ac 713f
000000b0: 450a 823f 0a0e 823f 8c85 803f e157 823f
000000c0: 7c4c 7d3f 9233 803f 65a2 783f 9dbc 7b3f
000000d0: eb18 823f d15e 823f d2f4 793f 3663 7a3f
000000e0: 2319 823f 4861 793f 7f0c 833f 5709 813f
000000f0: ba8f 813f 0d21 793f ba40 803f a2f7 7b3f
00000100: c5ac 803f 7fc7 7e3f 27cb 803f 2e87 7f3f
00000110: 5326 803f 2ec3 813f eebd 7f3f 899f 7f3f
00000120: 51fc 833f e12e 7f3f 073b 7a3f 10e1 7c3f
00000130: c64a 813f 15ec 773f c71b 7a3f 10bf 813f
00000140: 51dc 833f eeb2 7f3f 2403 793f 0258 7e3f
00000150: e384 823f 457a 7b3f a7a3 7e3f 1548 833f
00000160: 3ba6 833f bf41 823f 2a48 7f3f 632d 813f
00000170: 5d27 7f3f a776 763f 7b7f 813f c054 803f
00000180: 1947 7c3f 1a60 813f 955c 803f 15d9 813f
00000190: 74d4 843f f058 803f 4095 803f 8d2f 7c3f
000001a0: 8609 823f 025c 803f bc93 793f 6b13 7d3f
000001b0: ac55 813f 9d6e 7e3f 44c1 843f 6050 7d3f
000001c0: ac3e 753f d83e 813f f03e 803f a62d 7c3f
000001d0: f4df 823f a8ad 823f 1af2 7a3f bc97 803f
000001e0: 0b5d 823f b82d 733f 01a0 7c3f 0d32 7f3f
000001f0: c35b 803f d81a 823f 75ec 7f3f 1726 823f
00000200: a814 833f c870 773f 84fd 813f 6baa 813f
00000210: d960 843f 7bc2 813f ca70 803f d403 813f
00000220: 7e78 7d3f c973 7b3f 78c8 823f 3077 803f
00000230: 09ab 803f 8758 833f 2d79 823f 728d 753f
00000240: dc22 7d3f 6175 753f aee9 823f a6b2 773f
00000250: f30a 813f 6cb8 813f b4b5 843f daf5 7a3f
00000260: a86e 833f d945 843f 4148 823f 9933 823f
00000270: 3074 813f 36cc 833f fe6e 803f adc2 713f
00000280: ee85 813f 5183 7d3f 631c 7f3f e7f6 823f
00000290: 0fbd 833f 3246 7a3f 82e7 803f e63a 823f
000002a0: b861 7b3f a0b0 803f 77fb 813f b02c 7a3f
000002b0: aa5b 783f 2512 843f 7f3d 833f af11 803f
000002c0: 5470 813f 1c3e 773f 3db3 803f 516b 7f3f
000002d0: 3f20 833f b1c9 813f 5046 833f 6b4a 793f
000002e0: 2189 813f a79d 803f 4d93 773f 5b47 803f
000002f0: 3210 7e3f f816 7e3f fe87 813f d66a 823f
00000300: 6fc3 7e3f ab42 7d3f 8c93 813f 6ac9 843f
00000310: 8d03 793f df20 813f e32a 833f 7bde 823f
00000320: 7dac 843f fb03 7f3f a9e3 7f3f e4b7 7f3f
00000330: c241 823f ddd1 7f3f 1217 813f ebd8 803f
00000340: 370e 793f ca5f 7c3f 94a6 7f3f e2e7 7d3f
00000350: 89b6 813f 2346 7b3f 6c10 7e3f 29a0 7a3f
00000360: 02da 833f 0af4 793f 38bf 803f 5736 7d3f
00000370: 6f6f 823f eb45 833f ef7e 813f 3fdf 7c3f
00000380: 6045 793f c887 7d3f 907b 863f c0a2 823f
00000390: a0ed 7b3f 48e0 833f f00b 7a3f b36d 823f
000003a0: 7c5c 823f f489 803f 2400 813f b155 813f
000003b0: e650 813f edb7 7f3f b16a 803f 246b 823f
000003c0: b3db 813f f685 853f a69f 833f c49f 7d3f
000003d0: 2e7e 813f e047 823f fc50 833f 7ae2 813f
000003e0: e48a 803f 384c 7a3f fd33 803f a9f1 7f3f
000003f0: 6d03 7b3f 3d52 803f f54a 7c3f f09f 7a3f
1.0016704 0.9955934 1.0034642 1.0075693 0.9756052 0.98340786 1.033648 1.0143543
0.9767549 0.9788913 1.0305564 1.0529609 1.0070207 1.0039873 0.96627337 0.98986804
0.98654985 0.96433383 0.98221886 0.98537105 0.98263294 0.9752845 1.0090292 0.9853525
1.0041355 1.0018678 1.0123214 0.95450854 0.96365774 0.9840319 1.0169231 1.0056607
0.9807465 1.0229077 0.97779614 0.95368207 1.0151594 0.99758524 1.0310541 0.9893011
1.0357741 0.9920296 0.9890831 0.94403124 1.0159384 1.0160534 1.0040755 1.0183069
0.9894483 1.0015738 0.97122794 0.98334676 1.0163854 1.0185186 0.9763919 0.97807634
1.0163921 0.97414064 1.0238189 1.0080975 1.0121987 0.97316056 1.0019753 0.9842473
1.0052725 0.99523157 1.0061997 0.9981564 1.0011696 1.0137689 0.99899185 0.99852806
1.0311376 0.99680907 0.9774632 0.9878092 1.0100944 0.9684461 0.97698635 1.0136433
1.030161 0.998824 0.9727042 0.9935304 1.0196804 0.98233443 0.99468464 1.0256373
1.0285105 1.0176314 0.9971949 1.0091976 0.9966944 0.962748 1.0117029 1.0025864
0.98545986 1.0107453 1.0028254 1.0144373 1.0377336 1.0027142 1.0045547 0.98510057
1.0159156 1.0028079 0.9749105 0.98857754 1.010427 0.9938753 1.037148 0.9895077
0.95798755 1.0097303 1.0019207 0.98507154 1.0224595 1.0209246 0.9802567 1.0046306
1.0184644 0.94991636 0.98681647 0.99685746 1.0028003 1.0164442 0.9997018 1.0167874
1.0240679 0.96656466 1.0155492 1.0130132 1.0342056 1.0137476 1.003442 1.0079293
0.9901198 0.9822355 1.0217428 1.0036373 1.0052196 1.0261391 1.019323 0.95918953
0.98881316 0.9588223 1.0227563 0.9675697 1.0081466 1.0134406 1.0367951 0.9803139
1.0268145 1.0333816 1.01783 1.0171996 1.0113583 1.0296695 1.0033872 0.94437677
1.0118997 0.990285 0.9965269 1.0231599 1.0292071 0.9776336 1.007065 1.0174224
0.9819598 1.0053902 1.0154866 0.9772444 0.9701487 1.0318037 1.0253142 1.0005397
1.0112405 0.96579146 1.0054699 0.99773127 1.0244216 1.0139676 1.0255833 0.9737918
1.0119973 1.0048112 0.9670914 1.0021776 0.9924346 0.992538 1.0119627 1.0188854
0.9951696 0.9892985 1.0123153 1.0373967 0.97271043 1.0088156 1.0247463 1.0224146
1.0365139 0.9961545 0.99956757 0.9988997 1.0176318 0.999296 1.0085166 1.0066198
0.97287315 0.9858366 0.99863553 0.9918195 1.013383 0.98153895 0.9924381 0.97900635
1.0300906 0.97638 1.0058355 0.9891104 1.0190257 1.0255712 1.0116862 0.98778147
0.9737148 0.9903531 1.0506458 1.0205917 0.9840946 1.030282 0.97674465 1.0189728
1.0184474 1.00421 1.0078168 1.0104276 1.0102813 0.99890023 1.003256 1.0188947
1.0145172 1.0431507 1.0283096 0.9907191 1.0116632 1.0178185 1.025909 1.014724
1.0042386 0.9777255 1.0015866 0.9997812 0.980521 1.0025097 0.98551875 0.97900295

main.5.bias f4 [256]
00000000: 0000 0000 0000 0000 0000 0000 0000 0000
00000010: 0000 0000 0000 0000 0000 0000 0000 0000
00000020: 0000 0000 0000 0000 0000 0000 0000 0000
00000030: 0000 0000 0000 0000 0000 0000 0000 0000
00000040: 0000 0000 0000 0000 0000 0000 0000 0000
00000050: 0000 0000 0000 0000 0000 0000 0000 0000
00000060: 0000 0000 0000 0000 0000 0000 0000 0000
00000070: 0000 0000 0000 0000 0000 0000 0000 0000
00000080: 0000 0000 0000 0000 0000 0000 0000 0000
00000090: 0000 0000 0000 0000 0000 0000 0000 0000
000000a0: 0000 0000 0000 0000 0000 0000 0000 0000
000000b0: 0000 0000 0000 0000 0000 0000 0000 0000
000000c0: 0000 0000 0000 0000 0000 0000 0000 0000
000000d0: 0000 0000 0000 0000 0000 0000 0000 0000
000000e0: 0000 0000 0000 0000 0000 0000 0000 0000
000000f0: 0000 0000 0000 0000 0000 0000 0000 0000
00000100: 0000 0000 0000 0000 0000 0000 0000 0000
00000110: 0000 0000 0000 0000 0000 0000 0000 0000
00000120: 0000 0000 0000 0000 0000 0000 0000 0000
00000130: 0000 0000 0000 0000 0000 0000 0000 0000
00000140: 0000 0000 0000 0000 0000 0000 0000 0000
00000150: 0000 0000 0000 0000 0000 0000 0000 0000
00000160: 0000 0000 0000 0000 0000 0000 0000 0000
00000170: 0000 0000 0000 0000 0000 0000 0000 0000
00000180: 0000 0000 0000 0000 0000 0000 0000 0000
00000190: 0000 0000 0000 0000 0000 0000 0000 0000
000001a0: 0000 0000 0000 0000 0000 0000 0000 0000
000001b0: 0000 0000 0000 0000 0000 0000 0000 0000
000001c0: 0000 0000 0000 0000 0000 0000 0000 0000
000001d0: 0000 0000 0000 0000 0000 0000 0000 0000
000001e0: 0000 0000 0000 0000 0000 0000 0000 0000
000001f0: 0000 0000 0000 0000 0000 0000 0000 0000
00000200: 0000 0000 0000 0000 0000 0000 0000 0000
00000210: 0000 0000 0000 0000 0000 0000 0000 0000
00000220: 0000 0000 0000 0000 0000 0000 0000 0000
00000230: 0000 0000 0000 0000 0000 0000 0000 0000
00000240: 0000 0000 0000 0000 0000 0000 0000 0000
00000250: 0000 0000 0000 0000 0000 0000 0000 0000
00000260: 0000 0000 0000 0000 0000 0000 0000 0000
00000270: 0000 0000 0000 0000 0000 0000 0000 0000
00000280: 0000 0000 0000 0000 0000 0000 0000 0000
00000290: 0000 0000 0000 0000 0000 0000 0000 0000
000002a0: 0000 0000 0000 0000 0000 0000 0000 0000
000002b0: 0000 0000 0000 0000 0000 0000 0000 0000
000002c0: 0000 0000 0000 0000 0000 0000 0000 0000
000002d0: 0000 0000 0000 0000 0000 0000 0000 0000
000002e0: 0000 0000 0000 0000 0000 0000 0000 0000
000002f0: 0000 0000 0000 0000 0000 0000 0000 0000
00000300: 0000 0000 0000 0000 0000 0000 0000 0000
00000310: 0000 0000 0000 0000 0000 0000 0000 0000
00000320: 0000 0000 0000 0000 0000 0000 0000 0000
00000330: 0000 0000 0000 0000 0000 0000 0000 0000
00000340: 0000 0000 0000 0000 0000 0000 0000 0000
00000350: 0000 0000 0000 0000 0000 0000 0000 0000
00000360: 0000 0000 0000 0000 0000 0000 0000 0000
00000370: 0000 0000 0000 0000 0000 0000 0000 0000
00000380: 0000 0000 0000 0000 0000 0000 0000 0000
00000390: 0000 0000 0000 0000 0000 0000 0000 0000
000003a0: 0000 0000 0000 0000 0000 0000 0000 0000
000003b0: 0000 0000 0000 0000 0000 0000 0000 0000
000003c0: 0000 0000 0000 0000 0000 0000 0000 0000
000003d0: 0000 0000 0000 0000 0000 0000 0000 0000
000003e0: 0000 0000 0000 0000 0000 0000 0000 0000
000003f0: 0000 0000 0000 0000 0000 0000 0000 0000
0.0 0.0 0.0 0.0 0.0 0.0 0.0 0.0
0.0 0.0 0.0 0.0 0.0 0.0 0.0 0.0
0.0 0.0 0.0 0.0 0.0 0.0 0.0 0.0
0.0 0.0 0.0 0.0 0.0 0.0 0.0 0.0
0.0 0.0 0.0 0.0 0.0 0.0 0.0 0.0
0.0 0.0 0.0 0.0 0.0 0.0 0.0 0.0
0.0 0.0 0.0 0.0 0.0 0.0 0.0 0.0
0.0 0.0 0.0 0.0 0.0 0.0 0.0 0.0
0.0 0.0 0.0 0.0 0.0 0.0 0.0 0.0
0.0 0.0 0.0 0.0 0.0 0.0 0.0 0.0
0.0 0.0 0.0 0.0 0.0 0.0 0.0 0.0
0.0 0.0 0.0 0.0 0.0 0.0 0.0 0.0
0.0 0.0 0.0 0.0 0.0 0.0 0.0 0.0
0.0 0.0 0.0 0.0 0.0 0.0 0.0 0.0
0.0 0.0 0.0 0.0 0.0 0.0 0.0 0.0
0.0 0.0 0.0 0.0 0.0 0.0 0.0 0.0
0.0 0.0 0.0 0.0 0.0 0.0 0.0 0.0
0.0 0.0 0.0 0.0 0.0 0.0 0.0 0.0
0.0 0.0 0.0 0.0 0.0 0.0 0.0 0.0
0.0 0.0 0.0 0.0 0.0 0.0 0.0 0.0
0.0 0.0 0.0 0.0 0.0 0.0 0.0 0.0
0.0 0.0 0.0 0.0 0.0 0.0 0.0 0.0
0.0 0.0 0.0 0.0 0.0 0.0 0.0 0.0
0.0 0.0 0.0 0.0 0.0 0.0 0.0 0.0
0.0 0.0 0.0 0.0 0.0 0.0 0.0 0.0
0.0 0.0 0.0 0.0 0.0 0.0 0.0 0.0
0.0 0.0 0.0 0.0 0.0 0.0 0.0 0.0
0.0 0.0 0.0 0.0 0.0 0.0 0.0 0.0
0.0 0.0 0.0 0.0 0.0 0.0 0.0 0.0
0.0 0.0 0.0 0.0 0.0 0.0 0.0 0.0
0.0 0.0 0.0 0.0 0.0 0.0 0.0 0.0
0.0 0.0 0.0 0.0 0.0 0.0 0.0 0.0

main.5.running_mean f4 [256]
00000000: 0000 0000 0000 0000 0000 0000 0000 0000
00000010: 0000 0000 0000 0000 0000 0000 0000 0000
00000020: 0000 0000 0000 0000 0000 0000 0000 0000
00000030: 0000 0000 0000 0000 0000 0000 0000 0000
00000040: 0000 0000 0000 0000 0000 0000 0000 0000
00000050: 0000 0000 0000 0000 0000 0000 0000 0000
00000060: 0000 0000 0000 0000 0000 0000 0000 0000
00000070: 0000 0000 0000 0000 0000 0000 0000 0000
00000080: 0000 0000 0000 0000 0000 0000 0000 0000
00000090: 0000 0000 0000 0000 0000 0000 0000 0000
000000a0: 0000 0000 0000 0000 0000 0000 0000 0000
000000b0: 0000 0000 0000 0000 0000 0000 0000 0000
000000c0: 0000 0000 0000 0000 0000 0000 0000 0000
000000d0: 0000 0000 0000 0000 0000 0000 0000 0000
000000e0: 0000 0000 0000 0000 0000 0000 0000 0000
000000f0: 0000 0000 0000 0000 0000 0000 0000 0000
00000100: 0000 0000 0000 0000 0000 0000 0000 0000
00000110: 0000 0000 0000 0000 0000 0000 0000 0000
00000120: 0000 0000 0000 0000 0000 0000 0000 0000
00000130: 0000 0000 0000 0000 0000 0000 0000 0000
00000140: 0000 0000 0000 0000 0000 0000 0000 0000
00000150: 0000 0000 0000 0000 0000 0000 0000 0000
00000160: 0000 0000 0000 0000 0000 0000 0000 0000
00000170: 0000 0000 0000 0000 0000 0000 0000 0000
00000180: 0000 0000 0000 0000 0000 0000 0000 0000
00000190: 0000 0000 0000 0000 0000 0000 0000 0000
000001a0: 0000 0000 0000 0000 0000 0000 0000 0000
000001b0: 0000 0000 0000 0000 0000 0000 0000 0000
000001c0: 0000 0000 0000 0000 0000 0000 0000 0000
000001d0: 0000 0000 0000 0000 0000 0000 0000 0000
000001e0: 0000 0000 0000 0000 0000 0000 0000 0000
000001f0: 0000 0000 0000 0000 0000 0000 0000 0000
00000200: 0000 0000 0000 0000 0000 0000 0000 0000
00000210: 0000 0000 0000 0000 0000 0000 0000 0000
00000220: 0000 0000 0000 0000 0000 0000 0000 0000
00000230: 0000 0000 0000 0000 0000 0000 0000 0000
00000240: 0000 0000 0000 0000 0000 0000 0000 0000
00000250: 0000 0000 0000 0000 0000 0000 0000 0000
00000260: 0000 0000 0000 0000 0000 0000 0000 0000
00000270: 0000 0000 0000 0000 0000 0000 0000 0000
00000280: 0000 0000 0000 0000 0000 0000 0000 0000
00000290: 0000 0000 0000 0000 0000 0000 0000 0000
000002a0: 0000 0000 0000 0000 0000 0000 0000 0000
000002b0: 0000 0000 0000 0000 0000 0000 0000 0000
000002c0: 0000 0000 0000 0000 0000 0000 0000 0000
000002d0: 0000 0000 0000 0000 0000 0000 0000 0000
000002e0: 0000 0000 0000 0000 0000 0000 0000 0000
000002f0: 0000 0000 0000 0000 0000 0000 0000 0000
00000300: 0000 0000 0000 0000 0000 0000 0000 0000
00000310: 0000 0000 0000 0000 0000 0000 0000 0000
00000320: 0000 0000 0000 0000 0000 0000 0000 0000
00000330: 0000 0000 0000 0000 0000 0000 0000 0000
00000340: 0000 0000 0000 0000 0000 0000 0000 0000
00000350: 0000 0000 0000 0000 0000 0000 0000 0000
00000360: 0000 0000 0000 0000 0000 0000 0000 0000
00000370: 0000 0000 0000 0000 0000 0000 0000 0000
00000380: 0000 0000 0000 0000 0000 0000 0000 0000
00000390: 0000 0000 0000 0000 0000 0000 0000 0000
000003a0: 0000 0000 0000 0000 0000 0000 0000 0000
000003b0: 0000 0000 0000 0000 0000 0000 0000 0000
000003c0: 0000 0000 0000 0000 0000 0000 0000 0000
000003d0: 0000 0000 0000 0000 0000 0000 0000 0000
000003e0: 0000 0000 0000 0000 0000 0000 0000 0000
000003f0: 0000 0000 0000 0000 0000 0000 0000 0000
0.0 0.0 0.0 0.0 0.0 0.0 0.0 0.0
0.0 0.0 0.0 0.0 0.0 0.0 0.0 0.0
0.0 0.0 0.0 0.0 0.0 0.0 0.0 0.0
0.0 0.0 0.0 0.0 0.0 0.0 0.0 0.0
0.0 0.0 0.0 0.0 0.0 0.0 0.0 0.0
0.0 0.0 0.0 0.0 0.0 0.0 0.0 0.0
0.0 0.0 0.0 0.0 0.0 0.0 0.0 0.0
0.0 0.0 0.0 0.0 0.0 0.0 0.0 0.0
0.0 0.0 0.0 0.0 0.0 0.0 0.0 0.0
0.0 0.0 0.0 0.0 0.0 0.0 0.0 0.0
0.0 0.0 0.0 0.0 0.0 0.0 0.0 0.0
0.0 0.0 0.0 0.0 0.0 0.0 0.0 0.0
0.0 0.0 0.0 0.0 0.0 0.0 0.0 0.0
0.0 0.0 0.0 0.0 0.0 0.0 0.0 0.0
0.0 0.0 0.0 0.0 0.0 0.0 0.0 0.0
0.0 0.0 0.0 0.0 0.0 0.0 0.0 0.0
0.0 0.0 0.0 0.0 0.0 0.0 0.0 0.0
0.0 0.0 0.0 0.0 0.0 0.0 0.0 0.0
0.0 0.0 0.0 0.0 0.0 0.0 0.0 0.0
0.0 0.0 0.0 0.0 0.0 0.0 0.0 0.0
0.0 0.0 0.0 0.0 0.0 0.0 0.0 0.0
0.0 0.0 0.0 0.0 0.0 0.0 0.0 0.0
0.0 0.0 0.0 0.0 0.0 0.0 0.0 0.0
0.0 0.0 0.0 0.0 0.0 0.0 0.0 0.0
0.0 0.0 0.0 0.0 0.0 0.0 0.0 0.0
0.0 0.0 0.0 0.0 0.0 0.0 0.0 0.0
0.0 0.0 0.0 0.0 0.0 0.0 0.0 0.0
0.0 0.0 0.0 0.0 0.0 0.0 0.0 0.0
0.0 0.0 0.0 0.0 0.0 0.0 0.0 0.0
0.0 0.0 0.0 0.0 0.0 0.0 0.0 0.0
0.0 0.0 0.0 0.0 0.0 0.0 0.0 0.0
0.0 0.0 0.0 0.0 0.0 0.0 0.0 0.0

main.5.running_var f4 [256]
00000000: 0400 0000 0400 0000 0400 0000 0400 0000
00000010: 0400 0000 0400 0000 0400 0000 0400 0000
00000020: 0400 0000 0400 0000 0400 0000 0400 0000
00000030: 0400 0000 0400 0000 0400 0000 0400 0000
00000040: 0400 0000 0400 0000 0400 0000 0400 0000
00000050: 0400 0000 0400 0000 0400 0000 0400 0000
00000060: 0400 0000 0400 0000 0400 0000 0400 0000
00000070: 0400 0000 0400 0000 0400 0000 0400 0000
00000080: 0400 0000 0400 0000 0400 0000 0400 0000
00000090: 0400 0000 0400 0000 0400 0000 0400 0000
000000a0: 0400 0000 0400 0000 0400 0000 0400 0000
000000b0: 0400 0000 0400 0000 0400 0000 0400 0000
000000c0: 0400 0000 0400 0000 0400 0000 0400 0000
000000d0: 0400 0000 0400 0000 0400 0000 0400 0000
000000e0: 0400 0000 0400 0000 0400 0000 0400 0000
000000f0: 0400 0000 0400 0000 0400 0000 0400 0000
00000100: 0400 0000 0400 0000 0400 0000 0400 0000
00000110: 0400 0000 0400 0000 0400 0000 0400 0000
00000120: 0400 0000 0400 0000 0400 0000 0400 0000
00000130: 0400 0000 0400 0000 0400 0000 0400 0000
00000140: 0400 0000 0400 0000 0400 0000 0400 0000
00000150: 0400 0000 0400 0000 0400 0000 0400 0000
00000160: 0400 0000 0400 0000 0400 0000 0400 0000
00000170: 0400 0000 0400 0000 0400 0000 0400 0000
00000180: 0400 0000 0400 0000 0400 0000 0400 0000
00000190: 0400 0000 0400 0000 0400 0000 0400 0000
000001a0: 0400 0000 0400 0000 0400 0000 0400 0000
000001b0: 0400 0000 0400 0000 0400 0000 0400 0000
000001c0: 0400 0000 0400 0000 0400 0000 0400 0000
000001d0: 0400 0000 0400 0000 0400 0000 0400 0000
000001e0: 0400 0000 0400 0000 0400 0000 0400 0000
000001f0: 0400 0000 0400 0000 0400 0000 0400 0000
00000200: 0400 0000 0400 0000 0400 0000 0400 0000
00000210: 0400 0000 0400 0000 0400 0000 0400 0000
00000220: 0400 0000 0400 0000 0400 0000 0400 0000
00000230: 0400 0000 0400 0000 0400 0000 0400 0000
00000240: 0400 0000 0400 0000 0400 0000 0400 0000
00000250: 0400 0000 0400 0000 0400 0000 0400 0000
00000260: 0400 0000 0400 0000 0400 0000 0400 0000
00000270: 0400 0000 0400 0000 0400 0000 0400 0000
00000280: 0400 0000 0400 0000 0400 0000 0400 0000
00000290: 0400 0000 0400 0000 0400 0000 0400 0000
000002a0: 0400 0000 0400 0000 0400 0000 0400 0000
000002b0: 0400 0000 0400 0000 0400 0000 0400 0000
000002c0: 0400 0000 0400 0000 0400 0000 0400 0000
000002d0: 0400 0000 0400 0000 0400 0000 0400 0000
000002e0: 0400 0000 0400 0000 0400 0000 0400 0000
000002f0: 0400 0000 0400 0000 0400 0000 0400 0000
00000300: 0400 0000 0400 0000 0400 0000 0400 0000
00000310: 0400 0000 0400 0000 0400 0000 0400 0000
00000320: 0400 0000 0400 0000 0400 0000 0400 0000
00000330: 0400 0000 0400 0000 0400 0000 0400 0000
00000340: 0400 0000 0400 0000 0400 0000 0400 0000
00000350: 0400 0000 0400 0000 0400 0000 0400 0000
00000360: 0400 0000 0400 0000 0400 0000 0400 0000
00000370: 0400 0000 0400 0000 0400 0000 0400 0000
00000380: 0400 0000 0400 0000 0400 0000 0400 0000
00000390: 0400 0000 0400 0000 0400 0000 0400 0000
000003a0: 0400 0000 0400 0000 0400 0000 0400 0000
000003b0: 0400 0000 0400 0000 0400 0000 0400 0000
000003c0: 0400 0000 0400 0000 0400 0000 0400 0000
000003d0: 0400 0000 0400 0000 0400 0000 0400 0000
000003e0: 0400 0000 0400 0000 0400 0000 0400 0000
000003f0: 0400 0000 0400 0000 0400 0000 0400 0000
6e-45 6e-45 6e-45 6e-45 6e-45 6e-45 6e-45 6e-45
6e-45 6e-45 6e-45 6e-45 6e-45 6e-45 6e-45 6e-45
6e-45 6e-45 6e-45 6e-45 6e-45 6e-45 6e-45 6e-45
6e-45 6e-45 6e-45 6e-45 6e-45 6e-45 6e-45 6e-45
6e-45 6e-45 6e-45 6e-45 6e-45 6e-45 6e-45 6e-45
6e-45 6e-45 6e-45 6e-45 6e-45 6e-45 6e-45 6e-45
6e-45 6e-45 6e-45 6e-45 6e-45 6e-45 6e-45 6e-45
6e-45 6e-45 6e-45 6e-45 6e-45 6e-45 6e-45 6e-45
6e-45 6e-45 6e-45 6e-45 6e-45 6e-45 6e-45 6e-45
6e-45 6e-45 6e-45 6e-45 6e-45 6e-45 6e-45 6e-45
6e-45 6e-45 6e-45 6e-45 6e-45 6e-45 6e-45 6e-45
6e-45 6e-45 6e-45 6e-45 6e-45 6e-45 6e-45 6e-45
6e-45 6e-45 6e-45 6e-45 6e-45 6e-45 6e-45 6e-45
6e-45 6e-45 6e-45 6e-45 6e-45 6e-45 6e-45 6e-45
6e-45 6e-45 6e-45 6e-45 6e-45 6e-45 6e-45 6e-45
6e-45 6e-45 6e-45 6e-45 6e-45 6e-45 6e-45 6e-45
6e-45 6e-45 6e-45 6e-45 6e-45 6e-45 6e-45 6e-45
6e-45 6e-45 6e-45 6e-45 6e-45 6e-45 6e-45 6e-45
6e-45 6e-45 6e-45 6e-45 6e-45 6e-45 6e-45 6e-45
6e-45 6e-45 6e-45 6e-45 6e-45 6e-45 6e-45 6e-45
6e-45 6e-45 6e-45 6e-45 6e-45 6e-45 6e-45 6e-45
6e-45 6e-45 6e-45 6e-45 6e-45 6e-45 6e-45 6e-45
6e-45 6e-45 6e-45 6e-45 6e-45 6e-45 6e-45 6e-45
6e-45 6e-45 6e-45 6e-45 6e-45 6e-45 6e-45 6e-45
6e-45 6e-45 6e-45 6e-45 6e-45 6e-45 6e-45 6e-45
6e-45 6e-45 6e-45 6e-45 6e-45 6e-45 6e-45 6e-45
6e-45 6e-45 6e-45 6e-45 6e-45 6e-45 6e-45 6e-45
6e-45 6e-45 6e-45 6e-45 6e-45 6e-45 6e-45 6e-45
6e-45 6e-45 6e-45 6e-45 6e-45 6e-45 6e-45 6e-45
6e-45 6e-45 6e-45 6e-45 6e-45 6e-45 6e-45 6e-45
6e-45 6e-45 6e-45 6e-45 6e-45 6e-45 6e-45 6e-45
6e-45 6e-45 6e-45 6e-45 6e-45 6e-45 6e-45 6e-45
