NCTU2/DeepConvNet/DeepConvNet_LeakyReLU.pkl (torch_old, 612566 bytes, 28 tensors)

FirstConv.0.weight f4 [25, 1, 1, 5]
0.3183529 -0.19023462 -0.6379923 0.007232584 0.5811563 0.2927274 -0.34042686 0.08518235
-0.20810042 0.098814815 0.48770177 0.32891795 -0.587186 -0.6298276 0.48022532 0.048107784
0.10226723 -0.09426059 -0.23194335 0.18406112 0.39069778 -0.54051614 0.19655195 0.2513589
-0.30528626 0.3312826 0.16685162 -0.19012564 -0.731277 0.5392493 0.3221288 0.12788741
0.006294214 -0.3952701 0.27871212 -0.42294106 -0.3953849 0.6111316 -0.23213619 -0.2542138
-0.04736535 0.110226996 0.15948123 0.25621405 -0.46674415 0.15165536 0.5436407 -0.663373
-0.10546266 0.19494775 -0.3576044 0.1448363 0.3753742 -0.28939602 -0.3071741 -0.5649496
0.23297454 0.43687472 -0.07091042 -0.14268203 -0.22555332 -0.25861254 -0.329137 0.36518288
0.2656268 0.06468799 -0.21690166 0.40366352 -0.20258796 -0.096383266 -0.1884664 -0.15964438
0.29130316 0.25948387 -0.44724336 -0.44746405 0.34137842 0.6845781 0.107394084 -0.7345948
0.021103067 0.61070704 -0.22647856 -0.3694377 0.0014619604 -0.22965652 -0.14945464 0.37257144
-0.4553411 0.3018313 -0.5104593 0.24284457 0.28599563 0.50665337 -0.55293345 -0.3286021
0.4509935 0.030514913 -0.17080022 -0.035495564 -0.60694534 0.39838117 0.32695478 -0.18792403
0.035813093 -0.4139461 -0.007388517 -0.09140305 0.24625802 -0.26915926 -0.41294354 0.34828928
0.5366192 0.26012197 -0.6321226 -0.18495964 -0.56928337 -0.13473225 0.22591446 -0.3696067
-0.21384682 -0.25474197 0.5589634 0.45362827 -0.5799604
00000000: 27ff a23e ddcc 42be 7753 23bf 50ff ec3b
00000010: a9c6 143f 5ee0 953e 6e4c aebe 1574 ae3d
00000020: 4718 55be 6c5f ca3d 0cb4 f93e ef67 a83e
00000030: d251 16bf 623c 21bf 18e0 f53e ab0c 453d
00000040: 7b71 d13d b20b c1bd 8f82 6dbe 857a 3c3e
00000050: 8a09 c83e 445f 0abf ea44 493e 1db2 803e
00000060: 7b4e 9cbe df9d a93e 27db 2a3e 4cb0 42be
00000070: f834 3bbf 3e0c 0a3f 11ee a43e ebf4 023e
00000080: b23f ce3b d860 cabe 5bb3 8e3e bb8b d8be
00000090: e46f cabe 1f73 1c3f 1cb5 6dbe 5028 82be
000000a0: 2b02 42bd b1be e13d 0c4f 233e 7d2e 833e
000000b0: 17f9 eebe 8b4b 1b3e 092c 0b3f d0d2 29bf
000000c0: cffc d7bd 62a0 473e ed17 b7be f84f 143e
000000d0: 0c31 c03e b72b 94be ec45 9dbe 89a0 10bf
000000e0: e190 6e3e 0bae df3e 7b39 91bd 3d1b 12be
000000f0: 73f7 66be dd68 84be a584 a8be 40f9 ba3e
00000100: 3c00 883e 237b 843d 781b 5ebe fcac ce3e
00000110: 3873 4fbe 9764 c5bd 56fd 40be d179 23be
00000120: b025 953e 12db 843e 15fd e4be 021a e5be
00000130: 27c9 ae3e 8340 2f3f 6ef1 db3d 680e 3cbf
00000140: 57e0 ac3c 4c57 1c3f ffe9 67be f026 bdbe
00000150: 409f bf3a 142b 6bbe a30a 19be afc1 be3e
00000160: 7822 e9be a289 9a3e 76ad 02bf 3fac 783e
00000170: 056e 923e 09b4 013f 0c8d 0dbf 893e a8be
00000180: 9fe8 e63e 69fa f93c 41e6 2ebe cc63 11bd
00000190: c560 1bbf 9ef8 cb3e 9e66 a73e 286f 40be
000001a0: c0b0 123d bef0 d3be 5f1b f2bb 8631 bbbd
000001b0: 102b 7c3e 3ecf 89be 566d d3be f952 b23e
000001c0: e05f 093f b52e 853e c9d2 21bf 0f66 3dbe
000001d0: 8ebc 11bf 40f7 09be 1f56 673e 173d bdbe
000001e0: a9fa 5abe 8a6d 82be 3a18 0f3f f741 e83e
000001f0: 4978 14bf

FirstConv.0.bias f4 [25]
-0.012752315 0.16709268 -0.049693126 0.31011274 0.25797114 0.09775867 0.13097046 0.4249813
0.098313585 0.31668967 0.07308693 -0.2885942 -0.23953578 -0.20660706 0.053959377 -0.25067696
-0.22670157 0.042027984 -0.40776104 0.09844811 0.4113266 -0.055193245 0.026313849 0.3423129
0.15752818
00000000: 16ef 50bc 581a 2b3e 058b 4bbd 19c7 9e3e
00000010: cb14 843e b335 c83d 1f1d 063e 2697 d93e
00000020: a258 c93d 2625 a23e 9aae 953d 9ec2 93be
00000030: de48 75be cd90 53be 8204 5d3d bb58 80be
00000040: 7524 68be 8925 2c3d 0ec6 d0be 2a9f c93d
00000050: 6699 d23e 5012 62bd 2490 d73c a343 af3e
00000060: 114f 213e

FirstConv.1.weight f4 [25, 25, 2, 1]
1.1255362 -0.42955795 0.11978125 0.124505736 0.44864827 0.29846263 0.076894216 0.013937937
0.1496892 0.3542657 0.0681845 0.1288939 -0.035919964 0.12896796 0.033125747 -0.10864067
-0.18776181 0.37912518 0.3256273 0.037323613 -0.20557477 0.012566045 -0.29071438 -0.12946673
0.35143545 -0.33597562 -0.07510997 0.14650157 -0.16021374 0.07732706 -0.7396771 0.33256748
-0.22110946 0.27317816 -0.014031082 -0.08385583 -0.75636435 -0.011754056 -0.21699502 0.054115567
-0.5321831 -0.13256896 -0.06808659 0.07605413 -0.74314046 0.35787055 0.1393502 -0.0069235647
-0.27873352 0.21097508 -0.19714004 0.14873755 -0.22632731 0.02690672 -0.85693306 0.295947
-0.1369874 0.10133053 0.32048586 -0.1358941 -0.37486848 0.12854488 -0.08504304 -0.028022138
-0.014912991 -0.09758179 0.057502512 0.03904246 -0.4860007 0.16208237 0.03829923 -0.09680146
-0.02400507 -0.11208616 0.015206341 0.02279898 -0.013830687 -0.030366063 0.09419681 0.06059833
0.16691571 -0.08902968 -0.11192407 -0.11172966 -0.11094178 0.061909888 0.4677718 -0.06378959
-0.10814179 -0.14415856 -0.11371728 0.106334426 0.13875593 0.033239163 0.38134664 -0.15541063
0.11220334 0.028458167 0.4120634 -0.04849607 -0.0037664152 -0.30096945 0.11369204 -0.07440227
0.088493444 -0.2578495 0.15180376 -0.27693337 0.20397182 -0.061495468 0.24407554 -0.13877405
0.3640448 -0.13591519 -0.32257727 0.38045081 0.028462674 0.12305283 0.018344862 -0.4816522
-0.095407784 0.21035084 -0.024194332 0.023660239 -0.20861292 0.17010404 -0.04139878 0.27759492
-0.1521409 0.3605359 0.0029951606 0.19836141 0.06101661 -0.056593258 0.015732905 0.019326512
0.007665517 -0.012966357 -0.053518698 0.03553892 -0.032960694 0.06265936 -0.28148863 0.24424277
-0.025734816 0.21417382 -0.29107153 0.4419552 0.10106081 0.41652206 -0.3565052 0.060947884
-0.033860493 0.022656547 -0.21725067 -0.1411184 -0.14525974 -0.026657688 -0.0729922 0.022954963
-0.01039705 0.00041583888 -0.01056552 0.12721248 0.21074556 -0.20294233 0.001979906 0.02335475
-0.2182903 0.017717423 0.15360859 -0.17483972 -0.007985529 0.0905458 -0.030995853 0.042354506
0.099940866 0.014270215 0.16962197 -0.07822692 0.21112452 0.01110523 0.022546891 -0.118516736
-0.029989392 -0.06200833 0.18657632 -0.018490808 0.056673687 -0.04002292 0.05876518 0.05991975
0.04204526 -0.20163977 0.102293536 -0.025435612 0.23178299 -0.17886522 0.14301157 -0.02425744
-0.39161927 0.13202201 -0.2059615 -0.015328407 -0.44368833 -0.04470085 -0.35512403 0.04211042
0.13036433 -0.13539384 -0.62633055 0.08918475 -0.3159886 0.08574135 0.3925437 -0.0013460282
0.32682246 -0.072586566 -0.34146297 0.20784251 0.36035284 -0.08553492 0.22604689 -0.034536894
0.06490468 0.017660242 -0.006032097 -0.11788018 0.41119504 -0.18429194 0.4468425 -0.13712719
-0.08751841 -0.08623111 -0.11982554 0.062073328 0.54614806 0.016155796 0.1620654 -0.14649212
0.0417468 -0.057461355 0.203261 -0.18360585 0.28807306 0.01774263 0.3618013 -0.029144878
0.713746 -0.007365826 -0.14364833 0.99151117 0.00842075 0.3611311 -0.106952086 1.1267596
00000000: 9211 903f 05ef dbbe df4f f53d ddfc fe3d
00000010: 3ab5 e53e 18d0 983e b77a 9d3d f25b 643c
00000020: 2048 193e 5062 b53e 51a4 8b3d c3fc 033e
00000030: d020 13bd 2d10 043e ddae 073d 007f debd
00000040: a244 40be b21c c23e 9fb8 a63e a5e0 183d
00000050: 3182 52be d0e1 4d3c 84d8 94be ed92 04be
00000060: 59ef b33e ff04 acbe 42d3 99bd 8204 163e
00000070: 120f 24be a65d 9e3d 7a5b 3dbf 4946 aa3e
00000080: 856a 62be 02de 8b3e a0e2 65bc 9bbc abbd
00000090: 18a1 41bf 1694 40bc f133 5ebe 49a8 5d3d
000000a0: 273d 08bf 28c0 07be fb70 8bbd 45c2 9b3d
000000b0: 743e 3ebf cf3a b73e d2b1 0e3e 12df e2bb
000000c0: 29b6 8ebe da09 583e 14df 49be a84e 183e
000000d0: 59c2 67be 7b6b dc3c f75f 5bbf 5d86 973e
000000e0: 6d46 0cbe 6286 cf3d b916 a43e d327 0bbe
000000f0: c3ee bfbe 45a1 033e 0c2b aebd af8e e5bc
00000100: 9e55 74bc f6d8 c7bd c187 6b3d fdea 1f3d
00000110: 15d5 f8be ecf8 253e a7df 1c3d d83f c6bd
00000120: 48a6 c4bc 6e8d e5bd 0424 793c edc4 ba3c
00000130: 1b9a 62bc 40c2 f8bc 42ea c03d f435 783d
00000140: f4eb 2a3e 3155 b6bd 7238 e5bd 85d2 e4bd
00000150: 7235 e3bd 3995 7d3d c97f ef3e 1ea4 82bd
00000160: 7179 ddbd 4d9e 13be 9be4 e8bd ddc5 d93d
00000170: 0916 0e3e ca25 083d de3f c33e f723 1fbe
00000180: ddca e53d 1a21 e93c f9f9 d23e d1a3 46bd
00000190: f6d5 76bb ab18 9abe 5fd7 e83d 3860 98bd
000001a0: 0d3c b53d da04 84be 7272 1b3e 36ca 8dbe
000001b0: fddd 503e ace2 7bbd f0ee 793e c91a 0ebe
000001c0: 1464 ba3e 5a2d 0bbe d928 a5be 73ca c23e
000001d0: 8e2a e93c 1f03 fc3d f747 963c 1e9b f6be
000001e0: 2865 c3bd 3666 573e 3133 c6bc 1ed3 c13c
000001f0: a09e 55be c12f 2e3e c491 29bd ec20 8e3e
00000200: d3ca 1bbe 2998 b83e 754a 443b 411f 4b3e
00000210: 8eec 793d 55ce 67bd 4be2 803c a252 9e3c
00000220: 042f fb3b d870 54bc 6c36 5bbd 4291 113d
00000230: cb01 07bd 8d53 803d 471f 90be c71a 7a3e
00000240: d2d1 d2bc 6250 5b3e 5407 95be f447 e23e
00000250: f8f8 ce3d 6142 d53e d987 b6be 7da4 793d
00000260: 4db1 0abd 399a b93c f676 5ebe 5881 10be
00000270: f8be 14be 3961 dabc ef7c 95bd 0c0c bc3c
00000280: 6358 2abc f304 da39 011b 2dbc fd43 023e
00000290: afcd 573e 1dd0 4fbe 50c1 013b 7652 bf3c
000002a0: 7e87 5fbe 2124 913c 924b 1d3e 2f09 33be
000002b0: bcd5 02bc 1470 b93d 04eb fdbc eb7b 2d3d
000002c0: ccad cc3d 9fcd 693c 62b1 2d3e 6f35 a0bd
000002d0: 0731 583e b6f2 353c 42b4 b83c e7b8 f2bd
000002e0: 50ac f5bc 72fc 7dbd dd0d 3f3e 097a 97bc
000002f0: ab22 683d 13ef 23bd c2b3 703d 696e 753d
00000300: a737 2c3d a87a 4ebe 467f d13d 585e d0bc
00000310: 8558 6d3e 7228 37be a071 123e 8ab7 c6bc
00000320: 5282 c8be c730 073e 92e7 52be 0024 7bbc
00000330: 1e2b e3be 3d18 37bd d1d2 b5be fa7b 2c3d
00000340: 3a7e 053e afa4 0abe 3357 20bf 7fa6 b63d
00000350: 42c9 a1be 2999 af3d 7dfb c83e 366d b0ba
00000360: 4655 a73e 44a8 94bd 3cd4 aebe abd4 543e
00000370: 2b80 b83e ef2c afbd d678 673e 8f76 0dbd
00000380: bfec 843d 36ac 903c e6a8 c5bb 2a6b f1bd
00000390: 2888 d23e 07b7 3cbe 8ac8 e43e 126b 0cbe
000003a0: da3c b3bd f099 b0bd 1867 f5bd 9a40 7e3d
000003b0: 5cd0 0b3f 2959 843c 79f4 253e 0802 16be
000003c0: b1fe 2a3d 995c 6bbd a723 503e 2c03 3cbe
000003d0: 507e 933e fe58 913c 053e b93e 3dc1 eebc
000003e0: 0fb8 363f 075d f1bb 8c18 13be add3 7d3f
000003f0: 2ff7 093c 2de6 b83e b209 dbbd a939 903f

FirstConv.1.bias f4 [25]
0.12620947 0.00024732444 0.13567314 -0.010229917 0.045506183 -0.117436305 -0.04755872 -0.09746139
-0.09241576 0.04729177 0.12070313 -0.064756446 0.09279433 0.15417989 -0.10260667 -0.028221147
0.0716384 -0.07908192 0.10391381 0.102138475 0.11356041 0.08229704 -0.07088027 0.09387802
-0.083515935
00000000: 0e3d 013e 53ab 8139 e6ed 0a3e 629b 27bc
00000010: b164 3a3d 7282 f0bd efcc 42bd d699 c7bd
00000020: 7944 bdbd 04b5 413d 3433 f73d 079f 84bd
00000030: f40a be3d 55e1 1d3e 7223 d2bd 0930 e7bc
00000040: 27b7 923d b4f5 a1bd c3d0 d43d fa2d d13d
00000050: 5c92 e83d 5a8b a83d ad29 91bd 1f43 c03d
00000060: 670a abbd

FirstConv.2.weight f4 [25]
0.65604305 0.5545607 0.80268896 0.761065 0.46357673 0.59320486 0.5744515 -0.5296098
0.6317582 0.47646832 0.58991045 0.51170784 0.79228336 0.4574301 0.6410423 0.57878834
0.5207964 0.50760686 0.60787463 0.5967962 0.57618415 0.45427743 0.4567163 0.6725328
0.654126
00000000: 70f2 273f b1f7 0d3f 067d 4d3f 28d5 423f
00000010: ee59 ed3e 46dc 173f 410f 133f 8294 07bf
00000020: e8ba 213f a8f3 f33e 5f04 173f 49ff 023f
00000030: 15d3 4a3f 4734 ea3e 591b 243f 792b 143f
00000040: ea52 053f 86f2 013f ac9d 1b3f a3c7 183f
00000050: ce80 133f 0d97 e83e b8d6 e93e 1c2b 2c3f
00000060: cd74 273f

FirstConv.2.bias f4 [25]
-0.3818199 -0.23185854 -0.13918498 -0.13864538 -0.21094875 -0.53649515 -0.23095916 -0.38801712
-0.14203724 -0.14216879 -0.3646215 -0.27026507 -0.11421341 -0.21706477 -0.29396036 -0.071939856
-0.20808797 -0.5245252 -0.33802098 -0.040742394 -0.17816788 -0.39337254 -0.5020358 -0.1059871
-0.32889906
00000000: e67d c3be 536c 6dbe 8286 0ebe 0ef9 0dbe
00000010: f302 58be bf57 09bf 8f80 6cbe 2eaa c6be
00000020: 3672 11be b294 11be abaf babe 2f60 8abe
00000030: b8e8 e9bd 3a46 5ebe f981 96be 3455 93bd
00000040: 0315 55be 4947 06bf 1611 adbe 7fe1 26bd
00000050: a471 36be 2068 c9be 6b85 00bf c40f d9bd
00000060: 7565 a8be

FirstConv.2.running_mean f4 [25]
0.60584855 -0.15171343 0.21981768 -0.16701715 -0.037247706 0.29943705 -0.107886806 0.5614056
-0.19167499 0.054382928 0.04253314 -0.5340364 0.10789382 0.040025912 -0.6915692 0.16526277
0.007066995 -0.49582633 0.4765329 0.2158336 0.11864033 0.041032698 0.023452777 0.07834574
0.54326797
00000000: e418 1b3f c45a 1bbe e317 613e 8b06 2bbe
00000010: 0d91 18bd d04f 993e c2f3 dcbd 47b8 0f3f
00000020: 7346 44be a2c0 5e3d 3b37 2e3d 9cb6 08bf
00000030: 6ff7 dc3d 36f2 233d ae0a 31bf a53a 293e
00000040: 4092 e73b f3dc fdbe 1ffc f33e 7c03 5d3e
00000050: b4f9 f23d e711 283d 0a20 c03c bb73 a03d
00000060: 9c13 0b3f

FirstConv.2.running_var f4 [25]
169.17075 58.3779 67.93621 23.687132 156.24554 326.22147 63.051426 627.1278
226.80931 238.84512 279.76715 103.285286 126.55102 60.015938 282.11295 207.16719
582.3629 189.836 159.28947 147.66315 117.39421 169.54498 36.58278 165.05392
320.23395
00000000: b62b 2943 f882 6942 57df 8742 3f7f bd41
00000010: dc3e 1c43 591c a343 a934 7c42 2ec8 1c44
00000020: 2fcf 6243 5ad8 6e43 32e2 8b43 1192 ce42
00000030: 1f1a fd42 5210 7042 750e 8d43 cd2a 4f43
00000040: 3a97 1144 04d6 3d43 1b4a 1f43 c4a9 1343
00000050: d6c9 ea42 848b 2943 c454 1242 ce0d 2543
00000060: f21d a043

SecondConv.0.weight f4 [50, 25, 1, 5]
-0.11818502 0.10283045 -0.26464188 0.12770927 0.57103395 0.124528214 -0.168345 -0.049348727
0.052704774 0.024628341 -0.352853 -0.7904561 0.113362856 -0.11315996 -0.32980445 0.047085732
0.05821558 -0.0910276 -0.17189978 -0.20394531 0.11068397 -0.24200507 0.009850263 0.19337091
-0.09048723 0.13162522 -0.06092472 -0.42925254 -0.23179409 0.10568875 0.07466099 0.19554643
0.008704102 0.13835175 -0.10419147 -0.22469509 -1.1159421 0.26800394 0.072535664 -0.80278206
-0.83309716 -0.5412056 -0.33633727 -0.26992598 -0.5426642 -0.9455003 0.28526646 0.03783868
-0.8205668 0.260859 0.20850453 0.062262613 -0.5974833 0.21915406 0.3258685 0.1340536
-0.113033995 -0.14242294 0.0002860237 0.27002522 0.04108912 0.08375069 -0.08332022 -0.12733921
-0.5023086 0.063321315 -0.095046155 0.07263134 -0.12478804 0.20793352 -0.27460304 -0.16739298
-0.22533259 0.015601703 -0.8442484 -0.7555305 -0.13234784 0.13151903 -0.34499064 0.22802147
0.556288 -0.028618112 -1.1082032 -0.15716673 0.58623266 0.050810035 -0.1833414 -0.32722804
-0.14016654 -0.15014233 0.032925062 0.07352347 -0.6716043 -0.6175155 0.38510564 -0.56131
-0.21627215 0.1677661 -0.6836441 -0.27854016 0.079138674 0.15283488 -0.9597636 -0.31987402
0.20367074 0.064437106 -0.10616266 0.033890396 0.20964377 -0.0013235029 -0.04825408 -0.04874652
-0.06322259 -0.014888573 0.08676635 -0.8226507 -0.07132755 0.11727239 -0.4322318 -0.026922133
-0.04824337 0.23042801 -0.55603415 0.03165874 0.7983549 -0.3410603 0.35625562 -0.2140434
0.14237624 0.15067166 0.19008371 0.10355675 0.03761661 0.0023184605 -0.118415676 -0.13240848
-0.20710263 -0.15607777 -0.060445905 0.06761532 0.08792743 -0.10397517 0.093615115 -0.004034806
-0.014266958 0.117629595 -0.13185532 -0.031735066 0.050359886 -0.05761963 -0.090283856 0.024188599
-0.37155706 -0.030370241 -0.36477104 0.17651872 -0.09705858 -0.03883984 0.07071072 0.09888657
-0.27332148 -0.642874 -0.5976183 -0.22972216 0.03583951 -0.42247492 -0.7659562 -0.64113975
-0.30753276 0.05607189 -0.16787753 -0.5945897 -0.2409391 -0.116393544 -0.36309317 -0.15438002
0.47369942 -0.28246784 0.006117225 -0.40467313 0.08239098 -0.22297242 0.16196756 0.05038556
0.044623196 -0.116935514 -0.34622052 -0.21039657 -0.0690276 -0.1660441 0.19105983 -0.051070537
0.19082814 -0.050456207 0.04642756 -0.06660853 -0.07636944 -0.120619744 -0.15729684 -0.14806941
-0.26387435 -0.5017911 -0.22078049 -0.1621538 0.09205122 -0.49136376 0.21560991 -0.5741609
0.05037471 -0.5841197 -0.25074556 0.07538244 -0.2079849 -0.100787826 -0.34556445 -0.043041695
-0.38393047 -0.3316757 0.13251345 -0.29545045 -0.28879398 -0.5036237 -0.41092885 -0.02662842
-0.116373755 -0.043746833 -0.5668465 -0.30853266 0.023836676 0.15034434 0.37721825 0.064778
0.5296132 -0.24982224 0.19398291 0.07321707 0.050296206 -0.017552245 -0.12330185 -0.011490205
-0.44036403 -0.596624 -0.01408023 0.07073875 -0.3445507 0.2636431 -0.04639175 -0.25356755
-0.113055445 -0.16293536 0.0774436 0.016484926 0.043601014 0.14328657 0.0729386 0.051067837
00000000: fd0a f2bd c598 d23d 247f 87be 38c6 023e
00000010: 482f 123f a608 ff3d a262 2cbe e421 4abd
00000020: f6e0 573d 60c1 c93c 26a9 b4be 555b 4abf
00000030: c92a e83d 69c0 e7bd 21dc a8be f8dc 403d
00000040: 7673 6e3d ae6c babd 7f06 30be 0ad7 50be
00000050: 47ae e23d 2dd0 77be ff62 213c 0603 463e
00000060: 5e51 b9bd c3c8 063e 338c 79bd fdc6 dbbe
00000070: 6e5b 6dbe 5873 d83d dce7 983d 533d 483e
00000080: a69b 0e3c 15ac 0d3e 5662 d5bd 7816 66be
00000090: 31d7 8ebf d037 893e 948d 943d 2083 4dbf
000000a0: db45 55bf 738c 0abf 6634 acbe bd33 8abe
000000b0: 0aec 0abf 4f0c 72bf 720e 923e bbfc 1a3d
000000c0: aa10 52bf 508f 853e 3682 553e 1507 7f3d
000000d0: aaf4 18bf ec69 603e 3cd8 a63e 5945 093e
000000e0: 5e7e e7bd 52d7 11be 73f5 9539 bf40 8a3e
000000f0: 114d 283d 7b85 ab3d cba3 aabd 3665 02be
00000100: 4c97 00bf 9bae 813d 8fa7 c2bd bdbf 943d
00000110: df90 ffbd 86ec 543e c598 8cbe 1169 2bbe
00000120: 96bd 66be 499e 7f3c aa20 58bf 726a 41bf
00000130: 3186 07be edac 063e 9da2 b0be 767e 693e
00000140: e468 0e3f 8870 eabc 9ad9 8dbf 51f0 20be
00000150: 5813 163f 2f1e 503d d9bd 3bbe 6f8a a7be
00000160: d187 0fbe e9be 19be 6edc 063d 7993 963d
00000170: 42ee 2bbf 7f15 1ebf 912c c53e 03b2 0fbf
00000180: 7276 5dbe e0ca 2b3e 4d03 2fbf d19c 8ebe
00000190: 7513 a23d bf80 1c3e 11b3 75bf 87c6 a3be
000001a0: 108f 503e 9af7 833d cf6b d9bd a8d0 0a3d
000001b0: dbac 563e 6379 adba 12a6 45bd 6eaa 47bd
000001c0: d87a 81bd 34ef 73bc 8eb2 b13d 3c99 52bf
000001d0: 2e14 92bd 822c f03d 7d4d ddbe ce8b dcbc
000001e0: d79a 45bd 52f5 6b3e 4158 0ebf 98ac 013d
000001f0: fd60 4c3f 759f aebe 2367 b63e 312e 5bbe
00000200: 14cb 113e ac49 1a3e 4ea5 423e 9015 d43d
00000210: e013 1a3d 50f1 173b eb83 f2bd 1796 07be
00000220: b612 54be dad2 1fbe 2096 77bd e779 8a3d
00000230: 4c13 b43d eff0 d4bd 48b9 bf3d 6836 84bb
00000240: f6bf 69bc c9e7 f03d 1505 07be a1fc 01bd
00000250: 2b46 4e3d 9002 6cbd bee6 b8bd 2b27 c63c
00000260: ba3c bebe 03cb f8bc 45c3 babe 53c1 343e
00000270: a6c6 c6bd 8616 1fbd c8d0 903d 0b85 ca3d
00000280: cbf0 8bbe 6493 24bf 83fd 18bf 493c 6bbe
00000290: 73cc 123d a24e d8be b515 44bf bc21 24bf
000002a0: ef74 9dbe a3ab 653d 16e8 2bbe 0837 18bf
000002b0: bdb8 76be bd5f eebd 59e7 b9be cc15 1ebe
000002c0: bb88 f23e a09f 90be 0173 c83b 5131 cfbe
000002d0: 9abc a83d e252 64be d3da 253e 1761 4e3d
000002e0: d0c6 363d e37b efbd d143 b1be 3372 57be
000002f0: 585e 8dbd 7707 2abe 30a5 433e 572f 51bd
00000300: 7468 433e 2bab 4ebd d32a 3e3d 0e6a 88bd
00000310: 9567 9cbd 7c07 f7bd 6c12 21be 829f 17be
00000320: 8a1a 87be 6275 00bf 4814 62be a50b 26be
00000330: 5a85 bc3d 0894 fbbe d8c8 5c3e 35fc 12bf
00000340: b655 4e3d de88 15bf b961 80be 1c62 9a3d
00000350: fef9 54be d969 cebd d3ed b0be 7d4c 30bd
00000360: 8992 c4be 66d1 a9be 9bb1 073e 4845 97be
00000370: cedc 93be 7ced 00bf 4465 d2be d823 dabc
00000380: 5d55 eebd e12f 33bd da1c 11bf fef7 9dbe
00000390: 2245 c33c def3 193e c022 c13e 54aa 843d
000003a0: bb94 073f 67d1 7fbe 75a3 463e d5f2 953d
000003b0: 6503 4e3d bac9 8fbc ae85 fcbd 6a41 3cbc
000003c0: 6577 e1be 5abc 18bf c4b0 66bc 7adf 903d
000003d0: f368 b0be 3afc 863e 4705 3ebd 9bd3 81be
000003e0: 9d89 e7bd 87d8 26be c09a 9e3d 650b 873c
000003f0: fa96 323d b7b9 123e d560 953d 822c 513d

SecondConv.0.bias f4 [50]
0.035368767 0.07078665 -0.03482132 -0.04679789 -0.021219973 0.01604861 -0.033061717 0.045607574
-0.03436405 0.08415977 0.058270995 0.0050408156 -0.07786986 -0.034568243 0.0938742 0.018982777
-0.008431685 -0.02550149 -0.0628337 0.053184893 -0.051125336 0.07777214 0.008421696 -0.0061772787
-0.037410263 0.07232581 -0.06044688 -0.0155557385 0.04352493 0.051395375 -0.018403435 -0.07606472
-0.026934454 -0.076864384 -0.053194057 0.08047431 0.07828796 0.0057570403 0.038821194 0.07460599
-0.106306165 -0.0073913787 -0.013736806 -0.013937518 -0.1007569 0.00085128925 0.053320218 0.067271076
-0.055612 -0.08624665
00000000: d7de 103d 97f8 903d cda0 0ebd 25af 3fbd
00000010: 82d5 adbc 6078 833c b96b 07bd 02cf 3a3d
00000020: 51c1 0cbd f55b ac3d 91ad 6e3d 6d2d a53b
00000030: 3c7a 9fbd 6e97 0dbd 1e41 c03d c581 9b3c
00000040: 0d25 0abc 80e8 d0bc f4ae 80bd 67d8 593d
00000050: cd68 51bd 0047 9f3d 27fb 093c c56a cabb
00000060: 813b 19bd 8e1f 943d 2697 77bd 7fdd 7ebc
00000070: 3247 323d f583 523d cdc2 96bc d2c7 9bbd
00000080: a5a5 dcbc 136b 9dbd 03e2 59bd b7cf a43d
00000090: 7055 a03d 8ea5 bc3b f902 1f3d 06cb 983d
000000a0: 0cb7 d9bd 6133 f2bb 5710 61bc 305a 64bc
000000b0: a259 cebd 0e29 5f3a 4d66 5a3d 6bc5 893d
000000c0: 69c9 63bd 15a2 b0bd

SecondConv.1.weight f4 [50]
0.77860016 0.7545897 0.15817493 0.79788727 0.80297464 0.50840706 0.6871301 0.8071236
0.9008303 0.8246504 0.6574218 0.9127898 0.11332175 0.70274687 0.7235546 0.665835
0.66306436 0.5288477 0.16553505 0.52171814 0.5700352 0.33681834 0.60285324 0.062432498
0.7158571 0.87259007 0.41185242 0.88172597 0.5380792 0.7562202 0.69853497 0.5004253
0.75010353 0.63132894 0.76284987 0.84704983 -0.16526087 0.6395073 0.8797215 0.39080936
0.6028605 0.6065827 0.53518635 0.59255487 0.7516289 0.8123669 0.95148635 0.63426125
0.78001535 0.6739975
00000000: 5752 473f ca2c 413f 9cf8 213e 5742 4c3f
00000010: bf8f 4d3f f726 023f c2e7 2f3f a79f 4e3f
00000020: d19c 663f 4a1c 533f cc4c 283f 98ac 693f
00000030: 3c15 e83d 38e7 333f e03a 393f 2a74 2a3f
00000040: 96be 293f 9062 073f 0582 293e 528f 053f
00000050: d4ed 113f 7473 ac3e 9754 1a3f 38b9 7f3d
00000060: 6942 373f 1062 5f3f 52de d23e cbb8 613f
00000070: 8fbf 093f a697 413f 30d3 323f df1b 003f
00000080: c906 403f c69e 213f 214a 433f 42d8 583f
00000090: 253a 29be c0b6 233f 6e35 613f 2a18 c83e
000000a0: 1155 1a3f 0149 1b3f f901 093f adb1 173f
000000b0: c06a 403f 47f7 4f3f 9c94 733f f25e 223f
000000c0: 16af 473f 1a8b 2c3f

SecondConv.1.bias f4 [50]
-0.4277353 -0.43062174 -0.38533807 -0.31389287 -0.44973308 -0.35100275 -0.32205895 -0.43677202
-0.6677206 -0.5387738 -0.509551 -0.4663995 -0.36501154 -0.554839 -0.60948926 -0.25377616
-0.5821997 -0.30982113 -0.18855584 -0.12801093 -0.21527971 -0.17349565 -0.23885372 -0.3130312
-0.3131021 -0.55832016 -0.24680418 -0.3994549 -0.43931565 -0.6038894 -0.42603207 -0.21330673
-0.24257892 -0.32342985 -0.40455177 -0.26982754 -0.23444347 -0.28886005 -0.29445106 -0.41799292
-0.26312134 -0.33912015 -0.28935838 -0.10457408 -0.5716114 -0.33242258 -0.50741726 -0.25928745
-0.35968453 -0.17714454
00000000: 1f00 dbbe 747a dcbe 084b c5be 91b6 a0be
00000010: 6a43 e6be a2b6 b3be e9e4 a4be 95a0 dfbe
00000020: bdef 2abf 14ed 09bf ef71 02bf eacb eebe
00000030: cbe2 babe ee09 0ebf 7d07 1cbf f3ee 81be
00000040: 0a0b 15bf e0a0 9ebe c814 41be 4c15 03be
00000050: 4972 5cbe d8a8 31be 1296 74be a045 a0be
00000060: eb4e a0be 12ee 0ebf 3cba 7cbe 5a85 ccbe
00000070: fbed e0be 7f98 1abf e020 dabe 146d 5abe
00000080: 9c66 78be 9998 a5be 6921 cfbe d626 8abe
00000090: f311 70be 77e5 93be 4ac2 96be 2b03 d6be
000000a0: d7b7 86be 28a1 adbe c826 94be ef2a d6bd
000000b0: 2055 12bf 4b33 aabe 19e6 01bf 53c1 84be
000000c0: 9228 b8be 6165 35be

SecondConv.1.running_mean f4 [50]
-2.693828 -2.388562 -1.4346205 -2.6626172 -3.386445 -0.23699225 -1.468587 -1.1817425
-1.5064992 -0.33313292 -2.2922053 -3.512107 -0.82177544 -1.1060389 -1.9643166 -1.1342486
-2.6140666 -0.2942451 -1.2413563 -2.130295 -2.790304 -0.5061557 -3.046363 0.19603837
-2.1358707 -2.7326915 -1.1660848 -1.592585 -3.1855001 -1.7022024 -2.5612428 -0.49528468
-2.904882 -2.78046 -3.383714 -2.621864 0.6326238 -3.1677475 -2.2807333 4.5106854
-3.1892648 -1.4853276 0.22838914 -2.5888247 -1.9786732 -1.9088078 -3.1335554 -2.1795466
-3.4945595 -2.229699
00000000: ae67 2cc0 33de 18c0 a5a1 b7bf 5268 2ac0
00000010: 84bb 58c0 19ae 72be a9fa bbbf 5743 97bf
00000020: f7d4 c0bf 6690 aabe 7eb3 12c0 5cc6 60c0
00000030: e05f 52bf af92 8dbf ba6e fbbf 0f2f 91bf
00000040: de4c 27c0 4ba7 96be c3e4 9ebf c156 08c0
00000050: 5794 32c0 6c93 01bf 9df7 42c0 48be 483e
00000060: 1bb2 08c0 6be4 2ec0 4442 95bf d3d9 cbbf
00000070: 3cdf 4bc0 c5e1 d9bf 67eb 23c0 f495 fdbe
00000080: 96e9 39c0 0ef3 31c0 c58e 58c0 9fcc 27c0
00000090: a2f3 213f 60bc 4ac0 89f7 11c0 8957 9040
000000a0: ea1c 4cc0 371f bebf d8de 693e 4eaf 25c0
000000b0: 2a45 fdbf d053 f4bf 2c8c 48c0 b17d 0bc0
000000c0: dda6 5fc0 63b3 0ec0

SecondConv.1.running_var f4 [50]
22.0938 11.188429 4.4717145 14.814418 27.015036 11.808437 14.724925 15.274482
23.495274 12.613437 21.222826 21.583895 2.249846 17.613441 25.457811 12.425444
34.498806 25.047157 4.2291565 11.189724 16.90034 14.024633 17.37841 5.575489
13.693032 25.63834 22.084675 11.402068 24.686008 25.769087 27.98369 28.003792
21.758535 16.819609 18.773914 15.418544 2.2246075 17.167788 10.983518 40.244747
18.92182 10.879428 7.920658 18.732933 18.339247 12.218651 20.628534 17.53741
26.794516 10.121804
00000000: 1ac0 b041 ce03 3341 4918 8f40 db07 6d41
00000010: cb1e d841 5cef 3c41 4b99 6b41 4764 7441
00000020: 52f6 bb41 a3d0 4941 59c8 a941 d1ab ac41
00000030: 7afd 0f40 54e8 8c41 99a9 cb41 9ece 4641
00000040: c7fe 0942 9460 c841 4055 8740 1c09 3341
00000050: e533 8741 e664 6041 fc06 8b41 686a b240
00000060: a916 5b41 521b cd41 6aad b041 df6e 3641
00000070: f27c c541 1727 ce41 99de df41 c407 e041
00000080: 7b11 ae41 8f8e 8641 fa30 9641 5bb2 7641
00000090: f85f 0e40 a157 8941 7dbc 2f41 9ffa 2042
000000a0: e35f 9741 2312 2e41 0876 fd40 0cdd 9541
000000b0: c7b6 9241 987f 4341 3d07 a541 9e4c 8c41
000000c0: 2b5b d641 e9f2 2141

ThirdConv.0.weight f4 [100, 50, 1, 5]
0.71773696 0.14351453 0.73147696 0.262269 0.14179847 0.30251026 -0.17328298 0.06620487
0.053254157 0.05179535 -0.21683417 0.22855014 0.30903155 -0.020902645 0.06855786 0.18945107
0.30988935 -0.17448272 -0.19237062 0.2338105 0.28779823 -0.0050113644 0.13556345 0.16993342
0.46781987 0.12845285 0.32360062 0.27391744 -0.24701573 -0.16164039 0.11820283 0.22336237
0.10680734 0.10544967 0.20561823 -0.7169091 -0.3030654 -0.21518047 0.26959437 0.1408559
-0.0012034675 -0.4285427 -0.084783435 -0.12476907 -0.6644594 -0.14274506 0.025163276 0.24811377
0.25579128 -0.2539761 -0.17870523 0.09368116 0.45770502 -0.09295867 0.12642355 0.2800351
0.16583064 -0.0043523465 -0.21762665 0.14705619 0.05968166 -0.31070325 0.05977204 0.012413293
-0.04335337 -0.8130334 -0.015422878 0.13683984 -0.03596706 -0.29273036 -0.012266622 -0.040994767
0.07594529 0.26818174 0.07482415 -0.20567179 -0.0010605544 -0.34140465 0.3666835 0.3937352
-0.057524994 -0.24442323 0.3176253 -0.124011114 0.15822251 0.4787462 -0.71057147 -0.514747
0.34639886 -0.55389047 -0.0088426 0.027963387 0.035125438 0.12751809 0.08633281 0.16124375
0.39978206 0.36369005 0.22592923 0.2212662 0.36115468 0.0710207 0.15642865 0.26842102
0.18197425 0.0195351 0.22248735 0.33532652 0.2352283 0.7079352 0.11770526 0.47180176
0.057825662 0.22149658 0.34595874 0.07205049 -0.082818076 0.013455278 0.50766265 -0.23784105
-0.19477779 0.07728782 0.11050132 0.19525664 -0.45473963 0.08196559 -0.29294506 0.01217876
-0.3846621 -0.25571194 0.24122109 -0.07927571 1.3600223 0.7019341 -1.0342184 -0.2940616
-0.08534877 0.051456597 0.06967472 0.14374395 -0.30703795 -0.038297884 0.43458012 0.15692931
0.185331 -0.36481392 -0.5750543 -0.28001827 -1.04591 0.15999638 -0.019811554 -0.1931264
-0.15210299 -0.5289009 -0.2874436 0.22616072 -0.43179262 -0.37752637 0.29301408 -0.86182505
-0.04017538 0.3399053 -0.025459813 -0.036472928 0.21431974 -0.44368827 0.065726854 0.15732269
-0.6941516 -0.33315003 -0.3629482 -0.06933677 0.017339487 -0.15117757 0.09840034 0.117311396
0.08241837 0.07655408 0.2246278 0.0012643994 -0.09808402 -0.007470736 -0.30664083 0.23988691
0.0036254292 -0.07671834 0.082326 -0.462102 -0.37386596 0.01472112 -0.110739976 0.14593524
-0.051804785 0.15946348 0.05053753 -0.7257613 -0.046882264 -0.56680954 0.046517916 -1.1505661
0.16576655 0.29099208 -0.026045194 0.13512525 -0.28492114 0.06721816 0.5919013 0.035867095
0.06452561 0.3147228 -0.17873663 0.6084185 0.18789025 -0.05369697 0.5330909 0.14870594
-0.07996743 0.1306731 0.109469086 -0.106329754 -0.3625558 0.1110376 0.013701021 -0.035175484
-0.69713867 0.27467665 0.38554317 0.18646115 0.17160448 -0.106168464 0.2820307 0.06222615
-0.4418337 -0.12821227 -0.39939994 -0.27087072 -0.011982601 0.25364858 -0.0039783632 0.54888153
0.09507873 0.209421 -0.03654259 0.09846267 -0.53778225 0.048163544 0.26607132 0.02340255
-0.08496482 -0.07217964 -0.5944668 0.6256634 -0.05333499 0.7126144 0.30399278 0.23475201
00000000: 9cbd 373f 79f5 123e 1342 3b3f 1f48 863e
00000010: 9e33 113e a0e2 9a3e 1871 31be 6b96 873d
00000020: 0821 5a3d 5c27 543d c709 5ebe 0c09 6a3e
00000030: 6239 9e3e 063c abbc 1068 8c3d 76ff 413e
00000040: d1a9 9e3e 99ab 32be cefc 44be 056c 6f3e
00000050: 4a5a 933e 5f36 a4bb 25d1 0a3e 0703 2e3e
00000060: 1686 ef3e 2589 033e fbae a53e e83e 8c3e
00000070: b1f1 7cbe 0f85 25be 5314 f23d 1bb9 643e
00000080: cfbd da3d fff5 d73d 968d 523e 5b87 37bf
00000090: 632b 9bbe 4558 5cbe 4608 8a3e 873c 103e
000000a0: abbd 9dba f369 dbbe f0a2 adbd ed86 ffbd
000000b0: 031a 2abf c32b 12be 3723 ce3c 8911 7e3e
000000c0: 13f7 823e 2809 82be 81fe 36be e8db bf3d
000000d0: 5058 ea3e 1d61 bebd 2d75 013e c360 8f3e
000000e0: 82cf 293e 219e 8ebb 85d9 5ebe e695 163e
000000f0: c274 743d 7f14 9fbe 87d3 743d 2061 4b3c
00000100: 4e93 31bd f522 50bf 3db0 7cbc be1f 0c3e
00000110: 3252 13bd c1e0 95be f1f9 48bc 21ea 27bd
00000120: 3489 9b3d 1e4f 893e 673d 993d a09b 52be
00000130: 4d02 8bba 97cc aebe f1bd bb3e a997 c93e
00000140: 549f 6bbd 154a 7abe c99f a23e 8af9 fdbd
00000150: 1505 223e 391e f53e 03e8 35bf 76c6 03bf
00000160: 315b b13e c4cb 0dbf 8de0 10bc 7913 e53c
00000170: b1df 0f3d 1a94 023e 42cf b03d 151d 253e
00000180: 3cb0 cc3e 9535 ba3e fe59 673e 9b93 623e
00000190: 44e9 b83e 4d73 913d d52e 203e 7b6e 893e
000001a0: 7557 3a3e 1308 a03c b9d3 633e ebaf ab3e
000001b0: b0df 703e 3e3b 353f 750f f13d 0090 f13e
000001c0: 9ada 6c3d 00d0 623e 8121 b13e 358f 933d
000001d0: 869c a9bd 8773 5c3c 2ef6 013f 9b8c 73be
000001e0: d473 47be 1449 9e3d 844e e23d 5bf1 473e
000001f0: a2d3 e8be 93dd a73d e5fc 95be 6c89 473c
00000200: 6ef2 c4be adec 82be a902 773e 4e5b a2bd
00000210: 3615 ae3f f4b1 333f 4561 84bf 3e8f 96be
00000220: 56cb aebd 27c4 523d 9fb1 8e3d 9d31 133e
00000230: 1434 9dbe 3ede 1cbd 4981 de3e 14b2 203e
00000240: 69c7 3d3e e4c8 babe c236 13bf 8e5e 8fbe
00000250: 61e0 85bf 17d6 233e d74b a2bc edc2 45be
00000260: e3c0 1bbe 0d66 07bf cf2b 93be ad96 673e
00000270: ec13 ddbe 234b c1be f105 963e 91a0 5cbf
00000280: f08e 24bd 1108 ae3e 1991 d0bc a364 15bd
00000290: a276 5b3e 1c2b e3be cd9b 863d 3319 213e
000002a0: ebb3 31bf a492 aabe 59d4 b9be 7000 8ebd
000002b0: 8a0b 8e3c 4bce 1abe 1e86 c93d f540 f03d
000002c0: f6ca a83d 63c8 9c3d d404 663e 34ba a53a
000002d0: 46e0 c8bd 13cd f4bb 0700 9dbe eaa4 753e
000002e0: 9c98 6d3b 811e 9dbd 899a a83d a298 ecbe
000002f0: 5c6b bfbe da30 713c a4cb e2bd 0c70 153e
00000300: 4131 54bd 654a 233e 7100 4f3d 7ecb 39bf
00000310: 9e07 40bd 6e1a 11bf 9289 3e3d c045 93bf
00000320: b5be 293e eafc 943e bb5c d5bc 465e 0a3e
00000330: 2fe1 91be ada9 893d d886 173f 60e9 123d
00000340: 0126 843d 5923 a13e bc06 37be 51c1 1b3f
00000350: 4d66 403e 5bf1 5bbd a578 083f 5f46 183e
00000360: f7c5 a3bd 2bcf 053e 5431 e03d 6ac3 d9bd
00000370: eaa0 b9be ae67 e33d 3f7a 603c 2b14 10bd
00000380: ae77 32bf 6ba2 8c3e ea65 c53e acef 3e3e
00000390: 16b9 2f3e da6e d9bd 5466 903e d9e0 7e3d
000003a0: 0738 e2be 144a 03be 267e ccbe 91af 8abe
000003b0: ac52 44bc 3ade 813e ee5c 82bb 8083 0c3f
000003c0: a3b8 c23d 7572 563e afad 15bd cca6 c93d
000003d0: 19ac 09bf 2347 453d 803a 883e b4b6 bf3c
000003e0: 0902 aebd ebd2 93bd fa2e 18bf 7a2b 203f
000003f0: ca75 5abd e66d 363f f1a4 9b3e d562 703e

ThirdConv.0.bias f4 [100]
0.0019985167 -0.046608794 -0.033072315 -0.051714174 -0.027477087 0.025015095 -0.08142711 0.015505979
-0.03678344 0.07755891 -0.01276338 -0.048686467 -0.076164626 0.013548707 -0.024094226 0.06512163
0.020970374 -0.007338127 0.049686246 0.031704824 -0.03174703 0.039881624 0.022231441 0.009893225
0.09853176 0.021357844 0.04799636 -0.025598595 0.0024827658 -0.0069711115 -0.04656237 -0.0009828818
0.0031916527 0.04081198 0.09481148 -0.015205174 -0.053855028 -0.055279154 -0.015154393 0.01270852
0.06933498 0.05637343 -0.04732511 -0.03968234 0.010305319 -0.049758617 -0.025572402 0.043859236
0.06775431 -0.005806476 -0.035418976 -0.042882714 -0.05452334 0.03192193 -0.025702583 0.016133877
-0.012445959 -0.008139104 -0.04221534 0.0637681 0.01269565 0.0425148 -0.04235192 0.04006468
-0.0031241018 -0.03744701 -0.05189588 -0.022199268 0.008139952 -0.028821172 0.044866335 -0.042345095
-0.044351894 -0.037994318 0.02459176 -0.007831034 -0.01801883 0.022279773 0.044917732 -0.010606881
-0.0024083275 0.027021298 -0.042972434 0.043143995 0.041928425 -0.026805937 -0.020119302 -0.0056255176
0.07995609 -0.0036512145 -0.051725373 0.028790511 0.039015904 0.019330122 0.011702811 -0.042946078
-0.007550659 0.03071915 -0.0042626457 -0.004080232
00000000: 8cf9 023b dde8 3ebd d676 07bd 3ed2 53bd
00000010: a117 e1bc 75ec cc3c 42c3 a6bd ca0c 7e3c
00000020: 3baa 16bd 35d7 9e3d 7f1d 51bc 766b 47bd
00000030: 33fc 9bbd 65fb 5d3c 4161 c5bc 7d5e 853d
00000040: 10ca ab3c ac74 f0bb ce83 4b3d ebdc 013d
00000050: 2c09 02bd ea5a 233d b61e b63c 3117 223c
00000060: 05cb c93d a5f6 ae3c d597 443d 25b4 d1bc
00000070: e6b5 223b ec6d e4bb 2fb8 3ebd 0ad4 80ba
00000080: 0c2b 513b 762a 273d 852c c23d 1f1f 79bc
00000090: 1797 5cbd 656c 62bd 224a 78bc 6537 503c
000000a0: 7fff 8d3d d3e7 663d f9d7 41bd f389 22bd
000000b0: a4d7 283c b1cf 4bbd 377d d1bc bea5 333d
000000c0: c6c2 8a3d 4044 bebb 7d13 11bd c9a5 2fbd
000000d0: de53 5fbd 92c0 023d 398e d2bc 312b 843c
000000e0: 23ea 4bbc e059 05bc fee9 2cbd da98 823d
000000f0: 6a01 503c 0024 2e3d 3579 2dbd dd1a 243d
00000100: bbbd 4cbb 0962 19bd c690 54bd 3ddb b5bc
00000110: 6f5d 053c 611a ecbc c3c5 373d 0d72 2dbd
00000120: 55aa 35bd ee9f 1bbd a974 c93c bd4d 00bc
00000130: 3a9c 93bc 1284 b63c a8fb 373d 7cc8 2dbc
00000140: 08d5 1dbb c55b dd3c dd03 30bd c2b7 303d
00000150: 24bd 2b3d 2098 dbbc 3cd1 a4bc 4356 b8bb
00000160: 05c0 a33d 3749 6fbb fcdd 53bd 14da eb3c
00000170: 24cf 1f3d 345a 9e3c 26bd 3f3c 3ae8 2fbd
00000180: 856b f7bb baa6 fb3c aaad 8bbb 78b3 85bb

ThirdConv.1.weight f4 [100]
0.23410515 0.57087696 0.75545865 0.7129059 0.62340754 0.84036857 0.7071792 0.7993827
0.31393084 0.6864003 0.72188914 0.71976715 0.95721644 0.51450324 0.8267558 0.64788866
0.93194205 0.83917356 0.7946366 0.7129895 0.59398633 0.6105432 0.771437 0.6524166
1.1035861 0.9003937 0.59984374 0.20238647 0.5148402 0.7679346 0.5403199 0.9443047
0.46531987 0.7096087 0.93815225 0.43759006 0.21954927 0.7598245 0.6084537 0.7064206
1.0820267 -0.06051308 0.61709315 0.8487597 0.58747905 0.8145785 0.06869239 0.8211103
0.9959647 0.5839575 0.39626116 0.6545124 0.3764878 0.47858548 0.6452131 0.95054924
0.599849 0.9115597 0.6959793 0.81420285 0.85912955 -0.36913383 0.6774383 0.7445455
0.7201203 0.7723121 0.48578596 1.0423124 0.6434173 0.3599321 0.75540984 0.70307904
0.5697099 0.5517636 0.49998543 0.56338453 0.19233143 0.24479431 -0.082812056 0.78094196
0.8232961 0.9135335 1.1216687 0.58837724 0.5187542 0.803334 0.62622434 0.5468868
0.91644704 0.3615003 0.76348674 0.0063569006 0.4784337 0.9153861 0.7775582 0.4583609
0.5363841 0.21599957 0.15270229 0.65756583
00000000: 43b9 6f3e fe24 123f bd65 413f 0081 363f
00000010: a397 1f3f 6522 573f b209 353f 58a4 4c3f
00000020: 8bbb a03e eeb7 2f3f bacd 383f a942 383f
00000030: 230c 753f 7cb6 033f 45a6 533f 08dc 253f
00000040: c193 6e3f 14d4 563f 4e6d 4b3f 7b86 363f
00000050: 7d0f 183f 8f4c 1c3f e57c 453f c604 273f
00000060: 4f42 8d3f 3480 663f 5c8f 193f 663e 4f3e
00000070: 91cc 033f 5d97 443f 6852 0a3f f4bd 713f
00000080: 683e ee3e eaa8 353f bf2a 703f ce0b e03e
00000090: 86d1 603e dc83 423f 9fc3 1b3f fbd7 343f
000000a0: da7f 8a3f 90dc 77bd d1f9 1d3f 5148 593f
000000b0: 0765 163f 3788 503f 99ae 8c3d 4934 523f
000000c0: 8bf7 7e3f 3d7e 153f bee2 ca3e 208e 273f
000000d0: 02c3 c03e 2809 f53e b02c 253f 3257 733f
000000e0: b48f 193f fa5b 693f b32b 323f 996f 503f
000000f0: eaef 5b3f 1cff bcbe 996c 2d3f 899a 3e3f
00000100: ce59 383f 3fb6 453f f0b8 f83e 7e6a 853f
00000110: ffb6 243f 0549 b83e 8a62 413f fdfc 333f
00000120: 82d8 113f 6140 0d3f 17fe ff3e f839 103f
00000130: 88f2 443e 5cab 7a3e 5e99 a9bd d0eb 473f
00000140: 89c3 523f 55dd 693f d792 8f3f e49f 163f
00000150: 13cd 043f 4ca7 4d3f 3d50 203f c600 0c3f
00000160: 469c 6a3f 9116 b93e de73 433f 8c4d d03b
00000170: 43f5 f43e be56 6a3f 0e0e 473f 48ae ea3e
00000180: 7850 093f fe2e 5d3e fd5d 1c3e 3c56 283f

ThirdConv.1.bias f4 [100]
-0.047666468 -0.53173476 0.009687891 -0.26339886 -0.46757185 -0.37257057 -0.4690236 -0.24285264
-0.2666417 -0.16831994 -0.3833994 -0.16295397 -0.5898532 -0.51723075 -0.037289776 -0.076031625
-0.6427906 -0.34794587 -0.20396492 -0.45249858 -0.01197122 -0.13809758 -0.31554037 -0.3434163
-0.576038 -0.30952132 -0.7662204 -0.18611176 -0.13271727 -0.2275916 -0.29387283 -0.2687237
0.1982043 -0.4672383 -0.6104137 -0.2943333 -0.31093204 -0.5871135 -0.0030205508 -0.36798653
-0.25875348 -0.47499102 -0.13760035 -0.27501854 -0.2532087 -0.69274926 -0.19854912 -0.5781549
-0.39070654 -0.47194594 -0.30772504 -0.26036453 -0.037850022 -0.20817623 -0.60389745 -0.6451099
-0.26512694 -0.32135493 -0.34486374 -0.35562465 -0.005446289 -0.39138547 -0.5430804 -0.2364272
-0.26947433 -0.06398096 0.00073488685 -0.4080368 0.018844744 -0.1913477 -0.30813566 -0.21145576
-0.15496422 -0.12294607 -0.04191804 -0.58546036 -0.48516026 -0.04350386 -0.22034276 -0.4254435
-0.23534611 -0.24613315 -0.4398343 0.026008224 -0.3073101 -0.3716127 -0.17274766 -0.1751682
-0.18622452 -0.0012700052 -0.2670471 -0.24560305 -0.14829406 -0.28186005 -0.017160177 -0.2249354
-0.29603198 -0.30337864 -0.20678289 -0.049294684
00000000: ea3d 43bd c51f 08bf f6b9 1e3c 37dc 86be
00000010: 9465 efbe 92c1 bebe dc23 f0be 5dae 78be
00000020: 4385 88be 105c 2cbe ed4c c4be 68dd 26be
00000030: 9f00 17bf 3c69 04bf 2abd 18bd 78b6 9bbd
00000040: ed8d 24bf f625 b2be 2edc 50be e5ad e7be
00000050: f022 44bc 7469 0dbe 828e a1be 43d4 afbe
00000060: 3a77 13bf 9479 9ebe 0527 44bf 1594 3ebe
00000070: 09e7 07be c60d 69be 8076 96be 2796 89be
00000080: 11f6 4a3e dc39 efbe 1244 1cbf dbb2 96be
00000090: 7c32 9fbe 124d 16bf 6ff4 45bb bb68 bcbe
000000a0: 567b 84be 0632 f3be 1be7 0cbe 3bcf 8cbe
000000b0: 92a4 81be 0458 31bf 7650 4bbe f601 14bf
000000c0: b00a c8be e6a2 f1be 238e 9dbe 804e 85be
000000d0: a008 1bbd 262c 55be 0699 1abf ec25 25bf
000000e0: b8be 87be a288 a4be fb91 b0be 6f14 b6be
000000f0: c976 b2bb ad63 c8be 5107 0bbf f919 72be
00000100: 8af8 89be 7308 83bd 6ca5 403a 33ea d0be
00000110: 4b60 9a3c a7f0 43be f5c3 9dbe dc87 58be
00000120: f1ae 1ebe 26cb fbbd 40b2 2bbd bbe0 15bf
00000130: ed66 f8be 1a31 32bd 88a1 61be bbd3 d9be
00000140: 92fe 70be 540a 7cbe f631 e1be 330f d53c
00000150: c057 9dbe 0544 bebe c3e4 30be 4b5f 33be
00000160: a4b1 3ebe 4e76 a6ba 66ba 88be 5e7f 7bbe
00000170: 66da 17be f64f 90be 8093 8cbc 7755 66be
00000180: 8191 97be 7254 9bbe e5be 53be 39e9 49bd

ThirdConv.1.running_mean f4 [100]
0.73013353 -0.2961632 0.7143799 -0.4919074 0.19321033 0.24270776 -0.7934133 -0.70946085
0.13924439 0.6225896 -0.5022781 -0.0149751855 -0.23184001 0.103762776 -0.05485555 0.5454206
-0.9420555 -2.044655 -0.061753523 0.30996618 0.39522758 0.6536314 -0.72759056 0.028551843
-1.1101636 -0.6100246 -1.2163968 0.72800136 0.47471532 -0.5035641 0.62012964 0.28935534
1.1893231 -0.058860023 -1.4204204 0.63950795 -0.10529344 -0.90436804 0.55391127 0.27915663
-2.3199794 -0.38994032 0.14567333 -1.6076982 0.16129604 -0.46466878 -0.9226309 -1.1510568
-0.10800111 -0.31041938 0.73421586 -0.23234382 -0.9868631 0.5965639 -1.483911 -2.0753548
0.46874055 -2.3572676 0.05402271 -0.83641905 0.43852624 -0.19002979 -0.7007815 -2.255372
-0.1854989 0.5847428 0.26252827 -2.4000068 0.14447416 0.19215891 -2.9949002 0.13232078
0.7696089 0.3058215 0.66308427 -0.058604453 0.48342136 0.8347074 -0.32830393 -1.0594854
-0.15305509 -1.1351889 -0.82923144 0.45414093 0.5478336 -0.25666046 -2.1660736 0.24461904
-0.19117562 1.3277454 -1.8725331 0.6999722 0.55708164 -0.67717415 0.73848987 0.018947743
-0.72806954 0.14953117 0.8517676 -0.095389724
00000000: 08ea 3a3f b4a2 97be 9ae1 363f 49db fbbe
00000010: eed8 453e 6288 783e 221d 4bbf 3a9f 35bf
00000020: 1596 0e3e 0862 1f3f 4c95 00bf 7b5a 75bc
00000030: 7867 6dbe 9481 d43d 37b0 60bd afa0 0b3f
00000040: 8d2a 71bf a1db 02c0 43f1 7cbd e3b3 9e3e
00000050: 455b ca3e 6354 273f 6043 3abf 8ee5 e93c
00000060: d719 8ebf 922a 1cbf e4b2 9bbf 4c5e 3a3f
00000070: e30d f33e 94e9 00bf d1c0 1e3f 6226 943e
00000080: bd3b 983f 3517 71bd 56d0 b5bf cbb6 233f
00000090: 16a4 d7bd aa84 67bf 21cd 0d3f 9eed 8e3e
000000a0: 8b7a 14c0 42a6 c7be 642b 153e 0ec9 cdbf
000000b0: ca2a 253e 11e9 edbe 8a31 6cbf d455 93bf
000000c0: b02f ddbd 4aef 9ebe 92f5 3b3f 8aeb 6dbe
000000d0: 0fa3 7cbf 69b8 183f ccf0 bdbf 9dd2 04c0
000000e0: c3fe ef3e 79dd 16c0 eb46 5d3d 8f1f 56bf
000000f0: 8386 e03e 2b97 42be 6b66 33bf 0458 10c0
00000100: 6cf3 3dbe b4b1 153f 1b6a 863e b699 19c0
00000110: 09f1 133e 4ec5 443e 72ac 3fc0 197f 073e
00000120: 1705 453f a394 9c3e e4bf 293f 390b 70bd
00000130: 0183 f73e 62af 553f 7417 a8be 389d 87bf
00000140: 79ba 1cbe df4d 91bf 8348 54bf 2985 e83e
00000150: d33e 0c3f 0069 83be f3a0 0ac0 6a7d 7a3e
00000160: 8bc3 43be 90f3 a93f 2aaf efbf 6131 333f
00000170: e79c 0e3f 495b 2dbf ac0d 3d3f 4c38 9b3c
00000180: c462 3abf b31e 193e 710d 5a3f b05b c3bd

ThirdConv.1.running_var f4 [100]
8.228384 14.162509 5.531928 10.297416 7.635179 11.737913 7.6815057 10.807326
13.51713 8.585273 7.7242355 5.538955 7.140164 7.454856 6.8599095 8.694591
10.737532 12.47336 7.874166 5.382669 6.9599957 6.0400076 9.364219 8.476564
11.183453 9.480039 19.427635 1.507017 6.1946864 7.8873653 4.020092 7.478088
9.383575 7.55276 8.228636 5.5638657 14.849872 10.9126215 5.903821 4.2905493
19.291292 4.121454 9.349213 13.233342 5.139831 9.881584 2.3062716 16.169037
8.037036 24.945621 6.3927574 12.150978 9.321564 5.2205644 26.556543 13.410328
5.397452 19.767128 5.584732 9.182089 7.384319 12.749259 12.775181 12.485865
6.641468 5.3443213 6.841644 8.503906 10.6132145 8.863635 24.74645 5.167761
7.029058 9.835996 10.464216 11.971925 4.372861 5.6666565 1.7591712 22.510038
8.753164 6.200388 8.526712 8.733533 4.4224334 10.704815 10.764801 8.022072
7.811809 6.8535256 10.105924 2.2601786 9.156262 10.786258 5.3283873 7.3019657
23.349695 4.70296 2.6101928 4.003343
00000000: 76a7 0341 a399 6241 8e05 b140 37c2 2441
00000010: 6353 f440 7ece 3b41 e5ce f540 cfea 2c41
00000020: 2a46 5841 475d 0941 f02c f740 1f3f b140
00000030: 397c e440 2e8e ee40 6184 db40 0b1d 0b41
00000040: eecc 2b41 e292 4741 2bf9 fb40 d33e ac40
00000050: 49b8 de40 be47 c140 d7d3 1541 02a0 0741
00000060: 6cef 3241 3dae 1741 cc6b 9b41 efe5 c03f
00000070: df3a c640 4c65 fc40 98a4 8040 7f4c ef40
00000080: 2023 1641 36b0 f140 7ea8 0341 300b b240
00000090: 1399 6d41 199a 2e41 1aec bc40 2e4c 8940
000000a0: 9154 9a41 f3e2 8340 6096 1541 c5bb 5341
000000b0: 7f79 a440 f81a 1e41 f499 1340 305a 8141
000000c0: b397 0041 a290 c741 7891 cc40 686a 4241
000000d0: 2025 1541 dd0e a740 cd73 d441 b490 5641
000000e0: edb7 ac40 1423 9e41 20b6 b240 d6e9 1241
000000f0: 574c ec40 f7fc 4b41 2467 4c41 1ac6 4741
00000100: e886 d440 ae04 ab40 bfee da40 0010 0841
00000110: bacf 2941 73d1 0d41 bbf8 c541 4c5e a540
00000120: 0bee e040 3d60 1d41 6e6d 2741 018d 3f41
00000130: 7aee 8b40 4055 b540 862c e13f 8f14 b441
00000140: f60c 0c41 9469 c640 6a6d 0841 8dbc 0b41
00000150: 9384 8d40 ec46 2b41 a03c 2c41 685a 0041
00000160: 57fa f940 1550 db40 ddb1 2141 c4a6 1040
00000170: 0d80 1241 8394 2c41 2682 aa40 b4a9 e940
00000180: 2dcc ba41 a67e 9640 660d 2740 631b 8040

FourthConv.0.weight f4 [200, 100, 1, 5]
-0.16485089 -0.46581814 -0.08992544 -0.10072156 -0.13138524 -0.11061616 -0.11685772 -0.43476835
0.047594354 -0.30033907 -0.15691538 -0.02245527 -0.040089317 -0.12976389 0.0142673375 0.059984233
0.38758293 0.19628234 -0.15358135 -0.12063992 -0.15291633 -0.12037579 -0.06196665 -0.13758633
-0.10972058 0.39590895 0.054842353 0.06335973 0.10736132 -0.45827943 -0.25799763 -0.25253788
0.032183815 -0.28472564 -0.29033446 -0.1568419 -0.5172743 -0.46944517 0.56684923 0.097752616
0.16689608 -0.055107865 -0.45916796 0.18154332 -0.2838316 -0.03379156 -0.095500775 0.04745222
-0.12914291 -0.14959605 0.012219492 -0.13170962 -0.06392136 0.19887333 -0.1608386 -0.086481504
0.038007848 -0.015343825 -0.03348009 -0.074096575 -0.03522626 -0.25645646 -0.17130643 -0.2203956
-0.30826154 0.08295293 -0.20864372 -0.21256717 -0.15275532 -0.17963721 0.048302725 -0.033992317
-0.04955864 -0.05736711 -0.057898473 -0.029649844 -0.06657637 0.15235786 0.050708342 0.1510765
0.03800466 0.18859221 -0.22192658 0.1304232 -0.39123705 -0.22630778 -0.121397845 -0.11137112
0.19372019 -0.3363007 -0.09604735 -0.0926472 0.021312257 0.17909886 -0.1464473 -0.14698604
-0.12529394 -0.022158707 -0.1545057 -0.20973252 -0.111553304 -0.12573418 -0.17515479 0.09321272
0.781478 -0.17945297 -0.08557696 -0.10821381 -0.0739407 -0.16365622 0.43173188 0.024944743
0.4868683 -0.019896422 -0.21036088 0.18536936 -0.05402972 -0.13892867 0.012795743 -0.10240132
-0.027363034 -0.09322154 -0.23388499 -0.06083794 -0.07713039 0.0590429 0.18358646 0.0767011
0.011855606 -0.10681291 -0.119627036 0.01630579 -0.3067201 -0.31260872 -0.15998141 -0.17723008
-0.04641965 -0.12276786 -0.0894178 -0.029744932 -0.02272644 -0.1206804 -0.13103445 0.04024041
-0.11270723 -0.47374386 -0.10846094 -0.13103765 -0.2693464 -0.12228875 -0.16789928 -0.1802534
-0.060877856 -0.14484416 -0.17049366 -0.042909194 0.19255881 0.014925739 -0.05818269 0.007892712
0.19424023 -0.24481519 -0.19376117 0.19458733 -0.20418689 -0.014353925 0.21114488 -0.5633181
-0.2564096 -0.23617183 -0.0652571 0.16537184 -0.26453695 -0.14661798 0.000568083 0.03776851
-0.13340442 -0.08323575 -0.1011337 -0.017057024 -0.2093287 -0.20785946 -0.29900715 -0.44194534
-0.6143915 0.18006049 -0.198023 -0.02639995 -0.21998814 -0.019208785 0.12425209 0.05524244
0.0012349345 0.049351558 -0.04332545 -0.16093269 -0.16064174 0.18302785 -0.45454293 -0.15915652
-0.03015604 -0.18078713 0.25045452 0.31616604 0.0475355 0.2115731 -0.27269158 0.08494953
-0.18880978 -0.26430368 0.10015284 -0.08633794 -0.15138945 -0.13294819 0.00038687576 -0.22456889
0.1161714 -0.5413533 -0.009627239 -0.26668727 0.27837622 -0.10486383 -0.28861484 0.0138047
0.036407065 0.013256075 -0.11702817 -0.22168307 -0.038714137 0.016519785 -0.0045958827 -0.07288541
-0.13513523 -0.006041518 0.04487617 -0.2128371 -0.16257164 -0.88214844 -0.035364974 -0.6148683
0.064788565 0.02487539 0.05203257 -0.12653494 -0.04768945 -0.07349011 -0.21595532 -0.2467396
0.12909797 -0.16703913 -0.2642904 -0.13592598 -0.31016377 -0.36474913 -0.03313281 -0.20351745
00000000: acce 28be b77f eebe d42a b8bd 1b47 cebd
00000010: da89 06be ba8a e2bd 1a53 efbd f599 debe
00000020: 4cf2 423d 0bc6 99be 6dae 20be 1df4 b7bc
00000030: b234 24bd d3e0 04be 8dc1 693c 07b2 753d
00000040: 4571 c63e 3dfe 483e 6e44 1dbe 1012 f7bd
00000050: 1996 1cbe 9587 f6bd bed0 7dbd 6ee3 0cbe
00000060: 2fb5 e0bd 94b4 ca3e 60a2 603d bfc2 813d
00000070: 40e0 db3d 9aa3 eabe 4418 84be a54c 81be
00000080: 2dd3 033d 8fc7 91be b8a6 94be 2a9b 20be
00000090: 176c 04bf 1e5b f0be 081d 113f 8632 c83d
000000a0: cee6 2a3e c9b8 61bd 1018 ebbe 7ee6 393e
000000b0: 6052 91be 0569 0abd e995 c3bd 425d 423d
000000c0: 0a3e 04be b52f 19be 4434 483c e3de 06be
000000d0: 34e9 82bd 73a5 4b3e e0b2 24be 371d b1bd
000000e0: 1eae 1b3d ab64 7bbc 6b22 09bd f2bf 97bd
000000f0: 6949 10bd 434e 83be f46a 2fbe 62af 61be
00000100: 75d4 9dbe 3ae3 a93d b3a6 55be 35ab 59be
00000110: e46b 1cbe d1f2 37be 14d9 453d 873b 0bbd
00000120: 00fe 4abd c6f9 6abd f326 6dbd 3be4 f2bc
00000130: 3159 88bd b303 1c3e 8db3 4f3d ccb3 1a3e
00000140: c6aa 1b3d 511e 413e b940 63be a98d 053e
00000150: 3950 c8be 3abd 67be 6f9f f8bd 8b16 e4bd
00000160: 965e 463e 9b2f acbe 79b4 c4bd d1bd bdbd
00000170: 0b97 ae3c b165 373e 48f6 15be 8283 16be
00000180: 0e4d 00be 2d86 b5bc be36 1ebe 1fc4 56be
00000190: 0f76 e4bd 76c0 00be c75b 33be 4fe6 be3d
000001a0: f10e 483f 85c2 37be f942 afbd 349f ddbd
000001b0: 396e 97bd 7f95 27be f60b dd3e eb58 cc3c
000001c0: cd46 f93e d2fd a2bc d868 57be 77d1 3d3e
000001d0: 454e 5dbd 5143 0ebe 3ca5 513c c9b7 d1bd
000001e0: 7128 e0bc efea bebd 8c7f 6fbe 3431 79bd
000001f0: 8af6 9dbd f8d6 713d 17fe 3b3e 7715 9d3d
00000200: 043e 423c bac0 dabd 05ff f4bd b893 853c
00000210: 6b0a 9dbe 400e a0be 2bd2 23be cd7b 35be
00000220: 8822 3ebd b76d fbbd ae20 b7bd a5ab f3bc
00000230: cd2c babc 4927 f7bd e52d 06be 21d3 243d
00000240: 0cd3 e6bd 8e8e f2be c520 debd bc2e 06be
00000250: c5e7 89be 8672 fabd caed 2bbe 5994 38be
00000260: 0f5b 79bd 0752 14be e495 2ebe 8dc1 2fbd
00000270: 232e 453e 168b 743c f950 6ebd 6f50 013c
00000280: e9e6 463e d5b0 7abe 5469 46be e741 473e
00000290: 5e16 51be ba2c 6bbc 5d36 583e 9d35 10bf
000002a0: 1e48 83be 07d7 71be 84a5 85bd 3c57 293e
000002b0: 6371 87be 0623 16be 68eb 143a 27b3 1a3d
000002c0: 2b9b 08be 8177 aabd 2f1f cfbd 2cbb 8bbc
000002d0: 435a 56be 1cd9 54be 7717 99be a946 e2be
000002e0: c348 1dbf c761 383e 8bc6 4abe b544 d8bc
000002f0: 9244 61be be5b 9dbc e177 fe3d e645 623d
00000300: 87dd a13a dc24 4a3d 0776 31bd 8acb 24be
00000310: 457f 24be a76b 3b3e dab9 e8be edf9 22be
00000320: cd09 f7bc 4320 39be 933b 803e 84e0 a13e
00000330: 96b4 423d 9ea6 583e 3b9e 8bbe 05fa ad3d
00000340: 5a57 41be d052 87be ef1c cd3d f2d1 b0bd
00000350: d605 1bbe 9223 08be 96d5 ca39 63f5 65be
00000360: 45eb ed3d 2196 0abf 91bb 1dbc 3c8b 88be
00000370: 5487 8e3e d9c2 d6bd 53c5 93be 1c2d 623c
00000380: 931f 153d 0230 593c 77ac efbd e300 63be
00000390: b792 1ebd 8054 873c 0f99 96bb f244 95bd
000003a0: e460 0abe edf7 c5bb 13d0 373d f8f1 59be
000003b0: 2e79 26be 7bd4 61bf ddda 10bd 0268 1dbf
000003c0: deaf 843d 79c7 cb3c 1b20 553d 6092 01be
000003d0: 0356 43bd fc81 96bd 6423 5dbe 4ea9 7cbe
000003e0: 4232 043e 4e0c 2bbe 1251 87be 2e30 0bbe
000003f0: c9cd 9ebe 66c0 babe 45b6 07bd e166 50be
