NCTU2/DeepConvNet/DeepConvNet_ReLU.pkl (torch_old, 612237 bytes, 28 tensors)

FirstConv.0.weight f4 [25, 1, 1, 5]
0.2772419 -0.09986265 -0.3466367 0.40655673 0.32886317 0.07042616 -0.12926252 -0.37737414
-0.03626549 0.4024461 0.112428956 0.052540224 -0.27720544 -0.041959025 -0.10944857 0.37516686
-0.47974098 0.0680821 0.40504992 0.39038455 -0.21355774 0.41048673 0.028325832 -0.21026275
0.20823836 0.28636518 0.00929341 0.40466806 -0.38596264 0.04237538 -0.15587927 -0.20328373
-0.2955123 0.0774213 0.37860113 -0.18805468 -0.16817397 0.034517135 -0.44744095 0.26368856
-0.23790379 -0.2102297 0.2322217 0.23911953 -0.13155822 -0.12300326 -0.11347974 -0.005994672
-0.15260479 -0.38959643 -0.1629352 0.01689502 0.2328445 -0.348243 -0.43887 -0.33834442
0.3850195 -0.3151854 0.315371 0.39527577 -0.073792785 -0.27455395 -0.17995995 -0.22769114
0.28961226 -0.29119927 -0.20627095 0.13549788 -0.20535518 0.17069846 0.3897212 0.06443013
0.34930843 0.17388397 0.20746653 -0.29224563 -0.14284995 0.1904637 -0.058838893 0.07322935
-0.013113396 0.22065398 -0.20945588 0.13941789 0.22958258 0.36995628 0.23847716 0.5219493
-0.1268657 0.33495218 0.24096777 0.061935846 -0.2793681 -0.28534183 0.18121056 -0.14566727
-0.006971093 -0.065657094 0.2596884 0.46901593 -0.4260753 -0.5670526 0.14472993 -0.33514768
-0.37436935 0.3316471 -0.2506479 -0.28818116 0.29044932 -0.07381517 -0.29599765 -0.42086992
-0.43234068 -0.16622531 -0.40019593 -0.33740515 -0.22684863 -0.40890017 0.24117999 -0.34121487
0.3903675 0.3145661 -0.1727681 0.50269127 -0.15011238
00000000: a6f2 8d3e ca84 ccbd 5e7a b1be 3428 d03e
00000010: c160 a83e 973b 903d 655d 04be 2f37 c1be
00000020: 1f8b 14bd 6a0d ce3e 2741 e63d 6b34 573d
00000030: dfed 8dbe 3add 2bbd 9226 e0bd df15 c03e
00000040: 9ca0 f5be a16e 8b3d b462 cf3e 7ce0 c73e
00000050: e1ae 5abe 512b d23e 930b e83c 1e4f 57be
00000060: 703c 553e 759e 923e 6343 183c a730 cf3e
00000070: e59c c5be ce91 2d3d d19e 1fbe 9c29 50be
00000080: 634d 97be 0f8f 9e3d 02d8 c13e 6891 40be
00000090: cc35 2cbe d761 0d3d fb16 e5be 3002 873e
000000a0: 0d9d 73be 7446 57be 86cb 6d3e c0db 743e
000000b0: 33b7 06be 22e9 fbbd 1168 e8bd f46e c4bb
000000c0: 6e44 1cbe 2f79 c7be 7cd8 26be 6d67 8a3c
000000d0: ca6e 6e3e e84c b2be 92b3 e0be 7b3b adbe
000000e0: 4721 c53e fb5f a1be 4f78 a13e 9661 ca3e
000000f0: ac20 97bd 5692 8cbe 6c47 38be de27 69be
00000100: 0f48 943e 1218 95be b138 53be f5bf 0a3e
00000110: a148 52be 94cb 2e3e 8a89 c73e f2f3 833d
00000120: 8ed8 b23e a40e 323e 1b72 543e 38a1 95be
00000130: 4247 12be eb08 433e 0d01 71bd 45f9 953d
00000140: 92d9 56bc 1ef3 613e 9a7b 56be 90c3 0e3e
00000150: b217 6b3e e96a bd3e 5b33 743e 789e 053f
00000160: 15e9 01be da7e ab3e 41c0 763e 71b0 7d3d
00000170: 5609 8fbe 5318 92be 438f 393e cd29 15be
00000180: c46d e4bb 3a77 86bd e1f5 843e db22 f03e
00000190: 8b26 dabe 5c2a 11bf 1534 143e 7a98 abbe
000001a0: 57ad bfbe a6cd a93e ec54 80be 7b8c 93be
000001b0: c6b5 943e 682c 97bd 018d 97be 437c d7be
000001c0: c25b ddbe f836 2abe 7be6 ccbe 5ec0 acbe
000001d0: 024b 68be 5d5b d1be e3f7 763e b7b3 aebe
000001e0: 40de c73e cf0e a13e 1fea 30be 60b0 003f
000001f0: 0fb7 19be

FirstConv.0.bias f4 [25]
0.34534907 -0.2921158 -0.22083996 -0.12051218 -0.24390028 -0.4129844 -0.012920406 -0.28716817
0.29092842 -0.25498104 -0.091485925 -0.31205 0.056687817 -0.08922701 0.22187114 0.30205658
0.26934338 -0.3221878 0.0711089 0.04961167 0.23013452 -0.43049568 0.21532294 0.27389252
0.42310312
00000000: 98d1 b03e 3490 95be df23 62be 17cf f6bd
00000010: ffc0 79be b172 d3be 1cb0 53bc b507 93be
00000020: 92f4 943e e08c 82be f95c bbbd 05c5 9fbe
00000030: 7c31 683d a7bc b6bd 3032 633e 29a7 9a3e
00000040: 60e7 893e cdf5 a4be 8ba1 913d 9b35 4b3d
00000050: 62a8 6b3e ee69 dcbe 9e7d 5c3e a43b 8c3e
00000060: f9a0 d83e

FirstConv.1.weight f4 [25, 25, 2, 1]
0.09338312 -0.05794155 0.12798055 0.0496466 0.006515925 0.20878614 -0.06913288 -0.19541368
-0.06787918 -0.17712021 0.050963726 -0.004055394 0.13714972 0.09968509 -0.076142125 0.17120606
0.014852745 0.10309172 0.13405702 0.24092948 -0.03735843 0.10946261 -0.067638695 -0.14181636
0.073787645 0.21104921 -0.05218908 -0.026946677 0.103411525 -0.08395738 0.110342115 0.086607285
-0.13895328 -0.1082755 0.10326331 -0.043419547 0.037589833 0.16273768 0.048933454 -0.05150091
-0.04936336 0.19995272 0.077409446 0.034756728 0.010060797 0.018498123 0.07160466 0.0096563
0.021559946 -0.14675477 -0.06979535 0.14616582 0.016578393 0.08362993 0.18891716 0.04120104
0.044974472 0.076118 0.044620603 -0.1329594 -0.18293904 -0.02017232 0.13842191 -0.032201033
0.062477846 0.046653096 0.024311056 -0.11317022 0.06503672 -0.1457335 0.08487184 0.052079212
-0.059606444 0.11928299 0.1022321 0.013470242 0.07149266 0.15621668 -0.01862323 -0.047762804
0.07925004 0.11496739 -0.13515711 0.060478967 -0.051048957 0.057513375 0.041042637 0.2127947
0.03303901 0.04890237 0.2233035 -0.14950536 0.0787176 0.07471444 0.1580479 0.052227665
0.050712254 -0.044528026 -0.15219665 0.08951272 0.12167568 -0.16282575 0.031579312 0.17985122
-0.0673206 0.07726508 -0.09535038 -0.013875492 -0.13929482 -0.001043279 0.073282555 -0.044564378
0.12765811 0.042608567 0.050849855 0.24970342 -0.07233626 0.09561933 -0.10498729 0.116071105
-0.053663716 0.16140625 -0.11003604 0.048508484 0.026321016 0.15844251 -0.074424446 0.11099016
0.020606322 -0.10320717 0.110012166 -0.0046154745 0.08122045 -0.17751895 0.08650807 -0.036302097
0.037341315 0.05160522 0.10683564 -0.1494242 -0.13758042 0.23775844 0.11907873 -0.106025115
-0.011429551 0.10040523 -0.056584705 0.08146497 -0.09728586 -0.19649935 0.13319424 -0.042758606
0.15220569 -0.03532599 -0.07108778 0.14340319 0.09957439 0.02731464 -0.09269518 0.060448878
0.116118774 -0.14806429 -0.044112563 -0.09302973 0.050058346 0.07250389 0.12545416 -0.002840978
-0.0044533424 0.06805636 0.09836514 0.12689875 -0.023515811 -0.17045766 -0.0688262 0.14262699
0.0933917 0.08659501 0.14277202 -0.16734579 0.062692404 0.029226795 -0.026192065 -0.086461626
0.13573416 -0.0724778 0.16292615 -0.07971559 0.037641164 -0.09275237 -0.06003112 0.080266915
0.042735547 -0.020934988 0.096948065 0.06696683 -0.11287888 -0.015728464 -0.13291514 -0.14390887
0.06846377 -0.16405715 0.074211165 0.002587718 0.2286043 0.030692693 -0.019744044 -0.07389679
-0.06559567 -0.08721805 -0.116288535 -0.06936578 0.041831896 0.07190144 0.06604179 0.056254014
-0.027208176 0.0058627925 0.079984136 0.14765893 -0.1174369 0.14784455 -0.076070055 -0.04753771
-0.0007910184 0.028188048 0.09962235 0.049486917 0.05696832 -0.13259077 -0.10796218 -0.062032882
0.05199201 -0.011882288 0.05035195 -0.17471586 -0.04426278 0.0141269285 0.048289977 -0.20285791
-0.048241723 0.20514277 -0.0149354525 0.022846418 -0.056046776 0.041413475 -0.055393465 0.123087145
0.08215905 -0.12969166 -0.04075215 -0.21630599 0.122202955 -0.051053155 -0.016155759 -0.034962695
00000000: a63f bf3d 1e54 6dbd 550d 033e 3c5a 4b3d
00000010: 8a83 d53b 09cc 553e 8a95 8dbd 861a 48be
00000020: 3d04 8bbd 005f 35be 57bf 503d 1ce3 84bb
00000030: fa70 0c3e b227 cc3d 67f0 9bbd a450 2f3e
00000040: ee58 733c c021 d33d 3e46 093e 38b6 763e
00000050: 2705 19bd ef2d e03d 2886 8abd 4f38 11be
00000060: fa1d 973d 491d 583e 37c4 55bd 47bf dcbc
00000070: 6cc9 d33d d9f1 abbd 0cfb e13d 295f b13d
00000080: c549 0ebe 8cbf ddbd b77b d33d b2d8 31bd
00000090: ccf7 193d b5a4 263e 726e 483d 9ef2 52bd
000000a0: 3c31 4abd 68c0 4c3e d888 9e3d 125d 0e3d
000000b0: 0bd6 243c 6089 973c 77a5 923d 7535 1e3c
000000c0: 7c9e b03c e246 16be ddf0 8ebd 7eac 153e
000000d0: 69cf 873c 2b46 ab3d 8073 413e 6cc2 283d
000000e0: 2737 383d c1e3 9b3d 18c4 363d 8226 08be
000000f0: 5f54 3bbe 6c40 a5bc 79be 0d3e 3be5 03bd
00000100: c5e8 7f3d 5117 3f3d fb27 c73c cac5 e7bd
00000110: f931 853d 2a3b 15be 4ad1 ad3d 0351 553d
00000120: e325 74bd a44a f43d 105f d13d 4ab2 5c3c
00000130: be6a 923d 44f7 1f3e be8f 98bc eea2 43bd
00000140: d84d a23d 0674 eb3d a066 0abe cbb8 773d
00000150: b618 51bd 2593 6b3d 531c 283d dbe6 593e
00000160: ea53 073d da4d 483d aca9 643e ef17 19be
00000170: b136 a13d e203 993d 4fd7 213e adec 553d
00000180: a7b7 4f3d 0563 36bd 70d9 1bbe 7252 b73d
00000190: 1931 f93d cbbb 26be 4f59 013d eb2a 383e
000001a0: 62df 89bd 273d 9e3d 0f47 c3bd 0856 63bc
000001b0: 4da3 0ebe a2be 88ba 2a15 963d 2389 36bd
000001c0: cfb8 023e 5286 2e3d f047 503d 41b2 7f3e
000001d0: 0825 94bd 11d4 c33d 9403 d7bd b0b6 ed3d
000001e0: 7cce 5bbd ae47 253e 935a e1bd d5b0 463d
000001f0: 2c9f d73c c13e 223e d86b 98bd cf4e e33d
00000200: 97ce a83c 485e d3bd 0f4e e13d 683d 97bb
00000210: e856 a63d 87c7 35be 252b b13d 82b1 14bd
00000220: 35f3 183d ff5f 533d a5cc da3d a802 19be
00000230: e2e1 0cbe f376 733e 8ddf f33d b223 d9bd
00000240: 0343 3bbc 42a1 cd3d 5dc5 67bd 1bd7 a63d
00000250: cf3d c7bd 2037 49be 1264 083e a623 2fbd
00000260: cfdb 1b3e fcb1 10bd 7896 91bd 49d8 123e
00000270: a8ed cb3d f4c2 df3c f8d6 bdbd 3e99 773d
00000280: aecf ed3d 2a9e 17be 60af 34bd 5f86 bebd
00000290: fb09 4d3d eb7c 943d 0e77 003e b42f 3abb
000002a0: 58ed 91bb 2261 8b3d aa73 c93d bff1 013e
000002b0: 3ba4 c0bc 748c 2ebe c0f4 8cbd cf0c 123e
000002c0: 2644 bf3d b958 b13d d432 123e b25c 2bbe
000002d0: e064 803d 086d ef3c be90 d6bc cb12 b1bd
000002e0: e5fd 0a3e 3e6f 94bd 1dd6 263e ed41 a3bd
000002f0: 9f2d 1a3d f4f4 bdbd 31e3 75bd fb62 a43d
00000300: 780b 2f3d da7f abbc b58c c63d e825 893d
00000310: 0b2d e7bd fbd8 80bc e81a 08be d95c 13be
00000320: bc36 8c3d 99fe 27be 06fc 973d b496 293b
00000330: 3f17 6a3e 3e6f fb3c 43be a1bc 3357 97bd
00000340: 0657 86bd 619f b2bd af28 eebd a50f 8ebd
00000350: ec57 2b3d 1041 933d eb40 873d 9c6a 663d
00000360: aee3 debc ab1c c03b b9ce a33d e733 173e
00000370: c282 f0bd 9064 173e 9eca 9bbd e7b6 42bd
00000380: 595c 4fba 9fea e63c cd06 cc3d cbb2 4a3d
00000390: 9d57 693d e0c5 07be 471b ddbd 3116 7ebd
000003a0: 93f5 543d eead 42bc d93d 4e3d b7e8 32be
000003b0: e44c 35bd a274 673c b6cb 453d fcb9 4fbe
000003c0: 1d99 45bd f210 523e d4b3 74bc 6928 bb3c
000003d0: 4e91 65bd 2da1 293d 42e4 62bd 1d15 fc3d
000003e0: 0143 a83d e4cd 04be baeb 26bd 517f 5dbe
000003f0: 8b45 fa3d 1d1d 51bd 1559 84bc 0b35 0fbd

FirstConv.1.bias f4 [25]
-0.061134014 0.083994605 0.1388153 0.034438673 0.030443583 -0.06611949 0.039872296 -0.017836194
0.13678646 0.01114843 -0.037768945 0.10752381 -0.07355518 -0.08851711 0.102415554 -0.04055445
-0.09900256 -0.034183677 0.142276 0.13465537 -0.1356152 -0.062444482 -0.055201836 0.016970498
-0.067760125
00000000: a967 7abd 5d05 ac3d 9925 0e3e 910f 0d3d
00000010: d264 f93c a869 87bd 2251 233d 361d 92bc
00000020: c011 0c3e e8a7 363c 9cb3 1abd 7135 dc3d
00000030: 19a4 96bd 7548 b5bd 3fbf d13d 6c1c 26bd
00000040: dbc1 cabd 2f04 0cbd cdb0 113e 19e3 093e
00000050: b6de 0abe c9c5 7fbd 521b 62bd b705 8b3c
00000060: d2c5 8abd

FirstConv.2.weight f4 [25]
0.09331413 0.81655127 0.6636787 0.94692546 0.742484 0.0716571 0.09259272 0.25592822
0.8494504 0.31266543 0.561135 0.4911799 0.2770069 0.8102622 0.08328119 0.5393487
0.34296912 0.23323599 0.8454652 0.5065006 0.45440358 0.405497 -0.015962768 0.31971273
0.55051494
00000000: 7b1b bf3d 8109 513f d9e6 293f b569 723f
00000010: 6e13 3e3f f5c0 923d 41a1 bd3d 0609 833e
00000020: 9575 593f af15 a03e 8ba6 0f3f ef7b fb3e
00000030: d9d3 8d3e 586d 4f3f 548f aa3d c212 0a3f
00000040: a699 af3e 6ad5 6e3e 6870 583f 06aa 013f
00000050: 96a7 e83e 4e9d cf3e 5ac4 82bc 63b1 a33e
00000060: 8cee 0c3f

FirstConv.2.bias f4 [25]
-0.12230906 -0.09638319 -0.13403064 -0.15195961 -0.114487626 -0.10230309 -0.14066145 -0.10997758
-0.09119601 -0.12383859 -0.1053302 -0.10987502 -0.13449864 -0.09945047 -0.104163714 -0.1251036
-0.11034436 -0.093352035 -0.1425996 -0.0038049016 -0.10254752 -0.13169773 -0.082770094 -0.07393119
-0.12615094
00000000: 2c7d fabd 8d64 c5bd 543f 09be 4d9b 1bbe
00000010: 7d78 eabd 4884 d1bd 8e09 10be ed3b e1bd
00000020: f9c4 babd 169f fdbd 5cb7 d7bd 2806 e1bd
00000030: 03ba 09be b0ac cbbd c953 d5bd 281b 00be
00000040: 39fc e1bd 5a2f bfbd a105 12be a85b 79bb
00000050: 6f04 d2bd c5db 06be 5e83 a9bd 3c69 97bd
00000060: b62d 01be

FirstConv.2.running_mean f4 [25]
-0.09069532 0.042336244 -0.0636139 -0.07676137 0.01814813 -0.14474012 0.07620249 0.105231486
0.09272864 0.11275376 0.15202358 -0.38165873 -0.17125715 -0.2732379 0.11051126 -0.056145184
0.1264094 0.38340935 0.24080713 0.26504675 -0.2488748 -0.25359076 -0.0048259385 0.16531706
-0.012565757
00000000: 78be b9bd c568 2d3d 0148 82bd 1135 9dbd
00000010: 63ab 943c c136 14be 0d10 9c3d 9b83 d73d
00000020: 83e8 bd3d 71eb e63d 12ac 1b3e c668 c3be
00000030: 095e 2fbe d7e5 8bbe ba53 e23d 7ef8 65bd
00000040: 7771 013e 3b4e c43e 2596 763e 35b4 873e
00000050: 09d9 7ebe a6d6 81be e822 9ebb e048 293e
00000060: 9be0 4dbc

FirstConv.2.running_var f4 [25]
42.708244 29.999458 40.521168 19.523817 39.77735 22.99136 33.55726 19.414759
12.33181 23.634804 29.343464 15.222807 26.200375 32.521088 25.949125 21.515244
54.562027 22.366255 30.03285 8.343058 41.289795 24.694315 47.286068 17.366766
19.947712
00000000: 3ed5 2a42 e4fe ef41 ad15 2242 c730 9c41
00000010: 021c 1f42 4eee b741 a23a 0642 6d51 9b41
00000020: 184f 4541 1414 bd41 6abf ea41 9e90 7341
00000030: 5e9a d141 9815 0242 cf97 cf41 381f ac41
00000040: 843f 5a42 17ee b241 4743 f041 2a7d 0541
00000050: c028 2542 f58d c541 ef24 3d42 23ef 8a41
00000060: ea94 9f41

SecondConv.0.weight f4 [50, 25, 1, 5]
0.102525204 0.022596596 -0.03186509 0.084698915 0.05974185 -0.012706285 -0.025239583 -0.017535768
0.00842997 0.034032132 0.038760047 -0.008315373 0.032071307 -0.0034173436 0.047381185 0.057886515
0.14528383 0.11958637 0.052863456 0.10046579 0.0676673 0.003765151 0.022838453 0.08984432
0.01945123 -0.02343722 0.10423987 0.08452414 0.060043912 -0.058094557 0.043062896 0.110289745
0.060375605 0.117390536 0.0012917006 0.04938545 -0.065243356 0.015349537 -0.10973293 -0.03882593
0.06514863 -0.004219236 0.12210369 -0.0040439237 0.116779946 0.13014464 0.09391744 0.07139839
0.11589724 0.03476324 -0.032558657 0.10908576 -0.010224287 0.12289737 0.039990094 -0.028094228
0.020777347 -0.026494883 -0.12665299 -0.042092886 0.13262859 0.089683756 0.08470662 0.063668996
0.11202115 0.0819603 -0.044728853 0.058758613 0.049148418 0.013442139 0.047994755 0.03481213
-0.048545606 0.04771747 0.13897343 0.13890949 0.17425016 0.11104213 0.16895676 0.039006058
-0.112267755 -0.05377128 -0.03560207 -0.03610168 0.015191044 0.030247184 0.14200683 -0.005978546
0.06588199 0.08012457 0.01858973 -0.023462934 -0.000563996 -0.013858173 0.061829194 0.13512526
0.07354234 0.118661836 0.124520205 0.00954006 0.08853045 0.075661525 0.05747325 0.037604265
0.038269382 -0.0022525361 -0.041033197 -0.02373344 0.037911486 -0.026566226 -0.020340053 -0.064458705
-0.034548666 -0.0017747238 -0.019285986 0.12142167 0.10728951 0.09133623 0.04116323 0.05911213
0.16796485 0.15711789 0.0574356 0.14099869 0.09870763 -0.10812083 -0.029768523 0.02621897
-0.016692983 -0.1347159 -0.014214441 0.017895184 0.052215695 0.11285479 0.0071446337 0.0026714464
-0.08650827 -0.029264871 0.06480124 -0.14116453 -0.03909518 -0.17558597 -0.13408856 -0.04445865
-0.10911048 -0.12444097 -0.13831338 -0.1348996 0.037830066 -0.08569125 0.07044326 0.00816526
-0.0014393104 0.14426032 -0.025835797 -0.12068106 -0.11239384 -0.1460227 -0.0074685775 -0.10253868
0.011233442 0.15162951 -0.036419064 0.09254075 -0.03200626 -0.09199116 0.000732168 -0.0018749303
0.0042756987 -0.040456723 0.026209416 0.027551167 -0.03147463 -0.0957718 -0.08395132 -0.15416153
-0.06717971 -0.16668761 -0.23259887 -0.11678074 0.06686159 0.056738943 -0.044065442 0.115326785
0.037416793 -0.056500748 -0.060174394 -0.12053115 0.003194689 0.07753737 -0.11906744 -0.11122973
0.009147454 -0.029828936 -0.007773783 -0.025651451 0.089780144 0.075148106 0.025835589 -0.026792184
-0.08708356 -0.07598298 -0.16526283 -0.065329805 -0.2096827 0.060149077 0.083855994 -0.060813453
-0.019625029 0.01241247 -0.1255958 -0.14335415 -0.03466988 -0.15580888 -0.09396337 -0.056150887
-0.0671397 0.0010406503 -0.07835238 -0.14521039 0.0052720215 -0.02138465 0.034207303 -0.08358333
0.044929903 -0.0865631 -0.049657036 -0.07161317 -0.07603632 -0.12669685 0.111428276 -0.07068223
-0.027385443 0.06967107 0.017650256 -0.06755922 -0.09676623 -0.043787904 -0.07576601 -0.02498207
-0.0118954 0.016181424 -0.010126188 -0.014709931 -0.025785198 -0.05596098 -0.03832407 0.0549311
0.04955285 -0.033359837 0.09549987 0.009981474 0.13223149 -0.0645855 -0.0035825528 0.0042223623
00000000: bcf8 d13d 7f1c b93c f884 02bd a076 ad3d
00000010: dfb3 743d 062e 50bc 3ec3 cebc 2ca7 8fbc
00000020: db1d 0a3c 4765 0b3d dbc2 1e3d 343d 08bc
00000030: 345d 033d 83f5 5fbb c612 423d 691a 6d3d
00000040: 49c5 143e b3e9 f43d 5a87 583d 02c1 cd3d
00000050: 2795 8a3d c0c0 763b b517 bb3c 4d00 b83d
00000060: 3058 9f3c 6aff bfbc b77b d53d fe1a ad3d
00000070: 9bf0 753d 8ff4 6dbd b862 303d 97df e13d
00000080: 694c 773d 736a f03d 484e a93a 6648 4a3d
00000090: 4f9e 85bd a07c 7b3c a9bb e0bd f007 1fbd
000000a0: a56c 853d 8441 8abb 8011 fa3d e482 84bb
000000b0: 532a ef3d a344 053e c957 c03d 5239 923d
000000c0: 885b ed3d e663 0e3d 3a5c 05bd 5b68 df3d
000000d0: c583 27bc 9eb1 fb3d a7cc 233d de25 e6bc
000000e0: 4135 aa3c cc0b d9bc 52b1 01be 9769 2cbd
000000f0: cacf 073e 1eac b73d aa7a ad3d e464 823d
00000100: 586b e53d cdda a73d 9a35 37bd dfac 703d
00000110: da4f 493d 6b3c 5c3c 2696 443d 2a97 0e3d
00000120: c2d7 46bd 6573 433d 0d4f 0e3e 4a3e 0e3e
00000130: a26e 323e 0e6a e33d 0003 2d3e d1c4 1f3d
00000140: a3ec e5bd 463f 5cbd 7ad3 11bd 5bdf 13bd
00000150: dbe3 783c f1c8 f73c 3d6a 113e aee7 c3bb
00000160: 23ed 863d 5a18 a43d 7d49 983c 5735 c0bc
00000170: 22d9 13ba 640d 63bc 9c40 7d3d 475e 0a3e
00000180: 5e9d 963d fa04 f33d 7304 ff3d e94d 1c3c
00000190: 744f b53d 6ef4 9a3d 1269 6b3d ee06 1a3d
000001a0: 5bc0 1c3d 499f 13bb 6d12 28bd a26c c2bc
000001b0: 1349 1b3d 6aa1 d9bc 2fa0 a6bc ed02 84bd
000001c0: e782 0dbd d99d e8ba a5fd 9dbc edab f83d
000001d0: 9aba db3d 7d0e bb3d c69a 283d 901f 723d
000001e0: fafe 2b3e 83e3 203e 9741 6b3d f661 103e
000001f0: 3a27 ca3d 746e ddbd 1edd f3bc 2ac9 d63c
00000200: b9bf 88bc f7f2 09be b0e3 68bc ec98 923c
00000210: 20e0 553d 6a20 e73d 881d ea3b 6f13 2f3b
00000220: 3f2b b1bd e2bc efbc 83b6 843d 6f8d 10be
00000230: 4422 20bd cfcc 33be 834e 09be 461a 36bd
00000240: 5175 dfbd e8da febd 06a2 0dbe 1f23 0abe
00000250: b3f3 1a3d e57e afbd 8e44 903d 95c7 053c
00000260: 3ea7 bcba fab8 133e 98a5 d3bc a227 f7bd
00000270: be2e e6bd fa86 15be f8ba f4bb cdff d1bd
00000280: 790c 383c c444 1b3e 282c 15bd 0186 bd3d
00000290: ff18 03bd dc65 bcbd f6ee 3f3a 39c0 f5ba
000002a0: 291b 8c3b f3b5 25bd 21b5 d63c fcb2 e13c
000002b0: 8beb 00bd 0124 c4bd abee abbd 85dc 1dbe
000002c0: 8495 89bd 28b0 2abe 662e 6ebe be2a efbd
000002d0: bbee 883d 1867 683d f77d 34bd 7330 ec3d
000002e0: 5a42 193d 546d 67bd 6d79 76bd 09d9 f6bd
000002f0: fd5d 513b eacb 9e3d a1d9 f3bd 6acc e3bd
00000300: 34df 153c d05b f4bc 38bb febb fe22 d2bc
00000310: a7de b73d 40e7 993d 28a5 d33c 487b dbbc
00000320: de58 b2bd f79c 9bbd a93a 29be a2cb 85bd
00000330: 10b7 56be e15e 763d b1bc ab3d 8717 79bd
00000340: abc4 a0bc ac5d 4b3c 2f9c 00be 6ecb 12be
00000350: 0102 0ebd 5d8c 1fbe de6f c0bd 79fe 65bd
00000360: 8a80 89bd 6e66 883a 3677 a0bd 08b2 14be
00000370: ecc0 ac3b dd2e afbc f51c 0c3d bd2d abbd
00000380: 6b08 383d ff47 b1bd 2d65 4bbd eda9 92bd
00000390: eeb8 9bbd d2bc 01be 8234 e43d d8c1 90bd
000003a0: 7057 e0bc b5af 8e3d 4597 903c 7d5c 8abd
000003b0: 602d c6bd f25a 33bd 362b 9bbd 33a7 ccbc
000003c0: ece4 42bc e88e 843c 50e8 25bc ec01 71bc
000003d0: 7b3b d3bc 5737 65bd b3f9 1cbd 6fff 603d
000003e0: eef7 4a3d 53a4 08bd 7095 c33d 5689 233c
000003f0: b167 073e 6745 84bd 43c9 6abb be5b 8a3b

SecondConv.0.bias f4 [50]
0.011757044 -0.060045302 0.04867331 -0.09644993 -0.055561263 0.0129012 0.07462991 -0.040430233
-0.08206599 0.0010782332 -0.019270975 -0.014974989 -0.06110478 0.048542082 -0.019671252 0.030046314
-0.051738583 -0.098769434 -0.07613596 0.0741113 0.013814492 -0.038247652 0.057938937 -0.055609837
-0.027232012 -0.033975545 0.012050619 -0.017160527 0.053513005 -0.04483338 -0.060389016 -0.029340837
-0.07807034 -0.028483184 0.052994523 -0.036417346 -0.0017633103 0.0011515438 0.03710595 0.077155404
-0.073832564 -0.039891984 -0.07403861 -0.038404882 -0.055117518 -0.03984471 -0.093067676 -0.01303097
0.044836406 -0.08136934
00000000: 9ea0 403c 10f2 75bd aa5d 473d 8a87 c5bd
00000010: 3594 63bd 8e5f 533c 91d7 983d 2c9a 25bd
00000020: 3712 a8bd 8153 8d3a 2ade 9dbc a859 75bc
00000030: 0149 7abd 10d4 463d 9b25 a1bc b023 f63c
00000040: d6eb 53bd a147 cabd 2ced 9bbd aac7 973d
00000050: 2e56 623c 92a9 1cbd 6151 6d3d 24c7 63bd
00000060: ab15 dfbc f129 0bbd f66f 453c 3c94 8cbc
00000070: 7430 5b3d 35a3 37bd 795a 77bd 325c f0bc
00000080: 58e3 9fbd 9155 e9bc c910 593d 5b2a 15bd
00000090: e01e e7ba 66ef 963a 69fc 173d a703 9e3d
000000a0: 8735 97bd c765 23bd 8ea1 97bd 704e 1dbd
000000b0: e8c2 61bd 3534 23bd 449a bebd d97f 55bc
000000c0: 61a6 373d f8a4 a6bd

SecondConv.1.weight f4 [50]
0.7505678 -0.105400346 0.27732915 0.6108762 1.0813252 0.68214643 0.56303364 0.1634243
0.29954097 0.20333388 0.75015825 0.6225402 0.7029989 0.7918113 0.4342978 0.944816
0.8726764 0.6033986 0.96990216 -0.006044085 0.8304058 0.9169134 0.31753352 0.47031504
0.30327263 1.0039971 0.8532996 0.7205746 0.9555219 0.053611204 0.51997745 0.45216343
0.67503107 0.37474018 0.27572256 0.13494141 0.08730171 0.781377 0.80411935 0.15058802
0.8298124 0.88374865 0.9535126 0.19512855 0.2328004 0.7830016 0.30986187 0.13875483
0.6096291 0.059176203
00000000: 3625 403f 23dc d7bd 16fe 8d3e 6262 1c3f
00000010: dd68 8a3f 26a1 2e3f f922 103f b358 273e
00000020: 6f5d 993e c236 503e 5f0a 403f cb5e 1f3f
00000030: bcf7 333f 25b4 4a3f 485c de3e 76df 713f
00000040: b867 5f3f 5578 1a3f 824b 783f 760d c6bb
00000050: 7995 543f d6ba 6a3f c193 a23e 22cd f03e
00000060: 8d46 9b3e fa82 803f d871 5a3f 9477 383f
00000070: 159d 743f 6c97 5b3d 3e1d 053f f781 e73e
00000080: d6ce 2c3f f2dd bf3e 822b 8d3e 152e 0a3e
00000090: 3dcb b23d 5308 483f c4da 4d3f bf33 1a3e
000000a0: 966e 543f 5a3d 623f 6719 743f c7cf 473e
000000b0: 3a63 6e3e cb72 483f 37a6 9e3e bf15 0e3e
000000c0: a710 1c3f bf62 723d

SecondConv.1.bias f4 [50]
-0.14417888 -0.13165155 -0.15057068 -0.13237725 -0.1780873 -0.068710536 -0.18269627 -0.16965632
-0.19327864 0.02481927 -0.140506 -0.18339215 -0.1789751 -0.037717585 -0.15644461 -0.025883285
-0.08545596 -0.17903164 -0.15742491 -0.122318886 -0.18034485 -0.024880687 0.022308413 -0.18097797
-0.16324395 -0.15306193 -0.13338295 -0.13287461 -0.17944561 -0.18996635 -0.09834623 -0.1699149
-0.17938563 0.036700692 -0.12060332 0.14284325 -0.11900382 -0.161543 -0.15711991 -0.13895889
-0.02153463 -0.17481315 -0.15303229 0.19348328 0.03960503 -0.0015899484 0.09856239 -0.18863836
0.005762308 -0.16120434
00000000: a1a3 13be aacf 06be 332f 1abe e78d 07be
00000010: 845c 36be 1cb8 8cbd bb14 3bbe 63ba 2dbe
00000020: d6ea 45be c851 cb3c cee0 0fbe 27cb 3bbe
00000030: 4045 37be c17d 1abd 0433 20be 2f09 d4bc
00000040: 8903 afbd 1254 37be ff33 21be 5382 fabd
00000050: 52ac 38be 95d2 cbbc 22c0 b63c 4a52 39be
00000060: 6c29 27be 44bc 1cbe 8a95 08be 4810 08be
00000070: 97c0 37be 8a86 42be c069 c9bd 2cfe 2dbe
00000080: deb0 37be 7753 163d e0fe f6bd 8045 123e
00000090: 46b8 f3bd 876b 25be 0be4 20be 3d4b 0ebe
000000a0: 6469 b0bc 3802 33be 7fb4 1cbe 7b20 463e
000000b0: e238 223d d165 d0ba 14db c93d 6a2a 41be
000000c0: bed1 bc3b c012 25be

SecondConv.1.running_mean f4 [50]
0.6200695 -0.4577809 0.73198056 0.62216204 0.7636425 -0.36913505 0.97125643 0.58337885
0.7616561 -0.30275038 0.8157334 0.8079982 0.70973754 -0.74403113 0.64638084 -0.6693744
0.577883 0.6232627 0.8741588 -0.5390917 1.0442828 -0.6336454 -0.79106975 0.85437125
0.61614144 0.69434756 0.9194359 0.5822291 0.95959485 0.7763689 0.46215943 0.5326738
0.9802807 -0.712154 0.47338095 -0.9371359 0.72292876 1.0236619 1.0233576 0.41568473
-0.8848034 1.0374835 0.6418444 -1.1518874 -0.58983314 -0.82975304 -0.92202395 0.87175363
-0.6355699 0.3969734
00000000: e0bc 1e3f 4262 eabe 1463 3b3f 0346 1f3f
00000010: 137e 433f 45ff bcbe 43a4 783f 5158 153f
00000020: e5fb 423f 1902 9bbe e7d3 503f f8d8 4e3f
00000030: 5cb1 353f d378 3ebf 3779 253f 1f5c 2bbf
00000040: 24f0 133f 258e 1f3f dfc8 5f3f ea01 0abf
00000050: 0fab 853f 9636 22bf 8c83 4abf 13b8 5a3f
00000060: 72bb 1d3f c3c0 313f 2760 6b3f f70c 153f
00000070: 02a8 753f 1dc0 463f 29a0 ec3e 4f5d 083f
00000080: adf3 7a3f b94f 36bf fd5e f23e 23e8 6fbf
00000090: dc11 393f 5a07 833f 62fd 823f a1d4 d43e
000000a0: 7a82 62bf 42cc 843f ea4f 243f 0c71 93bf
000000b0: 4eff 16bf b26a 54bf c309 6cbf 3f2b 5f3f
000000c0: b5b4 22bf 1940 cb3e

SecondConv.1.running_var f4 [50]
0.82680273 0.84234357 0.94455135 1.2896181 2.1045148 0.48911265 1.5895032 1.5586894
1.7426817 1.1409081 1.8550996 1.7738943 1.5468103 0.938084 1.5445855 1.8323128
0.61365443 1.8606977 1.9303129 1.2242292 2.1833658 1.985948 1.3397015 1.770271
1.453695 1.7152871 1.7990617 1.3964603 2.0939708 1.5616088 1.3181787 1.4815838
1.994802 0.8123729 1.2801784 1.4723109 0.81901777 1.7444682 1.9166309 0.86207235
1.129639 2.0759997 1.6608269 2.1849208 1.0996342 1.275504 1.1763015 2.0867362
0.74722236 1.2815293
00000000: 58a9 533f d4a3 573f 1ece 713f 3512 a53f
00000010: 5fb0 0640 f96c fa3e d774 cb3f 2283 c73f
00000020: 3210 df3f 4709 923f e773 ed3f f80e e33f
00000030: e1fd c53f 4626 703f fab4 c53f 3a89 ea3f
00000040: 7518 1d3f 582b ee3f 7e14 f73f 8bb3 9c3f
00000050: 44bc 0b40 8b33 fe3f 577b ab3f 3d98 e23f
00000060: ae12 ba3f 878e db3f a747 e63f 36bf b23f
00000070: 9e03 0640 cce2 c73f 14ba a83f 8aa4 bd3f
00000080: ac55 ff3f acf7 4f3f e3dc a33f af74 bc3f
00000090: 26ab 513f bc4a df3f 2954 f53f c6b0 5c3f
000000a0: 0398 903f 2edd 0440 fa95 d43f bed5 0b40
000000b0: d0c0 8c3f b743 a33f 0c91 963f 168d 0540
000000c0: f749 3f3f 2709 a43f

ThirdConv.0.weight f4 [100, 50, 1, 5]
-0.06436496 -0.026781568 -0.044246126 0.038422298 0.06036584 0.10985315 0.12896533 -0.037531123
0.09880983 0.07243353 -0.0013348261 0.0080374535 0.02902317 0.020906245 -0.008045506 0.063697785
0.17147695 0.051750664 0.1219971 0.021510769 0.049311303 0.036146034 0.04588972 0.010036467
0.12761329 -0.012991855 -0.00049354543 -0.0051195896 0.012316249 0.02987041 0.10259108 0.12654895
0.070436746 0.08705547 0.03965563 0.116501525 0.07881928 0.046023957 0.09797271 -0.04958942
0.041978676 0.07376704 0.06758067 0.10037751 0.13568702 -0.1175528 -0.06391507 -0.064464346
-0.04542189 -0.08136016 0.1431378 -0.011350925 0.013063195 0.041370276 0.13923346 0.089108184
-0.0009546939 0.06333041 0.016925044 0.1002902 0.082074225 0.08463025 0.07109814 0.035139013
0.060317572 0.123030975 0.07307186 0.10797532 0.061437264 0.07154356 0.1131904 0.053825524
0.03817957 0.021042828 0.03631506 0.052684393 0.020494057 0.101008296 0.022128563 -0.006200225
-0.020499524 0.058555838 -0.07312932 -0.04696663 -0.032315526 0.12748133 0.08070211 0.009617021
0.012081137 0.106280714 0.059952717 0.066563115 0.03409745 -0.009989922 0.03185079 0.095870756
0.09291958 0.06844747 -0.0036605145 0.031389453 0.10363942 0.11014237 0.045718335 0.06425034
0.09986306 0.031395964 0.03727868 0.06503002 -0.010054472 -0.0027249097 0.08698302 0.06526568
0.0622827 0.09110593 0.10989088 0.1173639 0.029837675 0.10648029 0.054303277 0.06927655
0.025698628 0.03767711 0.019605096 0.12170404 0.076798744 0.09072511 0.1473239 0.13509443
0.12720601 0.08463143 0.041561212 0.018749084 0.121235 0.054748677 0.047918152 0.065929286
0.12048492 0.10864049 0.057320595 0.042092603 0.04949284 0.02400011 0.044768285 0.108080916
0.01677358 0.13886848 0.037315536 0.03944843 0.0013369195 0.07851436 -0.026756968 0.07760407
0.01988402 0.014373655 0.04853798 0.12162331 0.039810754 0.029190265 0.073933035 0.09351182
0.083683304 0.0070893243 0.03279835 0.057216737 0.07853604 -0.0032088351 0.142069 0.030575901
-0.0027443802 0.062412713 0.081025235 0.045587413 0.10084736 0.15755151 0.040595323 0.12297488
0.06272288 0.13730069 0.09251253 0.043326996 -0.11681003 0.07300522 -0.107383065 0.051584683
-0.049327027 0.071146645 0.041480497 0.043858476 0.00431376 0.07837553 0.09740944 0.08349466
0.0882685 0.06272713 0.02593336 0.017778698 0.059633978 0.02057443 0.12739776 -0.11478007
-0.009144131 0.0426048 0.068833806 0.069505446 0.047589038 0.11174571 0.020135269 0.10820493
-0.0025378796 0.016817618 0.09022882 0.03120882 0.06274035 0.09987362 0.041277163 0.09808773
0.16188541 0.2037087 0.14835158 0.15910476 0.047770556 0.018597677 0.016235651 0.10498231
-0.03405128 0.06759842 0.07326056 0.12041919 0.03193883 0.02908088 0.0682361 0.05949814
0.100404724 0.10592149 -0.0010143975 0.09841951 0.04703784 0.090376265 0.117530756 0.05092122
0.12363933 0.08495355 0.089031346 0.10024476 0.007068205 0.12575498 0.057191957 0.0063562193
0.08534187 -0.021889271 0.03407668 0.016838871 0.0030971721 0.0031153644 -0.00012694446 0.06411492
00000000: c7d1 83bd 0565 dbbc 6d3b 35bd b360 1d3d
00000010: 2c42 773d b0fa e03d 7d0f 043e 3cba 19bd
00000020: cf5c ca3d 0858 943d 55f5 aeba 86af 033c
00000030: 00c2 ed3c 9343 ab3c 4cd1 03bc fc73 823d
00000040: a797 2f3e 81f8 533d 9ed9 f93d 5a37 b03c
00000050: a6fa 493d dd0d 143d dcf6 3b3d fe6f 243c
00000060: 0fad 023e cadb 54bc 4661 01ba 3bc2 a7bb
00000070: 18ca 493c cab2 f43c 461b d23d 0c96 013e
00000080: 2441 903d 234a b23d f16d 223d 5a98 ee3d
00000090: 016c a13d 9e83 3c3d eba5 c83d 471e 4bbd
000000a0: d5f1 2b3d 2d13 973d bc67 8a3d b992 cd3d
000000b0: 8af1 0a3e 86bf f0bd e7e5 82bd e205 84bd
000000c0: 4e0c 3abd 28a0 a6bd b792 123e 3bf9 39bc
000000d0: 0307 563c e173 293d 3793 0e3e 5a7e b63d
000000e0: 6c44 7aba 60b3 813d 64a6 8a3c f364 cd3d
000000f0: 8816 a83d a052 ad3d e79b 913d eded 0f3d
00000100: 8f0f 773d aaf7 fb3d b3a6 953d 2a22 dd3d
00000110: a4a5 7b3d 6e85 923d 5ed0 e73d 2778 5c3d
00000120: 2e62 1c3d 0262 ac3c 1abf 143d 97cb 573d
00000130: 27e3 a73c 70dd ce3d f646 b53c 422b cbbb
00000140: 9eee a7bc 3fd8 6f3d d3c4 95bd 1560 40bd
00000150: 495d 04bd 778a 023e 2647 a53d b690 1d3c
00000160: f6ef 453c b4a9 d93d fb90 753d 3e52 883d
00000170: c5a9 0b3d c5ac 23bc f975 023d e357 c43d
00000180: 9f4c be3d 302e 8c3d 3ee5 6fbb 3a92 003d
00000190: e740 d43d 5392 e13d 2643 3b3d af95 833d
000001a0: 0185 cc3d 0e99 003d 87b1 183d 762e 853d
000001b0: 83bb 24bc 6694 32bb 2724 b23d 03aa 853d
000001c0: 251c 7f3d bf95 ba3d 780e e13d 7c5c f03d
000001d0: 246e f43c 5712 da3d 1d6d 5e3d dde0 8d3d
000001e0: ee85 d23c 5053 1a3d de9a a03c f83f f93d
000001f0: a948 9d3d 16ce b93d 14dc 163e 3256 0a3e
00000200: 4b42 023e 3e53 ad3d 173c 2a3d ae97 993c
00000210: 0e4a f83d 2640 603d d345 443d ef05 873d
00000220: ccc0 f63d e87e de3d 00c9 6a3d 4b69 2c3d
00000230: 01b9 4a3d e19b c43c f35e 373d 8759 dd3d
00000240: bf68 893c 8a33 0e3e 2dd8 183d ad94 213d
00000250: 933b af3a 23cc a03d 6e31 dbbc e2ee 9e3d
00000260: d0e3 a23c 7b7f 6b3c c3cf 463d a415 f93d
00000270: 9a10 233d 6c20 ef3c 346a 973d 2083 bf3d
00000280: 2762 ab3d 904d e83b 9057 063d 195c 6a3d
00000290: 81d7 a03d 524b 52bb 897a 113e 507a fa3c
000002a0: 0fdb 33bb 79a4 7f3d 8ff0 a53d deb9 3a3d
000002b0: 1089 ce3d 2f55 213e 4847 263d 41da fb3d
000002c0: da74 803d 8d98 0c3e 3677 bd3d a677 313d
000002d0: 193a efbd c383 953d a7eb dbbd 764a 533d
000002e0: 230b 4abd 55b5 913d 74e7 293d f2a4 333d
000002f0: 715a 8d3b 5a83 a03d 9a7e c73d 40ff aa3d
00000300: 1ec6 b43d 1577 803d 3372 d43c a2a4 913c
00000310: c242 743d b58b a83c 8f74 023e d011 ebbd
00000320: 44d1 15bc 5f82 2e3d bdf8 8c3d df58 8e3d
00000330: b9ec 423d efda e43d b8f2 a43c 8c9a dd3d
00000340: 8e52 26bb 1ac5 893c e3c9 b83d a4a9 ff3c
00000350: 037e 803d 8a8a cc3d 3e12 293d 38e2 c83d
00000360: 4ac5 253e 0399 503e 7ae9 173e 5cec 223e
00000370: 0fab 433d 285a 983c a100 853c f700 d73d
00000380: 5b79 0bbd 0a71 8a3d a209 963d 569e f63d
00000390: 4ad2 023d 073b ee3c 5ebf 8b3d 52b4 733d
000003a0: fea0 cd3d 5eed d83d 88f5 84ba 2b90 c93d
000003b0: c0aa 403d 3117 b93d f7b3 f03d c592 503d
000003c0: 9e36 fd3d 20fc ad3d 1156 b63d 204d cd3d
000003d0: 679c e73b eac5 003e 1d42 6a3d d547 d03b
000003e0: b8c7 ae3d 2151 b3bc fd93 0b3d acf1 893c
000003f0: edf9 4a3b 242b 4c3b 651c 05b9 af4e 833d

ThirdConv.0.bias f4 [100]
-0.049492724 0.037319776 -0.04768891 -0.018669926 -0.0647483 -0.024429375 0.03745507 0.06170996
-0.03202563 -0.032597482 -0.040942322 -0.0074364967 0.046161335 0.03880677 -0.044637673 -0.045587454
0.034176562 -0.011202519 -0.06286901 0.021010779 0.040418327 0.057373963 0.013948256 0.014118634
0.008958315 -0.022736095 -0.03799313 0.00451961 0.054963026 0.0017504862 0.03318325 -0.02408586
0.051383276 0.04058567 -0.007438827 -0.005036247 0.016686155 0.048190612 -0.05571276 -0.030307472
-0.007105801 0.0040182737 0.046110753 0.035792023 -0.019330023 0.014872792 -0.026308952 0.0017283978
-0.0019153923 0.0409446 0.046329293 -0.03223098 0.026932867 -0.066650786 -0.03232578 -0.008949439
0.04393755 -0.036340974 0.012100937 -0.013413412 -0.034970947 -0.032677136 -0.0588696 0.007832679
0.02936387 -0.028416302 -0.05234468 -0.0030685463 -0.035937995 -0.05640795 -0.020573806 0.002826655
-0.022137221 -0.05204158 0.0004537185 -0.008164161 0.043045856 -0.004854099 -0.04502098 0.03697438
-0.05385774 0.054600716 -0.044061147 -0.045718975 -0.052766792 -0.05259873 0.015166555 -0.011829729
0.061158713 0.068236955 0.059733268 -0.0023050834 -0.063680954 -0.017277775 -0.06208381 0.046547804
-0.02071017 -0.05891524 -0.060133915 -0.031814888
00000000: e2b8 4abd 9fdc 183d 7255 43bd acf1 98bc
00000010: c29a 84bd 1d20 c8bc 7d6a 193d 95c3 7c3d
00000020: 4f2d 03bd f084 05bd 23b3 27bd dbad f3bb
00000030: ab13 3d3d d9f3 1e3d fed5 36bd e9b9 3abd
00000040: b9fc 0b3d c58a 37bc 78c1 80bd cc1e ac3c
00000050: b08d 253d f600 6b3d 3a87 643c d851 673c
00000060: e5c5 123c 0c41 babc af9e 1bbd 3d19 943b
00000070: e920 613d 9270 e53a 29eb 073d b64f c5bc
00000080: 4577 523d 293d 263d 67c1 f3bb 1a07 a5bb
00000090: 67b1 883c 8563 453d 1033 64bd 6047 f8bc
000000a0: c7d7 e8bb b9ab 833b a1de 3c3d a89a 123d
000000b0: ff59 9ebc 03ad 733c df85 d7bc 688b e23a
000000c0: e70d fbba 86b5 273d c9c3 3d3d a204 04bd
000000d0: 51a2 dc3c 3580 88bd 0968 04bd aba0 12bc
000000e0: dcf7 333d 46da 14bd 0243 463c edc3 5bbc
000000f0: b23d 0fbd 76d8 05bd 4021 71bd a354 003c
00000100: 808c f03c 4ec9 e8bc 6067 56bd aa19 49bb
00000110: b833 13bd 060c 67bd 668a a8bc 673f 393b
00000120: 1e59 b5bc 8d29 55bd 11e1 ed39 f9c2 05bc
00000130: da50 303d 220f 9fbb eb67 38bd 7372 173d
00000140: ef99 5cbd 00a5 5f3d 7679 34bd d243 3bbd
00000150: fe21 58bd c471 57bd 247d 783c 7bd1 41bc
00000160: 8f81 7a3d d1bf 8b3d dfaa 743d e210 17bb
00000170: 296b 82bd 1f8a 8dbc 984b 7ebd e9a8 3e3d
00000180: 60a8 a9bc 1b51 71bd fb4e 76bd 5450 02bd

ThirdConv.1.weight f4 [100]
0.5449841 0.3106734 0.27639306 0.20545538 0.36183462 0.7469678 0.8170354 0.77239597
0.23028654 0.53080547 0.8873306 0.9128895 0.40814808 0.48231548 0.93866265 0.2620392
0.5521454 0.63530403 0.09035403 0.07863894 0.12680452 0.2833042 0.4706043 0.18165775
0.86057496 0.8098373 0.8137597 0.8605476 0.1758977 0.07783785 0.34111366 0.24703243
0.0699785 0.10733374 0.077508196 0.24738888 0.47357592 0.5867082 0.8376845 0.716936
0.55945945 0.08627686 0.99818546 0.9009123 0.73054683 0.8410026 0.46691892 0.52945954
0.5918847 0.6188363 0.714891 0.761309 0.21034159 0.9437014 0.08052083 0.12687564
-0.030314432 0.7140268 0.91072536 0.19810718 0.18509774 1.0050417 0.12212911 0.58598334
0.5395769 0.9283943 0.88725394 0.14865701 0.24007954 0.6735549 0.7492931 0.6887773
0.2780242 0.8139999 0.3306143 -0.14538819 0.43375272 0.20651092 0.17150883 0.8086865
0.058637556 0.41396472 0.092879646 0.38632065 0.56966025 0.38938454 0.07482454 0.48830566
0.21991621 0.6920078 0.08699854 0.83062774 0.31231177 0.77551025 0.061388575 0.9597219
0.34699413 0.7177808 0.099918224 0.47092554
00000000: 1484 0b3f 9510 9f3e 6483 8d3e e562 523e
00000010: 6342 b93e 4839 3f3f 3b29 513f bebb 453f
00000020: 3cd0 6b3e dee2 073f 1928 633f 20b3 693f
00000030: c9f8 d03e 0ef2 f63e 324c 703f 012a 863e
00000040: 6759 0d3f 49a3 223f 890b b93d 740d a13d
00000050: 0bd9 013e 400d 913e 0cf3 f03e 7d04 3a3e
00000060: a44e 5c3f 7f51 4f3f 8e52 503f d94c 5c3f
00000070: 871e 343e 7369 9f3d 73a6 ae3e 12f6 7c3e
00000080: e350 8f3d cbd1 db3d 9ebc 9e3d 8353 7d3e
00000090: 8b78 f23e 8232 163f 7e72 563f 1e89 373f
000000a0: bc38 0f3f ecb1 b03d 1589 7f3f 30a2 663f
000000b0: 1e05 3b3f f24b 573f ff0f ef3e a98a 073f
000000c0: c185 173f 0e6c 1e3f 1903 373f 26e5 423f
000000d0: c963 573e 6a96 713f 1be8 a43d b0eb 013e
000000e0: f955 f8bc 76ca 363f 4c25 693f 9cdc 4a3e
000000f0: 438a 3d3e 35a5 803f d41e fa3d 0103 163f
00000100: b621 0a3f 40ab 6d3f 1323 633f 8b39 183e
00000110: 69d7 753e 186e 2c3f acd1 3f3f b653 303f
00000120: 3059 8e3e 4c62 503f 4746 a93e a4e0 14be
00000130: d614 de3e 9977 533e 03a0 2f3e 1406 4f3f
00000140: ef2d 703d 2ff3 d33e af37 be3d d2cb c53e
00000150: 41d5 113f 695d c73e 9c3d 993d 3303 fa3e
00000160: b731 613e 6c27 313f 4a2c b23d 05a4 543f
00000170: 54e7 9f3e d787 463f 9672 7b3d 56b0 753f
00000180: 37a9 b13e 7cc0 373f eda1 cc3d 271d f13e

ThirdConv.1.bias f4 [100]
-0.1630782 -0.15473317 -0.18451399 0.0060919803 -0.17189196 -0.11578512 -0.1370454 -0.1522045
-0.1349902 -0.14791645 -0.1776983 -0.14988217 -0.13014448 -0.18596177 -0.16895764 -0.19150928
-0.061253674 -0.14886467 -0.17630664 -0.10528471 -0.1728435 -0.18226586 -0.12580656 -0.18355808
-0.16246699 -0.1336638 -0.17118189 -0.13853437 0.113696665 -0.16563326 -0.12132557 -0.17802736
-0.14987189 -0.18301217 -0.15307727 -0.18753922 -0.14955418 -0.18316536 -0.1756038 -0.18442135
-0.19391407 0.027392786 -0.15271245 -0.1761318 -0.06254346 -0.08036243 -0.16014856 -0.1587186
-0.15681799 -0.112614505 -0.11989304 -0.106968805 -0.07204593 -0.16107056 -0.1594479 -0.18852656
-0.09015834 -0.17450766 -0.14659354 -0.13491559 -0.08936714 -0.1366772 -0.17146757 -0.14968424
-0.09581297 -0.17038193 -0.13938244 -0.16016288 -0.10698969 -0.18321162 -0.17258498 -0.17384502
-0.15660319 -0.18138163 -0.051800273 0.0762351 -0.16092502 -0.11901334 -0.15108903 -0.1518011
-0.12590033 -0.17860632 0.03354804 -0.15777008 -0.15585975 -0.16232732 -0.13836952 -0.16267619
-0.16489118 -0.09457665 -0.13357 -0.11411973 -0.15762234 -0.09573238 -0.1566887 -0.036304142
-0.15032364 -0.17715926 -0.1993998 -0.14298344
00000000: f9fd 26be 5f72 1ebe 3cf1 3cbe 3c9f c73b
00000010: 7204 30be c020 edbd a155 0cbe 7fdb 1bbe
00000020: df3a 0abe 6977 17be 8bf6 35be b67a 19be
00000030: 9844 05be c36c 3ebe 3b03 2dbe 021b 44be
00000040: 22e5 7abd fb6f 18be ba89 34be 839f d7bd
00000050: e3fd 30be e7a3 3abe 6fd3 00be a6f6 3bbe
00000060: bf5d 26be 2adf 08be 4e4a 2fbe f4db 0dbe
00000070: ccd9 e83d c49b 29be 8a79 f8bd ce4c 36be
00000080: 0478 19be 8b67 3bbe 4ac0 1cbe 480a 40be
00000090: bb24 19be b38f 3bbe 7cd1 33be f3d8 3cbe
000000a0: 6991 46be d666 e03c a760 1cbe e55b 34be
000000b0: c916 80bd 0f95 a4bd fcfd 23be 2187 22be
000000c0: e594 20be 6fa2 e6bd 7b8a f5bd 7612 dbbd
000000d0: d18c 93bd aeef 24be 4f46 23be 1b0d 41be
000000e0: f0a4 b8bd 23b2 32be 9e1c 16be 5027 0abe
000000f0: 1e06 b7bd 1cf5 0bbe 3295 2fbe d346 19be
00000100: 9739 c4bd 9a78 2ebe 45ba 0ebe bd01 24be
00000110: 691d dbbd d49b 3bbe 1eba 30be 6e04 32be
00000120: 965c 20be 1bbc 39be 862c 54bd 2621 9c3d
00000130: 87c9 24be 44bd f3bd 15b7 1abe bf71 1bbe
00000140: 04ec 00be 93e4 36be ab69 093d 7b8e 21be
00000150: b399 1fbe 2239 26be bdb0 0dbe 9694 26be
00000160: 3cd9 28be 67b1 c1bd 93c6 08be 9bb7 e9bd
00000170: c067 21be 570f c4bd 0173 20be a7b3 14bd
00000180: 71ee 19be 3d69 35be 762f 4cbe 406a 12be

ThirdConv.1.running_mean f4 [100]
1.8428029 1.7775266 1.7257969 -1.2527763 1.6796016 1.5446305 1.8084575 1.7426194
1.7594202 1.7620238 1.7197421 1.8940036 1.1822194 2.1399574 1.8135601 1.7968724
0.3975928 1.7252162 1.5877414 1.1368724 1.8071302 1.8881111 -0.18939656 1.6665056
1.9840049 1.330424 2.0439568 1.9368021 -0.8649963 1.7229029 1.7629877 1.7841456
1.4764262 1.9509896 1.6670756 1.836455 1.7346079 1.9244266 1.852116 1.8920295
2.0032053 -0.29159245 1.9776231 1.8465332 0.76795477 0.25209695 1.6755766 1.7983087
1.9541576 1.4978673 1.0130919 -0.96137786 -0.18636982 1.7467523 1.3881772 1.9009173
-0.34926453 1.4183075 1.7371241 1.4063056 0.03641436 1.825418 1.7157037 1.9106516
1.2101551 1.8717227 1.867557 1.1897376 -0.9461917 1.8096758 1.6748875 1.7483838
1.5498363 1.731441 0.9558909 1.0016605 1.8519616 1.0954089 1.3543682 1.9031583
1.6746844 2.0111187 -1.2387987 1.7601577 1.7469375 1.2102542 1.4959791 1.8146149
1.8658442 1.3816285 1.8621097 -1.1229796 1.51932 0.3253968 1.5493426 0.554378
1.5419337 1.7065175 1.4461209 1.4165998
00000000: f7e0 eb3f fe85 e33f eae6 dc3f f95a a0bf
00000010: 2ffd d63f 74b6 c53f 897b e73f 270e df3f
00000020: ae34 e13f ff89 e13f 8220 dc3f b66e f23f
00000030: f752 973f 10f5 0840 bd22 e83f eaff e53f
00000040: 4991 cb3e e2d3 dc3f 1c3b cb3f 0985 913f
00000050: 0b50 e73f a0ad f13f 2cf1 41be 0e50 d53f
00000060: dff3 fd3f 554b aa3f 30d0 0240 22e9 f73f
00000070: 6670 5dbf 1588 dc3f 95a9 e13f e25e e43f
00000080: 89fb bc3f 07ba f93f bc62 d53f f510 eb3f
00000090: a207 de3f 9c53 f63f 2312 ed3f 062e f23f
000000a0: 8434 0040 9b4b 95be c122 fd3f 335b ec3f
000000b0: af98 443f da12 813e 4b79 d63f fb2e e63f
000000c0: d621 fa3f 1eba bf3f ffac 813f dc1c 76bf
000000d0: bbd7 3ebe 9495 df3f caaf b13f 4251 f33f
000000e0: cdd2 b2be 1a8b b53f 155a de3f d201 b43f
000000f0: 3927 153d 4ca7 e93f 2e9c db3f 3b90 f43f
00000100: 5de6 9a3f 9c94 ef3f 1c0c ef3f 5249 983f
00000110: 9f39 72bf 75a3 e73f b762 d63f 0acb df3f
00000120: 0961 c63f dc9f dd3f 44b5 743f 6936 803f
00000130: 140d ed3f 5c36 8c3f f05b ad3f b19a f33f
00000140: 0f5c d63f 2bb6 0040 f590 9ebf d94c e13f
00000150: a69b df3f 9ce9 9a3f 3e7c bf3f 4d45 e83f
00000160: fcd3 ee3f 34d9 b03f 9c59 ee3f ccbd 8fbf
00000170: 1479 c23f 699a a63e dc50 c63f b7eb 0d3f
00000180: 155e c53f 2a6f da3f 7d1a b93f 2453 b53f

ThirdConv.1.running_var f4 [100]
15.07793 13.010531 12.281284 11.279016 11.8998375 9.541232 15.840747 13.757579
8.130712 14.556221 14.803435 17.68837 8.647595 14.111694 13.266988 9.047723
1.4504703 12.186888 11.435022 5.696323 9.457184 11.446658 1.3117079 13.688597
12.522974 13.181777 17.6208 14.419745 11.875205 11.3561125 12.183679 14.962604
11.360686 13.726737 11.628443 12.200812 11.149388 11.9391165 12.9570465 13.478408
16.013374 5.5965495 14.670592 13.482105 5.4433126 1.1276687 10.727736 11.662388
13.298789 9.482004 9.054456 3.8917775 4.3551326 13.315017 9.549359 13.164757
2.924248 8.093845 8.718582 12.82112 1.4214449 10.1770525 13.823962 15.954834
10.144953 14.351151 13.848657 5.1803365 1.7337207 15.779474 12.773228 15.154972
11.193448 15.281198 7.088507 5.6232305 14.332808 3.3165934 12.765065 14.116217
8.18089 15.988898 9.985054 12.842223 12.701766 10.267336 12.014105 10.853636
10.866137 11.099515 15.555702 9.200112 14.012352 2.2057533 15.05985 1.5733137
10.711982 12.360268 2.2899718 11.975836
00000000: 343f 7141 232b 5041 2480 4441 d976 3441
00000010: bc65 3e41 e3a8 1841 b373 7d41 0b1f 5c41
00000020: 6517 0241 48e6 6841 dfda 6c41 c881 8d41
00000030: 8d5c 0a41 80c9 6141 9545 5441 79c3 1041
00000040: 03a9 b93f 7efd 4241 daf5 3641 4748 b640
00000050: a050 1741 8325 3741 0be6 a73f 7e04 5b41
00000060: 1a5e 4841 8fe8 5241 66f7 8c41 47b7 6641
00000070: d700 3e41 a3b2 3541 59f0 4241 d366 6f41
00000080: 5fc5 3541 b7a0 5b41 1a0e 3a41 8736 4341
00000090: e563 3241 9f06 3f41 1050 4f41 8fa7 5741
000000a0: 641b 8041 ef16 b340 bfba 6a41 b4b6 5741
000000b0: 9e2f ae40 7357 903f cfa4 2b41 2499 3a41
000000c0: d7c7 5441 4ab6 1741 0ddf 1041 e212 7940
000000d0: 3f5d 8b40 4f0a 5541 2dca 1841 d8a2 5241
000000e0: e126 3b40 6480 0141 507f 0b41 4f23 4d41
000000f0: e8f1 b53f 35d5 2241 f32e 5d41 0047 7f41
00000100: ba51 2241 519e 6541 1994 5d41 51c5 a540
00000110: 8fea dd3f ba78 7c41 245f 4c41 c47a 7241
00000120: 5d18 3341 c97f 7441 0dd5 e240 81f1 b340
00000130: 2e53 6541 1143 5440 b53d 4c41 06dc 6141
00000140: ede4 0241 87d2 7f41 c8c2 1f41 bf79 4d41
00000150: 6f3a 4b41 0247 2441 c639 4041 7ea8 2d41
00000160: b2db 2d41 9d97 3141 28e4 7841 a933 1341
00000170: 9832 6041 102b 0d40 25f5 7041 5862 c93f
00000180: 4764 2b41 a8c3 4541 e68e 1240 069d 3f41

FourthConv.0.weight f4 [200, 100, 1, 5]
-0.01405046 -0.08369589 -0.07616843 -0.06386505 -0.062944785 -0.031206671 -0.062040802 -0.09864642
-0.042146776 -0.07933253 -0.04604567 0.042894825 0.011612926 -0.013875744 -0.07100511 -0.110470615
-0.0028761064 -0.09863868 -0.09450396 -0.08614426 -0.01582893 -0.07135515 -0.068995304 -0.0540629
-0.103961036 -0.0021628423 -0.06162291 -0.07219585 -0.1353157 -0.01945787 -0.020965006 -0.018565623
0.0007401925 -0.035019964 -0.057272974 -0.10391143 -0.09557978 -0.037698023 -0.0646118 -0.020995768
-0.034967124 -0.023128888 -0.0984832 -0.10595185 -0.0918537 0.009597375 -0.025377287 -0.07062183
-0.07868391 -0.10482087 -0.09102157 -0.09248961 -0.030827684 -0.056379285 -0.08030723 -0.08056561
-0.031226043 -0.033938132 -0.052261394 -0.032499835 -0.0599371 0.01928685 0.008994422 -0.0019523536
0.11910926 -0.059915807 -0.027537223 -0.040527504 -0.038656905 -0.0807943 -0.05665215 -0.05425728
-0.10392158 -0.07143334 -0.004964539 -0.12429187 -0.020532368 -0.08030411 -0.069155216 -0.06294553
-0.005262693 0.023647508 -0.08520791 0.03618339 -0.017560128 -0.104936235 -0.0075561516 -0.07474262
0.037319493 -0.0068288157 8.639614e-06 -0.08642608 -0.049553655 -0.059541825 -0.06048411 -0.09247949
-0.029003019 0.029765759 -0.08344727 -0.05967067 -0.11090767 -0.044762302 -0.09270466 -0.072413266
-0.06952818 -0.06291295 -0.101341926 -0.054882437 -0.07594807 -0.0673478 0.027621165 0.021165928
0.02265785 0.01854811 0.045243993 -0.057409137 -0.025701517 -0.11210419 -0.057397146 0.033889197
-0.024286712 -0.08603632 -0.024283547 -0.054563772 -0.026420888 0.08060151 -0.035143387 -0.011538553
-0.022267584 -0.04880933 -0.05187943 -0.12700579 -0.052342087 -0.05401439 -0.04861791 -0.069698945
-0.09853001 -0.07372536 -0.045587648 -0.059574474 -0.10555265 -0.12879278 -0.039732847 0.016999234
-0.005658242 -0.11906574 -0.021344706 -0.06757614 -0.1373438 -0.01980621 -0.018415285 -0.10856049
-0.09759972 -0.074740104 -0.038559742 -0.08611821 -0.030489508 -0.046276204 -0.05601472 0.029509239
-0.10062294 0.014875511 0.014999351 -0.097555414 -0.07401093 -0.11122752 -0.074664034 0.0028129367
-0.1311007 -0.043608777 0.019500988 -0.10974479 -0.12049206 -0.068304725 -0.059616223 -0.09299783
-0.056309134 -0.041523103 -0.09142202 -0.09275847 -0.016717529 0.005500557 -0.065237865 -0.12935136
-0.058869936 -0.06441862 -0.07577368 -0.013115947 -0.11910892 -0.05606055 -0.062134713 -0.04352565
-0.109813735 -0.10682692 -0.03287718 -0.020352384 -0.029671289 -0.06596392 -0.08499838 -0.12607932
-0.12038458 -0.06255454 -0.008961883 -0.059026852 -0.11716167 -0.080246694 -0.009537546 -0.07054603
-0.057303783 -0.08458759 -0.05209565 -0.050639015 -0.056631617 -0.08584683 -0.10171579 -0.09821978
-0.061073966 -0.04330628 -0.03356331 -0.08972766 0.021620946 0.056102518 0.072419204 -0.059873942
0.04160941 0.008038763 0.021436675 0.037261155 0.11301567 0.00947299 -0.09650638 -0.030316684
-0.124224365 -0.0807647 -0.02541712 -0.049652312 -0.05630975 -0.09687195 -0.03477281 -0.0333249
-0.04403361 -0.084302425 -0.03966255 -0.005014742 0.01650737 0.027013963 0.025733333 0.023452755
0.031287834 -0.054393347 0.09063377 0.028673738 -0.051574785 0.05155122 0.13501433 0.020885278
00000000: e733 66bc c068 abbd 32fe 9bbd aecb 82bd
00000010: 32e9 80bd 22a5 ffbc 7f1e 7ebd 2207 cabd
00000020: 19a2 2cbd 1879 a2bd 629a 3cbd 7cb2 2f3d
00000030: 2444 3e3c 1757 63bc 216b 91bd 6b3e e2bd
00000040: 0f7d 3cbb 1403 cabd 4b8b c1bd 676c b0bd
00000050: acab 81bc a622 92bd 694d 8dbd 0f71 5dbd
00000060: 86e9 d4bd 79be 0dbb 4e68 7cbd 6bdb 93bd
00000070: 3390 0abe 1c66 9fbc cebe abbc ef16 98bc
00000080: 7a09 423a 1871 0fbd 1197 6abd 84cf d4bd
00000090: 55bf c3bd 3e69 1abd 3153 84bd 51ff abbc
000000a0: b039 0fbd cb78 bdbc 8fb1 c9bd 49fd d8bd
000000b0: cb1d bcbd 4f3e 1d3c 07e4 cfbc 2ea2 90bd
000000c0: 0825 a1bd 53ac d6bd 8469 babd 316b bdbd
000000d0: 578a fcbc f7ed 66bd 1e78 a4bd 95ff a4bd
000000e0: c2cd ffbc b602 0bbd 0b10 56bd 8c1e 05bd
000000f0: 9b80 75bd 75ff 9d3c 575d 133c 1ee6 ffba
00000100: 8eef f33d 476a 75bd be95 e1bc 2b00 26bd
00000110: b456 1ebd 7b77 a5bd 160c 68bd e23c 5ebd
00000120: d6d4 d4bd a54b 92bd 92ad a2bb bc8c febd
00000130: 7f33 a8bc 7b76 a4bd 40a1 8dbd 96e9 80bd
00000140: ab72 acbb 6bb8 c13c 7c81 aebd 0935 143d
00000150: 42da 8fbc cfe8 d6bd 9899 f7bb a912 99bd
00000160: 53dc 183d 42c4 dfbb dcf2 1037 2800 b1bd
00000170: c6f8 4abd 21e2 73bd 30be 77bd e365 bdbd
00000180: bd97 edbc 52d7 f33c 67e6 aabd 3c69 74bd
00000190: 8f23 e3bd ad58 37bd f1db bdbd 684d 94bd
000001a0: ca64 8ebd 81d8 80bd 5b8c cfbd 68cc 60bd
000001b0: a98a 9bbd a5ed 89bd c845 e23c 2b64 ad3c
000001c0: f59c b93c 35f2 973c c451 393d d825 6bbd
000001d0: fd8b d2bc e296 e5bd 4519 6bbd 66cf 0a3d
000001e0: edf4 c6bc cf33 b0bd 4aee c6bc 437e 5fbd
000001f0: 9e70 d8bc 6812 a53d 83f2 0fbd 330c 3dbc
00000200: 826a b6bc 4bec 47bd 867f 54bd ce0d 02be
00000210: a864 56bd 313e 5dbd 9323 47bd 52be 8ebd
00000220: 1aca c9bd 52fd 96bd 1dba 3abd 5d04 74bd
00000230: fd2b d8bd 41e2 03be e9be 22bd fa41 8b3c
00000240: c668 b9bb bdd8 f3bd 18db aebc 5c65 8abd
00000250: daa3 0cbe a240 a2bc a7db 96bc f654 debd
00000260: 5de2 c7bd 5711 99bd d2f0 1dbd be5e b0bd
00000270: 22c5 f9bc 1e8c 3dbd b16f 65bd 5cbd f13c
00000280: 6613 cebd 6ab8 733c d7bf 753c 22cb c7bd
00000290: 0b93 97bd 41cb e3bd 75e9 98bd 3f59 383b
000002a0: 433f 06be 1e9f 32bd 89c0 9f3c e0c1 e0bd
000002b0: 8bc4 f6bd 59e3 8bbd 2430 74bd a575 bebd
000002c0: 68a4 66bd 2114 2abd 783b bbbd 27f8 bdbd
000002d0: 33f3 88bc 043e b43b 6e9b 85bd af74 04be
000002e0: 9a21 71bd e9ed 83bd 3b2f 9bbd 45e4 56bc
000002f0: 61ef f3bd bf9f 65bd f880 7ebd f447 32bd
00000300: 06e6 e0bd 12c8 dabd 39aa 06bd 0bba a6bc
00000310: 3411 f3bc 1718 87bd a113 aebd f01a 01be
00000320: 318c f6bd 981c 80bd ddd4 12bc 24c6 71bd
00000330: 75f2 efbd 6158 a4bd 5e43 1cbc 707a 90bd
00000340: 5fb7 6abd 423c adbd 4062 55bd db6a 4fbd
00000350: 8ef6 67bd 76d0 afbd 5e50 d0bd 7427 c9bd
00000360: b228 7abd ed61 31bd ae79 09bd 23c3 b7bd
00000370: 691e b13c c1cb 653d 8550 943d 613e 75bd
00000380: a16e 2a3d 04b5 033c f79b af3c 279f 183d
00000390: c274 e73d 9a34 1b3c 23a5 c5bd b25a f8bc
000003a0: 5869 febd f767 a5bd 9037 d0bc 3960 4bbd
000003b0: 0da5 66bd cd64 c6bd ef6d 0ebd b17f 08bd
000003c0: 965c 34bd c0a6 acbd 3375 22bd b452 a4bb
000003d0: 773a 873c 634c dd3c b6ce d23c fe1f c03c
000003e0: ac27 003d 8fcb 5ebd 339e b93d 30e5 ea3c
000003f0: 1540 53bd 5f27 533d 3241 0a3e 9a17 ab3c
