NCTU2/DeepConvNet/DeepConvNet_LeakyReLU.pkl (torch_old, 612257 bytes, 28 tensors)

FirstConv.0.weight f4 [25, 1, 1, 5]
000000 3b 2f 28 bd cd 68 77 be c4 1b ab 3e 4c 6d 89 3e
       -0.041060667 -0.24161072 0.3341962 0.268412
000010 b8 05 66 3c b5 3d 3f 3e d5 62 9d 3e d3 4b 5f 3e
       0.014039449 0.18675883 0.30739465 0.21806268
000020 9b ca 88 be b3 e0 c1 bd c9 2d cc 3d 0c bf 2d be
       -0.26717076 -0.09466686 0.0996967 -0.1696741
000030 ff bb 93 3e a7 e9 e6 3a 22 ce 91 3d 0a 84 ad 3e
       0.28854367 0.0017617241 0.07119395 0.338898
000040 11 57 46 3d 5e 43 ba 3d 29 ab b4 3d 4c 5a 62 be
       0.048422877 0.090948805 0.08821709 -0.22104758
000050 e8 4e 98 3e 38 11 cc 3d 45 25 04 3f f1 17 d1 3e
       0.297477 0.09964222 0.5161937 0.40838578
000060 a8 c0 35 3e b6 6b df 3d 95 17 47 be 84 d7 13 3e
       0.17749274 0.10909216 -0.1944259 0.14437681
000070 94 83 84 3e 15 0e f4 be 97 47 a8 3e e1 2a b4 bd
       0.25881636 -0.47666994 0.3286712 -0.08797241
000080 71 d4 d3 3e 6d 65 b9 be 5d 1c 40 bd 84 08 ab 3e
       0.41373017 -0.36210194 -0.04690205 0.33404934
000090 07 1b 41 be 21 81 3e 3d b0 9e aa 3d e1 a8 8b 3e
       -0.18857966 0.046509866 0.083310485 0.27277282
0000a0 c5 10 10 be f9 1e f3 3e ef e3 75 be 57 96 f1 3e
       -0.14068897 0.47484568 -0.24012731 0.47185013
0000b0 b0 5f ac 3e a9 db 76 3e b4 cd 94 be 19 86 88 be
       0.33666754 0.24107231 -0.2906319 -0.26664808
0000c0 b0 70 9c 3e fa 0a 47 3e 05 b8 04 bf 8b a2 09 be
       0.30554724 0.19437781 -0.5184329 -0.13440911
0000d0 7a e3 d2 be 60 22 07 be ba f9 41 be f3 5c 27 bd
       -0.41189176 -0.13196707 -0.1894292 -0.040860128
0000e0 63 07 1b 3e 19 89 50 be 85 fd d5 be 44 24 01 bf
       0.15139537 -0.20364799 -0.41794983 -0.5044596
0000f0 b2 a0 e7 bd 15 39 e7 be f8 52 81 3e ae e4 f5 bd
       -0.11309947 -0.45160738 0.25258613 -0.12006508
000100 f2 01 aa be 10 75 46 3e 97 87 8a 3e 03 71 4a 3e
       -0.3320461 0.19380593 0.27056572 0.19769673
000110 eb 61 b9 be 50 a6 bc be 75 cd ca 3d e4 19 e7 3d
       -0.36207518 -0.36845636 0.09902469 0.11284235
000120 dd 1f 77 3e 4a 06 15 3e ba 02 02 be 44 5f ad bb
       0.24133249 0.1455318 -0.12696353 -0.0052908976
000130 4c e7 fd be 8a ab f6 bd 76 60 98 3d 8c 5b da be
       -0.49590528 -0.12044437 0.074402735 -0.4264797
000140 61 d3 ba 3e be 0a bd bd 82 bc 19 3e b9 9b ee bc
       0.36489394 -0.092305645 0.15013316 -0.029126989
000150 bc a7 d8 be 1b 88 a2 3c bc 33 b5 3e 08 55 49 be
       -0.4231547 0.01984029 0.35391033 -0.19661343
000160 96 20 8b 3e 73 05 d9 3d 6a 63 82 be d9 4c 05 3f
       0.271733 0.105967425 -0.25466472 0.52070385
000170 e0 88 12 3d 2f 1a 60 3e 68 f0 9b bc ce ca dc be
       0.035775065 0.21884988 -0.019035533 -0.43123478
000180 30 52 9a 3e fb f2 8a be a3 8e 1c 3e 0c 44 d9 be
       0.3014083 -0.27138504 0.15288787 -0.42434728
000190 f3 04 80 3d a6 5b 9f be 1a 56 a2 bd 66 a7 f2 bd
       0.06250944 -0.3112461 -0.07926579 -0.11848335
0001a0 61 e0 c9 3d bf 85 4c be e1 36 22 bc 6a 96 76 3e
       0.0985725 -0.19972895 -0.009900779 0.24080816
0001b0 85 2d 1f be 95 42 a3 be b8 73 03 be e7 a0 fa 3e
       -0.15544708 -0.31886736 -0.12837112 0.48950884
0001c0 f9 9d ab be 39 2d b0 be a2 ab 26 3e 96 5b 87 3b
       -0.3351896 -0.34409502 0.1627641 0.004130791
0001d0 5d 3c 9b be f8 6a 57 bd e6 55 2f 3a 2c f8 47 3e
       -0.3031949 -0.052592248 0.000668852 0.19528264
0001e0 8d d2 29 3e 3c 40 fc 3c 20 fc 33 3e 2c b3 82 3e
       0.16584225 0.030792348 0.17576647 0.25527322
0001f0 92 13 29 be
       -0.16511372

FirstConv.0.bias f4 [25]
000000 9e 23 b1 3e 20 16 0b 3e ee fe 42 3e 9b f7 64 be
       0.34597486 0.13582659 0.1904256 -0.22360079
000010 d7 a1 1b 3d bb 4a 9a 3d 45 2b e0 be 54 45 71 3d
       0.03799614 0.07533785 -0.43783012 0.058904007
000020 cf 41 71 be e3 77 a3 3e 2a e4 51 3e 72 a2 3d be
       -0.2356026 0.31927404 0.20497194 -0.18518999
000030 6a ab bb 3d c4 ba 9d 3e 89 50 1a bd 07 9f ab be
       0.09163554 0.30806553 -0.03767446 -0.33519766
000040 80 a4 a9 be 8d 54 cc 3e dd 6e 8b 3e 74 97 5a be
       -0.33133316 0.39908257 0.2723302 -0.21346837
000050 9e 65 53 3d 03 15 cf be a9 1c 07 3c b4 71 94 bd
       0.05161058 -0.40445718 0.008246579 -0.0724825
000060 73 67 6c 3e
       0.23086338

FirstConv.1.weight f4 [25, 25, 2, 1]
000000 f0 83 bf 3c 59 76 b4 bd d2 be 6a bd 5a 31 11 3c
       0.023378342 -0.088116355 -0.057310887 0.008861864
000010 d8 16 ac bd 26 78 15 be c9 20 d3 bd 49 6a 17 be
       -0.084027946 -0.14596614 -0.10308988 -0.14786638
000020 15 7d fa bd 43 45 de 3d 85 da 85 3d 52 be b8 3d
       -0.12230889 0.108530544 0.0653582 0.09020676
000030 74 9b b9 bd ef d0 0e bd b9 fe dc 3c 91 7a d0 bb
       -0.090628535 -0.034867223 0.02697693 -0.0063622673
000040 46 34 9c bb 03 93 6b 3b d0 47 1d bc 2c 87 b2 3c
       -0.0047669737 0.003594578 -0.009599641 0.02179297
000050 4b 6d 9a 3d 5d 91 0c 3e a4 a0 bc 3d b3 d5 83 3d
       0.07540377 0.13727327 0.09210327 0.06437244
000060 a6 2d ba bc fd 7f 6f 3d f5 9a c9 bd 6e 60 90 bc
       -0.022726845 0.05847167 -0.09844009 -0.017624106
000070 1f f2 3e bc 3b 6c 74 3c eb 3b da 3d 59 4f 90 3d
       -0.011654406 0.014918382 0.1065596 0.07046384
000080 9b f1 bc 3d 6d 34 30 be 62 ca 40 3d b7 cd 64 bd
       0.0922577 -0.17207499 0.047068007 -0.055860247
000090 a8 fd 0b bb d8 3b 46 3e f8 eb 51 3e 3f 3d 12 bc
       -0.0021360908 0.19358766 0.20500171 -0.008925735
0000a0 40 67 73 bd 8c 88 fd bd 1b ed a7 bc ac c9 29 3d
       -0.05942464 -0.1237956 -0.020498803 0.041452095
0000b0 12 07 64 3d 72 19 ff 3d de 8a 9c 3d 01 e1 16 be
       0.055670805 0.12456025 0.07643674 -0.1473427
0000c0 2e 65 cc bc de 1b 63 bc 2e 44 cf 3c cf cf 0c be
       -0.02495059 -0.0138616245 0.025301065 -0.13751148
0000d0 53 85 da bc 64 16 0a be 0c 99 15 3c f0 e2 a0 bc
       -0.026674902 -0.13485104 0.0091307275 -0.019639462
0000e0 6a 78 e9 3d e7 f7 0d be 53 f0 e2 3d c7 58 ea 3c
       0.1139992 -0.13864098 0.110809945 0.028606785
0000f0 b2 25 6d bd f2 c0 94 3d a2 16 84 3c ae 71 2e bd
       -0.057897277 0.07263364 0.016124073 -0.042588882
000100 f1 ed 3b 3e d3 11 6c 3b 74 6d 55 3d 83 62 19 be
       0.18352486 0.0036021366 0.052106336 -0.14978985
000110 f6 66 ab bd 9c f2 12 3d f0 d1 25 be 19 b5 2f 3e
       -0.083692476 0.0358759 -0.16193366 0.17158927
000120 03 9d be 3d 70 d0 0a 3d 53 76 28 bd d7 ba 5a 3d
       0.09307291 0.033890188 -0.041128468 0.05340084
000130 36 95 32 3e c2 da 69 bd 78 5e 2f 3e 66 bd 0c 3d
       0.17439732 -0.05709339 0.1712588 0.034360312
000140 50 d2 ed 3c 52 31 89 bc a8 0a c1 3d e3 2e 08 3d
       0.029030949 -0.01674715 0.09425861 0.03324784
000150 79 67 70 bd 81 aa 2a be 6e 52 be 3d a7 bf 48 be
       -0.05869243 -0.16666605 0.09293066 -0.1960436
000160 2f d8 8c bd 32 f2 37 3d 91 4c 54 3d d3 47 05 3e
       -0.06877171 0.04490871 0.051830832 0.1301568
000170 a4 3d 8e bd 99 d9 ad 3d 70 b5 0b be cf 92 18 bd
       -0.06945351 0.08488769 -0.13643432 -0.037249383
000180 79 8e c5 bd a8 dc 09 3e 69 23 a4 3d 7b 55 f0 bd
       -0.09646315 0.1346308 0.080145665 -0.11735054
000190 1e 86 ba 3c 78 44 15 3d 5c 96 02 be 48 8d cb bd
       0.02276903 0.03644225 -0.1275267 -0.09939057
0001a0 e7 fc 41 be c8 8b 12 be 47 83 c3 bd 68 e2 d6 bd
       -0.18944131 -0.14311135 -0.095465235 -0.10492402
0001b0 5e 9d 7d 3d 99 54 ce bd 35 09 81 3d b9 3e 4f bd
       0.061917655 -0.100747295 0.06300584 -0.050596926
0001c0 46 47 40 bd 34 4a 3a be 70 b7 0b be 6b 0a 0d be
       -0.04694297 -0.18192369 -0.13644195 -0.13773505
0001d0 be ae 10 bd d6 87 d9 bd d1 36 63 bd da 36 4f be
       -0.035322897 -0.10621612 -0.0554722 -0.20235768
0001e0 4a da fc bc b8 79 27 3e 22 a3 22 3e 1a bc 31 3e
       -0.030865807 0.16355026 0.15882543 0.17356911
0001f0 16 84 e4 3d cb 0b a8 3d 10 6a 2f 3c 95 c1 2f 3e
       0.11158006 0.08205374 0.01070644 0.1716369
000200 02 08 92 3c f1 e0 cc bd d9 e1 fc 3d 11 61 d6 bb
       0.017826084 -0.10003842 0.123477645 -0.006542333
000210 a7 90 b3 bd 08 cb 1e 3e 15 f5 57 3d 75 b2 21 3d
       -0.087678246 0.15507138 0.052723963 0.03947683
000220 cb fb e0 bd 31 e1 08 be 65 30 84 bd c8 29 d4 3d
       -0.10985526 -0.13367154 -0.06454543 0.10359532
000230 52 e7 34 3d 55 16 a4 3d 1f 61 92 bd fe d8 9c 3d
       0.044165917 0.08012072 -0.07147431 0.076585755
000240 46 9d 0c 3e 80 4a 62 bb 87 02 64 3c d1 80 dd bc
       0.1373187 -0.0034529269 0.013916618 -0.027038964
000250 c9 73 93 3d 5c 78 4b 3d 16 a6 b5 3d c6 e7 cd 3d
       0.07199819 0.04967533 0.08869569 0.10053973
000260 12 8c 17 3d 86 1b cc 3d c3 34 68 3e 00 16 3f bd
       0.036998816 0.09966187 0.22676377 -0.04665184
000270 4e 7a 47 3d ed 95 c7 3c 33 b1 56 3d bd 1b 42 3e
       0.048700623 0.024363482 0.052415084 0.18955894
000280 84 41 03 be f9 62 1c bd 41 be 1f 3e e4 6f 5d 3c
       -0.12817961 -0.038180325 0.1559992 0.013515446
000290 ca b5 30 bd ad 86 05 3e 7a 75 1a 3d b4 6e be bd
       -0.043142118 0.13039656 0.03770969 -0.09298459
0002a0 cf 50 0b 3c 18 7b c1 3d 70 85 45 be ca ef 0c 3c
       0.008503153 0.094473064 -0.19289184 0.008602092
0002b0 ba a7 12 be 8f c2 93 ba 28 dc aa 3d 71 e5 66 bd
       -0.14321795 -0.0011273193 0.08342773 -0.056371156
0002c0 47 86 52 3c 38 5d ca 3d 0a be 0a 3d 1c de bb 3d
       0.012849397 0.09881061 0.03387264 0.091732234
0002d0 f3 08 15 be 4d a9 9f bd 14 2a 65 bd 8e 25 67 bc
       -0.14554195 -0.077959634 -0.055948332 -0.014108075
0002e0 2b b2 01 3e 96 1b e3 3d bb ce 1b 3d 4d 47 98 3d
       0.12665622 0.11089246 0.03803895 0.074354745
0002f0 8e d8 29 3d 30 ad 14 be 47 33 7c 3d 5b 23 28 be
       0.04146629 -0.14519191 0.06157234 -0.16419737
000300 b5 80 dc bd 60 87 05 bd 14 78 16 be ec 3b af 3d
       -0.107667364 -0.032599807 -0.14694244 0.08556351
000310 92 cf b0 bd b7 34 e0 bd eb 75 cd bc c0 86 57 bd
       -0.08633341 -0.109475546 -0.025080642 -0.052618742
000320 aa bc d9 bd b0 7f f9 3c 3e 4f d6 bd 08 da e0 bd
       -0.10631688 0.030456394 -0.10464333 -0.10979086
000330 57 8c 43 be 36 aa d3 3d 86 02 ab bd b1 e9 ee 3d
       -0.19096504 0.103351995 -0.08350091 0.11665667
000340 dc ec 8e bd 22 c4 f5 bc 1f 09 c1 3d 75 97 84 3d
       -0.06978771 -0.03000075 0.09425568 0.06474201
000350 d7 d4 1d be d6 04 4c bd ed 2f fe bd 40 c7 1b 3e
       -0.15413223 -0.0498093 -0.12411485 0.15212727
000360 31 d8 a7 3c 57 63 c8 bd e0 f9 6d 3c 82 63 ae 3d
       0.02048883 -0.097845726 0.014524907 0.08515073
000370 b7 42 4c 3d 8a 5d 6d bc df 7e 9c 3c 41 5f d8 bc
       0.04986831 -0.0144876335 0.019103466 -0.026412608
000380 35 2e 1c 3d 3d 11 d6 3d 40 49 1e be ce 3d 0d be
       0.038130004 0.10452507 -0.1545763 -0.13793108
000390 ad ad 68 3b 5f da e9 bc 2a 53 1a 3e 3f fb ad bc
       0.003550391 -0.02854651 0.15070787 -0.021237968
0003a0 ec 52 9f bd d7 ee ef 3d fd 0b c9 bd 90 2d a4 bd
       -0.07779488 0.11715477 -0.0981674 -0.08016503
0003b0 fd b6 74 be d3 45 74 bc af 36 bf bc 22 82 8a bd
       -0.2389793 -0.0149092255 -0.023341505 -0.06763102
0003c0 aa aa 4e 3e 7b 33 0a 3e cc ad 8d 3d cf eb b1 bc
       0.2018229 0.134962 0.06917915 -0.021718888
0003d0 f2 37 23 3e 4c f5 8b bd ca 2e 97 bc 2d 62 19 3e
       0.1593931 -0.06833896 -0.018454928 0.14978857
0003e0 5d d4 4f 3d 8a 46 ae 3d 3a 56 c1 3d 36 e2 37 3d
       0.050739635 0.08509548 0.094402745 0.044893466
0003f0 92 d0 8d bd 29 ad 07 be af 9d a9 bc 1d 02 8c 3c
       -0.06924547 -0.13249649 -0.020705072 0.017090851

FirstConv.1.bias f4 [25]
000000 28 32 ff 3d 0e 53 49 3d 65 38 38 bd b8 18 6f 3d
       0.124607384 0.049151473 -0.044975657 0.058373183
000010 cb bd 35 3b 63 17 38 bd aa 09 21 3d 33 1b 06 3e
       0.0027731534 -0.04494418 0.039315857 0.13096313
000020 24 10 43 bd 5f d7 ca 3d 9c ac 67 bc 3b 9f 9c bd
       -0.047622815 0.0990436 -0.014140274 -0.07647558
000030 96 b9 d4 bd 2f 09 b3 3d 51 24 a7 bd 27 23 b2 3d
       -0.1038696 0.08741986 -0.08161224 0.08698111
000040 7d 14 96 3d d4 59 ab bc 6b 58 15 be 18 32 1e 39
       0.073281266 -0.020916857 -0.1458451 0.00015086716
000050 0f ea bc bd 66 7d fd bc 9b 62 12 bc 00 54 be bc
       -0.09224331 -0.030943584 -0.008934642 -0.023233414
000060 3b 31 0d 3e
       0.13788311

FirstConv.2.weight f4 [25]
000000 e6 93 9f 3e ef 14 3b 3f f8 b8 23 3e 98 be 10 3f
       0.31167525 0.7307882 0.15988529 0.56540823
000010 a3 87 71 3e 1c b5 9c 3e 62 2f 2e 3e 72 63 40 3f
       0.23586898 0.30606925 0.17010263 0.7515174
000020 40 c5 29 39 66 1c 51 3f 04 33 88 3f dc 70 38 3f
       0.00016190577 0.8168396 1.0640569 0.7204721
000030 6b 7b 19 3f dc 81 de 3d 9e 0e 30 3e 17 52 f0 3e
       0.59953946 0.108646125 0.17193076 0.4693763
000040 a9 b9 62 3f 0e a0 8b 3d 84 72 95 3e 1f 33 6d 3f
       0.88564545 0.068176374 0.2918893 0.9265613
000050 7d 84 25 3c 31 37 7d 3e ea 78 55 3f 0b 4a 63 3f
       0.010102388 0.24728085 0.83387625 0.88784856
000060 4d 29 dd 3c
       0.026997233

FirstConv.2.bias f4 [25]
000000 7e 1b b1 bd 63 44 15 bd 1e 5d b6 bd 70 d5 9f bd
       -0.08647822 -0.03644217 -0.089044794 -0.07804382
000010 2e 75 c8 bd ca 62 02 bd 69 58 9f bd b4 70 d2 bd
       -0.09787975 -0.031832494 -0.07780535 -0.10275403
000020 a1 a5 f8 bc 88 7d cf bd 7a 49 af bd 7a f7 e6 bd
       -0.030352416 -0.10131365 -0.085589364 -0.11277671
000030 84 cd 51 bd 69 25 e8 3c 5b aa d3 bd 30 e0 40 bd
       -0.051221386 0.028338151 -0.10335227 -0.0470888
000040 9f ee 42 bd fa 81 29 bd f2 22 3b bd 7c 47 a8 bd
       -0.047590848 -0.04138372 -0.045687623 -0.082167596
000050 5e 90 fb 3c f5 ff 9d bd 11 0f aa bd 64 77 84 bd
       0.030708488 -0.077148356 -0.08303655 -0.064680845
000060 16 fa 26 bd
       -0.040765844

FirstConv.2.running_mean f4 [25]
000000 ce d1 f8 3d 1d 1a f2 bd 23 ef 4a 3c 2a 15 c2 3e
       0.12149392 -0.11821387 0.012386116 0.37906772
000010 a3 8b db bd 59 af ed bd 1e fb 73 bd aa f7 e4 bc
       -0.10719993 -0.116057105 -0.059565656 -0.027950127
000020 56 08 86 3d a4 9b d7 3d 41 89 97 be ac 95 4b be
       0.06544559 0.10527733 -0.29596904 -0.19881314
000030 b2 a2 7c 3d 44 ea 6a be 03 00 b5 bc 16 d0 66 3e
       0.061678596 -0.22940928 -0.022094732 0.22540316
000040 d7 23 2a 3c 56 a0 49 3e 5b 02 f2 be 35 95 90 be
       0.010384521 0.1969007 -0.47267422 -0.28238836
000050 73 36 e2 3d 9f 46 44 3d 78 01 52 be 40 c7 64 be
       0.110455416 0.047918912 -0.20508373 -0.22341633
000060 3c ce ba 3e
       0.3648547

FirstConv.2.running_var f4 [25]
000000 b5 58 91 41 4e 6b 67 41 03 4d 54 42 d3 b9 6b 42
       18.168314 14.463697 53.075207 58.93147
000010 dd 57 aa 41 32 53 4b 42 77 5b ea 41 3b 01 59 42
       21.292902 50.831245 29.29466 54.2512
000020 fb 90 a9 40 3f fc 83 42 71 05 86 42 9d ad 53 42
       5.298948 65.99267 67.01063 52.919544
000030 31 70 b4 41 94 0e 29 42 d6 04 f4 41 5e 8a 4e 41
       22.554781 42.264236 30.502361 12.908781
000040 53 a1 60 41 47 47 94 42 44 70 09 42 1a 12 61 42
       14.039386 74.13921 34.359634 56.267677
000050 2b b1 ca 41 69 5a 8f 41 43 5c 69 42 90 d8 41 42
       25.336508 17.919146 58.3401 48.461487
000060 87 80 be 41
       23.812757

SecondConv.0.weight f4 [50, 25, 1, 5]
000000 3b ee db 3d 1f 30 b2 3c 5c e5 c9 3d bd 06 92 3d
       0.10738798 0.021751462 0.098582 0.071301915
000010 ec ee b1 3d 89 d7 57 3d 45 fa 22 3c 21 e2 5c 3c
       0.08688149 0.052695785 0.009947364 0.013481648
000020 60 54 81 3b 4d 9d c4 3d 09 8e 51 3d 28 0d 07 3e
       0.003946826 0.09600315 0.051160846 0.13188612
000030 ce 26 fb 3c 7f 3f ae 3b 5a 99 1b 3d 80 b6 b7 bd
       0.030658152 0.005317628 0.037988044 -0.08970356
000040 65 42 a8 bc 87 30 20 bd f8 f1 cd bd b9 4d a9 bd
       -0.020539472 -0.03910878 -0.100559175 -0.082667775
000050 18 f2 2c be e4 dd eb bc b6 7c 02 be a1 c8 cc bd
       -0.16889226 -0.02879233 -0.12742886 -0.099992044
000060 3d 91 82 bd 16 97 9d 3c d2 27 88 3c 0f be 58 bd
       -0.06375358 0.019237082 0.01662055 -0.05291563
000070 02 92 b8 3c bf 6d 33 bd 66 7e f7 bc ac 51 c9 3d
       0.02253056 -0.043805834 -0.030211639 0.09830031
000080 29 2d 40 3e 9e 0d f3 bc c8 3a a1 3d ba aa 1b bd
       0.18767227 -0.02966958 0.0787254 -0.038004614
000090 26 d3 a5 3c 41 15 47 bd 96 c7 18 bd b9 34 b0 bd
       0.020242285 -0.048604254 -0.037299715 -0.08603806
0000a0 e7 cb 50 bd 3a 37 d3 bc ee 1b 26 be 20 f5 c7 bd
       -0.050975706 -0.02578317 -0.16221592 -0.09763551
0000b0 a6 90 bc bd 2b de 57 3d 09 1e fb 3d 27 a7 9f 3a
       -0.09207277 0.05270211 0.12261588 0.0012180553
0000c0 65 ff 0b 3d 5c 8d a7 bd bf 3e ac 3d e7 80 16 3c
       0.03417911 -0.08181259 0.08410405 0.009186006
0000d0 c8 31 b8 3d 33 d5 22 bd c0 05 db 3d b5 0b 2b 3b
       0.0899387 -0.039754104 0.10694456 0.0026099507
0000e0 5b ef 1f 3e c4 a4 93 bd 92 49 12 3e 02 c7 8d bd
       0.1561865 -0.07209161 0.14285877 -0.06922723
0000f0 a5 bd 87 bd a7 87 bb 3b 1c 79 59 3c bc cc 81 bd
       -0.06627969 0.005722958 0.013273504 -0.06337878
000100 5f a2 65 bd 78 51 94 bd af 1e 25 3d 0b 29 3e bd
       -0.056063052 -0.072421014 0.040312465 -0.04642586
000110 61 5e b3 3d 70 ca 78 3d fb 8a 9f 3d 61 99 8b 3d
       0.08758236 0.060739934 0.0779018 0.06816364
000120 27 cd ce 3d 95 c9 0a 3e a1 96 b4 3d 48 b8 6c 3d
       0.100977235 0.1355346 0.08817793 0.05779293
000130 72 49 df 3c e4 87 51 bd 29 4a de 3c ed 7b e3 3d
       0.027256701 -0.051154986 0.027134972 0.11107621
000140 cb 00 88 bd 25 68 c6 bd 2b cf c6 3c 52 22 af bd
       -0.06640776 -0.09687833 0.024268707 -0.08551468
000150 ea ca ed bb 0a 71 3e bc e7 05 02 3e 7d 3f 03 3c
       -0.0072568553 -0.01162363 0.12697564 0.008010742
000160 86 7c 22 3e 8f d6 d6 3d 2a 71 f3 3c d0 bf be bd
       0.15867814 0.104901426 0.029717047 -0.09313929
000170 dd 76 7a 3d 2b cb 34 bb b3 13 7e bd 05 21 c2 3d
       0.061148513 -0.0027586918 -0.062030505 0.09478954
000180 08 d2 2b 3d 60 ed a7 3d f0 e4 0d 3e f1 b1 a6 3d
       0.04194835 0.081995726 0.13856864 0.081394084
000190 cb a9 86 bc dd cb 70 bd 0c c9 e0 bd 0c 35 8a bd
       -0.016438385 -0.05878817 -0.10975847 -0.06748399
0001a0 07 4a ef 3d f6 7f 02 3c cd b5 9d bd 0d 77 58 bd
       0.116840415 0.007965079 -0.07700691 -0.05284791
0001b0 bc b0 b0 3d b8 ec b7 bd e9 f0 51 3d d6 df b0 3d
       0.086274594 -0.089806974 0.05125514 0.08636443
0001c0 9b d4 4c bd e2 56 82 bc 4e f1 62 3d eb e7 9b 3d
       -0.050007444 -0.01591057 0.055405907 0.07612594
0001d0 13 39 ff bc 23 4b e0 3c ce 51 76 bd 51 08 97 bd
       -0.031155145 0.027379578 -0.06013661 -0.07374633
0001e0 d9 fb 21 3d bf 56 6f bd 9f a5 1f 3d 77 25 91 3b
       0.03954682 -0.058432337 0.038976308 0.004429515
0001f0 df d4 45 3d 87 85 35 3e dd a2 f9 3d bc 18 04 3e
       0.048298713 0.17726718 0.12189267 0.1290006
000200 b5 2e f9 bc f2 f1 9f 3d 6e 37 d5 bd ca 8b 00 3d
       -0.03041778 0.07809819 -0.10410963 0.031383313
000210 eb 01 05 be 21 e8 c7 bd 4c 38 54 bc b5 a1 00 3d
       -0.12989013 -0.09761072 -0.012952875 0.031404216
000220 51 46 57 bb 18 e7 a1 3a 73 b3 59 bd 05 12 4c bd
       -0.0032848308 0.0012352196 -0.05314965 -0.049821872
000230 35 fc f1 bd e8 2e a5 bc 45 2c 79 bd cf 9c ae bd
       -0.11815683 -0.020163968 -0.060833234 -0.085260026
000240 31 63 b8 3c 31 9c 36 bd af 8c 39 bd 78 d1 76 bc
       0.022508236 -0.04458255 -0.045300182 -0.01506459
000250 1a f0 fe bd 9b 04 a8 bd 5b 85 23 bd 1f c8 c6 bd
       -0.124481395 -0.082040034 -0.0399221 -0.09706139
000260 ac cc c3 bd 7e fc 2a 3d f5 5a 0a 3d 3d 03 25 3e
       -0.095605224 0.0417447 0.03377815 0.16114517
000270 b3 71 e6 3d 18 88 b0 bc 5c 33 1f 3e 90 97 01 bd
       0.11252155 -0.02154927 0.15546936 -0.031638682
000280 37 2e 73 3b 4d 97 81 bc 5c a4 12 bd 01 72 a2 3c
       0.0037106404 -0.015819216 -0.035801277 0.019829752
000290 7e 7f 56 bc 9c 02 96 3d c2 bc c5 3d 95 8e 14 be
       -0.01309192 0.073247164 0.09655143 -0.14507516
0002a0 fe 78 35 bd 60 bf 10 be 87 78 06 3c 73 29 82 3c
       -0.04430484 -0.14135504 0.008207447 0.015888905
0002b0 12 63 e1 bd af cb 0b 3e bd 2e 31 3d 52 c3 f3 3d
       -0.11005224 0.13651918 0.043257464 0.11902489
0002c0 48 d7 1d 3e 5c 44 f9 3d ab e5 ef 3b 53 5a 9b 3d
       0.15414155 0.12171242 0.0073210797 0.07585587
0002d0 a0 da 35 3e 21 f8 ab bb 1a 1c 8e bd e0 93 92 3d
       0.1775918 -0.005248085 -0.06938954 0.07157111
0002e0 37 14 7e 3d de 3d 15 bd a2 c4 4f 3d 00 13 dc bb
       0.062030997 -0.036435954 0.050724633 -0.006716132
0002f0 11 03 b4 bb 62 0a 1e be cf 92 4e 3e 76 ff f4 bd
       -0.0054935296 -0.15433648 0.2017319 -0.11962788
000300 eb e5 16 3d 58 ef e1 3b 6a 59 12 3d fe e4 09 3d
       0.03684036 0.006894987 0.035729803 0.03366565
000310 26 e2 ba 3d c5 a1 f4 3c 9e ac 76 3b 70 c0 9a 3d
       0.09125166 0.029862294 0.003763951 0.07556236
000320 ee 03 ea ba 42 6c 77 bb e1 20 69 3d 7d 6e 81 3d
       -0.0017853954 -0.0037753736 0.05691612 0.06319902
000330 89 0b 89 3d 1c 96 2a 3c f3 28 8c 3d 7e 63 32 bc
       0.06691653 0.010411765 0.06843748 -0.010887979
000340 3c 0e 12 3d 9a 34 68 3c 83 94 f1 3d a8 25 a1 3d
       0.035658106 0.014172697 0.117959045 0.078685105
000350 b7 9a 5f 3d 75 3e c7 bc e1 cc 15 3d 0f 1a 3a bd
       0.054590907 -0.024321774 0.03657234 -0.045435008
000360 69 80 e2 3c 3c ad b9 bd 92 32 bf 3d 53 f9 3d 3d
       0.027649121 -0.09066245 0.093358174 0.046380352
000370 14 ed b4 bc 7c 65 4a 3c bf 07 03 3e 92 34 ca 3d
       -0.022085704 0.012353297 0.12795924 0.09873308
000380 13 f3 8b 3d 2f ca e7 3c f6 e4 e6 3d 83 3e d4 3d
       0.06833472 0.02829465 0.112741396 0.10363486
000390 fe 2c c5 3d 40 69 0e 3d cf 69 c1 3c 26 80 35 bd
       0.09627722 0.034768343 0.023610024 -0.044311665
0003a0 5d b6 b7 bc 1b 0a 80 bd 81 7f 08 be 43 b2 e6 bc
       -0.022425825 -0.062519275 -0.13329889 -0.028161174
0003b0 32 0a c5 3c ff 9b 8d 3d 92 4b a0 bd df ff ae 3d
       0.024052713 0.069145195 -0.07826914 0.08544897
0003c0 8a 41 a4 3d 84 05 82 bd 30 ac 13 be 6a 66 3e bd
       0.08020313 -0.06348708 -0.14421153 -0.04648439
0003d0 4b 82 87 bd 27 bc c6 3d 06 90 21 bd 11 fb f1 bd
       -0.06616648 0.09703856 -0.039443992 -0.11815465
0003e0 14 f4 26 bc af 03 76 bd 82 e3 9e 3d 75 54 f7 3d
       -0.010190029 -0.060062107 0.077582374 0.12076656
0003f0 d4 4d 65 3c ee 8a e5 3d 5c 9f 2a 3e c1 ec 1c bd
       0.013995606 0.11208139 0.16662353 -0.038311724

SecondConv.0.bias f4 [50]
000000 72 1e ce 3c 64 f5 3b 3d 42 2f f7 bc 3c 2e bb 3d
       0.025161002 0.04588832 -0.030173901 0.09139678
000010 34 0e 1d bb 72 ba e4 3c 27 66 b4 bc cc f7 06 bd
       -0.0023964765 0.027920935 -0.022021366 -0.03295116
000020 55 56 d4 bc 03 43 15 3d 80 4f b5 3b df 0b 6f 3d
       -0.025920073 0.03644086 0.005533159 0.05836093
000030 87 0b b6 bd 9c fc 7d 3b 9f 6e d6 bc bb 38 4e bd
       -0.088889174 0.0038755303 -0.026175795 -0.05034707
000040 a9 53 61 bd 53 2e 1a bd 38 69 81 bd be b8 fc 3c
       -0.055011425 -0.037641834 -0.06318897 0.03084981
000050 53 c5 84 3c 8d a0 99 bd 2c 04 c2 3c 15 37 43 3d
       0.016207373 -0.07501326 0.02368363 0.047659952
000060 62 1e b3 3d 53 25 c0 bc 8e 0d e6 bc 20 cd a9 bb
       0.087460294 -0.023455298 -0.028082635 -0.0051819235
000070 c6 97 3a bc c2 df 84 3d a5 e4 48 bb a9 43 98 3d
       -0.011388725 0.06487991 -0.003065386 0.0743478
000080 ae 8b 9b bd 0e d4 6f 3d 55 72 b0 3c c6 5b 24 3d
       -0.07595001 0.05855184 0.021538893 0.040126584
000090 fe 5d 7b bd a5 c8 83 bd 36 24 6d bd e7 57 21 bd
       -0.061368935 -0.06434754 -0.05789586 -0.03939047
0000a0 ce ec 2c 3d 4c cc 94 bc 2c 09 82 3d d4 04 9b bc
       0.042218022 -0.018163823 0.06349406 -0.0189232
0000b0 f0 2e 7f bc 39 e8 88 bd 6d bf 85 3d 96 6e 33 bd
       -0.015575156 -0.06684918 0.06530652 -0.043806635
0000c0 f5 4d b1 bd b4 38 23 3c
       -0.08657447 0.00996225

SecondConv.1.weight f4 [50]
000000 98 df b6 3e 13 6d a5 3e 20 20 18 3f 15 da 95 3e
       0.35717463 0.3230978 0.5942402 0.29267946
000010 4c 78 cb 3d 5c 73 28 3f 52 b3 37 3e bc 11 5f 3e
       0.09935054 0.65801024 0.17939499 0.21784109
000020 2b 28 f3 3d 2e b5 02 3f 09 6d 2d 3e e8 ca de 3e
       0.11872896 0.5105771 0.16936125 0.4351418
000030 f7 49 9a 3d 02 95 65 3f 41 03 fa 3d c1 2d b4 3e
       0.07533639 0.8968049 0.12207652 0.35191157
000040 45 d1 ec 3d f5 36 3a 3f 81 81 63 3f 86 e0 cc 3e
       0.115633525 0.7274011 0.8886948 0.40015048
000050 65 81 4c 3e 9b 1c 86 3e 83 ad 5b 3f 18 c3 2d 3e
       0.19971235 0.261937 0.8581163 0.16968954
000060 99 fa 1f 3e de 6a 85 3f 1c 66 3c 3f 6d 43 b0 3d
       0.15622939 1.0423238 0.73593307 0.086066104
000070 59 ec ec 3d 62 c0 d7 3e 46 ee b5 3d 4d 00 69 3f
       0.11568517 0.42138964 0.08883338 0.91016084
000080 ce a9 e6 3d c0 83 18 3f 44 ea d2 3e 72 9b 15 3e
       0.112628564 0.59576035 0.41194355 0.14610079
000090 03 01 6a 3f 0d d3 20 3e a9 29 86 3f 44 f2 b4 3e
       0.91407794 0.1570551 1.0481464 0.35341084
0000a0 aa 72 58 3e a9 97 97 3d f7 fd 7b 3f 57 79 0b 3f
       0.21137491 0.07401974 0.98434395 0.54482025
0000b0 a1 3a a2 bd 09 ff 60 3f ab e5 6d 3f a1 f0 08 3f
       -0.07921339 0.8788915 0.9292857 0.5349217
0000c0 44 78 ca 3d c3 c7 5a 3f
       0.0988622 0.8546106

SecondConv.1.bias f4 [50]
000000 1b 7f 76 bd c7 0e ce bd 90 4a d1 bd 7d 04 3a be
       -0.06017981 -0.10061412 -0.102193 -0.18165775
000010 e2 60 ac bd ab 3f 06 be 00 39 0c be 15 eb 6a bd
       -0.084169164 -0.13110225 -0.13693619 -0.057353098
000020 89 6e 45 bd b8 b6 3b bd 74 da a6 3c de 97 a3 bd
       -0.048201118 -0.04582855 0.020367838 -0.07987951
000030 e1 d0 03 bd 01 6a d8 bd f6 20 17 be 2e 8a 2b be
       -0.032181624 -0.10567094 -0.14758667 -0.1675193
000040 b7 9b f5 bd 02 c7 61 bd 3c 53 e1 bd 2c c5 d1 bd
       -0.11992591 -0.05512143 -0.11002204 -0.10242686
000050 57 8c e5 bc 59 28 14 bd d9 fb 51 bd f3 de 51 bd
       -0.02802102 -0.03617129 -0.05126557 -0.05123801
000060 34 ea 11 be 4f 1f 91 bd 0f b7 f8 bd b0 9d a9 3d
       -0.14249498 -0.0708605 -0.12144291 0.0828203
000070 80 c2 e7 bd c1 0f e7 bd 97 62 10 be 83 91 89 bd
       -0.11316395 -0.11282302 -0.14100109 -0.06717207
000080 a5 7b 31 be 1f 40 88 bd a0 5a fc bd 13 e9 53 bd
       -0.17332323 -0.06652855 -0.12321973 -0.05173595
000090 0e e3 b0 bd 39 1c 18 be 2b 7c a5 bd 9a 3f f1 bd
       -0.08637057 -0.14854516 -0.08080324 -0.11779709
0000a0 4e eb 58 bd 79 5a 1b be d7 92 e7 bd 68 1b 01 bd
       -0.05295878 -0.15171231 -0.11307304 -0.031520277
0000b0 e5 8d 21 be 36 b0 bf bd 2e e5 81 bd 9d 8d 86 bd
       -0.15776785 -0.093597814 -0.06342541 -0.06569979
0000c0 05 e7 c4 bd 64 90 0d be
       -0.09614376 -0.13824612

SecondConv.1.running_mean f4 [50]
000000 4e e5 17 3e 78 aa 1a 3e c4 d0 e0 3e 42 6e 4d 3f
       0.14833567 0.15104091 0.43909276 0.80246365
000010 29 1d e1 3e ca 8f 2e 3f bd 76 e9 3e a8 f9 e5 be
       0.4396756 0.68188155 0.45598403 -0.44917035
000020 50 fb 04 bf cb b1 88 3d 9f 29 a5 be b3 5d 94 3e
       -0.5194597 0.06674536 -0.32258317 0.28977737
000030 39 73 ee be a6 3a 1e 3f 30 27 b7 3e cc 03 a3 3e
       -0.46572283 0.6180824 0.35772085 0.31838834
000040 c2 cc 07 3f 73 03 8a 3e d5 19 0f 3f 85 5d 38 3f
       0.5304681 0.26955757 0.5589879 0.720177
000050 1c f9 10 be 6d b7 00 bf 7f 81 09 be 88 f7 b4 3e
       -0.14157528 -0.50279886 -0.13428305 0.353451
000060 bc b4 3d 3f fa db 1e 3f ee 4d 07 3f 7e 2b 2e bf
       0.74103904 0.6205441 0.52853286 -0.68035114
000070 37 38 94 3e 4c 8e 40 3f a3 5c 00 3f 00 7a da 3e
       0.2894914 0.7521713 0.5014135 0.42671204
000080 e7 f5 9e 3e 36 4b ba 3e 2b 2f 27 3f 17 ec 23 be
       0.31046984 0.36385506 0.6530635 -0.1600803
000090 f2 b0 1f bf 59 48 99 3e 42 ed 0f 3f 68 de 26 3f
       -0.6237937 0.2993801 0.562214 0.65183115
0000a0 98 75 05 3f 35 de df 3e 91 7c 1b 3f b1 69 d9 bd
       0.5213256 0.43724218 0.6073695 -0.10615862
0000b0 f6 cb f0 be f6 f5 0f 3f da 8b 42 38 75 91 62 3e
       -0.4703061 0.5623468 4.638345e-05 0.221258
0000c0 88 bc 9d bb 5c 6e 32 3f
       -0.0048137344 0.69699645

SecondConv.1.running_var f4 [50]
000000 8e be 2b 3f 5f 48 ec 3e 86 7f 97 3f e3 51 f7 3f
       0.6708764 0.46148965 1.1835792 1.9321865
000010 22 63 9f 3f da 2e f0 3f 40 2e b5 3f c8 e8 1d 3f
       1.2452128 1.8764298 1.4154739 0.6168332
000020 a2 59 45 3f 17 ac 01 3f 5b 17 f7 3e d8 03 1f 3f
       0.77089894 0.50653213 0.48260006 0.6211524
000030 bd 41 b1 3e 36 f8 a3 3f 6f 53 65 3f 32 84 9b 3f
       0.34620467 1.2810123 0.89580435 1.2149718
000040 a6 0d c7 3f 97 96 1f 3f 11 25 e5 3f 3f 1e f5 3f
       1.555104 0.62339157 1.7901937 1.9149855
000050 2d 3f 9c 3e 4a e0 24 3f c2 ad e1 3e c0 ca 56 3f
       0.3051695 0.6440474 0.4407788 0.8390312
000060 cf e2 bb 3f 67 ec c1 3f b4 e4 ce 3f 29 24 cb 3f
       1.4678591 1.5150269 1.6163545 1.587041
000070 90 48 59 3f 36 43 19 40 58 13 c0 3f 7e 31 75 3f
       0.84876347 2.3947272 1.5005903 0.95778644
000080 1d 53 26 3f f1 19 73 3f 41 21 00 40 9e af fe 3e
       0.6497057 0.9496146 2.0020297 0.4974336
000090 88 5c be 3f dd 22 9d 3f f5 f4 d9 3f fb 39 00 40
       1.4871988 1.2276264 1.702788 2.0035388
0000a0 a5 70 ae 3f 7d 32 9c 3f ed 43 c3 3f be be b5 3e
       1.3628126 1.2202908 1.5255104 0.35497087
0000b0 05 f0 75 3f c1 53 01 40 8f c8 f0 3e 41 0a 33 3f
       0.96069366 2.020737 0.47028014 0.6993752
0000c0 5c 25 fd 3e 09 c6 d3 3f
       0.49442565 1.654481

ThirdConv.0.weight f4 [100, 50, 1, 5]
000000 ae 04 13 3e c3 6a f1 3d 50 7e 4e bd f8 08 45 3d
       0.14357254 0.11787941 -0.05041343 0.048104256
000010 84 d4 6a 3a b6 fd 02 bc 60 07 12 bc ed 3c e6 bd
       0.0008958059 -0.00799506 -0.008912891 -0.112420894
000020 3d 05 89 3d 32 dd 25 3e 1b 9a a9 bd 49 9d e2 bd
       0.06690452 0.1619766 -0.082813464 -0.11065156
000030 f7 f2 92 bd 01 68 1d bc 26 e7 fb 3c a9 7d 20 bd
       -0.07175248 -0.009607316 0.030749869 -0.03918234
000040 71 ff 6a 3d 28 a0 bd bc ee 12 30 bd 76 f6 3b bd
       0.057372514 -0.023147658 -0.042986803 -0.04588934
000050 a4 ad 35 3d 98 c8 25 3d d6 4b 07 be 65 5e 81 3c
       0.04435505 0.040474504 -0.13212523 0.015792081
000060 b3 29 d1 3d c5 b0 01 bd 9a 44 04 3e b6 7b 24 bd
       0.102130316 -0.03166272 0.12916794 -0.040157042
000070 fa cb 06 be ee ce b8 bc 14 ee 5e 3d d1 33 72 3c
       -0.13163748 -0.02255961 0.054426268 0.014782862
000080 11 0d dd bd 76 f1 55 3d d9 2a 00 3e 93 a5 7e 3d
       -0.10793508 0.05223223 0.12516345 0.062169623
000090 f6 aa 6d bc 6e 86 0d be eb ca 05 3d 22 4c 17 3d
       -0.014506092 -0.13820812 0.03266422 0.03693784
0000a0 fe 1d 67 bc bb fd 03 3d 23 e7 1b bb 06 ad e8 bd
       -0.014106272 0.032224398 -0.0023788891 -0.113611266
0000b0 2b 48 96 bd de ed 8a 3d 6c c9 43 3d e0 02 3e bd
       -0.07337984 0.06783651 0.047799513 -0.04638946
0000c0 e9 8a cc 3d ea cb 15 bd 67 02 61 bb d7 b4 31 bd
       0.099874325 -0.03657142 -0.0034333707 -0.043385353
0000d0 41 8d 52 bc c4 fb bc bd d8 97 59 bd 53 97 73 3c
       -0.01285106 -0.09227708 -0.053123325 0.0148676215
0000e0 2a a1 44 ba ba 92 c5 3d bd 90 f7 bb 5a dd 12 3c
       -0.0007500822 0.096471265 -0.007555096 0.008963907
0000f0 60 38 cc bc 25 a1 1b 3b 17 1c f9 bd bc 00 a5 3d
       -0.024929225 0.0023747173 -0.12163561 0.08056781
000100 bd 01 19 bd 3f e7 b5 bc ae 4d bc bc 83 47 ac bd
       -0.037355173 -0.022204993 -0.02298626 -0.08412077
000110 e9 77 c7 bd 9e 32 21 bd 89 cd bd bd e6 d6 96 bd
       -0.09739668 -0.039354913 -0.09267718 -0.073652074
000120 15 72 b7 3c 6c 45 41 bd c1 b9 20 3d 45 d7 de 3b
       0.022393266 -0.047185346 0.03923965 0.0068005645
000130 3c 68 ef bc b1 58 b1 3c e3 7f bb 3d 7e d0 ff bc
       -0.029224508 0.021648737 0.09155252 -0.031227347
000140 5f 06 ba bd 88 fc 1e bd 63 e0 4a bc 33 ee 58 bc
       -0.090832464 -0.03881505 -0.0123825995 -0.013240385
000150 50 09 a8 bd f9 07 9a 3b b0 20 c8 bd a0 d0 90 3d
       -0.08204901 0.0047006574 -0.0977186 0.07071042
000160 82 85 9d bd f8 c8 aa 3d f3 50 c7 bc bc 90 1f bd
       -0.0769148 0.08339113 -0.024330592 -0.03895639
000170 6d 73 83 3d f0 56 25 bd 23 1b 21 bd b2 75 b6 3d
       0.064185 -0.040366113 -0.03933252 0.08909167
000180 2e 71 02 3c 54 f5 84 3d 8f eb cd 3c a1 62 87 3d
       0.007961554 0.06492105 0.025136737 0.06610609
000190 93 2c b0 3c 9e 95 e9 3c 64 05 e8 bd 69 a6 c4 3d
       0.02150563 0.028513726 -0.11329153 0.09602053
0001a0 4e a4 b9 3d 1a 9c a1 3c b4 f8 eb bb 16 7f 87 3d
       0.09064542 0.019727755 -0.0072012786 0.066160366
0001b0 78 06 e9 bd 40 60 e3 bc 58 dd 94 3d 60 2d 00 3e
       -0.11378187 -0.027755857 0.072687805 0.12517309
0001c0 f9 35 63 bd 1b 68 b5 3d a5 b3 10 3d c9 27 c9 bc
       -0.055471394 0.08857747 0.035327572 -0.024555104
0001d0 d8 4e 94 bd b1 7b 74 3d 70 c3 37 bc 35 00 58 bd
       -0.07241601 0.059688274 -0.0112160295 -0.052734572
0001e0 22 dd 6f 3d a1 75 b5 3d e8 7f a4 3d 60 60 18 bd
       0.058560498 0.088603266 0.08032209 -0.037201285
0001f0 4b 5c 2e 3d 37 77 b4 3c f2 ce 55 3d a9 7f 87 3c
       0.042568486 0.022029502 0.05219931 0.016540365
000200 42 4d eb bd 43 b0 a7 ba 94 41 73 3c 7b c0 ba bd
       -0.11489345 -0.0012793619 0.014847178 -0.09118744
000210 b4 b2 c8 bd b0 26 64 bd 20 e4 61 bd 05 73 1b 3d
       -0.0979971 -0.055700958 -0.055149198 0.037951488
000220 7b 30 b6 bd 59 93 ad bc 8a f0 50 bd 64 b2 11 bc
       -0.08895966 -0.021188425 -0.051010646 -0.008892629
000230 d6 e9 a9 3d ad 26 4f bd ba b4 14 bd d3 7a e4 ba
       0.08296554 -0.050573993 -0.036305167 -0.0017431624
000240 3e 8c f2 3d 36 c2 9e bd ac 49 11 be c6 88 57 bc
       0.11843155 -0.077518865 -0.1418826 -0.013155168
000250 c3 38 a2 bd c7 ff b6 3d 16 de 83 3d 3d 50 fd bc
       -0.07920983 0.089355044 0.06438844 -0.03092205
000260 45 f2 14 3c 6a 22 ee 3c 3e c6 93 3c 47 8c 90 3c
       0.009090965 0.029069144 0.018038865 0.017645014
000270 cb 8a 7e 3c 2a 6c 01 3d 3d 0b 57 3d ce 71 98 3d
       0.0155360205 0.031597294 0.052500952 0.074435815
000280 6d c9 d8 bd da cb 9e 3c 8f 42 80 bd 9e 44 0a bd
       -0.10585294 0.019384313 -0.06262695 -0.033756845
000290 6b aa 95 bd 80 b1 69 3d ce 73 38 3d 45 e2 da bd
       -0.07307895 0.057054043 0.045032315 -0.10687689
0002a0 a0 ab 62 bc f9 19 b4 bc 2c c5 4a 3d 9f ad ae 3d
       -0.013834864 -0.021985041 0.049504444 0.08529209
0002b0 4a a3 c2 3d 6c 7b 44 3c 3a 9b 6d 3d f8 a3 a8 bd
       0.09503801 0.011992317 0.058009364 -0.082343996
0002c0 8d b2 6b bc e8 51 a5 3d 5e 97 4a 3d 8d 73 a3 bc
       -0.014385832 0.08072263 0.04946076 -0.01995256
0002d0 30 a9 cd 3d 7b 42 bf bd eb 25 ca 3c a9 d1 1d 3c
       0.100420356 -0.09338852 0.024676284 0.009632506
0002e0 a3 de 8b bd 51 ee 3e 3b c6 5f 3b 3d 42 3e b5 3d
       -0.06829574 0.0029133747 0.045745634 0.08849765
0002f0 19 55 77 bd fd cc 5f 3d 44 8f cd bc 8c a6 a8 bd
       -0.06038389 0.05463885 -0.025092728 -0.08234891
000300 7a 65 a1 bd 8a 20 34 bb 28 a8 00 bb 29 a8 81 bb
       -0.07880683 -0.0027485215 -0.001963148 -0.003956814
000310 ed f7 11 be c3 49 e1 3d 73 59 05 be 5b 08 10 bd
       -0.14254732 0.11000397 -0.13022403 -0.03516422
000320 77 43 a7 bd f7 84 62 bd 0a c6 fc bc 24 e5 47 bd
       -0.08167165 -0.055302586 -0.030856151 -0.04880251
000330 5b 9d dc bc a1 ed 28 bd 5d da 8b 3c 50 74 16 3b
       -0.026930502 -0.041242246 0.017071897 0.0022957511
000340 d2 67 e1 bc e6 f9 00 be 9c 5c da bc ca 62 8f bd
       -0.027515326 -0.12595329 -0.026655488 -0.070012644
000350 07 90 cd bd a4 95 d5 3c 08 a7 2e 3d 17 0f 51 3d
       -0.10037237 0.02607233 0.042639762 0.05103978
000360 cb b5 a9 bd 13 53 e0 3d 61 8f b5 3d 13 d0 1d 3c
       -0.082866274 0.10953345 0.08865238 0.009632128
000370 d1 df 64 3c 3e 85 93 3d 1e 4a 42 3c 64 1e cc bd
       0.013969378 0.07203148 0.011858491 -0.09966734
000380 1a e9 9f 3d 1a d3 0f 3b 04 fe 80 bd 6a cb 8e bd
       0.078081325 0.0021945895 -0.0629845 -0.06972392
000390 a7 ba 57 3d 48 cb 99 3c aa 28 64 3c c2 ee 5e bc
       0.05266824 0.01877369 0.013925711 -0.013606729
0003a0 d2 c6 35 ba db 59 4a 3d 0b 53 15 be df f4 12 3d
       -0.00069342286 0.0494021 -0.1458246 0.03587806
0003b0 7b fe 90 bd 87 75 15 3e 16 32 e2 bd 6d 28 02 bd
       -0.07079788 0.14595614 -0.110447094 -0.031776834
0003c0 53 88 c0 bd bb da 85 3d 81 83 5e 3c e9 d0 bc bc
       -0.09401002 0.0653586 0.013581158 -0.023048835
0003d0 03 54 4d bd 9f c1 3f 3b 7b 04 4a 3d b5 b7 74 bd
       -0.050128948 0.0029259694 0.04932068 -0.05974551
0003e0 7e ed 2f bd 2a 7a f1 bd ad 69 12 3d 90 db 88 3a
       -0.0429511 -0.11790879 0.03574531 0.0010441411
0003f0 a8 bb 68 3d 16 8f 47 3c a3 ef b2 3d e5 7e 84 3d
       0.056819588 0.01218011 0.08737113 0.06469516

ThirdConv.0.bias f4 [100]
000000 60 c3 7a 3d 36 ba f5 bc f7 23 66 bd 60 a5 52 bd
       0.06122148 -0.029996019 -0.056186642 -0.051427245
000010 aa 20 43 3d e5 e6 80 3d ab 17 11 3b 8d 60 4f bd
       0.047638573 0.0629404 0.0022139351 -0.050629187
000020 81 09 51 3d 0a 82 b0 bb a1 86 65 bd d8 c3 86 bb
       0.051034454 -0.0053865956 -0.056036595 -0.004112702
000030 1a 74 5e bd 40 82 33 3d 6f 42 43 3c a7 a7 5a bd
       -0.05430994 0.043825388 0.0119176945 -0.053382542
000040 ae 6b 38 3d ba 06 bf bc 5d 13 8a bc 37 4b dd bb
       0.045024566 -0.023318637 -0.016854936 -0.006753351
000050 75 c7 25 3d a6 4e ed bb 92 fe c0 bc 1e a3 75 3d
       0.04047342 -0.0072420416 -0.023558889 0.059970014
000060 28 d0 ae bb ab 32 6e 3d a0 73 65 bd bb 3b 4a 3b
       -0.0053348728 0.05815379 -0.05601847 0.0030858356
000070 1e 12 41 bb b6 88 a9 3c 2b 4b 51 3d e9 5c 47 3c
       -0.0029460262 0.020695072 0.051097076 0.012168148
000080 6e 07 2f bc 4f 5a 16 3c 59 94 cc 3b d1 df 3a 3d
       -0.010682924 0.009176805 0.0062432704 0.045623604
000090 9b 35 2b bc 48 12 db bc 09 d0 9a bc 9e 43 32 3d
       -0.010449792 -0.026742116 -0.018898027 0.043521516
0000a0 9d 37 dc bb 7a d6 de bb af 59 5f bb 79 4a 67 3d
       -0.006720497 -0.00680047 -0.0034080555 0.056467507
0000b0 52 be db bc 66 c8 5a bd c3 15 2f bc 97 08 60 3d
       -0.02682415 -0.05341377 -0.010686341 0.054695692
0000c0 cd 98 99 3d a7 ee 53 bd 41 3b 48 bd 8a 9f 2e bd
       0.074998476 -0.05174127 -0.048884634 -0.042632617
0000d0 c5 8e 55 3c 82 ca 89 3d 21 f1 c4 bc 90 08 cf bc
       0.013034527 0.067280784 -0.02404076 -0.025272638
0000e0 63 92 6e 3d c5 41 97 3c 51 d4 70 bd 22 5d 7e 3d
       0.058245074 0.018463979 -0.05879623 0.062100537
0000f0 03 5c 4e 3d c3 0f 8c bd 3f 21 65 3d e3 76 99 bd
       0.050380718 -0.06838944 0.05593991 -0.07493379
000100 75 63 7f 3d e5 45 2c 3d 8a 02 7a 3b 1d 4d 2a 3b
       0.06235071 0.042058844 0.0038148486 0.0025985905
000110 42 ce b8 3c b5 d5 eb bc d8 a4 39 bd 3d 42 81 3d
       0.022559289 -0.028788427 -0.045323223 0.06311462
000120 6b 99 12 3d 99 db 61 bd b8 04 4a 3d 96 53 05 bd
       0.035790842 -0.055141065 0.049320906 -0.032550417
000130 f8 53 25 bd 93 f9 4d bd 34 73 1e bd d1 03 86 3c
       -0.040363282 -0.05028684 -0.038684085 0.016359242
000140 c3 1a 2c bd 09 a5 c8 3c 52 45 67 3d 6c 7f 0e 3d
       -0.04201771 0.024492757 0.056462593 0.034789488
000150 f5 a0 68 3d bd 38 68 3d 05 ec 8d 3c 50 9f fe bc
       0.056794126 0.056694735 0.017324457 -0.031081825
000160 c6 40 03 3d 10 7f f6 3b df 90 bf 3c 32 65 31 3d
       0.032044195 0.0075224712 0.02338451 0.043309398
000170 a3 a2 14 3c aa d0 07 3d 33 f3 60 bd b6 d4 de 3c
       0.009071979 0.033157982 -0.054919433 0.027201038
000180 12 ec 3f bc 72 48 81 bd 42 59 60 3d af 9a 45 3d
       -0.011713998 -0.06312646 0.054772623 0.04824322

ThirdConv.1.weight f4 [100]
000000 13 9f 3a 3d a4 79 79 3f 13 dd 67 3f 9b fa 56 3f
       0.04556186 0.97451234 0.9057171 0.83976144
000010 1c 92 64 3f 48 57 bf bc 8f 06 72 3f f4 da 80 3f
       0.89285445 -0.023357049 0.9454126 1.0066819
000020 d3 5b 0a 3f 13 da ac 3e cf 31 05 3f 25 7c 28 3f
       0.5404636 0.33760127 0.52029127 0.6581443
000030 1b 71 98 3e fb 5c 30 3f 1f 16 b9 3e 49 53 6f 3e
       0.29773793 0.68891877 0.3614969 0.23371615
000040 4a a5 47 3f d9 ea a1 3e fd d0 1d 3f 5c e1 81 3f
       0.77986586 0.31624487 0.61647016 1.0146899
000050 9a 46 8e 3e 86 6a 63 3f 50 05 4f 3f e8 8d df 3d
       0.2778824 0.88834417 0.8086748 0.10915738
000060 a4 98 31 bd 6d 73 f6 3e 25 0e 6a 3f ba 50 23 3f
       -0.04335846 0.48134938 0.9142783 0.63795054
000070 cd 66 a7 3e 0a d8 2d 3f 1f 23 28 3f 6f 78 21 3f
       0.32695618 0.67907774 0.6567859 0.6307439
000080 d9 83 56 3f 6c a8 54 3f c2 40 da 3e a9 59 99 3e
       0.83794934 0.8306949 0.4262753 0.29951218
000090 d9 e2 25 3f df f9 29 3f 1c 0f 37 3e a5 96 a3 3e
       0.6479927 0.663969 0.17876858 0.3195087
0000a0 e6 19 be 3d fe e3 69 3f ee 78 86 3d aa 65 a5 3e
       0.092822835 0.91363513 0.06566034 0.32304126
0000b0 00 7f 7f 3f a9 44 d7 3d 7c fc bc 3d fc e4 15 3f
       0.9980316 0.10511143 0.09227845 0.5855253
0000c0 4e 76 27 3f 38 77 17 3f 8c 95 f8 3d 22 0a 66 3f
       0.65414894 0.5916629 0.12137899 0.8985921
0000d0 e2 ae 18 3f 6e 6f 70 3f c3 2a c2 3e f1 19 81 3f
       0.5964185 0.9392003 0.3792325 1.0086042
0000e0 d4 c8 ba 3e 6b 3d 91 3d cd 12 31 3f 39 99 42 3f
       0.36481345 0.07091793 0.6916931 0.7601505
0000f0 a5 cb fb 3d 9e 15 16 3f 77 43 0e 3d 40 46 0a 3f
       0.122947015 0.58626735 0.03473231 0.54013443
000100 f9 7f 26 3f 2d 95 ee 3e 85 ca 81 3f 9e e6 4a 3f
       0.6503902 0.46598187 1.0139929 0.79258144
000110 af 05 d7 3e f2 98 f3 3e 08 05 bf 3e 2f df 2b 3f
       0.41996524 0.47577626 0.37308526 0.67137426
000120 3d cd 1d 3f 84 be 62 3e 6e 44 5b 3f bc 9a 84 3f
       0.61641294 0.22142988 0.8565129 1.0359721
000130 24 56 6b 3e 72 bc 62 3f 8d 40 c7 3e 29 06 07 3e
       0.22982079 0.88568795 0.38916436 0.13185944
000140 a5 22 65 3e d8 8f b3 3e a1 2c 33 3e af fe 97 3e
       0.22376497 0.35070682 0.17497493 0.29686496
000150 e8 52 4f 3f b1 c8 95 3d 1b 8c 31 3e f8 eb 47 3f
       0.8098588 0.073136695 0.17338602 0.78094435
000160 b1 5d f1 3e 44 a9 38 3f f8 91 87 3f a8 36 e4 3e
       0.47141793 0.7213328 1.0591421 0.4457295
000170 80 43 c6 3e 13 ba a9 3e ba 46 c0 3e 32 5a 0b 3f
       0.38723373 0.33149776 0.3755396 0.544345
000180 b7 49 45 3e 7b 36 5d 3f 9d 28 22 3f dd c9 02 3f
       0.19266401 0.86411256 0.6334322 0.5108927

ThirdConv.1.bias f4 [100]
000000 ee 5d 84 3c 62 aa d1 bd ff ca f4 bd 7d 8f 29 be
       0.01615807 -0.10237576 -0.11952781 -0.16558643
000010 fc 36 61 bd 8a 3f 76 bd 81 56 b8 bc 04 40 01 be
       -0.054984078 -0.06011919 -0.022502186 -0.12622076
000020 75 16 ab bd 23 90 f6 bd 3e 38 19 be 39 8e 08 be
       -0.08353893 -0.12039211 -0.14962861 -0.13335504
000030 c4 4e e4 bd 84 11 ac bd 4d 2c d1 bd c9 bb ee bd
       -0.11147836 -0.08401778 -0.10213528 -0.11656911
000040 ab 2e 76 bd 62 ca e7 bc d5 a3 d0 bd e0 2c 03 be
       -0.0601031 -0.028294746 -0.101874985 -0.12810087
000050 37 66 31 3d e8 b4 8f bd 72 3b 9b bd 21 8e 29 be
       0.04331037 -0.07016927 -0.07579698 -0.16558124
000060 be c5 b3 bd 13 91 1c be 0e c9 a2 bd 61 51 d9 bd
       -0.08777951 -0.15289716 -0.079485044 -0.10611225
000070 b6 eb 9b bd 44 09 bb bd 8f 1b a1 bd b3 92 d5 bd
       -0.07613318 -0.09132627 -0.078665845 -0.10428371
000080 62 fc 17 be c5 79 78 bd 0d 98 de bc 6b 3f b6 bd
       -0.1484237 -0.060663003 -0.027172113 -0.08898815
000090 91 2a d0 bd a0 01 b5 bd 33 8c 1e be 9a 71 a2 bd
       -0.10164369 -0.088382006 -0.1548317 -0.07931824
0000a0 bb 4f 7d bd dc 9f d5 bd 16 d0 09 be 98 39 c9 bd
       -0.061843615 -0.104308814 -0.13458285 -0.09825438
0000b0 d7 96 91 bd cd 72 1e be a7 76 ab bd 0b ec 1d be
       -0.071088485 -0.1547348 -0.083722405 -0.15422074
0000c0 5f ac f0 bd 88 4a cd bd 45 9b ce bd 9e b3 f3 bd
       -0.11751627 -0.10023981 -0.10088209 -0.11899494
0000d0 d4 ed f3 bd 85 0b dd bd 26 01 08 be 04 cb ec bd
       -0.119105965 -0.10793213 -0.13281688 -0.1156216
0000e0 a4 a3 1d be ec 44 cc bd ed 75 d8 bd 65 7e cd bd
       -0.15394455 -0.09974083 -0.105693676 -0.100338735
0000f0 f3 df 96 3d e0 b5 82 bd 2f d0 f5 bb 7e d1 22 be
       0.07366934 -0.06382346 -0.007501624 -0.15900227
000100 bf e1 00 be d6 6c 06 3e 34 69 07 be 94 70 11 be
       -0.12586115 0.13127455 -0.13223726 -0.14203101
000110 44 dd 12 be 9a 24 d4 bd d5 39 c8 bd 89 00 ed bd
       -0.14342219 -0.10358544 -0.097766556 -0.11572368
000120 bd d1 ee bd 42 d6 f8 bd 0e 44 a7 bd f5 92 04 be
       -0.11661098 -0.121502414 -0.08167277 -0.12946685
000130 ce 7c c1 bd 61 9f ca bd d7 03 f2 bd 08 47 32 be
       -0.09447633 -0.0989368 -0.11817139 -0.17409909
000140 b4 cd e7 bd 45 71 dd bd f9 96 19 be 03 f8 0f be
       -0.11318532 -0.1081262 -0.14998998 -0.14059453
000150 00 e6 b3 bd 0e 29 06 be 2a eb d1 3c 79 d8 d5 bd
       -0.087841034 -0.13101599 0.02562483 -0.104416795
000160 31 74 d0 bd 67 9f 01 be 64 e6 ba bd 82 ce 1f be
       -0.10178412 -0.12658463 -0.09125975 -0.1560612
000170 34 82 bc bd f1 91 85 bc 99 37 0a be 17 06 91 bd
       -0.09204522 -0.016304942 -0.13497771 -0.0708124
000180 f8 e4 d2 bd 07 ab 13 be f8 e8 d2 bd ea 92 ed bd
       -0.102975786 -0.1442071 -0.102983415 -0.11600287

ThirdConv.1.running_mean f4 [100]
000000 dc ce ee bd c8 94 41 3f 2f 10 66 3f 5a e0 59 3f
       -0.11660549 0.7561765 0.89868444 0.8510796
000010 62 28 47 3f a2 90 1f 3e 09 f3 37 be 6e d1 4f 3f
       0.77795994 0.15582517 -0.17963804 0.8117894
000020 1b 1c 18 3f f8 9c 48 3f d6 03 48 3f 45 8d 71 3f
       0.59417886 0.78364515 0.78130853 0.94356185
000030 4d 67 c8 be 8c 4c eb be 54 70 4a 3f 7c 5e 18 3f
       -0.39141312 -0.45956838 0.7907765 0.5951917
000040 b2 f9 5a 3f 96 59 6f be e0 3f e8 3e 2b de 6f 3f
       0.85537255 -0.23374018 0.45361233 0.93698376
000050 ee 00 79 3e e2 09 a9 3e 74 32 3d 3f be 02 75 3f
       0.24316761 0.33015352 0.7390511 0.9570731
000060 66 04 ac be 46 e5 37 3f 87 f2 6e 3f c3 e5 6e 3f
       -0.33597106 0.7183422 0.9333882 0.9331934
000070 ac a8 2c 3f 4b 9c 75 3f 83 8f 4a 3f 04 81 56 3f
       0.6744487 0.9594161 0.7912523 0.8379061
000080 cc 99 64 3f 83 e6 65 3e b6 bd af 3e 9c 3d c9 3e
       0.89297175 0.22451214 0.34324425 0.39304817
000090 98 5e 4f 3f 04 4f f7 3e e0 a5 4a 3f 61 62 60 3f
       0.81003714 0.48302472 0.79159355 0.87650114
0000a0 34 cc f2 3e 02 32 96 3f 0c b7 15 3f d7 61 5b 3f
       0.4742142 1.1734011 0.5848243 0.85696167
0000b0 7c a9 26 3f 08 b8 3e 3f d0 5a 20 3f b3 03 7f 3f
       0.6510236 0.7449956 0.6263857 0.9961502
0000c0 03 76 26 3f 54 9c 21 3f 2d bb 2b 3e b1 99 5e 3f
       0.6502382 0.6312916 0.1677062 0.86953264
0000d0 6a 3c 7a 3f 03 7e 82 3f 22 a2 41 3f 71 ae 5c 3f
       0.97748435 1.0194706 0.7563802 0.86203676
0000e0 5f 51 2c 3f 1d 9c 37 3f fc 99 4e 3f 8f e0 4f 3f
       0.6731166 0.71722585 0.8070371 0.81202024
0000f0 24 cd 1a bf 5d 0b 2b 3f 57 20 cd be c1 84 4a 3f
       -0.6046927 0.66814214 -0.40063736 0.79108816
000100 4f e5 7e 3f b0 6d 2e be 87 0f 5e 3f f0 8e 7d 3f
       0.9956865 -0.1703403 0.8674244 0.9904623
000110 c7 c6 6e 3f 30 62 5a 3f cc 65 17 3f 92 90 64 3f
       0.9327206 0.8530607 0.59139705 0.89283097
000120 8e 00 0d 3f c4 f5 24 3f b6 16 40 3f 78 9c 4f 3f
       0.5507897 0.6443751 0.75034654 0.8109813
000130 75 af 7b 3f c5 8e 2d 3f 76 98 53 3f 3a 25 47 3f
       0.983146 0.67795974 0.8265451 0.7779118
000140 c3 e6 01 3f 7e 92 29 be fe 38 67 3f 36 89 11 3f
       0.5074274 -0.16559789 0.9032134 0.5684999
000150 32 fd 6c 3f cc 0e 6a 3f 51 7a af 3e b3 2a 0d bf
       0.92573845 0.9142883 0.34273008 -0.5514328
000160 a4 b2 39 3f 68 ec 0c 3f 6a ca 76 3f 2d 50 4f 3f
       0.7253821 0.5504823 0.9640261 0.80981714
000170 d6 8f 38 bf 6c c0 d1 bd e0 bd 32 3f f6 e6 7f be
       -0.72094476 -0.1024178 0.69820976 -0.24990448
000180 34 e3 3f 3f 36 70 46 3f 79 a4 f9 3e 0b 55 65 3f
       0.7495606 0.7751497 0.48758295 0.8958289

ThirdConv.1.running_var f4 [100]
000000 71 c5 5c 3f 6e 47 09 41 74 bc 26 41 8a 49 2a 41
       0.8623877 8.579939 10.421009 10.642954
000010 3d f6 6d 40 8e b7 3d 3f 8e 71 56 3f dd 71 00 41
       3.7181542 0.7410821 0.8376702 8.027799
000020 36 1f 69 40 f6 cd d5 40 37 57 18 41 44 9d 17 41
       3.64253 6.6813917 9.521293 9.475895
000030 14 9a f0 3f c8 cb 8a 40 8c f6 dc 40 6a 2c 77 40
       1.8797021 4.3373756 6.905096 3.8620858
000040 c8 a2 bb 40 46 06 0f 3f 4b 8a a3 40 54 9e 21 41
       5.8636208 0.5586895 5.1106315 10.101154
000050 c5 03 23 3f d4 59 76 40 b1 d8 ce 40 ce 4a d2 40
       0.63677627 3.8492327 6.4639516 6.5716314
000060 f3 3a ce 3f 17 ea c7 40 8e 65 36 41 2a 9b 0f 41
       1.611174 6.2473254 11.399794 8.975382
000070 66 e4 8a 40 58 8a 11 41 6f e3 dc 40 72 8f e6 40
       4.3403807 9.096275 6.902763 7.2050104
000080 5d 41 1e 41 24 36 c9 3f 41 b5 47 3f 5b d9 d0 3f
       9.890958 1.5719647 0.78010947 1.6316332
000090 48 9a 08 41 07 14 b9 40 21 1c 10 41 6f d5 bb 40
       8.537666 5.7836947 9.006867 5.869804
0000a0 e9 0c 23 40 bc 6a 22 41 6e 47 b2 40 14 1b ff 40
       2.547663 10.151058 5.5712194 7.9720554
0000b0 0b 7b fe 40 ff a8 d6 40 fe 0e d7 40 ac e6 29 41
       7.95252 6.7081294 6.72058 10.618816
0000c0 06 36 85 40 32 18 e2 40 4a ab af 3f b8 af 19 41
       4.1628447 7.0654535 1.3724148 9.6054
0000d0 ab 81 17 41 b2 4b ef 40 7c 2a c6 40 2e a7 06 41
       9.469157 7.47799 6.192686 8.415815
0000e0 ee b3 d3 40 c6 6e ca 40 e6 be 12 41 d2 22 00 41
       6.615714 6.326022 9.171606 8.008501
0000f0 ba f2 34 40 08 fe bc 40 fa 69 5a 40 17 4f 23 41
       2.8273149 5.9060097 3.4127183 10.206809
000100 78 00 07 41 24 91 33 3f 6a 4f 07 41 14 23 15 41
       8.437614 0.7014334 8.456888 9.321064
000110 9e 59 ee 40 46 7c ef 40 62 63 ba 40 c4 bf 01 41
       7.4484396 7.48392 5.8246317 8.109318
000120 89 9c a7 40 11 63 cc 40 78 63 b3 40 7f a8 16 41
       5.2378583 6.387093 5.605892 9.416137
000130 74 22 03 41 c0 aa 08 41 d6 d3 15 41 67 7b ca 40
       8.195911 8.541687 9.364218 6.327564
000140 f1 a1 71 40 cf 43 15 3f 8b 6e f9 40 94 1c 25 40
       3.775509 0.5830659 7.794744 2.5798693
000150 a4 fc d0 40 10 21 ec 40 fe e7 3c 3f ed b7 8d 40
       6.53084 7.379036 0.7379149 4.428702
000160 dc 37 d5 40 ae 50 9f 40 07 ce 28 41 d6 ce ec 40
       6.663069 4.9785986 10.5503 7.4002485
000170 13 7e d2 40 0f f1 1b 3f 30 da d5 40 56 e2 82 3f
       6.57789 0.609147 6.682884 1.0225322
000180 52 61 07 41 20 e4 2d 41 86 4d 8b 40 d6 00 d5 40
       8.46126 10.868195 4.3532133 6.656352
