NCTU2/DeepConvNet/DeepConvNet_ReLU.pkl (torch_old, 612546 bytes, 28 tensors)

FirstConv.0.weight f4 [25, 1, 1, 5]
000000 2c 10 ba 3b 23 a4 15 3f 1c 27 84 3d 8d f1 a0 bd
       0.0056781974 0.5845358 0.06452772 -0.07858572
000010 57 97 36 be cb f4 3f bf 1d 20 36 3e 60 f1 8e 3e
       -0.17831169 -0.749829 0.17785688 0.2791853
000020 43 89 85 be cc 8d 62 3c 44 90 29 3f fe ad e9 be
       -0.26081285 0.013827752 0.66235757 -0.45640558
000030 1b 6b 76 3d c4 2c 1d 3f 0c 8b 88 3e 3f 1c 97 3e
       0.060160737 0.6139643 0.26668584 0.29513738
000040 10 28 d3 be 43 3c 8f bd 59 48 01 bf 45 be f6 3e
       -0.41241503 -0.06993916 -0.5050102 0.4819204
000050 3a f7 04 bf d2 00 0e be b7 bf e2 3c f7 c2 65 3d
       -0.5193974 -0.138675 0.027679307 0.056094136
000060 1e 88 95 be 56 98 f8 3b 70 54 b8 3c c7 7e a9 3e
       -0.29205412 0.0075865192 0.0225012 0.33104536
000070 41 4d a4 3e 24 c3 29 bf be 93 29 3e b3 dc 16 be
       0.3209019 -0.66313386 0.16560265 -0.14732628
000080 9e 4f b8 3e 63 96 c9 be 93 7c 96 be 39 2b f8 bc
       0.35998243 -0.39372548 -0.29391918 -0.030294048
000090 48 84 6f bd 58 4b 2b 3d 91 66 97 3e 05 58 27 be
       -0.058475763 0.0418199 0.2957044 -0.1634217
0000a0 d7 b9 15 bf ca 9f 12 bd 32 61 03 3f 1a 4d 0a 3f
       -0.58486694 -0.035796918 0.51320183 0.540239
0000b0 9a 94 24 bf 3f 31 2c bf 31 cc 20 3e 55 dd 27 3f
       -0.6428925 -0.67262644 0.15702893 0.655721
0000c0 45 60 43 bd 4b 09 c1 be e3 6d 82 be a7 12 18 3e
       -0.04769923 -0.37702402 -0.25474462 0.14850865
0000d0 44 b6 04 3f 91 57 15 bf 89 68 15 3e 0b 23 30 3d
       0.51840615 -0.5833674 0.14590658 0.04300217
0000e0 38 46 2e 3e bb 90 27 be 2c d1 23 bf 27 f6 f1 3e
       0.17018974 -0.16363804 -0.63991046 0.47258112
0000f0 7c c4 d7 3e 09 b2 8c be 71 28 12 bf 21 99 2c 3e
       0.42142093 -0.2747958 -0.5709296 0.16855289
000100 4a 80 83 be 8d 9f 98 3d 36 2c 89 be e3 b0 9c 3e
       -0.25683814 0.07452307 -0.26791543 0.30603704
000110 f6 cb 56 3e b5 a0 76 be b9 fe 20 3e f6 20 e1 3e
       0.20976242 -0.24084742 0.15722169 0.4397046
000120 1c b3 11 be 46 2b 70 3e 69 09 0a 3f 75 e5 32 3f
       -0.14228481 0.23454008 0.5392061 0.69881374
000130 28 d9 04 bf b6 15 6a be 0a b3 e1 be 00 40 26 3f
       -0.51893854 -0.22859845 -0.44081908 0.64941406
000140 93 5d 92 bd 04 7c ba be e8 0c 0e 3f 3b 63 85 3d
       -0.07146754 -0.3642274 0.55488443 0.06513067
000150 b5 56 c7 be 62 2e f2 be d9 37 c0 3e 0d 15 49 3d
       -0.3893334 -0.47301012 0.37542608 0.04909234
000160 71 73 a4 be 2d 5e 95 be d3 80 9f 3e 1f fa d1 bd
       -0.32119325 -0.29173413 0.31152973 -0.10252785
000170 38 37 0a bf 2e df ea 3e f1 68 f0 bd 64 71 a4 be
       -0.5399051 0.45873398 -0.11738766 -0.3211776
000180 1f e9 74 3d 42 17 1b 3f 4a dc 8d bd a3 35 e8 be
       0.059792634 0.60582364 -0.069267824 -0.45353422
000190 fa d5 18 3f d3 d6 9c 3e b3 2d b2 be c8 17 c8 3e
       0.597015 0.30632648 -0.3480049 0.39080644
0001a0 87 c1 9b be 6b dc 58 3d e9 bc 2b 3e 4e 6e d9 bd
       -0.30421087 0.052944582 0.16771282 -0.10616742
0001b0 1a e8 10 3e 89 22 41 bd 84 5e df 3d ea 27 c3 bb
       0.1415104 -0.047152076 0.10906699 -0.005955686
0001c0 22 2b 08 bf b7 e5 dd 3e 2b 55 8b bd 4e 43 26 bb
       -0.53190815 0.4333932 -0.06803354 -0.0025369707
0001d0 7b f8 ab 3e 4a 16 0d 3f d9 c8 a1 be 6d 1b c0 be
       0.33588013 0.55112135 -0.31598547 -0.37520924
0001e0 b2 b7 27 3d 99 51 9a 3e 84 9f b2 be 3b 9f 9e 3e
       0.04094667 0.3014038 -0.34887326 0.30980858
0001f0 c0 07 02 be
       -0.12698269

FirstConv.0.bias f4 [25]
000000 5e 5f e3 3e 80 63 d5 3d 51 93 fc 3d 1c c6 6e be
       0.44408697 0.10419369 0.12332786 -0.2331776
000010 13 a6 00 be 24 7b a3 be c3 b6 f3 be fc c5 e2 3d
       -0.12563352 -0.31929886 -0.47600374 0.11072919
000020 8a 3d f5 3e 91 c3 03 3f 0d ce 95 be b9 b3 d9 be
       0.47898513 0.51470286 -0.29258767 -0.4251993
000030 56 aa ca bd e9 a1 21 3c 9c 0f 38 bd dd b4 af be
       -0.0989577 0.009865263 -0.04493676 -0.34317675
000040 55 ae 43 be c4 25 b5 3d 16 cd 8f 3d d6 54 be 3c
       -0.19109471 0.08845094 0.07021539 0.023233812
000050 79 7d a4 3b 9c a1 92 be fa b4 79 3d c0 4c 36 be
       0.0050198403 -0.28638923 0.06096361 -0.17802715
000060 33 bc d5 be
       -0.41745147

FirstConv.1.weight f4 [25, 25, 2, 1]
000000 35 c3 65 3e ae 3a 37 bf c3 c6 95 bd d3 74 60 bd
       0.22437747 -0.71573913 -0.073133014 -0.054798912
000010 f2 2f 9d bd 53 9a 72 3d 59 93 b8 be 8c c6 85 3f
       -0.076751605 0.059229206 -0.36049917 1.0451217
000020 a4 22 13 bd 75 e8 97 3d a0 e3 85 3e 99 58 0e bf
       -0.035921708 0.074173845 0.26150227 -0.5560394
000030 fc d1 05 3e 35 2c 94 bc 17 46 b1 3d 19 76 b8 be
       0.13068384 -0.018087486 0.08655947 -0.360276
000040 36 27 0b 3e 08 c9 2f bf 69 ed 97 3d 61 55 5e bf
       0.13589177 -0.68666124 0.07418329 -0.8684903
000050 ac 4d 4f 3e 83 d5 10 bf d6 f8 64 bd 29 1a e0 3e
       0.20244473 -0.56575793 -0.05590137 0.4376996
000060 e3 d0 aa 3d c3 11 16 3f e1 71 77 3d 24 f1 87 be
       0.08340623 0.5862085 0.060411338 -0.26551163
000070 b8 66 31 be f7 07 00 bd a9 75 81 be 2a 9f 7f 3f
       -0.1732434 -0.031257596 -0.2528508 0.9985224
000080 7d 7a 21 3e 4a 92 8c be cd 3c 90 3c 21 ed ec bd
       0.15769382 -0.2745536 0.017607117 -0.11568666
000090 db f1 03 be dc b4 07 3f e8 6e 41 3e ea 85 1f bf
       -0.1288523 0.53010345 0.18889964 -0.6231371
0000a0 a3 a8 82 3d b2 4d cd bd f9 0a f6 bc a9 49 02 be
       0.06379821 -0.10024585 -0.030034529 -0.12723412
0000b0 f1 54 1a be 3b 5a b8 3e 65 c0 3a 3e 84 9d 26 bf
       -0.15071465 0.3600634 0.18237455 -0.650841
0000c0 89 31 89 3c 0b e0 c1 bb 4f 3c 27 bd c8 6e 1e 3f
       0.016747253 -0.0059166006 -0.040829 0.6188779
0000d0 36 0e ed 3c 60 5a 92 be be f7 1c be be 04 16 3f
       0.02893744 -0.28584576 -0.15328881 0.58600986
0000e0 eb 9c e5 bd 7b 44 08 be c8 f6 94 3d 01 51 a5 be
       -0.1121157 -0.13307373 0.07273632 -0.32288364
0000f0 ca 43 a0 3c 39 65 83 be 7f a4 d1 3c a8 23 22 bf
       0.019563574 -0.25663164 0.025591133 -0.6333566
000100 59 83 06 bd 76 af 28 3c 11 ce 44 3e 60 36 bc be
       -0.032840107 0.010295739 0.19219233 -0.36760235
000110 be a0 a4 3e 32 a3 a5 be 4f 9b 13 3b 86 26 01 3e
       0.32153887 -0.3235107 0.002252299 0.12612352
000120 5c e8 3b bd c0 29 b2 3d b2 75 ba 3d b7 39 38 bf
       -0.045875892 0.086993694 0.0910448 -0.71963066
000130 b3 7d b6 3d 78 12 ed bd 78 09 e4 ba 48 d5 2e 3f
       0.08910694 -0.11575788 -0.0017397841 0.6829419
000140 1f 58 ba be 94 cf 4e bb c6 70 ca 3d cf 0a 0c bf
       -0.36395356 -0.0031556832 0.09884791 -0.5470399
000150 5a 09 96 3d 28 ee 0a bf c3 bd 3a 3d 64 03 82 bc
       0.073260024 -0.5426965 0.045591127 -0.015870757
000160 16 53 11 3e 4a 4e b5 be 58 9b bc bd bd 3d 2a 3e
       0.14191851 -0.35411292 -0.09209317 0.16625114
000170 d0 e3 f6 bd a5 9b 37 3e ee 75 ac 3c 28 69 ad 3d
       -0.120551705 0.17930467 0.021052327 0.084673226
000180 a6 bf 03 bd 15 92 79 3d 46 08 46 bc 0c 7f cf 3e
       -0.032165192 0.06093033 -0.0120869335 0.40526617
000190 20 ec 6b 3d a6 c0 00 bf 27 9b e7 bd 82 97 4d 3e
       0.057598233 -0.5029396 -0.1130889 0.20077327
0001a0 d3 d8 ad 3e bf af 04 bf d9 ca 3d be 11 d3 0b 3f
       0.33954486 -0.5183067 -0.18534411 0.54618937
0001b0 18 23 21 bd 16 9e fe 3d 18 75 a0 bb 69 7f 9d bd
       -0.03934011 0.12432496 -0.004896771 -0.07690317
0001c0 d2 0c be be 15 ae d8 3e 6a d2 41 bd f7 43 fa 3c
       -0.37119156 0.42320314 -0.047319807 0.030549986
0001d0 ac 86 35 3d e9 d9 a1 3d 2c e6 02 bd a8 4c 0b 3e
       0.044317886 0.07902891 -0.03195779 0.13603461
0001e0 3e cc b5 bb ff b0 1a 3e bc ae 18 be 4b be 35 3e
       -0.005548029 0.15106581 -0.14910406 0.17748372
0001f0 00 5e 6d be d3 d7 06 3f 93 42 18 bc 42 a3 17 bc
       -0.2318039 0.5267307 -0.009293216 -0.009255232
000200 91 b0 17 3e 46 93 fa be 28 02 8a 3d 84 88 56 bd
       0.14813448 -0.48940486 0.067386925 -0.052376285
000210 3e fc fa bd d9 dc a9 3e b6 33 9a bd fa cc 89 3e
       -0.12255143 0.33176306 -0.07529394 0.26914197
000220 d5 0c 41 3d 43 80 0d be 8f af 63 bd b6 d3 90 3e
       0.04713138 -0.13818459 -0.055587348 0.28286523
000230 fc dc be bd 9c 84 80 be e4 0b 4f 3d 5d 0f 8b be
       -0.09319493 -0.25101173 0.05054845 -0.2716016
000240 a5 16 d9 3c df cd 1e be 55 a2 8e bd 17 d1 26 be
       0.026500056 -0.15508221 -0.06964556 -0.16290699
000250 eb f6 af 3d 07 c0 a8 be e1 95 37 be 79 a8 13 bf
       0.08592018 -0.32959005 -0.17928268 -0.57678944
000260 7b 91 64 3e 28 05 0d 3f 60 82 84 3d 53 55 7d be
       0.22321121 0.5508599 0.064701796 -0.2473958
000270 eb 5c 90 3e 69 1e a5 3d 38 81 8f bd d7 f1 78 3e
       0.2819589 0.08062441 -0.070070684 0.24311005
000280 36 d0 ed be 71 69 61 bf fd 99 a0 be 4a 09 8b be
       -0.46447915 -0.88051516 -0.31367484 -0.27155524
000290 c9 85 6b bd 14 18 9d bd 6d f4 bc 3b b2 03 9d 3e
       -0.057500634 -0.07670608 0.0057664425 0.30666882
0002a0 3c 33 1c 3d 72 cb e2 3e 9e 9e 1d 3e b1 2c ae 3e
       0.0381348 0.4429584 0.15392539 0.34018472
0002b0 14 fa 14 bd aa c4 89 3e 1a 34 de be 46 64 ab be
       -0.036371306 0.26907855 -0.43399125 -0.3347494
0002c0 39 7f 4e bd e2 dd 40 bd ee b4 b9 3d 42 5b 02 3b
       -0.050414298 -0.047086604 0.09067713 0.001989082
0002d0 b5 75 f6 3d 99 4e 5f be a9 ff e8 3c 5f 07 18 be
       0.120341696 -0.21807326 0.02844222 -0.14846562
0002e0 cf 0f 17 bd d9 97 11 bc 0a 9e 06 be e2 1a 28 bf
       -0.03688031 -0.008886301 -0.13146225 -0.6566602
0002f0 05 b6 6b be 1b 6c 4d 3d bb 69 5e be 8d 52 fb be
       -0.23018654 0.050151926 -0.2172002 -0.4908642
000300 1c 47 ac bc 99 b5 33 be fe c7 9d 3c 50 77 07 be
       -0.021030001 -0.17549743 0.019260403 -0.13229108
000310 0d 14 26 be 90 7a c2 be 31 62 51 3c 58 46 1d be
       -0.16218586 -0.37984133 0.012779758 -0.15358865
000320 54 53 8d 3c 56 c1 77 3e a5 93 97 3e 82 bc 82 be
       0.017251648 0.24194846 0.2960483 -0.25534445
000330 95 16 06 bf 4a e9 88 3e c2 3f c9 3e 4e cc a0 be
       -0.5237821 0.26740485 0.39306456 -0.31405872
000340 75 d0 17 3e e4 d7 b6 bd d3 3d d0 be 32 fd 12 3e
       0.14825614 -0.089278966 -0.40672168 0.14354399
000350 4e 47 29 3e 98 72 a9 bd c2 8c cf be d6 9e 3d 3e
       0.16531107 -0.0827381 -0.40537077 0.18517622
000360 ef d7 46 be f3 ac d1 3d b1 ed 58 3e 25 33 47 be
       -0.1941831 0.102380656 0.21184422 -0.19453104
000370 95 10 c3 3e cc ba b3 be f6 c4 1f 3f cc bc 9d be
       0.3809859 -0.35103452 0.62409914 -0.30808103
000380 f3 d4 39 3d 96 63 3f be a0 36 83 be 70 22 89 bc
       0.0453691 -0.18690333 -0.25627613 -0.016740054
000390 99 36 cf bd 9a c6 98 3e 25 56 8a 3d 99 8a ad be
       -0.101178356 0.2983902 0.06754712 -0.33894804
0003a0 d4 30 af bb 40 72 07 be 25 16 9c 3e 6c 8c 77 be
       -0.005346397 -0.13227177 0.30485645 -0.2417466
0003b0 8f 8a 97 be 81 46 14 3f 54 0e 3a 3d a2 a2 28 bd
       -0.295979 0.5792008 0.04542382 -0.041170724
0003c0 ab 2c 97 be ae b8 96 3e de 73 2b be 8f 4a 55 3e
       -0.29526266 0.29437774 -0.16743419 0.20829223
0003d0 fb e0 49 be c7 94 91 3e f2 6d 4d 3d f9 34 d6 3d
       -0.1971473 0.2843382 0.05015368 0.104593225
0003e0 6d 1b 3c be c1 26 92 3e 96 41 0d 3e db c8 0a 3d
       -0.18369837 0.28545192 0.1379455 0.033882957
0003f0 ce 53 81 3e 72 f8 f7 bd e4 fc 48 be c4 05 f9 3e
       0.2525925 -0.12107934 -0.1962772 0.4863721

FirstConv.1.bias f4 [25]
000000 ec fd b3 3d ce 9b d9 3d 42 7a b6 3d 08 9b a2 3c
       0.08788666 0.106254205 0.089100376 0.019849315
000010 d4 22 82 3d a6 18 cd bd 44 7e 53 3d 48 06 14 bd
       0.06354299 -0.10014467 0.05163409 -0.036138803
000020 34 3d 59 3c 8d 37 e7 3d 96 05 6f bd d9 78 6d 3d
       0.013259221 0.11289892 -0.058354937 0.057976577
000030 6b 3f 67 bd 29 0b b2 3d 66 6f 9a bd 6c 0c 4b bd
       -0.056456964 0.08693535 -0.07540779 -0.049572393
000040 79 5f 0b be 37 cf 72 bd 25 a0 9f 3d bb dd de bc
       -0.13610639 -0.059279647 0.07794217 -0.027205339
000050 ad 25 df bd dc c1 e9 3d 5d 3e c3 3d ac 67 8a bd
       -0.10895858 0.11413929 0.09533379 -0.06758055
000060 0d c4 e9 bd
       -0.11414347

FirstConv.2.weight f4 [25]
000000 ad c3 3d 3f 58 65 3c 3f 20 a3 88 3f 41 0f 64 3f
       0.741267 0.7359214 1.0674782 0.89085776
000010 bd e5 1d 3f 63 79 33 3f 70 85 12 3f bc 88 09 3f
       0.6167868 0.70107096 0.5723486 0.53724265
000020 59 53 cd 3e b2 8c 3c 3f 66 01 1d 3f 89 de 0e 3f
       0.40102652 0.73652184 0.6133026 0.5580831
000030 f3 48 0b 3f 68 85 89 3c e0 bf 2c 3f 9a 23 0a 3f
       0.54408187 0.016787246 0.6748028 0.53960574
000040 62 37 1c 3f 60 f8 37 3f bc cc 04 3f 81 22 f7 3e
       0.6102201 0.71863365 0.518749 0.48268512
000050 3b 8f 27 3f 87 49 08 3f 7a d2 07 3f 4f c3 e0 3e
       0.6545293 0.53237194 0.53055537 0.4389901
000060 40 ce 64 3f
       0.8937721

FirstConv.2.bias f4 [25]
000000 e8 9d 1c bf c2 a4 18 bf f0 39 f5 be f2 15 9b be
       -0.61178446 -0.596264 -0.47895765 -0.3029018
000010 44 9a 37 3c e5 c9 3a bf 58 86 3f be 74 8f 79 be
       0.011206213 -0.72964317 -0.18703592 -0.2437113
000020 1e 39 32 bd 7d e0 0c bf ea a9 1f be 21 34 24 3d
       -0.043511502 -0.5503004 -0.15592161 0.040088776
000030 10 85 16 be 3e 84 e1 be 2c 91 35 be ad 5b 94 be
       -0.14699197 -0.44046205 -0.1773116 -0.28976193
000040 f9 50 f9 bd 1e 90 16 bf b4 76 df be ff 59 ef bd
       -0.121736474 -0.58813655 -0.4364525 -0.11687087
000050 54 63 fe be 00 bd a7 be 5c 8f a8 be d0 85 14 3d
       -0.49685156 -0.32761383 -0.32921875 0.036260426
000060 e4 ad 00 bf
       -0.50265336

FirstConv.2.running_mean f4 [25]
000000 6e 79 94 bf 94 3c 05 3f f6 8e 02 3e c5 48 48 3f
       -1.1599557 0.5204556 0.12749848 0.7823604
000010 ba c1 87 3c dd 38 a9 3e cb ae 85 3f b6 cf 4c 3f
       0.016571868 0.33051196 1.0443968 0.8000444
000020 f7 a6 41 3e b4 f3 e0 3f 96 cf 17 be 9f 5d 05 3d
       0.18911348 1.7574372 -0.14825282 0.032559987
000030 ca 9b 6c be f6 7e 46 be 4a 89 0b 3c df 0f 8b 3f
       -0.23106304 -0.19384369 0.008516619 1.0864218
000040 d4 9e ad 3e fc 84 3b 3e e5 19 83 bf 6b 3e bc 3f
       0.3391024 0.18312448 -1.0242277 1.4706548
000050 66 91 a4 bf 3e 91 9f 3f 49 34 87 3f 26 38 48 bf
       -1.2856872 1.2466199 1.0562831 -0.78210676
000060 54 db af be
       -0.34347022

FirstConv.2.running_var f4 [25]
000000 43 f9 6b 43 23 ef b7 43 22 53 33 43 cf 81 32 43
       235.97368 367.86826 179.32474 178.50706
000010 1d 0e 9c 42 63 2d 44 43 4d 8c 09 43 30 17 25 43
       78.027565 196.17729 137.54805 165.09058
000020 5c d8 6b 42 88 77 6f 43 06 0b 7f 42 76 7e 34 42
       58.96129 239.46692 63.760765 45.123497
000030 bc 56 db 43 ea d3 27 42 c1 ca 6d 42 52 49 a4 43
       438.6776 41.956947 59.448 328.5728
000040 4a 1c 21 43 81 55 d0 43 f2 56 af 43 01 ee a6 43
       161.1105 416.668 350.67926 333.8594
000050 2a bd 57 43 1e 99 30 43 8e 6b 17 43 40 e5 5f 42
       215.73892 176.59811 151.42014 55.973877
000060 79 32 5a 42
       54.54929

SecondConv.0.weight f4 [50, 25, 1, 5]
000000 17 af 31 be 26 ae 29 be 59 b2 87 be fa 14 17 be
       -0.17351948 -0.16570339 -0.26503256 -0.14754096
000010 be 40 88 be 3e 10 80 ba d1 ad e1 bd a6 c8 18 be
       -0.26611894 -0.0009770466 -0.11019481 -0.14920291
000020 23 ad 1c 3d 32 54 1e be a1 be 49 be 42 57 a1 be
       0.038251054 -0.15461805 -0.19701625 -0.31511885
000030 e2 bd 54 be c4 89 f9 bd f5 76 eb 3d 73 39 4e be
       -0.2077556 -0.1218448 0.11497299 -0.20139103
000040 e4 c6 18 be 5b ef c8 bd e3 45 79 be 71 97 69 3d
       -0.14919621 -0.098112784 -0.24343066 0.05702919
000050 4f 93 f7 bc b7 5d c1 3e cb e0 10 3c c3 c7 b8 3d
       -0.03022161 0.3776681 0.008842657 0.090224765
000060 e6 0f 54 3d 63 a8 a0 be db 19 f4 bd 62 a5 c4 be
       0.051772974 -0.3137847 -0.11918994 -0.38407427
000070 42 56 f1 bd 53 38 c6 be bb 68 7f 3e 63 43 9f 3d
       -0.117840305 -0.38714847 0.24942295 0.07776525
000080 20 7c 90 bb 81 9e 34 3f 84 eb b1 3d 9f 6f 0a 3d
       -0.004409328 0.7055436 0.08687499 0.033797856
000090 d0 02 c4 be ea d6 e2 bb e5 44 2f be e7 03 1f be
       -0.38283396 -0.0069225924 -0.17116125 -0.15528832
0000a0 a9 70 8c bd c6 39 d1 3e 57 5e 2a 3e 0c 79 1e be
       -0.06857426 0.4086439 0.1663755 -0.15475863
0000b0 b7 04 48 3c 9e 2f 66 be 4a 93 30 bf 83 da 4c bf
       0.012208155 -0.22479102 -0.68974745 -0.8002092
0000c0 8e 17 86 be 42 36 c1 bd ad 04 cb 3d 91 29 d1 3c
       -0.26189846 -0.09434177 0.09913001 0.025532516
0000d0 f2 a4 3a be 5c 8a 84 3d 49 81 7e 3d 2e c9 04 3f
       -0.18226984 0.064717025 0.062135015 0.51869476
0000e0 5b af dd bd a0 42 a7 3e dd 25 4e 3e 8a 1c ed 3a
       -0.10824462 0.32668018 0.20131631 0.001809017
0000f0 3c 5f 83 bf 20 f7 10 bf 63 56 05 bf 6d 89 10 bf
       -1.0263438 -0.5662708 -0.5208494 -0.56459695
000100 2b 17 22 3d ec f7 1d 3e 38 89 c6 3d ae 31 71 3e
       0.039572876 0.15426606 0.09694141 0.23554108
000110 9a 0b 6a 3e b4 12 8a 3e 0c ed b5 bc 7e 6e 42 3d
       0.22855988 0.26967394 -0.02220776 0.047468655
000120 af 47 19 be 7b 2d 17 bd b9 9a 6e 3e 3a 00 d6 be
       -0.14968751 -0.036908608 0.2330121 -0.41797048
000130 44 3c dd be af e4 38 bf 47 59 7f be b6 2d 4d 3c
       -0.43210042 -0.72223943 -0.249364 0.012523105
000140 46 21 e7 bc 29 62 4c bd 90 df f2 bd e2 ef 23 3d
       -0.028214108 -0.0498983 -0.118590474 0.040023692
000150 a8 d1 6e bd b7 14 b2 3e ff 07 22 3e 4a 79 5c be
       -0.058305413 0.3478143 0.15823363 -0.21530643
000160 3e 15 fb 3d 79 16 bf be aa 32 8d be 7c 98 83 be
       0.12259911 -0.37321833 -0.27577716 -0.25702274
000170 bf 17 20 bf 38 ea 8f be ab b2 84 be 27 ff 0f bf
       -0.62536234 -0.28108382 -0.25917563 -0.56248707
000180 25 e4 3e bf 0e 26 9d bf 98 54 b7 be 60 33 ce 3d
       -0.7456687 -1.2277238 -0.35806727 0.10068393
000190 b9 36 79 be 6f 88 8b be 29 f3 84 be 5a 33 b3 3d
       -0.24337281 -0.27252528 -0.25966766 0.08750029
0001a0 8b a4 fe be 92 c1 dd 3d 3f 15 ad 3e b5 d0 91 bd
       -0.4973491 0.10827936 0.33805272 -0.07119886
0001b0 6d a0 54 3f 98 83 b7 bd 1e 47 04 be 4d 8f 0b 3e
       0.8305729 -0.089606464 -0.12917754 0.13628884
0001c0 05 69 e6 3e f4 f2 43 be 4e 46 44 3e f3 93 a1 3e
       0.45002 -0.19135648 0.19167444 0.3155819
0001d0 7b 4e 37 bd 83 ac 3a 3e ca e2 e7 bd 34 60 89 3e
       -0.04475258 0.1822987 -0.113225535 0.2683121
0001e0 d4 c0 ff bd d7 03 35 3e 30 2e 7f 3e 87 79 63 3e
       -0.12487951 0.17677246 0.24919963 0.22214328
0001f0 2d 90 fa bd 55 61 2a bf 28 93 0a bf 92 f8 d8 be
       -0.122345306 -0.66554767 -0.5413079 -0.42377144
000200 ff 38 d4 be 69 4f f9 be 28 e7 61 bf 80 3f 69 bf
       -0.41449735 -0.48693398 -0.8824334 -0.9111252
000210 bd 25 23 bf 77 1b 2b bf 57 13 b4 be 90 fc 72 3e
       -0.6372946 -0.66838783 -0.35171005 0.23729157
000220 c2 78 21 bd df 55 0e 3e a9 da b6 3e af 30 06 bd
       -0.039421804 0.13899945 0.357137 -0.032761272
000230 e6 4c 24 3e 02 f6 23 be ec a1 b1 3e ac f7 fd 3e
       0.1604496 -0.16011813 0.3469385 0.4960302
000240 35 b3 8a 3d 0c a7 ed bd a2 4c 98 bd bf 28 4c 3e
       0.06772462 -0.11604127 -0.074364915 0.19937418
000250 84 3e e5 bd a9 d3 84 3e 75 a7 1c bf 69 3d 43 bf
       -0.111935645 0.25942734 -0.6119302 -0.7626558
000260 d9 0e 70 bf 3d 46 e2 be 71 2b 2e bf bd 4b 1d 3f
       -0.93772656 -0.44194213 -0.68035036 0.6144369
000270 ef a9 b7 3e 5d 6a 18 3e 90 ad 04 3f 72 a4 11 3f
       0.35871837 0.14884324 0.51827335 0.5689155
000280 b4 45 21 3f cd 23 c3 3d 03 5e 10 3e 63 09 c5 3e
       0.62996984 0.09528313 0.14098363 0.38483724
000290 bf ac c6 bc 7b 7e 1c 3d dd d1 98 3d 3f 08 0f bd
       -0.024252294 0.03820656 0.07461903 -0.034919973
0002a0 b4 49 1f 3e 0a 41 1c be 31 66 83 3b cc 8d 81 be
       0.1555546 -0.15259185 0.004009985 -0.25303495
0002b0 e2 41 81 be 1c 02 ee 3d 11 62 c1 3d d8 a8 32 3e
       -0.25245577 0.11621496 0.09442533 0.17447221
0002c0 2e ff 1d be a9 c6 a7 be d6 c0 53 bd 7a f7 98 3b
       -0.15429375 -0.32768753 -0.051697575 0.0046681734
0002d0 a3 79 73 3e 88 72 0b 3d 05 5f c6 bd 7a 37 f0 3e
       0.2377687 0.034044772 -0.09686092 0.46917325
0002e0 a2 de cc be 43 cc 41 3e b4 26 5d 3e 5b 11 8f 3e
       -0.40013605 0.18925576 0.21596795 0.2794293
0002f0 a6 da f1 3d dd 64 88 bc 30 57 8e 3e 88 d0 19 3e
       0.11809282 -0.016649658 0.27800894 0.15020955
000300 98 b4 a4 3e cd 8d b8 3e a8 77 c1 3e 24 9f 2e be
       0.32169032 0.36045685 0.37786603 -0.17052895
000310 3f 4c 74 3e 6f f5 14 bf 16 9c 1d 3d eb 47 2c bf
       0.2385721 -0.58187 0.038478933 -0.6729724
000320 68 ce 75 be a3 a9 23 bf df 6b 56 bf 3f 5c ad be
       -0.24004519 -0.6393072 -0.8375835 -0.3385944
000330 62 a0 b8 be fb b2 aa 3e 44 fe bd 3e fd 5a fe be
       -0.36059862 0.33339676 0.37108052 -0.49678794
000340 ec 03 4d 3f 0d 40 e0 3d 62 d5 32 3e c9 42 53 be
       0.8008411 0.10949717 0.17464212 -0.20630945
000350 46 3f 62 bf 2c 41 c9 be 96 fb 02 bf bd bc ae bf
       -0.883778 -0.39307535 -0.5116514 -1.3651348
000360 19 17 4d bf 81 07 2c bf fc 23 4f bf e3 8e 0b bf
       -0.8011337 -0.6719895 -0.8091428 -0.545149
000370 2d 8a 94 3d b0 f9 07 be 65 01 b1 be f8 57 0f 3d
       0.072529174 -0.13278842 -0.34571376 0.034996003
000380 f5 38 8f be 52 f1 aa bf 21 7a 69 bf d2 c2 67 bf
       -0.27973142 -1.3354895 -0.9120198 -0.9053165
000390 f3 cc ed be e5 f9 7c bf 79 fe 1c 3f 82 1d bd 3e
       -0.46445426 -0.9881881 0.61325794 0.36936575
0003a0 36 48 32 3d 3f 88 a1 3e b5 26 eb be 44 66 f2 3d
       0.043525897 0.3154926 -0.4592797 0.11835912
0003b0 ce dc 54 3f 2b 49 31 bf 9e e5 8d 3f 3d 51 1b 3f
       0.8314942 -0.6925227 1.1085699 0.60670835
0003c0 38 b7 d5 bd e6 66 e9 3d 3c 8e 2c 3e 13 a6 c8 3d
       -0.10435337 0.113965794 0.16851133 0.09797301
0003d0 ce c0 00 3e 0c c6 37 be d1 ac 2e be ff 5e d6 be
       0.12573549 -0.17946643 -0.17058112 -0.4186935
0003e0 0a 68 51 bd 54 fb 11 bf 1a 75 2a be 9c f4 06 3e
       -0.05112461 -0.5702412 -0.16646233 0.13179249
0003f0 31 4c bf be 00 9e a1 be 44 7f ec be 40 ea 33 bd
       -0.37362817 -0.31565857 -0.46190846 -0.04392457

SecondConv.0.bias f4 [50]
000000 ec dc a1 bc 44 c9 27 bd 94 cc 9f bd 8b b6 8b bd
       -0.019758664 -0.040963426 -0.07802692 -0.06821927
000010 81 00 82 3d 6f bd 7c 3d 7a eb a1 3b 48 0f ae bd
       0.06347752 0.061704095 0.004941401 -0.084990084
000020 60 f5 a7 3d 8e 38 0b 3b fd 67 ba 3d 3d 5a 4f bd
       0.082010984 0.0021243426 0.091018654 -0.050623167
000030 f7 e1 1c bd 25 87 63 3c 32 86 73 3d 1c 6b 7f 3d
       -0.038301434 0.013887201 0.05945415 0.062358007
000040 0e 37 9f 3c 86 2c 02 bc 62 b9 cc 3b 4d 6a 8b bd
       0.019435432 -0.0079451855 0.0062476853 -0.06807385
000050 dc 94 54 3d 41 89 8f bd 47 8d 98 bc 0a 07 d0 3c
       0.051899776 -0.07008601 -0.018622054 0.025393981
000060 d3 f0 cd bd c7 3f ac bd 56 77 d0 3c fd 90 d6 3c
       -0.10055699 -0.08410602 0.025447529 0.026192183
000070 91 18 ba 3c ee 79 45 bd e8 3e ee 3c ef 5b 82 bd
       0.022716792 -0.048211984 0.02908273 -0.06365191
000080 f6 5f 9b bc d3 de 60 3d 3c af c5 bd 79 f2 c9 3d
       -0.018966656 0.0549 -0.09652564 0.09860701
000090 86 0c 2b 3c 0d 02 a4 3d fb b3 17 3d 95 7e 22 bd
       0.010439998 0.08008204 0.037036877 -0.0396715
0000a0 c1 72 44 3c 25 22 e4 bd 00 34 a0 3d 7a 1a 86 bc
       0.01199025 -0.11139325 0.07822418 -0.016370047
0000b0 29 67 7c 3d 9a c8 23 3e 7f 53 b8 3d a5 b4 0d 3d
       0.06162182 0.15994492 0.090003006 0.034596104
0000c0 44 94 42 bd 20 4c 92 3d
       -0.04750468 0.07143426

SecondConv.1.weight f4 [50]
000000 20 2c 89 3f ed 3e 25 3f a4 b1 5c 3f f7 01 de 3e
       1.0716591 0.6454914 0.8620856 0.43360874
000010 d7 6b 5f 3f 42 2c 5b 3f 68 ce cb 3e e9 34 25 3f
       0.87273926 0.8561441 0.39805913 0.6453386
000020 a8 6c ed 3e b4 3e 9c 3f 62 ab e9 3e b6 4d 65 3f
       0.4637196 1.2206635 0.45638567 0.895717
000030 86 73 8e 38 0d ec 4c 3f 08 7f f3 3e 90 76 3a 3f
       6.7926056e-05 0.80047685 0.47557855 0.7283716
000040 65 98 7b 3f ba ed 8c 3b 4d a6 49 3f 60 b3 38 3f
       0.9827941 0.0043008 0.7876938 0.72148705
000050 9b d9 96 3f 5a f7 71 3e 42 76 2a 3f ea 93 18 3f
       1.1785158 0.23629513 0.665867 0.596007
000060 6d 68 5b 3f 62 2c 19 3f e9 17 25 3c 01 a4 67 3f
       0.85706216 0.5983335 0.010076501 0.90484625
000070 10 17 3c 3f 59 3b 83 3f 2e b0 9b 3e 1b f5 14 3f
       0.7347269 1.0252486 0.30407852 0.581865
000080 06 ed ce 3e 49 19 3e 3f 50 73 41 3f 07 b0 0f 3f
       0.4041521 0.7425733 0.7556658 0.5612797
000090 16 9a 09 3f 15 c6 18 3f 0c f8 32 3f a4 6a cc 3e
       0.5375074 0.5967725 0.6990974 0.3992511
0000a0 03 68 20 3f 52 5e 61 3f f1 70 26 3f ab d5 11 3f
       0.6265871 0.88034546 0.65016085 0.56966656
0000b0 b1 dc 29 3f 7e ad 88 3f 02 57 11 3f 77 76 54 3f
       0.66352373 1.0677946 0.5677339 0.82993263
0000c0 3c 7b 74 3f 31 4e 09 3c
       0.9550054 0.008380459

SecondConv.1.bias f4 [50]
000000 ca 0f 8b be ad 7f 76 be 17 f7 8f be 00 a9 c6 be
       -0.27160484 -0.24072142 -0.28118202 -0.38800812
000010 2b 41 a9 be 2f 0d 15 bd e3 af 76 be d0 8e 90 be
       -0.33057532 -0.036389526 -0.24090533 -0.28233957
000020 26 83 c3 be c4 ca 2d bf 72 c4 17 bf ce c1 bb be
       -0.38185996 -0.6788752 -0.59284127 -0.366713
000030 d6 a7 aa be 86 07 ee be 3e 4a 8b bc 0b 40 2c be
       -0.33331174 -0.46490115 -0.017003175 -0.16821305
000040 2a 31 8b be 3a d2 82 be 5c 7f 8b be 4e 4b 5d be
       -0.27185947 -0.25551015 -0.27245605 -0.21610758
000050 f0 81 11 bf 66 9c 14 be c8 a5 6f bd 09 3a 23 be
       -0.56838894 -0.14512786 -0.05850771 -0.15940107
000060 f3 4b 23 be f0 1f 7b be 49 1c 8f be 0a 77 a7 be
       -0.15946941 -0.24523902 -0.27951267 -0.32708007
000070 09 75 5b be 90 54 10 bf 84 e7 cb be 04 79 a6 3e
       -0.21431364 -0.5637903 -0.3982507 0.32514203
000080 ed 2c 82 3d dc 90 cc bd 9e 63 42 be be 6c 82 be
       0.06356225 -0.09988567 -0.18983313 -0.2547359
000090 1a 82 ee 3d 11 22 7d bd 47 58 90 be bd 13 55 3d
       0.11645909 -0.061800066 -0.2819235 0.052020777
0000a0 a5 a2 65 bd 72 e2 29 be 3d 60 0b be e3 43 96 bc
       -0.056063313 -0.16590288 -0.1361093 -0.018342918
0000b0 5a 7c 4d bd d5 ae 8e be 22 c1 ad bd 01 04 0e bd
       -0.05016742 -0.2786776 -0.08484103 -0.034671787
0000c0 66 1a 7f be 4d ae 8a be
       -0.24912414 -0.27086106

SecondConv.1.running_mean f4 [50]
000000 07 2f be bf 4c 51 84 bf 56 b5 1d c0 37 6a a1 3f
       -1.4858102 -1.033731 -2.4641929 1.2610539
000010 3b 87 b8 bf b3 e6 c8 bc 96 01 81 3f ba 61 ba 3f
       -1.4416269 -0.024524068 1.0078609 1.4561074
000020 94 bb 9a 3f 51 0c 5a c0 1c 6a cd 3f d5 9d e0 bf
       1.2088494 -3.4070017 1.6048007 -1.7548167
000030 8d 12 09 3f d2 47 e4 3f 1f 34 f7 bd 63 38 e9 bf
       0.5354393 1.7834418 -0.12070488 -1.8220333
000040 ea b8 1c c0 5a 15 4a 3f 09 44 41 bf dc 0e 47 c0
       -2.4487863 0.7893883 -0.7549444 -3.110282
000050 b0 17 13 c0 46 11 8a 3f e3 97 1b 3d 08 77 a2 3f
       -2.2983208 1.0786521 0.037986647 1.2692575
000060 a2 bb a0 3f 02 33 c8 bf 10 19 00 3f f7 78 02 c0
       1.2557261 -1.5640566 0.5003824 -2.038633
000070 c7 dd cb bf 12 58 31 c0 23 71 f1 3f 52 1b 22 3f
       -1.5927056 -2.7710004 1.8862652 0.6332294
000080 fc eb 91 3f a0 d7 d7 bf 03 df 71 bf 3d af c1 bf
       1.1400142 -1.6862679 -0.94480914 -1.5131603
000090 dc 42 94 bc c1 8c e0 3d 89 a6 f4 bf 8d 17 56 3f
       -0.018098287 0.10964347 -1.9113322 0.83629686
0000a0 45 5e 7f be 6b a4 42 40 b2 81 8e be 82 af 9a bf
       -0.24938305 3.0412853 -0.27833325 -1.2084811
0000b0 48 f7 da bd c9 74 82 bf 2b 27 c4 bd a4 6a 87 bf
       -0.106916964 -1.019189 -0.09577783 -1.0579419
0000c0 c5 e7 a5 bf 35 64 49 3f
       -1.2961355 0.7866853

SecondConv.1.running_var f4 [50]
000000 ec a9 2c 41 bf 8b 87 41 c0 47 99 41 ad 0b 0e 41
       10.791485 16.943235 19.160034 8.877851
000010 7d 36 34 41 e0 59 9c 40 34 61 29 41 52 93 d4 40
       11.263303 4.885971 10.586231 6.6429834
000020 c9 03 77 40 a3 16 60 41 eb 82 e0 40 93 5c 37 41
       3.859606 14.005527 7.015981 11.460101
000030 9b f2 81 3f 92 b1 e6 40 fd 73 8b 40 b0 25 6d 41
       1.0152162 7.209176 4.3579087 14.821701
000040 32 85 6e 41 32 75 05 40 2c 78 f5 40 37 55 ba 41
       14.907518 2.085278 7.6709194 23.291609
000050 4b 2c 6b 41 57 d5 68 40 7d 6e 5f 40 d0 b1 b6 40
       14.698314 3.6380212 3.4911187 5.7092056
000060 e8 e9 b0 40 37 c5 f4 40 fe e9 82 3f 01 f5 48 41
       5.528553 7.649074 1.0227659 12.559815
000070 15 a8 4a 41 3f b0 44 41 1a a2 a3 40 4e 8f 9d 40
       12.666036 12.293029 5.113538 4.9237432
000080 da b4 30 41 5c 70 54 41 6d c4 14 41 77 34 14 41
       11.044153 13.2774315 9.2979555 9.262809
000090 56 da 54 40 08 ba de 40 ed 8e 47 41 1d 43 4d 40
       3.3258262 6.960209 12.472394 3.2072213
0000a0 4d d3 97 40 08 47 57 41 7f 97 60 40 3f c6 c2 40
       4.7445436 13.454842 3.5092466 6.0867
0000b0 9d 7e ab 40 c4 43 d8 40 b5 49 ac 40 87 af 0c 41
       5.3592057 6.758272 5.3839974 8.792853
0000c0 c9 ed 1b 41 44 3d b4 3f
       9.745553 1.4081197

ThirdConv.0.weight f4 [100, 50, 1, 5]
000000 26 e2 52 3d b6 af a6 bd ee 26 f9 bd 09 94 fa bd
       0.051485203 -0.08138983 -0.121656284 -0.12235267
000010 4f ef 91 bd ec 79 d7 3d da 23 02 be 0b c9 26 bd
       -0.071257226 0.105213016 -0.12708989 -0.040719073
000020 0a 9c 84 3b ff 14 97 bd 94 f3 0b be 8b 5c 99 bd
       0.0040469216 -0.073770516 -0.13667136 -0.07488354
000030 07 fd 53 bd 5f 75 9a bd a1 f8 0e bd 27 02 85 3d
       -0.051754978 -0.07541918 -0.03490508 0.06494551
000040 f8 5d 6b bd a1 8e 66 3c 52 92 e5 bb 64 8f 6b bd
       -0.057462662 0.014072091 -0.007005968 -0.057509795
000050 58 ed 83 bd c7 a0 bd bc 20 b8 bc 3c b4 4c 97 bd
       -0.06441754 -0.023147954 0.023037016 -0.07387677
000060 c6 2b bb bd 3d cd 07 bc 99 57 0a be 00 91 d9 bd
       -0.091392085 -0.008288679 -0.13509978 -0.1062336
000070 fe 70 c0 3c cc e2 a4 bd 34 1f ca bd e3 42 1e 3d
       0.023491379 -0.080510706 -0.09869233 0.038638007
000080 52 f1 07 bb a0 6e a8 bd d4 f5 b1 bd ff a1 01 bd
       -0.0020743203 -0.08224225 -0.08689466 -0.031648632
000090 82 dc 1e bc fa 8a fc bd e9 cd 00 bd bc 98 d1 3d
       -0.009696128 -0.12331195 -0.03144637 0.1023421
0000a0 04 f4 9f bd 77 4d 99 3d 28 18 00 bd 07 84 f4 bd
       -0.07810214 0.07485478 -0.031273037 -0.11939245
0000b0 a2 11 60 bd 54 83 93 bd df 69 76 3d b2 46 93 bc
       -0.054704316 -0.07202783 0.06015956 -0.017978046
0000c0 8d a9 43 bd 32 36 82 3d 2c 93 63 3c 43 0e 85 bd
       -0.047769118 0.06357993 0.013890069 -0.06496861
0000d0 e6 8c 25 3d 99 d7 5e bc b2 ae c9 bb 3d 87 cb bd
       0.040417574 -0.013601207 -0.0061548585 -0.09937904
0000e0 38 a4 74 bd 8e 06 f0 3d 1f 72 a4 3d 4f f0 39 3d
       -0.059726924 0.1172 0.08029579 0.04539519
0000f0 83 fb 95 bd ec b0 23 3d b1 47 92 bb 0a d8 ed 3c
       -0.07323363 0.039963648 -0.0044641127 0.02903368
000100 93 c5 83 bd 22 be a8 bc e1 78 55 bd b9 d8 a2 3c
       -0.06434169 -0.020598475 -0.052117232 0.019878732
000110 e2 2e fa bd a5 c6 52 3d b7 ce 27 3e 3a b4 75 3c
       -0.122159734 0.051458973 0.16387449 0.014996583
000120 56 a9 6f bd b9 d7 bb bd 95 64 82 3d ba 27 8f 3d
       -0.0585111 -0.09172005 0.06366841 0.06989999
000130 80 b0 06 bb 18 4d fa bb 49 e5 7a 3d 2a 8f f8 bc
       -0.002055198 -0.007638585 0.06125382 -0.030341703
000140 34 81 a1 bc fa 04 0c be 24 57 c1 bb f3 3a f9 bd
       -0.01971493 -0.13673773 -0.0059002806 -0.12169447
000150 64 b0 c7 bd 3b d0 84 bd 70 d6 09 bd 71 d9 27 3d
       -0.09750441 -0.06485029 -0.03365177 0.040978853
000160 86 f7 c9 3c b0 30 b4 bc 7b 20 8d bc bc ee 72 bd
       0.024654161 -0.021995872 -0.017227402 -0.059309706
000170 3b 7a fe 3c 74 df 22 bc 84 f4 63 3d 6a eb d0 3c
       0.031064143 -0.009940971 0.05565311 0.02550288
000180 1d 82 3e 3d c4 80 d5 bc 54 1b 0e be 1a 0c 08 be
       0.046510804 -0.026062377 -0.13877612 -0.13285866
000190 ad 4e 04 bd e4 af 11 3b 1e 63 bc bd 66 d2 fc bd
       -0.032301594 0.0022230083 -0.091985926 -0.12344818
0001a0 fb db 01 be ec dc 29 bc 15 e5 82 bd 73 bf 4a 3d
       -0.12681572 -0.010367613 -0.0639135 0.049498986
0001b0 50 33 87 b9 4a ec df 3c c5 25 c5 bd ed 46 24 3d
       -0.00025787437 0.027334351 -0.096263446 0.040106703
0001c0 b3 db 47 bd 75 2d 28 3d 51 46 eb bd 43 dc cb 3c
       -0.048793506 0.041058976 -0.11488021 0.024885302
0001d0 db ac cc 3d ad 90 df 3c e8 5c c4 bd 9f b3 55 3d
       0.09993907 0.027290666 -0.09588033 0.052173253
0001e0 7e d9 d7 bd 57 2c b8 bd 89 b9 ed bd e3 27 d4 bd
       -0.1053953 -0.08992832 -0.11607654 -0.1035917
0001f0 f8 ec 74 bc 6f 20 f9 bd 11 24 b8 bb c8 12 a8 bd
       -0.014949076 -0.12164389 -0.005619534 -0.08206707
000200 f9 38 3c bd 61 e6 45 bd 78 e7 9c bd 39 e6 05 3c
       -0.04595277 -0.04831541 -0.07661337 0.008172565
000210 3e 7e 20 bd 7d b1 3e bc 57 61 09 bd 75 7d bb 3c
       -0.039182894 -0.011638996 -0.033540096 0.022886971
000220 db fc a6 bd 3c 72 13 bd b0 91 a2 bc 02 64 ed bd
       -0.08153697 -0.035997614 -0.01984486 -0.115913406
000230 86 8d 50 bd e8 a7 44 3d b2 e1 4d bd d2 e8 61 bd
       -0.050916217 0.04801169 -0.050264068 -0.055153675
000240 92 d9 1b bc e9 8f ce bd 3e 89 17 39 e2 1f 01 3e
       -0.009512322 -0.100860424 0.00014451609 0.12609819
000250 c0 95 c2 bc 43 ed 2f bc 4b 42 cf bd eb 4e 18 3c
       -0.023753047 -0.01073772 -0.10120066 0.009296159
000260 6d d2 c9 3d 4a 84 50 3d cb b8 80 bd 72 f4 48 bd
       0.09854589 0.05090741 -0.062852465 -0.049061246
000270 8e ff 45 3d ac 13 30 bd 51 d2 f2 3c 45 96 01 3d
       0.04833942 -0.04298751 0.029641302 0.03163745
000280 d0 7a 31 bd d5 49 8e bd 2f 02 aa 3d d6 8a 25 3d
       -0.043330014 -0.06947676 0.08301198 0.040415607
000290 29 5e 3a bb 5d be 5c 3c 89 e0 35 bc b8 36 85 bd
       -0.0028437471 0.0134731205 -0.011100897 -0.065045774
0002a0 57 92 7d bd 7a 89 d9 bc e8 1a 19 3d 72 f1 47 bb
       -0.06190714 -0.026554812 0.037379175 -0.0030508903
0002b0 31 73 7e bd 62 96 25 bd 86 49 d8 bd 8e af a0 bd
       -0.062121574 -0.04042662 -0.105608985 -0.078459844
0002c0 a7 8a 8b 3d 8a 47 b6 bd 95 14 d0 bd 49 b8 33 3d
       0.06813555 -0.08900364 -0.10160176 0.04387692
0002d0 4a b3 b9 bd 23 aa 8d bd ec b4 ae bd d9 21 44 bd
       -0.090674 -0.06917217 -0.08530602 -0.047883842
0002e0 1e 91 9c 3c 99 91 be bc fc 7b 47 bd a1 99 c7 bd
       0.019112166 -0.023262786 -0.048702225 -0.09746099
0002f0 a2 21 78 bc f4 74 73 bd d5 0e 9a bd 96 50 b2 bd
       -0.015144737 -0.059437707 -0.0752236 -0.08706777
000300 2b db af 3c ed 66 16 3d 2a 49 9b bd e8 6f fe 3c
       0.021466812 0.03671925 -0.07582314 0.03105922
000310 18 c4 d1 bb 36 1f d2 bc 47 02 34 be fb 9f 08 bd
       -0.00640155 -0.025649648 -0.17578994 -0.033355694
000320 62 6e bd 3c 83 e2 23 bd 37 6b 0e be ee e8 76 3d
       0.023123924 -0.04001094 -0.13908087 0.060280733
000330 f9 14 b2 3d 5c 98 67 bc d3 71 ad 3d 27 7c 6c bd
       0.086954065 -0.014135446 0.08468976 -0.05773559
000340 a1 d7 3d bd d6 87 ed bd e5 f5 a8 3d da 09 67 3d
       -0.046348218 -0.11598174 0.08250026 0.05640588
000350 2f f6 0a bd 78 c5 2b bd a2 72 f4 3d 95 ef a7 bd
       -0.033926185 -0.041936368 0.11935927 -0.081999935
000360 f8 f2 3e bd 46 fe 13 bd 24 32 39 bd d9 d6 19 3e
       -0.04661843 -0.036131166 -0.045213833 0.15023364
000370 7f 93 26 be 5d 5f 08 bd e6 0a 9a 3d 49 b5 03 bd
       -0.16267203 -0.03329407 0.0752161 -0.03215531
000380 4e da a1 bd 32 65 86 3d 1d f4 0d 3d 3b dc b8 bc
       -0.079029664 0.0656227 0.034656633 -0.022565952
000390 b8 79 cd bd b4 dd a0 bc b9 de c1 bd 9b 0e a2 3d
       -0.10032982 -0.019636966 -0.09466309 0.07912942
0003a0 94 88 63 3d 11 99 9c bd 0e fc e7 bd b4 2d 86 bb
       0.055550173 -0.076463826 -0.113273725 -0.0040948037
0003b0 5f fa c1 bc 91 43 ff 3c 49 7c 08 bc f0 ff 94 3b
       -0.023678957 0.031160148 -0.008330413 0.0045471117
0003c0 e9 7f 05 3c 37 1f 1c be be 04 96 bc ee 66 6b 3d
       0.008148172 -0.15246283 -0.018312808 0.05747121
0003d0 3c d0 22 be bc 68 af bd 9f 0c 15 3c 86 f9 e7 bc
       -0.15899748 -0.08564898 0.009097247 -0.028317224
0003e0 5e 53 0e be b3 7f 03 bd 48 9d 2d be d7 d2 07 3e
       -0.1389899 -0.032104205 -0.1695453 0.13264023
0003f0 d5 01 31 3e 4c f3 34 3c e4 d5 d6 be a3 c9 16 bf
       0.17285855 0.011044335 -0.4196006 -0.58901423

ThirdConv.0.bias f4 [100]
000000 1c 1d ee ba 0d 34 61 bd 58 e4 25 3d ea ef ee bc
       -0.0018166634 -0.05498128 0.04050097 -0.029167134
000010 a4 cd 6a 3d 2a 52 48 bd 6f cd 56 3d ba 50 77 3d
       0.05732502 -0.048906483 0.05244201 0.06037972
000020 50 e4 9e 3c cf f4 db bc fd 78 3a 3d 8e 50 d2 3c
       0.019395977 -0.026850132 0.04552554 0.025673177
000030 2c 8f d8 3c d6 e6 98 3c ef db ed bc 8b 8d 4b 3d
       0.026435457 0.018664759 -0.029035537 0.049695533
000040 e2 b2 3c 3d b8 73 e4 ba a8 79 ab bb 27 fd 2c bc
       0.046069033 -0.0017429506 -0.0052330084 -0.010558403
000050 db 5b fb bc f5 b8 44 bd 4e dd 5e bd a7 de ce bc
       -0.030683449 -0.04802795 -0.05441027 -0.025252653
000060 f9 a6 c0 3c 8f df 60 3d b7 31 32 bd 8f 07 00 bd
       0.023517119 0.054900702 -0.043504443 -0.03125721
000070 ba 89 99 bc d2 53 8f bd 02 39 79 3d be 1d e6 3b
       -0.018742431 -0.06998409 0.060845383 0.0070225885
000080 d1 96 7b bd 1d 51 1a 3c e3 92 3a bb 96 d8 aa ba
       -0.061423127 0.009418753 -0.00284689 -0.0013034518
000090 08 a3 a1 bd a9 bb 3f 3d b7 53 db bc 78 d6 37 bd
       -0.07892424 0.046809826 -0.026773317 -0.044882268
0000a0 b1 f6 5a 3c 30 72 41 bd 2d b7 1a 3d 78 26 1f bc
       0.01336448 -0.04722804 0.037772346 -0.0097137615
0000b0 da 24 41 3d 52 90 30 bd 4a d2 6f bb 3f e8 26 bd
       0.047154285 -0.043106385 -0.0036593848 -0.04074883
0000c0 cf 05 11 3d 5d ca f9 3c dd 0c 2b 3d 35 e1 13 3c
       0.03540593 0.030492002 0.041760314 0.0090258615
0000d0 03 f7 06 bd 13 3b b4 bc 30 a5 33 ba 4b 9d a0 3c
       -0.032950412 -0.022000825 -0.0006852923 0.019606253
0000e0 21 17 75 3d a6 83 44 bd eb b2 1b 3d f7 f3 5a bd
       0.05983651 -0.047977112 0.038012426 -0.05345532
0000f0 49 1b af 3c e7 3b a3 3b 52 3d 24 bd f3 7a 0a bd
       0.021375315 0.004981506 -0.040097542 -0.03380866
000100 a2 70 ba bc 78 f4 f3 3b 5d fc a3 3c 13 80 4f 3d
       -0.022758786 0.0074449144 0.020017797 0.05065925
000110 00 57 d2 bc fc bc 0d bd 1e 47 6e bd 10 96 4c 3d
       -0.02567625 -0.034604058 -0.05817329 0.0499478
000120 a3 88 ff 3c 0f e1 0f bd 9b 33 e2 3b 3a f0 de 3b
       0.031193083 -0.035126742 0.0069031245 0.0068035396
000130 b2 6e 62 bc e2 34 53 bd d8 39 db 3b 58 f1 89 3d
       -0.013820337 -0.051564105 0.006690245 0.06735486
000140 8e 5f 43 3d 6e a9 63 bd 2f a0 5d bd 79 4d b4 bc
       0.04769855 -0.055581503 -0.05410784 -0.022009598
000150 05 6c 48 bc 7f f7 45 3d f7 bd d1 bc a2 d9 7e 3d
       -0.012232785 0.048331734 -0.025603278 0.06221927
000160 06 3d 29 3d 63 67 3a bd 0d 65 f0 bb 92 63 3d bd
       0.041317962 -0.045508754 -0.007336265 -0.046237536
000170 64 df 39 3d 22 ce 7f 3c a2 8b 36 3c 1b c4 53 bd
       0.045379058 0.015613111 0.0111416895 -0.051700693
000180 b7 de 31 bc 50 ad 06 bc 53 5f f7 bc a5 7e 21 3d
       -0.010856322 -0.008220032 -0.030196821 0.03942742

ThirdConv.1.weight f4 [100]
000000 7e 23 42 3b 2c c9 ef 3e e8 56 0d 3f c8 f3 f7 3e
       0.0029623206 0.4683317 0.55210733 0.48428178
000010 b1 62 32 3f 67 0a 08 3f a1 ce ee 3e 0a d7 4c 3e
       0.6968184 0.5314087 0.4664202 0.20003906
000020 1f 5e c9 3b 54 96 44 3f bc 57 69 3f a4 f2 78 3f
       0.0061452533 0.7679188 0.911495 0.9724524
000030 f7 5b 91 bb e4 fd a7 3f 7f ab 17 bd da 74 2a 3f
       -0.004436012 1.3124356 -0.037028786 0.6658455
000040 a2 b0 0b 3f 32 64 42 3f 8f f9 04 3f 25 1a eb 3b
       0.54566395 0.75934136 0.51943296 0.0071747475
000050 29 73 17 3f 18 7c 29 3f 62 60 01 3f 58 ae 80 3f
       0.59160095 0.6620498 0.50537694 1.0053205
000060 65 fd 3f 3f d4 d7 f2 3e 74 d3 23 3f 67 29 02 3f
       0.74996024 0.4743029 0.63994527 0.50844425
000070 24 e1 7b 3f 78 89 33 3f 7f 13 1e 3f 5e 82 8b 3f
       0.9839041 0.70131636 0.617485 1.089916
000080 9a 7c fd 3e 7c 70 f1 3e ce 4a 68 3f f4 17 2d 3f
       0.49509126 0.4715613 0.9073914 0.67614675
000090 85 52 28 3f 1c a7 5f 3f 10 d5 71 3f bb bf 17 3f
       0.65750915 0.87364364 0.9446573 0.5927693
0000a0 77 b0 85 3f 66 20 8a 3f 44 28 4e 3f 07 d0 97 3e
       1.0444478 1.0791137 0.8053019 0.296509
0000b0 96 b2 27 3f 2d 75 d5 3b 0b c8 50 3f 0a a2 02 3e
       0.65506876 0.0065142126 0.8155524 0.12757125
0000c0 59 91 64 3c 98 d1 2c 3f 7d 4e 15 3f a9 37 9d 3f
       0.013950669 0.67507315 0.5832289 1.2282611
0000d0 b2 25 c4 3e 8b 70 a4 3f 78 05 85 3f 1d 32 0b 3f
       0.3831001 1.2846845 1.0392294 0.5437334
0000e0 d6 8c 19 3f 5a 06 72 3f de 2c 5c 3f 1e cc 20 3f
       0.59980524 0.9454094 0.8600596 0.6281146
0000f0 59 81 a8 3e 23 1e 0c 3f 0e f9 ec 3b 67 75 3c 3f
       0.32911184 0.54733485 0.007231838 0.7361664
000100 71 27 2f 3f 93 c1 e8 3b 58 a5 18 3f b1 b0 83 3f
       0.6841956 0.007103154 0.59627295 1.0288297
000110 4e 9c 68 3f 54 b4 ac 3e 10 40 49 3e 30 34 30 3f
       0.908635 0.3373133 0.19653344 0.6882963
000120 0a 1d 18 3f a2 52 5c 3f f0 cb a9 bb 0e 00 48 3f
       0.5941931 0.8606359 -0.005181782 0.78125083
000130 f4 8c 69 3f b7 e9 05 3f 7c b0 c9 3e 7f 57 76 3f
       0.912307 0.52309746 0.3939246 0.9622726
000140 1a 1d 67 3f 6f b5 3d 3f 76 e6 2d 3f 46 4e 89 3f
       0.9027878 0.7410497 0.6792978 1.0727012
000150 ae 9d 48 3e 82 e4 40 3f 7f de 31 3f 0e c9 0b 3f
       0.195914 0.75348675 0.6948013 0.5460366
000160 0d d9 29 3f 8f aa 8c 3f af a8 a1 3f 10 34 a9 3e
       0.6634682 1.098955 1.2629603 0.33047533
000170 a9 d6 2c 3f 2c 59 b6 3e 8c 36 39 3f 6d e1 29 3f
       0.67515045 0.35614908 0.72348857 0.663596
000180 20 18 2e 3f 82 70 42 3d 1d cb 88 3e ec da 3b 3f
       0.6800556 0.047470577 0.26717463 0.73380923

ThirdConv.1.bias f4 [100]
000000 f7 26 b7 bd bf 31 4d be 64 b5 a2 be 4c 73 ec bd
       -0.08942979 -0.20038508 -0.31779015 -0.11545429
000010 36 f8 ac be 2a 94 1e bf 18 a4 93 be 29 c2 ab be
       -0.3378312 -0.6194483 -0.2883613 -0.3354657
000020 ff bd 82 be ab c2 04 be 66 e3 f8 bd a0 6f 57 be
       -0.2553558 -0.12964885 -0.12152748 -0.21038675
000030 8c eb 73 be 21 86 74 be cb e3 90 bd e1 50 0d bf
       -0.23820323 -0.23879291 -0.07074698 -0.55201536
000040 d6 19 53 3c 73 db 30 bd 14 f0 19 3d 1f 4d 98 be
       0.012884578 -0.043178033 0.037582472 -0.2974634
000050 8e 60 b4 be b0 ac ab be 19 5f 0a bc 20 51 2f bc
       -0.35229915 -0.33530188 -0.008445525 -0.010700494
000060 b6 42 79 bc df 34 13 3e 72 42 67 be 0d 8e 8b bd
       -0.015213659 0.14375637 -0.2258394 -0.068142034
000070 b1 7d 90 bd 73 bd 86 3d bd 8b 99 be cd aa cf be
       -0.07055224 0.06579103 -0.29989424 -0.40559998
000080 4d 20 a8 bd 24 5c 1b be f9 a9 6f bd 73 df 93 be
       -0.08209286 -0.15171868 -0.058511708 -0.28881416
000090 db 07 bf bd 39 60 98 be 16 d8 cb 3d 0d f0 f5 bd
       -0.0932767 -0.29760912 0.099533245 -0.12008677
0000a0 a6 4c 2c be 64 a2 b7 bd fb f5 69 be 6c ae e5 be
       -0.16826114 -0.089665204 -0.2284774 -0.44859636
0000b0 df 1e 14 3d 4b 38 67 be cc df 3a bf 82 fd 1c be
       0.036162253 -0.22580068 -0.72997737 -0.1533108
0000c0 97 1b d7 be 4e 73 33 bf 66 7a bb 3b 13 c4 91 be
       -0.42013237 -0.70097816 0.005721378 -0.28469905
0000d0 6f f9 2c be 6c 0b 4b be 33 f7 47 be 25 e3 b6 bc
       -0.16892026 -0.19828576 -0.19527893 -0.022325108
0000e0 0e ad 76 be 8b 5f a6 bd b3 41 13 3e 20 6c 66 be
       -0.24089453 -0.08123692 0.14380531 -0.22502184
0000f0 77 5f 83 bd 09 14 91 bd d2 31 41 be 7f 2a 55 be
       -0.06414693 -0.070838995 -0.18866661 -0.20816992
000100 32 7e ab 3c dd 1f 71 be 7e 82 a6 be 6b cf 74 be
       0.020934198 -0.23547311 -0.32521433 -0.23907249
000110 97 e8 9f bd f4 f4 bc 3b c0 c4 6a be d2 39 ec be
       -0.07808035 0.0057665054 -0.22926617 -0.46137863
000120 d7 3c 55 be f1 68 e2 3c 16 6c 5f be da f5 41 bd
       -0.2082399 0.02763793 -0.21818575 -0.047353603
000130 5f e8 b0 be 10 ef 41 3c 94 ba 62 be 1d 57 bb bc
       -0.34552285 0.011836782 -0.22141486 -0.022868687
000140 03 cd b3 be 57 b9 31 be 40 c6 00 be 6b e6 59 be
       -0.3511735 -0.17355858 -0.12575626 -0.21279304
000150 c3 6b c6 be eb ce 1b bd 9d 48 4e 3d b5 69 88 be
       -0.3875409 -0.03803913 0.05036222 -0.26643148
000160 c7 9a f4 bd 25 cf f2 bd 5d 1e 89 bd 9c 89 e5 be
       -0.11943584 -0.11855916 -0.066952445 -0.4483155
000170 33 46 f2 bc 3c be c9 be 37 ee 81 be ec 8f 6b bc
       -0.02957449 -0.3940295 -0.25377056 -0.014377575
000180 c9 17 c8 3d 39 b4 9c bd 30 45 de be 20 8d 3f be
       0.09770162 -0.07651562 -0.4341216 -0.18706179

ThirdConv.1.running_mean f4 [100]
000000 cd ea 9f bf 9b 27 21 40 ca 93 67 40 de 32 3f 3f
       -1.249353 2.5180423 3.6183953 0.7468699
000010 eb b5 0a 40 22 84 60 40 cb 30 36 40 c1 c6 bf 3f
       2.1673534 3.5080647 2.846728 1.498253
000020 fe 6d b7 3f f6 22 a5 bf e1 a7 b6 bf a7 93 1c c0
       1.4330442 -1.2901294 -1.4269983 -2.446512
000030 73 85 14 c0 0f f5 74 c0 cd 6c c0 3f 93 bd 7d 40
       -2.320645 -3.8274572 1.5033203 3.9646957
000040 da b5 eb 3f 5e 01 8a 3f 69 4f 8f 3f 05 b2 26 40
       1.8414872 1.0781667 1.1196109 2.6046154
000050 2e 94 a6 3f c9 93 27 40 03 7f 32 be 6e ec 01 c0
       1.3013971 2.618395 -0.17431264 -2.0300555
000060 b3 7d f1 3e eb 5f 83 3f 8e 86 6a c0 eb af 94 3e
       0.47166213 1.0263647 -3.6644626 0.29040465
000070 97 28 67 3f cb e6 34 3f 19 4b 47 40 42 39 b7 c0
       0.9029631 0.7066466 3.1139586 -5.7257395
000080 90 15 68 40 f9 fa 84 40 13 ac ff be ba ed 25 40
       3.626316 4.1556363 -0.4993597 2.5926347
000090 3b 01 1e be ef 3e 97 c0 ee 35 8b c0 0f 8a 38 bf
       -0.15430157 -4.7264323 -4.350333 -0.7208566
0000a0 40 dd a1 bf aa 47 d4 bd 69 93 6a 40 f4 3a 01 3f
       -1.2645645 -0.10365231 3.6652472 0.5048058
0000b0 d2 bc 2d 40 ef df 60 3f be e5 7b bf 60 cd d3 bf
       2.7146497 0.87841696 -0.98397434 -1.654705
0000c0 93 5d 07 40 ad 26 1c bf 81 2c 3a 3e 7c a8 b9 c0
       2.1150863 -0.60996515 0.1818104 -5.801817
0000d0 7e 81 7e 40 1b 8b 6d 3f 7a b3 9c bf 94 52 89 bf
       3.9766536 0.92790383 -1.2242272 -1.0728326
0000e0 db e8 26 40 49 32 b8 c0 92 e9 42 3f 56 68 a6 bf
       2.6079624 -5.7561383 0.7613765 -1.3000591
0000f0 6f dd 39 3f e9 23 ee c0 ff 0e 5b 3f 15 9c 48 bf
       0.72603506 -7.4418836 0.8556976 -0.7836316
000100 40 50 00 c0 f0 da cf 3f 46 3d ab 3f b3 c0 2b c0
       -2.004898 1.623869 1.3378074 -2.6836364
000110 81 30 f4 be 95 e9 24 40 ee 1c b9 3f 48 cc d1 3f
       -0.47693256 2.5767567 1.4461954 1.6390467
000120 29 f0 1e 40 13 72 94 3f 0e 79 86 3f e3 61 56 40
       2.4834082 1.1597313 1.0505693 3.3497245
000130 b3 01 0e c0 fa e5 bc 3f 4a ef 2e 3f 36 7e 58 3f
       -2.2188537 1.4757683 0.68333876 0.8456758
000140 0d 0a 15 c0 44 38 45 3f 3c ab 10 3f c0 b2 89 bf
       -2.3287385 0.7703898 0.5651128 -1.0757675
000150 98 dd 60 40 8d 90 f6 3f 38 1b 0b 40 17 0b 0d 40
       3.513525 1.9262863 2.1735363 2.2038019
000160 9a 16 17 3f d4 c0 97 3e ea 5e 96 bf 0b 06 33 3f
       0.5901886 0.29639304 -1.1747715 0.69931096
000170 a6 9d 2c 3f 7f cb 1e 40 af 15 1c c0 2b 37 5a 3f
       0.6742805 2.4811704 -2.4388235 0.8524043
000180 d5 98 17 40 ea 71 07 c0 0a 53 81 40 d4 20 ff 3f
       2.3687031 -2.1163278 4.0413866 1.9931893

ThirdConv.1.running_var f4 [100]
000000 9e 1c c9 3f 96 06 a4 41 af ed a2 41 83 3f 6d 41
       1.5711858 20.503216 20.366056 14.828006
000010 27 cb 11 42 f4 a8 83 41 cf cd 0f 42 8a 18 65 41
       36.44839 16.457497 35.950985 14.318491
000020 56 3f ab 40 a8 41 c4 41 66 dc 8b 41 91 87 f8 41
       5.3514814 24.532059 17.482616 31.066195
000030 cd b6 93 40 cb fa 09 42 ea a4 2d 40 9f af a6 41
       4.6160645 34.494915 2.7131906 20.835752
000040 59 40 05 42 6a db eb 41 00 9f 52 41 70 e9 b8 40
       33.31284 29.482136 13.163818 5.778496
000050 9f b8 0d 41 92 3f c1 41 bb 7d 99 41 c1 0f 0c 42
       8.8575735 24.15604 19.186392 35.015385
000060 da 56 93 41 c3 2e 2e 42 fc 67 1d 42 df 4c 80 41
       18.417408 43.545666 39.351547 16.037535
000070 d3 8c 86 41 97 41 c8 41 9a 94 25 41 64 70 84 42
       16.818762 25.032026 10.34878 66.21951
000080 d5 4e ae 41 ff 73 a6 41 15 ae 5b 41 70 d4 73 41
       21.788492 20.806639 13.7300005 15.239365
000090 d7 75 f0 41 1f c8 25 42 ae ff 0e 42 34 ea c9 41
       30.057539 41.44543 35.749687 25.239357
0000a0 43 a6 b5 41 4f 15 75 41 24 ad 84 41 9f 00 d0 41
       22.706182 15.317702 16.584541 26.000303
0000b0 9c 3b 4c 41 1b 14 91 3f a7 c8 dd 41 91 ed 3e 40
       12.764553 1.1334261 27.722975 2.98325
0000c0 b4 ee 6d 40 09 09 23 42 f1 6a 86 41 a4 f3 39 42
       3.7176943 40.758823 16.802217 46.48793
0000d0 f2 a9 87 41 cd eb bf 41 69 54 17 42 38 2f b7 41
       16.957981 23.990137 37.83243 22.898056
0000e0 be 4b 83 41 d1 7d 36 42 0f 94 84 41 d6 73 db 41
       16.411983 45.622868 16.572294 27.43156
0000f0 a3 37 35 41 42 1c 99 42 1d bb 15 40 53 b4 80 41
       11.326083 76.55519 2.3395455 16.088049
000100 a6 ae cb 41 91 dc 52 40 d5 bb 14 41 7e 1e e8 41
       25.460278 3.2947123 9.295857 29.014889
000110 e2 60 b3 41 7b 9b 8b 41 2f 9e 5d 41 25 70 06 42
       22.422306 17.450918 13.851119 33.609516
000120 06 7e 85 41 28 37 b7 41 70 db 1f 40 bd e4 97 41
       16.686535 22.901932 2.4977684 18.986689
000130 b4 53 ae 41 e8 b2 98 41 69 c3 e2 40 4c 2f af 41
       21.79087 19.087357 7.086354 21.898094
000140 1d 98 c5 41 f8 27 5e 41 d7 58 db 41 79 57 a8 41
       24.699274 13.884758 27.418379 21.042711
000150 bd 3b 80 41 2f 34 77 41 62 3c 01 41 9d f3 49 41
       16.02917 15.45024 8.077242 12.621976
000160 2c 08 e7 41 a9 fc bf 41 53 a9 d2 41 bf d2 0f 41
       28.87899 23.99837 26.332678 8.988952
000170 74 52 5a 42 1f e4 36 41 3e 66 eb 41 3b e2 8f 41
       54.58052 11.430694 29.424923 17.985464
000180 f4 05 30 41 26 b9 ce 40 7b f0 b3 41 bb 42 55 41
       11.001453 6.460101 22.492422 13.328792
