NCTU2/DeepConvNet/DeepConvNet_ELU.pkl (torch_old, 612542 bytes, 28 tensors)

FirstConv.0.weight f4 [25, 1, 1, 5]
0.044605672 0.21598615 -0.48860553 0.6235841 -0.3597776 0.1680447 0.22207272 -0.2603433
-0.08668733 0.36188877 0.16198583 -0.049187683 0.11836765 -0.17005523 0.09351633 0.6520611
-0.37706614 0.49145952 -0.18319978 -0.23602523 -0.585502 -0.09224258 0.7547718 0.43698874
-0.52090883 -0.51291543 0.0872827 0.15566756 0.4099423 -0.028270474 -0.41994604 0.31860447
-0.21002421 0.014677201 -0.11176335 -0.648482 0.62016624 -0.08656192 -0.3330335 0.033955477
-0.103724755 0.61389494 -0.07601895 -0.90209925 0.47992352 -0.47527045 -0.0007627668 -0.26729783
0.15775163 0.27009436 -0.097218305 0.0061095725 0.31953597 0.47414592 -0.4373216 -0.13636898
0.38113528 -0.100486614 -0.22342734 0.23595005 0.24698165 -0.4371934 0.042416375 -0.097002774
0.1541849 0.015878351 0.6152499 0.09411537 -0.77866334 0.1260082 -0.11166264 -0.019321835
0.4103922 -0.17315823 -0.48231435 -0.6373358 0.0939868 0.17411746 -0.1479718 -0.34571102
-0.5217348 -0.034260117 0.12078839 -0.11278603 0.34550682 0.4745775 -0.74480927 0.22249934
0.5063887 -0.42804718 -0.58258474 0.27391866 0.8090724 -0.33354786 -0.303209 -0.106947124
0.27913725 0.53961474 0.2945158 -0.76648563 -0.31105685 0.90731496 -0.5933273 -0.867268
0.7635098 0.679817 0.1591137 -0.509043 -0.4955015 0.53235173 -0.47499073 -0.5640484
-0.36875176 -0.10074316 -0.18255734 -0.39591 0.18502767 0.25194797 0.20820554 -0.3095685
-0.6696647 0.029259816 0.78429085 0.48418617 -0.7897789
00000000: 70b4 363d 792b 5d3e 812a fabe 35a3 1f3f
00000010: c534 b8be e913 2c3e 0867 633e b84b 85be
00000020: 2089 b1bd 7c49 b93e 9ddf 253e 0679 49bd
00000030: bd6a f23d f522 2ebe 7d85 bf3d 7aed 263f
00000040: d00e c1be 95a0 fb3e b998 3bbe 99b0 71be
00000050: 76e3 15bf aee9 bcbd ba38 413f fdbc df3e
00000060: 485a 05bf 6d4e 03bf 46c1 b23d 5167 1f3e
00000070: f5e3 d13e 7b97 e7bc 2b03 d7be 2020 a33e
00000080: 9610 57be a578 703c 2fe4 e4bd eb02 26bf
00000090: 37c3 1e3f 6047 b1bd 5e83 aabe e614 0b3d
000000a0: a56d d4bd 3828 1d3f d3af 9bbd faef 66bf
000000b0: 89b8 f53e a656 f3be 6af4 47ba 43db 88be
000000c0: a589 213e cf49 8a3e 641a c7bd cf32 c83b
000000d0: 389a a33e 41c3 f23e 9ee8 dfbe 4fa4 0bbe
000000e0: 2a24 c33e edcb cdbd 23ca 64be e49c 713e
000000f0: c2e8 7c3e d0d7 dfbe cbbc 2d3d 64a9 c6bd
00000100: a5e2 1d3e 5113 823c 0481 1d3f 8fbf c03d
00000110: 7b56 47bf 4b08 013e 62af e4bd d348 9ebc
00000120: ed1e d23e 6450 31be e8f1 f6be 7028 23bf
00000130: 277c c03d d94b 323e eb85 17be 0901 b1be
00000140: 6990 05bf 5654 0cbd e75f f73d 5dfc e6bd
00000150: 45e6 b03e d2fb f23e d2ab 3ebf ded6 633e
00000160: b1a2 013f 0029 dbbe 4624 15bf 113f 8c3e
00000170: 5e1f 4f3f c9c6 aabe 363e 9bbe 1807 dbbd
00000180: 14eb 8e3e 3124 0a3f c6ca 963e 6738 44bf
00000190: d842 9fbe cb45 683f 4ce4 17bf 4705 5ebf
000001a0: 6175 433f 7d08 2e3f b4ee 223e a450 02bf
000001b0: 5fb2 fdbe 3448 083f fc31 f3be 7a65 10bf
000001c0: 08cd bcbe 6e52 cebd 50f0 3abe b7b4 cabe
000001d0: e577 3d3e 53ff 803e d533 553e c37f 9ebe
000001e0: 256f 2bbf 48b2 ef3c 49c7 483f 40e7 f73e
000001f0: f32e 4abf

FirstConv.0.bias f4 [25]
0.025104567 0.2928748 -0.44202155 -0.09898577 -0.20955439 0.329285 -0.39357695 -0.3579582
0.3560275 0.01763156 -0.1629914 0.19154201 -0.3317619 -0.06415936 -0.2068031 0.38181368
0.29957372 0.3297405 -0.26906714 0.35246906 0.28111404 0.29569292 -0.36950666 0.22357023
0.22448826
00000000: 18a8 cd3c b0f3 953e a650 e2be 0db9 cabd
00000010: 6d95 56be 0b98 a83e eb82 c9be 4c46 b7be
00000020: 3d49 b63e 1070 903c 38e7 26be 9723 443e
00000030: b2dc a9be fc65 83bd 31c4 53be 157d c33e
00000040: ba61 993e bfd3 a83e 2bc3 89be d376 b43e
00000050: 2eee 8f3e 1065 973e fa2f bdbe 98ef 643e
00000060: 40e0 653e

FirstConv.1.weight f4 [25, 25, 2, 1]
0.12358529 0.06923625 0.14770104 0.10464548 -0.18719201 -0.08047745 0.17693172 -0.19697309
0.44509938 1.0592822 0.18064085 0.74363816 -0.2829977 -0.28477478 -0.44954652 -0.29432294
-0.54874665 -1.2672273 -0.04475669 0.8357923 0.22097184 0.39843795 -0.13473237 -0.38512766
0.21122433 -0.01746377 -0.3453064 -1.1731808 -0.1580488 -0.39741355 -0.27205414 -0.08573124
-0.15825313 0.5404189 0.81977755 0.44848534 -0.27705437 -0.08059363 0.0922071 -0.02900104
-0.7734722 -1.2068523 -0.25894704 -0.7997236 -0.29548073 -0.19865747 -0.0780116 0.26691598
-0.0013027575 0.7026535 0.15004179 0.16929145 0.19567516 -0.050142914 -0.0304506 0.104578964
-0.22336859 0.43052566 -0.8312821 0.009196034 -0.027313918 -0.17854631 0.047311373 -0.087052025
0.24919473 -0.0903248 0.6186417 0.21915573 0.22632284 -0.66121054 -0.22582386 0.14632238
0.20089205 -0.18822625 -0.1378124 -0.2804357 0.110754795 0.34420133 -0.16295093 0.1921639
0.1277294 0.06887241 -0.018415798 -0.50433505 -0.5971482 0.23721452 -0.4153192 0.1656293
-0.6674255 0.6248956 1.1109555 -0.31888014 0.2255857 0.07796489 0.15244897 -0.07780874
-0.22471695 0.017728632 -0.7790867 0.20833826 0.06600598 -0.021332227 0.1645074 0.036672536
0.057987683 -0.03211756 -0.18518873 -0.08278555 0.07145356 -0.44494987 0.09847917 -0.2143478
-0.06671185 0.14462012 -0.0032734836 0.39741454 -0.2133506 1.0853174 0.23712423 -0.098165505
-0.023722269 -0.12860076 0.027396606 0.31831008 0.036382962 -0.2745494 -0.33258662 0.8392222
-0.09750735 0.09823713 -0.03806241 -0.016503219 0.22324923 -0.16828991 -0.12157232 -0.62539417
-0.17459616 0.18400377 -0.049178805 0.05559392 -0.04115515 1.2294656 0.013264372 0.43949726
-0.15608238 -0.116398826 0.042882692 -0.013650747 0.02224899 -0.41063106 -0.052867956 -0.00016072695
0.07400117 0.089238696 0.02315475 0.19924521 0.0072511146 0.04234292 0.039981063 -0.8350211
0.046013635 0.025577802 -0.0135896355 -0.25921625 -0.13273813 -0.19589645 -0.24543111 0.22601731
-0.042375613 -0.031017652 0.10011241 -0.19898333 0.040405493 -0.08418253 0.0050467686 0.24966653
0.11785222 -0.005326611 0.049701456 -0.18948002 0.0030342692 -0.1548566 0.023761576 -0.051106174
0.13973996 0.08179067 0.17017677 -0.6650972 0.10159567 -0.45128897 -0.21827339 0.3643586
0.04942418 0.73529226 -0.18831205 -0.102374636 -0.025905428 -0.4628063 0.06653929 -0.92620534
-0.04131183 -0.276382 0.16204302 -0.30087557 0.058567896 -0.11649207 0.2088442 -0.095589474
0.2558066 -0.27936536 0.08430417 -0.46619004 -0.23131171 0.3991767 -0.30763826 0.42734766
-0.0041157994 0.53422636 -0.08960418 -0.073922746 0.17293377 -0.23720708 -0.081274875 0.09648948
0.0059198304 0.10306072 -0.0027874673 0.3974261 -0.16273123 0.31182846 -0.30801496 0.508595
0.036211614 0.010194549 0.11927193 -0.13866554 0.17761832 0.092854574 0.24900495 -0.14835735
-0.133695 0.6241253 0.09243525 -0.08719883 -0.33874494 0.57826835 0.09816842 -0.0069338954
-0.047764465 -0.111605965 0.035757463 0.28239256 0.09436568 -0.51688963 0.017527863 -0.15447046
00000000: 491a fd3d bccb 8d3d f13e 173e 5f50 d63d
00000010: 43af 3fbe 5cd1 a4bd 972d 353e 50b3 49be
00000020: 11e4 e33e 8f96 873f eaf9 383e 125f 3e3f
00000030: 13e5 90be 00ce 91be f62a e6be 7fb1 96be
00000040: a97a 0cbf 8134 a2bf ca52 37bd 7cf6 553f
00000050: 7146 623e 0f00 cc3e 48f7 09be 742f c5be
00000060: 314b 583e 2e10 8fbc 00cc b0be ca2a 96bf
00000070: 8bd7 21be ca79 cbbe ae4a 8bbe dc93 afbd
00000080: 1c0d 22be e558 0a3f f1dc 513f df9f e53e
00000090: 12da 8dbe 460e a5bd 13d7 bc3d 9793 edbc
000000a0: 4602 46bf 237a 9abf b594 84be b0ba 4cbf
000000b0: 4049 97be dd6c 4bbe 8cc4 9fbd 36a9 883e
000000c0: 4ac1 aaba 1ae1 333f 8ea4 193e bd5a 2d3e
000000d0: 125f 483e a862 4dbd 8973 f9bc 7f2d d63d
000000e0: bcba 64be dc6d dc3e e7ce 54bf f6aa 163c
000000f0: 70c1 dfbc d8d4 36be 92c9 413d 5548 b2bd
00000100: e72c 7f3e 35fc b8bd 4d5f 1e3f 5c6a 603e
00000110: 2dc1 673e 1845 29bf 5f3e 67be 89d5 153e
00000120: a5b6 4d3e 62be 40be b21e 0dbe 4595 8fbe
00000130: 69d3 e23d 283b b03e 9cdc 26be 9dc6 443e
00000140: 7fcb 023e fa0c 8d3d badc 96bc 1a1c 01bf
00000150: b4de 18bf 5de8 723e b8a4 d4be ba9a 293e
00000160: 66dc 2abf 28f9 1f3f ca33 8e3f 4244 a3be
00000170: f0ff 663e 0eac 9f3d 951b 1c3e 305a 9fbd
00000180: 331c 66be a33b 913c 3a72 47bf a056 553e
00000190: 252e 873d ecc0 aebc a174 283e f135 163d
000001a0: 7e84 6d3d b48d 03bd 1da2 3dbe 788b a9bd
000001b0: 3e56 923d 78d0 e3be 72af c93d fd7d 5bbe
000001c0: 39a0 88bd 4c17 143e f187 56bb eb79 cb3e
000001d0: 9478 5abe aeeb 8a3f b2d0 723e ff0a c9bd
000001e0: 3455 c2bc ebaf 03be d96e e03c 8af9 a23e
000001f0: 4d06 153d bd91 8cbe cb48 aabe 44d7 563f
00000200: efb1 c7bd 8c30 c93d 54e7 1bbd c231 87bc
00000210: 729b 643e 3154 2cbe e9fa f8bd d519 20bf
00000220: 56c9 32be 7c6b 3c3e b76f 49bd 73b6 633d
00000230: 4d92 28bd 215f 9d3f cf52 593c c905 e13e
00000240: 0fd4 1fbe 8262 eebd c3a5 2f3d 62a7 5fbc
00000250: 8443 b63c 3c3e d2be 128c 58bd d088 28b9
00000260: ed8d 973d c7c2 b63d 08af bd3c f006 4c3e
00000270: c29a ed3b c56f 2d3d 2fc3 233d f1c3 55bf
00000280: cb78 3c3d 8a88 d13c 10a7 5ebc feb7 84be
00000290: 81ec 07be 1499 48be 4b52 7bbe 1571 673e
000002a0: 0d92 2dbd bb18 febc bc07 cd3d 49c2 4bbe
000002b0: 3b80 253d e467 acbd 5d5f a53b 95a8 7f3e
000002c0: 815c f13d da8a aebb c193 4b3d 0d07 42be
000002d0: 97da 463b bb92 1ebe a3a7 c23c b554 51bd
000002e0: fe17 0f3e de81 a73d d242 2e3e cf43 2abf
000002f0: 6411 d03d 590f e7be 0f83 5fbe 368d ba3e
00000300: 0271 4a3d 1d3c 3c3f e0d4 40be cba9 d1bd
00000310: 9f37 d4bc f3f4 ecbe c045 883d cb1b 6dbf
00000320: 9836 29bd f181 8dbe 9bee 253e 5d0c 9abe
00000330: e4e4 6f3d 6593 eebd 41db 553e 6ac4 c3bd
00000340: 15f9 823e fa08 8fbe aaa7 ac3d 76b0 eebe
00000350: fadc 6cbe e360 cc3e c382 9dbe 50cd da3e
00000360: d4dd 86bb 0fc3 083f 6582 b7bd cf64 97bd
00000370: 8d15 313e 6ae6 72be 7173 a6bd 479c c53d
00000380: 23fb c13b 8011 d33d f1ad 36bb 6f7b cb3e
00000390: 04a3 26be fba7 9f3e 23b4 9dbe 4833 023f
000003a0: a152 143d 0a07 273c d744 f43d 57fe 0dbe
000003b0: 94e1 353e 8a2a be3d 27fb 7e3e fdea 17be
000003c0: 58e7 08be adc6 1f3f b14e bd3d 4d95 b2bd
000003d0: fa6f adbe 6509 143f 860c c93d bb35 e3bb
000003e0: aca4 43bd ab91 e4bd 6b76 123d c295 903e
000003f0: cb42 c13d e152 04bf 9896 8f3c 812d 1ebe

FirstConv.1.bias f4 [25]
-0.0089555485 0.06861872 -0.018765511 -0.12572242 -0.0637947 -0.10642856 0.067344904 -0.12083243
0.08842466 -0.100072846 0.12716182 0.16108036 0.113943905 -0.0027568194 0.050428834 -0.09860027
0.092724495 0.10304921 0.043212812 -0.053061504 -0.15638693 0.01207385 0.13048953 -0.0001070954
0.10192379
00000000: 4bba 12bc f987 8c3d 21ba 99bc 61bd 00be
00000010: cca6 82bd 38f7 d9bd 20ec 893d fe76 f7bd
00000020: fd17 b53d fef2 ccbd b536 023e 40f2 243e
00000030: 6c5b e93d c1ab 34bb 778e 4e3d f0ee c9bd
00000040: 57e6 bd3d 770b d33d ebff 303d 0557 59bd
00000050: e523 20be 66d1 453c 0c9f 053e 6898 e0b8
00000060: 6cbd d03d

FirstConv.2.weight f4 [25]
0.4826855 0.7342761 1.0687976 0.8418255 1.0426788 0.8858974 0.62455803 0.78854364
0.6520806 0.8146247 1.054914 1.0317327 0.6122563 0.51175964 1.1155761 1.1879926
1.1212267 0.7221584 0.7109958 1.1105473 0.91831416 0.928253 0.7038183 0.9595686
0.8103473
00000000: 8e22 f73e 85f9 3b3f 5cce 883f e081 573f
00000010: 8076 853f 2cca 623f 09e3 1f3f ffdd 493f
00000020: c1ee 263f 3f8b 503f 6c07 873f d10f 843f
00000030: d4bc 1c3f ae02 033f 33cb 8e3f 2410 983f
00000040: 5b84 8f3f 5fdf 383f d203 363f 6a26 8e3f
00000050: a316 6b3f fda1 6d3f 702d 343f 4aa6 753f
00000060: ec72 4f3f

FirstConv.2.bias f4 [25]
-0.19219795 -0.44100308 -0.27461818 -0.3776104 -0.22064267 -0.19280316 -0.1723049 -0.2282107
-0.3189876 -0.48387054 -0.2521134 -0.2630105 -0.29680663 -0.27940634 -0.448816 -0.29892972
-0.3472636 -0.38167283 -0.20008437 -0.44288963 -0.21246095 -0.4458437 -0.42442897 -0.3077818
-0.4086333
00000000: 8acf 44be 28cb e1be c19a 8cbe 2656 c1be
00000010: 27f0 61be 316e 45be b270 30be 11b0 69be
00000020: 5852 a3be e1bd f7be 0215 81be 50a9 86be
00000030: 0af7 97be 590e 8fbe 36cb e5be 510d 99be
00000040: 89cc b1be 9f6a c3be ebe2 4cbe 6ec2 e2be
00000050: 5d8f 59be a045 e4be c14e d9be 9395 9dbe
00000060: 6238 d1be

FirstConv.2.running_mean f4 [25]
-0.04294973 0.45006636 0.59094054 0.21313311 -0.015918655 -0.6632333 -0.03837196 0.23492809
-0.17600822 -0.7197831 -0.6324358 0.07507104 0.34295368 0.060891025 -0.08613313 0.22171028
-0.17324278 -0.056473263 0.6462458 0.37647915 -0.73290765 -0.48011678 0.35524848 0.018170655
0.10266316
00000000: 0eec 2fbd 196f e63e e147 173f 913f 5a3e
00000010: d767 82bc a8c9 29bf eb2b 1dbd fd90 703e
00000020: 803b 34be b543 38bf 50e7 21bf d8be 993d
00000030: a097 af3e de68 793d 9166 b0bd 0508 633e
00000040: 8e66 31be 8250 67bd 5d70 253f e0c1 c03e
00000050: d69f 3bbf ded1 f5be 21e3 b53e a0da 943c
00000060: 1041 d23d

FirstConv.2.running_var f4 [25]
711.27167 220.28972 130.86366 196.61218 124.34559 219.21968 304.244 345.92545
89.5292 157.61743 153.18272 104.55028 168.61934 387.41287 158.20613 86.17287
148.0339 204.50258 697.07306 201.44917 365.82138 175.51643 188.50763 102.0085
262.09286
00000000: 63d1 3144 2b4a 5c43 19dd 0243 b89c 4443
00000010: f1b0 f842 3d38 5b43 3b1f 9843 75f6 ac43
00000020: f30e b342 109e 1d43 c72e 1943 be19 d142
00000030: 8d9e 2843 d9b4 c143 c534 1e43 8258 ac42
00000040: ae08 1443 a980 4c43 ad44 2e44 fd72 4943
00000050: 23e9 b643 3584 2f43 f481 3c43 5a04 cc42
00000060: e30b 8343

SecondConv.0.weight f4 [50, 25, 1, 5]
0.06651183 0.31697357 -0.17531441 -0.056791905 0.38807026 -0.14354162 0.49872562 -0.20325859
-0.17012498 0.24184899 -0.39846033 0.0042516435 -0.0092863 -0.061716836 -0.3795648 -0.118282095
-0.40997708 -0.18042296 0.17125887 -0.33471256 -0.21834636 -0.47005337 -0.35310778 -0.40022835
-0.34056222 0.038622927 0.31871942 -0.4256195 -0.7256212 -0.2508119 0.15241604 -0.27160382
0.28983897 -0.4268045 -0.5911404 0.04783101 0.09010371 -0.048671696 -0.56748897 -0.099279895
-0.0039908015 -0.19105017 0.038351253 -0.18769982 0.1544511 0.27031747 -0.38049975 0.3104168
-0.18120131 -0.14517093 -0.3215524 -0.5601189 -0.18273161 -0.37795717 -0.039076045 -0.181171
-0.3416252 -0.37901035 -0.48120022 -0.02948967 0.1111309 0.30826595 -0.49156073 -0.18083698
0.11715963 -0.19180362 -0.024162529 -0.38792574 -0.3483766 0.061909717 -0.036193896 0.11063691
-0.048359297 -0.38027745 -0.31082273 0.11800197 -0.1701107 0.07035143 -0.13564081 -0.5581904
0.113156505 0.10004358 -0.2899166 -0.5585549 -0.36427563 -0.310437 0.4096541 -0.24091046
-0.1945216 0.111507356 -0.7904568 -0.21939269 0.096401505 0.049633786 -0.5906463 -0.3607824
-0.09473083 -0.30291858 -0.21679771 -0.28781027 0.05415335 -0.016288769 -0.28504053 -0.25800306
-0.5465253 0.64433134 -0.2336827 -0.05945663 -0.24436766 -0.18518138 0.09606968 0.18315528
-0.011736996 -0.17292862 0.068065956 0.15777458 0.050251525 -0.17997886 0.34220767 -0.26324055
-0.36925334 -0.27849993 -0.05736275 0.2916134 -0.43599704 0.14720517 -0.23302989 -0.08838567
0.12705225 -0.10800897 0.16156727 -0.10489982 0.13396177 -0.059163645 0.70975095 -0.68923676
-0.24274655 -0.03090084 -0.46633127 0.027101168 -0.029022442 -0.32835183 0.10070625 -0.3902751
-0.64541405 -0.2888259 -0.0634182 -0.23878632 -0.14403541 0.06298057 0.13585682 0.064334415
-0.30409208 0.061111853 0.49705178 0.23817107 -0.60552156 0.11465579 -0.5384542 -0.5855709
0.11642586 0.07288063 -0.18933754 0.16797712 0.46317157 0.27546763 0.043389425 0.11560737
0.1218447 0.15450275 0.5782568 -0.10109197 0.12812117 0.53436303 -0.15840505 -0.23958054
-0.65590674 -0.24739312 -0.27945855 -0.24287397 0.048783753 -0.35345155 -0.36764088 -0.06762484
0.1934729 0.19338758 -0.0893986 0.18464771 0.12778519 0.44770986 0.004553201 0.050833363
-0.11318302 0.15008384 0.9874872 0.047817387 0.075349055 0.0017984201 0.058901403 0.35082713
-0.19155663 -0.21351828 -0.12884365 -0.15426716 -0.5223218 0.099082716 0.03707823 -0.48152032
0.1786042 -0.12695876 -0.28932437 0.10723196 -0.06511209 -0.117168024 0.66089404 -0.4549908
-0.51159346 -0.06892929 -0.49687788 -0.09720252 -0.44246373 -0.02273128 0.14066647 -0.23663211
-0.07235304 0.25091255 0.12640132 -0.1667516 -0.035258703 0.10936893 0.053822506 0.07361269
-0.0023162938 0.4201948 -0.3702317 0.22639614 -0.007847168 0.3565474 0.075945824 0.42740408
-0.107192725 -0.6913872 -0.05646498 -0.03999261 -0.4859911 -0.4443557 -0.42190284 0.25158572
-0.32664463 -0.33573842 -0.281218 -0.42702055 0.0481489 -0.62860036 0.51258177 -0.0071309833
00000000: 5b37 883d 5c4a a23e 9f85 33be a19e 68bd
00000010: 25b1 c63e 93fc 12be f758 ff3e 0523 50be
00000020: 3e35 2ebe 43a7 773e fe02 ccbe 5f51 8b3b
00000030: 9125 18bc cbca 7cbd 5156 c2be e23d f2bd
00000040: 84e8 d1be ccc0 38be 7c5e 2f3e 725f abbe
00000050: 3096 5fbe d6aa f0be 8bca b4be bbea ccbe
00000060: 2c5e aebe 1333 1e3d 312f a33e cdea d9be
00000070: 50c2 39bf 6b6a 80be f312 1c3e a80f 8bbe
00000080: c665 943e 1f86 dabe fa54 17bf 73ea 433d
00000090: 4b88 b83d f95b 47bd f546 11bf 4253 cbbd
000000a0: 45c5 82bb a8a2 43be 3416 1d3d 6234 40be
000000b0: 6e28 1e3e 0d67 8a3e ddd0 c2be f3ee 9e3e
000000c0: d68c 39be b0a7 14be 84a2 a4be f463 0fbf
000000d0: ff1d 3bbe 9a83 c1be 340e 20bd e484 39be
000000e0: 80e9 aebe a50d c2be e05f f6be 5294 f1bc
000000f0: 9998 e33d 09d5 9d3e d9ad fbbe 542d 39be
00000100: 63f1 ef3d 2b68 44be 7ff0 c5bc 349e c6be
00000110: 6b5e b2be 0b95 7d3d 0d40 14bd 9b95 e23d
00000120: 6614 46bd bab3 c2be 2824 9fbe 04ab f13d
00000130: 8031 2ebe 6914 903d 6de5 0abe 91e5 0ebf
00000140: 99be e73d a6e3 cc3d f36f 94be 74fd 0ebf
00000150: 5682 babe 99f1 9ebe 2fbe d13e 3bb1 76be
00000160: ac30 47be f85d e43d 605b 4abf 7aa8 60be
00000170: 276e c53d cc4c 4b3d 9934 17bf 79b8 b8be
00000180: 3d02 c2bd 2518 9bbe 3800 5ebe de5b 93be
00000190: e7cf 5d3d 0670 85bc d5f0 91be fa18 84be
000001a0: 15e9 0bbf e6f2 243f 854a 6fbe cc88 73bd
000001b0: 843b 7abe 30a0 3dbe 2ec0 c43d 0f8d 3b3e
000001c0: 874c 40bc 3314 31be 2a66 8b3d a98f 213e
000001d0: 8bd4 4d3d 614c 38be d835 af3e 77c7 86be
000001e0: c60e bdbe 8b97 8ebe 34f5 6abd 5a4e 953e
000001f0: 013b dfbe f4bc 163e 639f 6ebe 8c03 b5bd
00000200: fc19 023e cf33 ddbd e471 253e b8d5 d6bd
00000210: 462d 093e 9455 72bd 3db2 353f d271 30bf
00000220: 8d92 78be c223 fdbc f9c2 eebe 4503 de3c
00000230: 79c0 edbc bb1d a8be 143f ce3d 23d2 c7be
00000240: db39 25bf fde0 93be 67e1 81bd 6784 74be
00000250: 057e 13be f5fb 803d 0d1e 0b3e c3c1 833d
00000260: f5b1 9bbe 6c50 7a3d 927d fe3e 1ee3 733e
00000270: 7603 1bbf a8d0 ea3d 22d8 09bf f9e7 15bf
00000280: ae70 ee3d 7142 953d b3e1 41be 3202 2c3e
00000290: d324 ed3e 180a 8d3e 1cb9 313d 8fc3 ec3d
000002a0: b789 f93d f835 1e3e a308 143f 4f09 cfbd
000002b0: 3232 033e 04cc 083f ef34 22be 9a54 75be
000002c0: 81e9 27bf 9f54 7dbe 3115 8fbe f4b3 78be
000002d0: 79d1 473d 9af7 b4be 6d3b bcbe e47e 8abd
000002e0: c31d 463e 6507 463e 9d16 b7bd 4a14 3d3e
000002f0: 1fda 023e 3a3a e53e 0533 953b a536 503d
00000300: 80cc e7bd 94af 193e f6cb 7c3f 2adc 433d
00000310: 9b50 9a3d f7b8 eb3a 9942 713d 9d9f b33e
00000320: 6c27 44be 89a4 5abe 97ef 03be 36f8 1dbe
00000330: e2b6 05bf e1eb ca3d 58df 173d d589 f6be
00000340: 05e4 363e 7a01 02be 5322 94be 6e9c db3d
00000350: 7d59 85bd caf5 efbd 5a30 293f 8ef4 e8be
00000360: caf7 02bf cd2a 8dbd c766 febe 1d12 c7bd
00000370: 9b8a e2be f336 babc df0a 103e b04f 72be
00000380: d52d 94bd 9c77 803e 596f 013e eec0 2abe
00000390: 6e6b 10bd d1fc df3d fd74 5c3d 40c2 963d
000003a0: f6cc 17bb c623 d73e 028f bdbe 64d4 673e
000003b0: 6891 00bc 618d b63e 7c89 9b3d b5d4 da3e
000003c0: dc87 dbbd c0fe 30bf d347 67bd 4bcf 23bd
000003d0: d3d3 f8be 9782 e3be a603 d8be d8cf 803e
000003e0: f73d a7be e8e5 abbe cefb 8fbe 70a2 dabe
000003f0: c837 453d f4eb 20bf 8f38 033f 06ab e9bb

SecondConv.0.bias f4 [50]
0.0162148 -0.10636977 -0.01610283 0.030236764 -0.009496767 0.0062903636 0.03958751 0.022173679
-0.018811021 0.027054306 0.021734102 0.06506796 0.13300788 0.06866745 0.07728363 0.0033107875
0.025593942 0.05594744 0.095837936 0.08449419 -0.01858195 0.015475075 0.029257627 -0.075915985
0.09605775 0.0068363007 0.057261534 -0.095324576 -0.037573356 -0.07397177 -0.025910879 -0.04503098
0.049093224 0.052659635 0.05265179 0.006093952 -0.0053413818 -0.020044612 -0.07694096 0.011727851
0.12423294 -0.054829378 -0.07374573 -0.088681266 -0.030227114 -0.025507452 0.013087343 0.07631092
0.0058342805 0.09309164
00000000: e6d4 843c 65d8 d9bd 15ea 83bc 17b3 f73c
00000010: 5498 1bbc 651f ce3b 8326 223d 93a5 b53c
00000020: 9219 9abc fea0 dd3c b70b b23c 5a42 853d
00000030: 3833 083e 85a1 8c3d e146 9e3d ccf9 583b
00000040: 63aa d13c 2529 653d ae46 c43d 4a0b ad3d
00000050: 2c39 98bc 2b8b 7d3c b1ad ef3c d779 9bbd
00000060: edb9 c43d 0c03 e03b 128b 6a3d 8839 c3bd
00000070: 85e6 19bd 837e 97bd 0d43 d4bc 6872 38bd
00000080: fa15 493d a1b1 573d 67a9 573d c6af c73b
00000090: c206 afbb 9934 a4bc 3993 9dbd 2c26 403c
000000a0: d76d fe3d c594 60bd 0008 97bd 869e b5bd
000000b0: da9e f7bc 01f5 d0bc 4c6c 563c e648 9c3d
000000c0: 7e2d bf3b d4a6 be3d

SecondConv.1.weight f4 [50]
1.2815186 0.76484597 0.67302334 0.7685643 0.74182665 0.55312216 1.2075446 0.9756502
0.864757 0.9184212 0.6985009 0.80951834 1.1758504 1.0241516 1.1456503 0.7019636
0.7158318 0.546866 1.2541231 0.60652524 0.8985359 0.714126 0.83637327 0.68760663
0.8961447 0.5314194 0.7220553 0.7684788 0.9043601 0.90227246 0.38158062 0.90189123
0.5888332 0.93648636 1.0041964 -0.49630153 0.5819204 0.7008003 0.51160705 0.54044014
0.77788806 0.94745624 0.47399908 0.41937166 0.87829727 0.60016525 1.1160399 0.9465344
1.0115292 0.98126495
00000000: cd08 a43f f2cc 433f 424b 2c3f a1c0 443f
00000010: 5ae8 3d3f 6a99 0d3f d290 9a3f 36c4 793f
00000020: b760 5d3f a71d 6b3f f4d0 323f 983c 4f3f
00000030: 4482 963f 6617 833f aba4 923f e3b3 333f
00000040: c140 373f 69ff 0b3f 1b87 a03f 3d45 1b3f
00000050: 7306 663f f6d0 363f 8f1c 563f fd06 303f
00000060: bd69 653f 1a0b 083f 9ed8 383f 07bb 443f
00000070: 2584 673f 54fb 663f 895e c33e 58e2 663f
00000080: c6bd 163f 92bd 6f3f 8289 803f 3c1b febe
00000090: bcf8 143f a667 333f aef8 023f 495a 0a3f
000000a0: ac23 473f 7e8c 723f 02b0 f23e e2b7 d63e
000000b0: 17d8 603f 6ea4 193f 65da 8e3f 1450 723f
000000c0: ca79 813f 2e34 7b3f

SecondConv.1.bias f4 [50]
-0.70249325 -0.43815205 -0.43967295 -0.33891407 -0.5193551 -0.31576157 -0.6766286 -0.53058064
-0.63010573 -0.62151986 -0.35585096 -0.39992812 -0.7919408 -0.49772716 -0.40377465 -0.45586035
-0.34260234 -0.32438108 -0.945075 -0.09899961 -0.4312933 -0.34485215 -0.52292144 -0.4985587
-0.71908736 -0.25988188 -0.1540645 -0.25214446 -0.39686128 -0.4035844 -0.22416532 -0.71050143
-0.26079273 -0.4651259 -0.34222165 -0.32561505 -0.36829424 -0.44674975 -0.23697849 -0.2089228
-0.60554665 -0.613676 -0.3566051 -0.32862017 -0.3092459 -0.32965568 -0.78750587 -0.60112417
-0.44607496 -0.7412473
00000000: 99d6 33bf 7755 e0be d01c e1be 2586 adbe
00000010: 75f4 04bf 80ab a1be 8837 2dbf 22d4 07bf
00000020: 9c4e 21bf ed1b 1fbf 1932 b6be 61c3 ccbe
00000030: a2bc 4abf 18d6 febe 8dbb cebe 8766 e9be
00000040: 9369 afbe 4715 a6be 6ff0 71bf 4fc0 cabd
00000050: 7ad2 dcbe 7690 b0be 2ede 05bf 1643 ffbe
00000060: 1c16 38bf 3d0f 85be 16c3 1dbe 1419 81be
00000070: 6731 cbbe 9da2 cebe 988b 65be 6ce3 35bf
00000080: a086 85be fb24 eebe ad37 afbe 04b7 a6be
00000090: 1091 bcbe 62bc e4be 7daa 72be dcef 55be
000000a0: 1b05 1bbf df19 1dbf f294 b6be e740 a8be
000000b0: 7b55 9ebe a1c8 a8be fc99 49bf 46e3 19bf
000000c0: f063 e4be 62c2 3dbf

SecondConv.1.running_mean f4 [50]
-1.6969061 -1.7250003 -0.13154083 -0.8063229 0.8569324 0.47031403 -1.6297408 0.044356853
-0.019763825 0.04102974 -0.6295738 -1.3472922 0.10034148 0.5934017 -1.1440662 0.4417577
0.35705274 -1.432474 0.24645078 0.025798943 -1.2554384 -0.21353796 -0.2934633 -1.3901159
0.094168015 -1.4349971 0.32421464 -0.6425572 -0.7631955 -1.3671874 0.2750394 -0.7679956
-0.84458053 -0.7026719 -0.51674414 0.5426134 -1.070183 -0.9017171 -0.9588167 0.39328328
0.18326949 -1.2188585 0.49279678 -1.6645557 -0.74047375 -0.13302222 0.5873902 -1.4619043
-0.07049404 -1.6239545
00000000: 3834 d9bf cfcc dcbf a4b2 06be 2d6b 4ebf
00000010: ec5f 5b3f 00cd f03e 599b d0bf 88af 353d
00000020: bfe7 a1bc cd0e 283d c02b 21bf 1274 acbf
00000030: d57f cd3d 2ce9 173f c370 92bf 112e e23e
00000040: 9ecf b63e 4f5b b7bf 985d 7c3e 4e58 d33c
00000050: 35b2 a0bf b2a9 5abe d240 96be 51ef b1bf
00000060: 29db c03d fcad b7bf 76ff a53e a17e 24bf
00000070: c860 43bf ffff aebf f7d1 8c3e 5c9b 44bf
00000080: 6e36 58bf 4ee2 33bf 5849 04bf b6e8 0a3f
00000090: c2fb 88bf efd6 66bf 0375 75bf 6d5c c93e
000000a0: ffaa 3b3e 8e03 9cbf dc4f fc3e 2910 d5bf
000000b0: b08f 3dbf fa36 08be 345f 163f ae1f bbbf
000000c0: 2e5f 90bd bedd cfbf

SecondConv.1.running_var f4 [50]
45.362804 31.528206 40.842827 39.365627 38.38435 41.3787 49.6675 27.566313
32.5751 23.143877 44.070465 55.493492 35.60512 25.700071 31.494411 19.94009
42.389538 43.054955 33.392284 43.446056 48.512974 59.20392 31.1312 67.72503
24.46174 60.016552 38.80148 33.896866 25.760487 49.069202 55.284405 56.48784
57.52979 39.58574 32.41831 77.4509 49.86322 32.23323 72.260506 39.982887
31.973143 31.391333 58.880833 66.34532 41.15288 33.852993 18.697935 42.759212
36.933247 42.298016
00000000: 8373 3542 c439 fc41 0e5f 2342 6776 1d42
00000010: 9389 1942 ca83 2542 85ab 4642 cf87 dc41
00000020: e74c 0242 a926 b941 2848 3042 56f9 5d42
00000030: a56b 0e42 bf99 cd41 8ef4 fb41 4e85 9f41
00000040: e38e 2942 4638 2c42 b391 0542 c3c8 2d42
00000050: 490d 4242 d0d0 6c42 b30c f941 3773 8742
00000060: a5b1 c341 f310 7042 b734 1b42 6496 0742
00000070: 7a15 ce41 dd46 4442 3b23 5d42 8cf3 6142
00000080: 811e 6642 cc57 1e42 59ac 0142 dce6 9a42
00000090: f073 4742 d4ee 0042 6185 9042 7aee 1f42
000000a0: ffc8 ff41 7321 fb41 f985 6b42 ceb0 8442
000000b0: 8d9c 2442 7769 0742 5f95 9541 6f09 2b42
000000c0: a5bb 1342 2b31 2942

ThirdConv.0.weight f4 [100, 50, 1, 5]
0.09460282 0.0057015237 -0.04554816 -0.47446984 0.29530308 -0.31436133 0.21558622 0.090649225
-0.106163226 0.15676777 -0.3045453 0.10250517 0.38107947 0.013565119 -0.11034629 0.47519228
0.32527682 -0.40352023 0.22338985 -0.2879573 0.27192432 -0.44433445 -0.24533324 -0.015679045
-0.11555424 -0.9159411 -0.77420753 -0.20330635 0.8272643 -0.10809561 -0.07350826 0.48762316
0.0024044386 -0.36018077 -0.57831675 -0.45404044 -0.17046824 -0.38127717 0.9153483 -0.27849576
-0.018973859 -0.0137610445 -0.2653523 0.057415504 -0.4351342 -0.15725572 -0.3351566 -0.16102684
-0.014159782 0.08703147 0.14108723 0.030980159 -0.16604495 -0.2922986 0.100227535 -0.31605557
0.0092382375 0.092495546 -0.10008395 -0.0928539 -0.57606345 0.045141354 -0.16999611 0.47850066
-0.18552049 0.017067384 -0.1174042 -0.0067553488 -0.1347397 0.4541353 0.103631854 0.16995125
0.5811405 0.16667528 -0.027240233 -0.050514184 -0.1644985 -0.09108756 0.15880218 0.12199368
0.15665236 -0.20953265 -0.52569157 0.6154808 -0.38771558 0.18253711 0.043453306 -0.2177443
0.26462105 -0.70750016 0.053443532 -0.13594677 -0.23747475 -0.10873919 -0.13677141 -0.059147798
-0.5824505 -0.2416933 -0.5206222 0.34418342 0.2755904 -0.35359 -0.30460533 -0.096491106
-0.5690764 -0.2611711 0.14512537 -0.7847481 0.35213056 -0.22285229 -0.38223362 -0.37521365
0.06948169 0.020338228 -0.23910657 -0.120983 0.18323869 0.41668043 -0.34806567 0.7243433
-0.36772618 0.24460462 -0.6905663 0.27049232 -0.0072110505 -0.008283608 0.2064624 0.3210348
0.034876212 0.20732777 -0.07786381 -0.13112144 0.086786196 -0.11112464 0.3600311 0.08942872
0.1507755 0.22796819 -0.2411067 -0.4025094 -0.28701702 -0.5017775 -0.17339273 -0.10422332
-0.2360685 -0.052470878 0.092456564 0.5501643 -0.81120735 -0.109100044 -0.19677071 -0.25628507
-0.34606332 0.3480449 -0.5623108 -0.23209727 0.6114229 -0.7698554 0.57274234 -0.40167806
0.22943178 -0.1600966 -0.17292663 0.6515262 0.29720715 -0.6858148 0.35772237 -0.761628
-0.14557703 -0.40426102 -0.7389266 -0.09320101 -0.34530875 0.004004555 0.53924006 -0.7568137
-0.6943782 0.70904416 -0.381871 0.36530188 0.0057505127 -0.15354893 0.6304599 0.23711947
-0.45826343 0.28463235 -0.6840734 -0.6425824 0.19594944 0.37173122 0.55569226 -0.0069782888
0.43368018 -0.30716753 -0.24764393 -1.0027242 -0.45231017 -0.29374745 0.48110816 -0.57890075
-0.30924514 -0.11315056 0.75117904 -0.10298904 0.13130683 -0.025736641 0.45196486 -0.06614648
0.34828222 -0.41345003 -0.62702537 -0.2822796 -0.36969784 0.38070354 0.3112882 -0.015004123
-0.2709241 0.41194093 -0.59048516 0.34146485 0.7018661 -0.636857 -0.35995644 0.18838513
0.31519997 0.37654966 -0.09411955 0.24622971 0.4551798 0.040620606 -0.121643 0.016591638
-0.21105835 -0.3756665 0.22190678 -0.025957737 0.05724445 0.70256895 -0.6531943 -0.017292209
-0.36177924 0.098844096 -0.47958937 0.026147278 -0.4069144 0.4185309 -0.11323789 -0.15041454
-0.41341692 0.36341912 0.16003454 -0.7479576 0.64573693 0.47309807 0.2900371 -0.061427798
00000000: 20bf c13d d9d3 ba3b b590 3abd b6ed f2be
00000010: f731 973e f8f3 a0be a2c2 5c3e 4da6 b93d
00000020: 1b6c d9bd bb87 203e 5ded 9bbe 3bee d13d
00000030: d91c c33e 3c40 5e3c 3cfd e1bd 674c f33e
00000040: af8a a63e 349a cebe 4fc0 643e 246f 93be
00000050: aa39 8b3e ce7f e3be a338 7bbe 5771 80bc
00000060: b4a7 ecbd 1e7b 6abf 7732 46bf 8a2f 50be
00000070: 98c7 533f 3b61 ddbd 808b 96bd bea9 f93e
00000080: c993 1d3b 9d69 b8be 910c 14bf fd77 e8be
00000090: 3a8f 2ebe c336 c3be 4454 6a3f ff96 8ebe
000000a0: 116f 9bbc 0176 61bc 42dc 87be 852c 6b3d
000000b0: e9c9 debe a507 21be a599 abbe 38e4 24be
000000c0: 6efe 67bc 8e3d b23d 2c79 103e 1aca fd3c
000000d0: b007 2abe 29a8 95be 1844 cd3d 09d2 a1be
000000e0: fa5b 173c 4e6e bd3d d0f8 ccbd 2f2a bebd
000000f0: e578 13bf 24e6 383d 7613 2ebe 0afe f43e
00000100: 15f9 3dbe e6d0 8b3c 9d71 f0bd f95b ddbb
00000110: 34f9 09be 6c84 e83e f03c d43d b307 2e3e
00000120: a0c5 143f edac 2a3e e926 dfbc f6e7 4ebd
00000130: 4b72 28be 1d8c babd 0a9d 223e d3d7 f93d
00000140: 7a69 203e ba8f 56be b993 06bf 2690 1d3f
00000150: a882 c6be 02eb 3a3e 18fc 313d 5df8 5ebe
00000160: 697c 873e bb1e 35bf 9be7 5a3d a135 0bbe
00000170: 952c 73be a7b2 debd ce0d 0cbe f644 72bd
00000180: 7a1b 15bf 737e 77be 7f47 05bf cf38 b03e
00000190: 2f1a 8d3e c009 b5be 3bf5 9bbe 219d c5bd
000001a0: feae 11bf 38b8 85be bf9b 143e 40e5 48bf
000001b0: 754a b43e 6433 64be 20b4 c3be 011c c0be
000001c0: 6b4c 8e3d 5b9c a63c 5ad8 74be efc5 f7bd
000001d0: eca2 3b3e 2357 d53e aa35 b2be 906e 393f
000001e0: 9b46 bcbe a279 7a3e f4c8 30bf f87d 8a3e
000001f0: ad4a ecbb f8b7 07bc e16a 533e ac5e a43e
00000200: 5cda 0e3d bb4d 543e 1077 9fbd b344 06be
00000210: f6bc b13d 5195 e3bd ff55 b83e 6826 b73d
00000220: e564 1a3e 7e70 693e ade4 76be b615 cebe
00000230: e5f3 92be 7e74 00bf dd8d 31be 0973 d5bd
00000240: f1bb 71be b4eb 56bd de59 bd3d 91d7 0c3f
00000250: 49ab 4fbf d86f dfbd 437e 49be cc37 83be
00000260: 362f b1be f132 b23e 9af3 0fbf e8aa 6dbe
00000270: 3686 1c3f 3e15 45bf 3e9f 123f bfa8 cdbe
00000280: 2af0 6a3e 5df0 23be ae13 31be 6cca 263f
00000290: 892b 983e 8f91 2fbf 6327 b73e 0dfa 42bf
000002a0: 2512 15be 4dfb cebe 4b2a 3dbf 2ce0 bebd
000002b0: 4fcc b0be a438 833b a30b 0a3f 8bbe 41bf
000002c0: c5c2 31bf eb83 353f 9984 c3be d908 bb3e
000002d0: cc6e bc3b ee3b 1dbe d265 213f 72cf 723e
000002e0: 81a1 eabe 55bb 913e 6f1f 2fbf 4880 24bf
000002f0: f8a6 483e 8e53 be3e d941 0e3f 21aa e4bb
00000300: 540b de3e 1045 9dbe 5f96 7dbe 4459 80bf
00000310: 3395 e7be 1166 96be cf53 f63e d732 14bf
00000320: 6155 9ebe 7bbb e7bd 454d 403f ebeb d2bd
00000330: 4c75 063e a6d5 d2bc f067 e73e ce77 87bd
00000340: 0c52 b23e b9af d3be bc84 20bf f486 90be
00000350: 0949 bdbe 93eb c23e 2b61 9f3e dad3 75bc
00000360: 90b6 8abe ece9 d23e 092a 17bf 7bd4 ae3e
00000370: 7fad 333f 0f09 23bf 364c b8be 08e8 403e
00000380: e461 a13e 1ecb c03e c0c1 c0bd a423 7c3e
00000390: 540d e93e cb61 263d f71f f9bd 30eb 873c
000003a0: ae1f 58be 5c57 c0be 883b 633e 52a5 d4bc
000003b0: 2879 6a3d 8fdb 333f be37 27bf 64a8 8dbc
000003c0: 213b b9be c66e ca3d bd8c f5be d132 d63c
000003d0: 1657 d0be af49 d63e 44e9 e7bd 4506 1abe
000003e0: 62ab d3be 1212 ba3e 18e0 233e 267a 3fbf
000003f0: 044f 253f e939 f23e be7f 943e b79b 7bbd

ThirdConv.0.bias f4 [100]
-0.074001685 -0.054059282 -0.02985558 -0.027970243 0.013477887 -0.006087487 0.026616951 0.071473554
0.022758754 0.023616344 -0.0035664425 -0.045116704 -0.009631019 0.07870059 0.05864057 0.015084162
-0.057788484 -0.030668648 0.022924598 -0.033986077 0.045858342 -0.039197728 -0.035299707 0.0527687
-0.010221585 -0.0794572 0.0015451465 0.028248848 -0.05492692 -0.03683221 0.07069184 0.02366817
0.046494644 0.09485987 -0.02225142 -0.028642628 -0.018124362 0.024607962 0.05466773 -0.0031659184
-0.047116697 0.068109125 -0.03448748 -0.050720476 0.05417481 -0.04511554 -0.008783496 0.010815209
-0.036498427 0.012193099 0.033103995 0.014572394 0.027688442 -0.002807986 0.05505116 0.015822962
0.024259368 -0.005635696 0.008112379 -0.045459095 0.04181417 -0.032860864 -0.06074245 0.0218022
0.0071172835 0.007840455 0.046243265 0.03335685 -0.049695995 0.01624117 -0.0061891847 -0.050618112
0.038440026 -0.057793833 0.05319064 0.047077913 -0.061907597 0.03858311 0.07387705 0.02629378
-0.052037504 0.024513181 -0.0200587 0.004735209 0.009401202 -0.025076235 -0.03308996 0.036751404
-0.044013895 0.009344374 -0.013591786 0.014360312 0.023675548 -0.036807958 0.030114189 -0.01220103
0.009659662 -0.0003666137 0.06290818 0.0411146
00000000: 328e 97bd 446d 5dbd b093 f4bc da21 e5bc
00000010: 5bd2 5c3c 8b79 c7bb cb0b da3c ba60 923d
00000020: 9170 ba3c 1077 c13c faba 69bb 4bcc 38bd
00000030: 6ccb 1dbc c62d a13d 1831 703d 9023 773c
00000040: 9eb3 6cbd d13c fbbc 5ecc bb3c fc34 0bbd
00000050: f5d5 3b3d cc8d 20bd 6d96 10bd fe23 583d
00000060: 6f78 27bc 75ba a2bd 8386 ca3a 216a e73c
00000070: 0dfb 60bd 5fdd 16bd e2c6 903d c0e3 c13c
00000080: 2b71 3e3d e445 c23d 9c48 b6bc f2a3 eabc
00000090: 8b79 94bc a396 c93c 45eb 5f3d 4c7b 4fbb
000000a0: 70fd 40bd cc7c 8b3d be42 0dbd 46c0 4fbd
000000b0: 68e6 5d3d 13cb 38bd a7e8 0fbc 4632 313c
000000c0: 607f 15bd 90c5 473c 0e98 073d 0dc1 6e3c
000000d0: dfd2 e23c 3006 38bb 537d 613d 289f 813c
000000e0: 95bb c63c a5ab b8bb c9e9 043c 5133 3abd
000000f0: 5645 2b3d 1d99 06bd 13cd 78bd 879a b23c
00000100: 1a38 e93b 4075 003c 9469 3d3d 31a1 083d
00000110: 078e 4bbd 340c 853c a5ce cabb f054 4fbd
00000120: 4a73 1d3d 3ab9 6cbd 6ede 593d c5d4 403d
00000130: d292 7dbd 5309 1e3d da4c 973d 0e66 d73c
00000140: 4725 55bd decf c83c 2552 a4bc d029 9b3b
00000150: 8007 1a3c ad6c cdbc 5789 07bd a488 163d
00000160: ea47 34bd 2519 193c 15b0 5ebc 8447 6b3c
00000170: 39f3 c13c f1c3 16bd 08b2 f63c d4e6 47bc
00000180: 8f43 1e3c 0f36 c0b9 01d6 803d c867 283d

ThirdConv.1.weight f4 [100]
0.97144574 0.7452113 0.82312834 0.66554224 1.0254683 0.9994851 0.7961538 0.71803236
1.0116085 0.28690246 1.1134055 0.4581528 0.88982004 1.0526254 0.91593957 0.87599385
1.1124989 0.76490283 1.1642236 1.1710678 0.68695015 1.0839658 0.7220614 0.94140035
0.61007327 0.82938635 0.6539424 0.98950875 -0.71570843 0.8920481 0.81935173 0.79467016
0.77948964 0.76017386 0.5792683 1.2247709 0.8299282 0.95486355 0.99137235 0.4151493
0.603751 0.7519905 0.744795 1.1884936 1.0534366 0.944975 1.1512585 0.6386161
0.5444706 0.8669082 0.46760908 1.1396866 0.63716185 0.86387223 0.98725647 0.6329238
0.8698527 1.4961025 0.57603884 0.76112336 0.6917456 1.1753919 -0.6089278 1.0809798
0.48749384 0.8960119 0.6389559 0.7246409 0.89438635 0.7165755 0.98250484 1.0198596
0.9745733 0.77617323 1.175837 0.73572105 0.8952085 0.82967275 1.0517069 0.4809955
0.72864515 0.8583639 -0.45593005 0.34903538 0.7574802 0.78003407 0.47958308 0.89567786
0.731693 1.1067239 0.7676206 1.0408162 1.1009958 0.46667448 0.7989793 0.11221221
0.8248189 0.78861505 0.83903795 0.7269783
00000000: abb0 783f 2bc6 3e3f 8ab8 523f fa60 2a3f
00000010: 8c42 833f 41de 7f3f bcd0 4b3f f8d0 373f
00000020: 637c 813f e1e4 923e 1284 8e3f 0193 ea3e
00000030: 3fcb 633f 6ebc 863f 047b 6a3f 2241 603f
00000040: 5d66 8e3f acd0 433f 4705 953f 8de5 953f
00000050: f7db 2f3f 64bf 8a3f 04d9 383f 9dff 703f
00000060: c32d 1c3f aa52 543f c568 273f 7250 7d3f
00000070: ab38 37bf 445d 643f 09c1 513f 816f 4b3f
00000080: a28c 473f c19a 423f ed4a 143f 4bc5 9c3f
00000090: 2d76 543f f071 743f 94ca 7d3f 738e d43e
000000a0: 6d8f 1a3f 7382 403f e3aa 3e3f 8f20 983f
000000b0: 03d7 863f e2e9 713f 705c 933f 587c 233f
000000c0: 6d62 0b3f b2ed 5d3f 756a ef3e 40e1 913f
000000d0: 0a1d 233f bb26 5d3f d7bc 7c3f 4b07 223f
000000e0: abae 5e3f 4980 bf3f 4877 133f fbd8 423f
000000f0: 3d16 313f 3e73 963f b1e2 1bbf 8c5d 8a3f
00000100: cb98 f93e 0961 653f 9d92 233f 1182 393f
00000110: 81f6 643f 7e71 373f 7085 7b3f c28a 823f
00000120: a37d 793f 4ab3 463f d481 963f 3758 3c3f
00000130: 622c 653f 6f65 543f 559e 863f 0b45 f63e
00000140: 7d88 3a3f bdbd 5b3f aa6f e9be c4b4 b23e
00000150: 39ea 413f 50b0 473f ea8b f53e 254b 653f
00000160: 3c50 3b3f 21a9 8d3f c982 443f 7739 853f
00000170: 6eed 8c3f f5ef ee3e e889 4c3f 84cf e53d
00000180: 5527 533f ade2 493f 31cb 563f 401b 3a3f

ThirdConv.1.bias f4 [100]
-0.5817544 -0.35385895 -0.44580278 -0.32948738 -0.70976853 -0.75558513 -0.47214225 -0.36922422
-0.56039065 0.014126002 -0.5778345 -0.363584 -0.68513167 -0.59794825 -0.4817143 -0.7096422
-0.9041728 -0.50701445 -0.78987294 -0.78367686 -0.38497797 -0.7402262 -0.35199377 -0.4621058
-0.39254513 -0.7017862 -0.14519013 -0.53870946 -0.32445732 -0.4987232 -0.41902018 -0.33011436
-0.4559458 -0.42102587 -0.18859835 -0.5310775 -0.4008178 -0.7167089 -0.62172353 -0.29162237
-0.2619938 -0.4342195 -0.52186465 -0.59792423 -0.51153296 -0.6622863 -0.9894498 -0.44041976
-0.3641505 -0.43090722 -0.5293384 -0.63783604 -0.33358824 -0.5609896 -0.4859532 -0.39456508
-0.40646675 -0.6948624 -0.11571149 -0.35366327 -0.5269889 -1.1916757 -0.18272448 -0.5892293
-0.20188026 -0.25848624 -0.104861684 -0.27791595 -0.56227887 -0.51033074 -0.5788185 -0.60327685
-0.40191486 -0.4168708 -1.0094457 -0.40213615 -0.68220836 -0.30971834 -0.44052964 -0.078297585
-0.3346382 -0.39675528 -0.28124928 -0.16190203 -0.41307163 -0.4221317 -0.28427824 -0.58601147
-0.34942216 -0.71439976 -0.3200818 -0.61287653 -0.8639858 -0.26573342 -0.56805044 0.046627354
-0.33423284 -0.45124522 -0.52886176 -0.39718297
00000000: dbed 14bf 002d b5be 4340 e4be 92b2 a8be
00000010: 64b3 35bf 076e 41bf a1bc f1be f50a bdbe
00000020: c375 0fbf bf70 673c f6ec 13bf af27 babe
00000030: ca64 2fbf 2313 19bf 42a3 f6be 1cab 35bf
00000040: de77 67bf b3cb 01bf 1d35 4abf 0c9f 48bf
00000050: d51b c5be 777f 3dbf 8738 b4be 2299 ecbe
00000060: adfb c8be 43a8 33bf b9ac 14be dde8 09bf
00000070: 451f a6be a658 ffbe d089 d6be c004 a9be
00000080: ba71 e9be b490 d7be ed1f 41be b2f4 07bf
00000090: fe37 cdbe 3c7a 37bf 4629 1fbf 874f 95be
000000a0: 0d24 86be 0552 debe ec98 05bf 9011 19bf
000000b0: d3f3 02bf 988b 29bf 954c 7dbf b37e e1be
000000c0: ef71 babe df9f dcbe b982 07bf 3949 23bf
000000d0: 14cc aabe 049d 0fbf dcce f8be 6f04 cabe
000000e0: 691c d0be 81e2 31bf 25fa ecbd 5a13 b5be
000000f0: bfe8 06bf d488 98bf 201c 3bbe bbd7 16bf
00000100: b3b9 4ebe 4f58 84be b9c1 d6bd 004b 8ebe
00000110: 82f1 0fbf 09a5 02bf 732d 14bf 5a70 1abf
00000120: c9c7 cdbe 1770 d5be 8435 81bf cae4 cdbe
00000130: 35a5 2ebf 6793 9ebe 1a8d e1be 7c5a a0bd
00000140: b355 abbe 8223 cbbe e8ff 8fbe a5c9 25be
00000150: 207e d3be a521 d8be eb8c 91be d904 16bf
00000160: 76e7 b2be e7e2 36bf c3e1 a3be 7ae5 1cbf
00000170: 2c2e 5dbf 360e 88be c16b 11bf 53fc 3e3d
00000180: 9120 abbe 9d09 e7be 7c63 07bf 915b cbbe

ThirdConv.1.running_mean f4 [100]
-0.49667028 0.14355405 -1.3811604 -1.7610589 0.2125353 -1.3241577 -0.5730247 -0.78957236
-1.4652041 -1.7171 -0.32709372 -0.409183 -1.4714478 -0.90225023 -0.07084997 -0.2268821
-0.048031334 -0.37652436 -0.12274971 -0.003199733 -1.2521834 -0.0054531586 0.1566226 -0.49669304
-0.9343395 -0.4823872 -1.3938875 -0.8217674 1.2117134 -0.8544319 -0.8625999 1.1304768
-0.7630309 -0.5471884 0.22735602 0.35636064 -0.5800373 0.3009994 -1.012028 -1.8290997
-0.06876219 -1.4112746 -0.00036993995 -0.86630875 0.22451536 0.69874215 -0.9574414 -0.72167283
0.48091295 0.38950318 -0.5939273 -0.17805816 -0.32623184 0.7466292 0.18819858 -1.305719
-1.4342587 0.55354315 -0.014142196 0.13398209 1.2852808 -1.1478359 1.0267475 -1.0908601
0.23605676 0.32290906 -0.97511137 0.28211436 -0.685827 -0.30397114 -1.1794599 0.24268861
-0.8830163 -0.75527084 -1.1987896 -0.2971861 -1.1437281 0.7470478 0.49663636 -0.9937064
-2.0023284 1.0771141 1.989678 -0.39323324 0.80135906 0.48748708 -2.403501 -0.62310463
-0.36207482 -0.7219808 -0.6950275 0.61581653 -0.80080163 -1.3651088 -0.63456625 -0.93138194
-0.34858617 -0.45561403 -0.97627676 0.59416616
00000000: 914b febe d5ff 123e ddc9 b0bf 616a e1bf
00000010: dba2 593e 007e a9bf bfb1 12bf 6a21 4abf
00000020: cf8b bbbf efc9 dbbf d478 a7be 6f80 d1be
00000030: 6758 bcbf dff9 66bf ca19 91bd c853 68be
00000040: 81bc 44bd cdc7 c0be 3364 fbbd 9db2 51bb
00000050: 8c47 a0bf 69b0 b2bb ad61 203e 8d4e febe
00000060: e030 6fbf 75fb f6be e86a b2bf 595f 52bf
00000070: 6d19 9b3f 0dbc 5abf 59d3 5cbf 77b3 903f
00000080: fe55 43bf 8a14 0cbf 04d0 683e e774 b63e
00000090: 537d 14bf 981c 9a3e 228a 81bf f01f eabf
000000a0: 31d3 8cbd a5a4 b4bf 80f4 c1b9 69c6 5dbf
000000b0: 5be7 653e c4e0 323f e11a 75bf 8dbf 38bf
000000c0: 393a f63e f66c c73e 9f0b 18bf e154 36be
000000d0: dc07 a7be 1723 3f3f 21b7 403e cd21 a7bf
000000e0: ca95 b7bf 01b5 0d3f abb4 67bc 9a32 093e
000000f0: 1584 a43f 49ec 92bf 766c 833f 4ea1 8bbf
00000100: ddb8 713e 5654 a53e e6a0 79bf 4b71 903e
00000110: 5c92 2fbf 1ba2 9bbe 8bf8 96bf 5d83 783e
00000120: 5b0d 62bf 6e59 41bf f071 99bf c728 98be
00000130: af65 92bf 863e 3f3f 1f47 fe3e 8b63 7ebf
00000140: 2626 00c0 e0de 893f c5ad fe3f de55 c9be
00000150: de25 4d3f e897 f93e f6d2 19c0 c983 1fbf
00000160: df61 b9be bcd3 38bf 52ed 31bf 27a6 1d3f
00000170: 5601 4dbf e3bb aebf ef72 22bf 0c6f 6ebf
00000180: e379 b2be 3e46 e9be 46ed 79bf 461b 183f

ThirdConv.1.running_var f4 [100]
50.31139 58.702198 27.096964 41.41007 36.720505 33.262955 33.055367 19.442545
21.707022 76.6166 49.34456 18.19059 24.711548 33.957226 38.283733 36.514576
45.808117 52.77985 53.63954 51.08218 41.377342 42.80996 110.991684 36.31056
19.3945 38.841743 46.716335 28.765512 158.48181 39.492435 67.312515 86.65936
21.686768 41.775135 86.29698 46.325138 66.32923 30.517653 51.19395 76.33308
70.61987 44.9283 51.609802 30.12419 24.87629 30.91787 32.05667 38.9855
92.754425 37.694454 46.700207 29.70457 95.280876 46.531185 21.564054 79.00914
24.833817 53.852356 61.042206 36.39921 26.964718 27.32366 77.92626 33.848637
34.08099 32.247128 54.96261 95.5837 43.970627 56.018764 42.98325 39.08402
94.05485 56.876423 27.285713 53.021484 18.84023 29.849607 66.18331 18.162191
31.329473 43.56639 96.898346 25.731728 45.60174 47.767765 53.32893 35.608467
30.166195 38.256985 16.753881 47.9773 30.665089 28.441744 22.639456 10.535231
84.150894 35.127094 37.73419 42.91053
00000000: dd3e 4942 0dcf 6a42 95c6 d841 e9a3 2542
00000010: cce1 1242 440d 0542 b238 0442 558a 9b41
00000020: fba7 ad41 b33b 9942 d460 4542 5486 9141
00000030: 40b1 c541 33d4 0742 8b22 1942 ed0e 1242
00000040: 833b 3742 911e 5342 e48e 5642 2754 4c42
00000050: 6682 2542 663d 2b42 befb dd42 033e 1142
00000060: f027 9b41 f25d 1b42 87dd 3a42 c51f e641
00000070: 587b 1e43 41f8 1d42 02a0 8642 9851 ad42
00000080: 807e ad41 bd19 2742 0e98 ac42 f14c 3942
00000090: 91a8 8442 2724 f441 9bc6 4c42 89aa 9842
000000a0: 603d 8d42 94b6 3342 7070 4e42 57fe f041
000000b0: a402 c741 cc57 f741 083a 0042 27f1 1b42
000000c0: 4482 b942 1fc7 1642 03cd 3a42 f6a2 ed41
000000d0: cf8f be42 ef1f 3a42 2f83 ac41 ae04 9e42
000000e0: a8ab c641 d068 5742 382b 7442 cb98 1142
000000f0: beb7 d741 db96 da41 3fda 9b42 0165 0742
00000100: ef52 0842 0ffd 0042 b6d9 5b42 db2a bf42
00000110: ece1 2f42 3713 6042 d9ee 2b42 0956 1c42
00000120: 151c bc42 7581 6342 2449 da41 0016 5442
00000130: cbb8 9641 ffcb ee41 db5d 8442 2b4c 9141
00000140: c3a2 fa41 fc43 2e42 f4cb c142 94da cd41
00000150: 2f68 3642 3112 3f42 d350 5542 126f 0e42
00000160: 5e54 f141 2707 1942 f307 8641 c1e8 3f42
00000170: 1a52 f541 b188 e341 9b1d b541 4e90 2841
00000180: 424d a842 2582 0c42 d0ef 1642 62a4 2b42

FourthConv.0.weight f4 [200, 100, 1, 5]
0.698752 -0.41488916 -0.034478944 0.13838962 0.098044075 0.34533405 0.28481135 0.24649179
-0.29930666 -0.092146955 0.1302972 -0.14420901 -0.24787328 -0.07341959 -0.023928357 -0.04289198
-0.00025284893 0.11856884 -0.22258446 -0.15519845 -0.08776678 0.32878602 0.096713565 -0.15713744
-0.12486528 0.06612868 0.25302002 -0.30948305 -0.25183904 -0.043421842 -0.26111114 -0.16943905
0.18677472 -0.17422028 -0.39925268 -0.2755475 0.044965617 0.17500675 -0.33163482 0.14341183
0.35058638 -0.08496554 -0.25245005 -0.07391768 0.043854937 -0.113996394 0.3653721 -0.35010844
-0.8873277 -0.1998328 0.29014513 0.064008504 -0.16878816 -0.2845318 0.13294497 -0.05948249
0.07183518 -0.09193154 -0.2285135 0.13894917 0.036126792 -0.0076048933 -0.091666244 -0.034561276
-0.2482482 0.59811604 -0.07063296 -0.4822088 -0.37682453 -0.15103804 0.031432003 0.012523124
0.016907725 0.25127244 0.22772725 0.11776624 0.07662977 0.28133467 0.053301983 -0.16647686
0.13331357 -0.07689627 -0.35806617 0.2299286 0.07749249 0.03270322 -0.12289672 -0.15730521
-0.10727924 -0.2161958 0.34996253 0.17285512 0.13399468 0.13802713 0.152816 -0.06806567
0.1828709 -0.014038117 0.20154123 0.24598692 -0.01790287 -0.30738828 -0.10959595 0.3403891
-0.25948447 -0.21661036 0.00080582715 0.18618175 0.0016679888 0.23389347 -0.7650856 0.05248955
0.13260019 0.62422293 -0.5538104 0.21589743 -0.12288271 0.18812872 -0.06069616 0.22513907
0.2709724 0.07201923 -0.18938774 -0.03859628 -0.05661848 -0.4716449 0.013846627 0.07861988
-0.07133878 -0.31576055 0.22073251 0.29025918 -0.18235506 -0.41778174 0.27868927 0.18941231
0.19956914 -0.117107466 -0.56394416 -0.06690469 0.20469011 -0.43476298 -0.57201564 0.016994495
-0.33387616 0.44225267 -0.08013926 -0.15447177 -0.09162436 0.18653484 0.23478945 -0.7663163
-0.1432885 0.29855976 0.03611448 0.29500267 0.5966126 -0.26428947 -0.06800263 -0.22523622
-0.052590244 -0.14040503 -0.17528059 -0.19035345 -0.13488758 0.44552308 -0.13539028 -0.038168386
-0.02556521 0.29480502 -0.43922698 0.18931271 0.4482875 -0.76851624 -0.40573695 -0.020942368
-0.058458596 -0.5435393 0.39797455 0.26703438 0.11404114 -0.3997636 -0.08129211 -0.21954544
-0.11632411 -0.048394665 0.09772127 -0.13561668 -0.17197348 -0.17977509 -0.17789103 -0.24404526
-0.23639175 0.093448736 -0.10815757 -0.4503834 0.11900182 -0.15258135 -0.10671353 0.44421145
-0.21658526 -0.25892138 -0.11022818 -0.0909419 0.64905 0.18507022 -0.15442431 0.07303181
0.09775927 0.89037627 0.24322957 -0.19318022 -0.2149584 -0.19340797 -0.21860579 0.11608039
0.53031105 -0.04834817 -0.19653757 -0.22621493 0.037511494 -0.14340302 -0.04404366 0.13545933
-0.03132442 -0.07027726 -0.33561137 0.229596 -0.16704255 -0.4827405 -0.35801268 -0.0981587
0.48151273 0.008047691 0.19243763 0.17060746 0.35522008 -0.3645623 0.38570446 -0.02882504
-0.49940205 0.12153248 -0.024762245 -0.19287136 0.23274325 0.2784893 -0.2794566 0.02301808
0.11946104 0.30962285 0.111340314 -0.024903342 0.26188272 0.14519042 0.24188027 0.42418662
00000000: 69e1 323f 5a6c d4be cb39 0dbd 02b6 0d3e
00000010: 55cb c83d a0cf b03e cbd2 913e 5868 7c3e
00000020: b93e 99be 8bb7 bcbd a16c 053e 87ab 13be
00000030: 7ed2 7dbe 035d 96bd 6705 c4bc 80af 2fbd
00000040: cf90 84b9 38d4 f23d 2eed 63be 58ec 1ebe
00000050: 12bf b3bd a456 a83e c311 c63d a3e8 20be
00000060: 5eb9 ffbd 796e 873d d78b 813e 9074 9ebe
00000070: 0cf1 80be 1adb 31bd 5cb0 85be 6e81 2dbe
00000080: df41 3f3e cd66 32be d96a ccbe 9014 8dbe
00000090: de2d 383d f834 333e 0acc a9be 8dda 123e
000000a0: 0f80 b33e 6a02 aebd 2241 81be 2762 97bd
000000b0: 3ca1 333d f176 e9bd 0d12 bb3e 6a41 b3be
000000c0: e827 63bf f8a0 4cbe e78d 943e e416 833d
000000d0: ced6 2cbe 27ae 91be ba22 083e e9a3 73bd
000000e0: 531e 933d 9a46 bcbd 71ff 69be b148 0e3e
000000f0: b0f9 133d 7832 f9bb 83bb bbbd 2090 0dbd
00000100: c734 7ebe 221e 193f 03a8 90bd 12e4 f6be
00000110: 25ef c0be b7a9 1abe d8be 003d ca2d 4d3c
00000120: 1282 8a3c c8a6 803e 5531 693e 6d2f f13d
00000130: 12f0 9c3d 190b 903e 2e53 5a3d e978 2abe
00000140: 5a83 083e cb7b 9dbd 7354 b7be 6772 6b3e
00000150: 62b4 9e3d d0f3 053d 47b1 fbbd 9e14 21be
00000160: 38b5 dbbd 6f62 5dbe 4a2e b33e ef00 313e
00000170: e735 093e fc56 0d3e cc7b 1c3e 0466 8bbd
00000180: 8242 3b3e 2100 66bc d360 4e3e ffe3 7b3e
00000190: 0aa9 92bc ff61 9dbe d773 e0bd 7b47 ae3e
000001a0: 26db 84be 1bcf 5dbe 253e 533a 6ea6 3e3e
000001b0: 6ba0 da3a c581 6f3e a6dc 43bf 48ff 563d
000001c0: 58c8 073e 13cd 1f3f 85c6 0dbf 3714 5d3e
000001d0: eea9 fbbd d1a4 403e 899c 78bd db8a 663e
000001e0: e5bc 8a3e d17e 933d dcee 41be 2217 1ebd
000001f0: c7e8 67bd 717b f1be f7dc 623c 7603 a13d
00000200: 111a 92bd 5eab a1be b407 623e da9c 943e
00000210: 49bb 3abe 7de7 d5be 5cb0 8e3e 4df5 413e
00000220: da5b 4c3e 0ad6 efbd a55e 10bf 5305 89bd
00000230: 499a 513e 4199 debe 9e6f 12bf 0a38 8b3c
00000240: d1f1 aabe f16e e23e 0d20 a4bd d92d 1ebe
00000250: 8da5 bbbd fd02 3f3e a56c 703e 4e2d 44bf
00000260: 38ba 12be d3dc 983e c7ec 133d 970a 973e
00000270: 9abb 183f f350 87be f644 8bbd 53a4 66be
00000280: de68 57bd 56c6 0fbe c17c 33be 04ec 42be
00000290: f81f 0abe 9a1b e43e c0a3 0abe 7456 1cbd
000002a0: 226e d1bc aff0 963e 5ce2 e0be 31db 413e
000002b0: f085 e53e 7bbd 44bf c1bc cfbe 548f abbc
000002c0: 4872 6fbd 6425 0bbf 52c3 cb3e bbb8 883e
000002d0: 678e e93d d1ad ccbe 7a7c a6bd 85d0 60be
000002e0: 563b eebd 7c39 46bd 1722 c83d 19df 0abe
000002f0: d119 30be f616 38be 1129 36be 00e7 79be
00000300: ae10 72be 0d62 bf3d b781 ddbd a798 e6be
00000310: 3ab7 f33d 493e 1cbe a08c dabd af6f e33e
00000320: 87c8 5dbe 5891 84be 50bf e1bd bf3f babd
00000330: 2428 263f 0c83 3d3e 6821 1ebe b491 953d
00000340: 0336 c83d b3ef 633f 2c11 793e 09d1 45be
00000350: 0e1e 5cbe bd0c 46be 32da 5fbe 8ebb ed3d
00000360: 77c2 073f bb08 46bd 2541 49be e3a4 67be
00000370: a7a5 193d 3ed8 12be 2067 34bd dab5 0a3e
00000380: 094e 00bd 86ed 8fbd 41d5 abbe 371b 6b3e
00000390: 340d 2bbe c329 f7be 704d b7be 6e07 c9bd
000003a0: d688 f63e 76da 033c 5f0e 453e b9b3 2e3e
000003b0: 68df b53e e9a7 babe 0e7b c53e 7e22 ecbc
000003c0: a0b1 ffbe 05e6 f83d 31da cabc 1280 45be
000003d0: 3f54 6e3e 2696 8e3e ef14 8fbe 6a90 bc3c
000003e0: fda7 f43d e386 9e3e 6406 e43d 1802 ccbc
000003f0: 7e15 863e ccac 143e 76af 773e fd2e d93e
