NCTU2/DeepConvNet/DeepConvNet_ELU.pkl (torch_old, 612233 bytes, 28 tensors)

FirstConv.0.weight f4 [25, 1, 1, 5]
000000 c0 00 84 3e d0 ef 92 3e cf b2 88 be ec c7 b1 be
       0.25781822 0.28698587 -0.2669892 -0.3472284
000010 b1 b5 2a be 7e c4 03 3e 0a 1c 66 bd 06 47 b4 3e
       -0.16670872 0.12867925 -0.056179084 0.35210437
000020 87 9b 4b be cf b4 4b 3c 0e 79 c0 be e5 d2 8c 3e
       -0.19883548 0.012433245 -0.37592357 0.2750465
000030 f9 d6 81 be 51 c0 ec be 4d 77 88 be 72 5b 7b be
       -0.25359324 -0.46240476 -0.2665352 -0.24546602
000040 70 2d c8 3e c3 f2 1c be 41 99 ae 3d 71 03 8f be
       0.39097166 -0.15326981 0.085253246 -0.27932313
000050 63 ef ff 3e 1b 34 c1 3e 73 39 a9 3e 66 db c9 3d
       0.49987325 0.37735066 0.33051643 0.098563
000060 27 d7 38 bd 9d 26 a2 bd 0e c2 bb be df 7f 8f 3e
       -0.04512706 -0.07917521 -0.3667149 0.28027245
000070 5c 38 ab 3e 1e d5 bf 3e bc 2d 3f bd fd 3d 50 be
       0.33441436 0.37467283 -0.046674475 -0.20336147
000080 68 38 8e be 53 e9 3a 3e 62 ac ce 3c 18 88 39 be
       -0.2777741 0.18253069 0.025228683 -0.18118322
000090 4a ed e5 be 00 6e 6b be 5f 08 a0 be 98 50 b3 be
       -0.449076 -0.2299118 -0.31256387 -0.35022426
0000a0 8f d3 72 bc 10 0c 40 3e bf 51 9a be 24 9b a5 3d
       -0.014820947 0.18754601 -0.30140492 0.08086231
0000b0 b2 9c 1b 3e 8b 16 32 3c e9 ef c0 be 03 1f 04 3e
       0.15196493 0.0108696325 -0.37683037 0.12902455
0000c0 c2 e1 38 bd 48 97 1a be c4 79 f6 3e 78 1b e3 3e
       -0.045137174 -0.15096772 0.48139775 0.44356894
0000d0 f2 1a 4b bd 14 5c 0e 3e f8 49 85 3e 4e 0e b6 bd
       -0.049586244 0.13902313 0.26032996 -0.08889447
0000e0 0b 86 9a 3e e6 d8 cb be b9 b4 2f be b5 7d 48 be
       0.30180392 -0.39813918 -0.17158784 -0.19579203
0000f0 71 15 a7 3e b9 bb d9 3d d1 54 e9 3d 8d 5c f0 3e
       0.32633546 0.106315084 0.113931306 0.4694561
000100 26 1e 46 be ec 14 f7 bc c6 2e 12 be 3e 45 b1 3e
       -0.19347438 -0.030161344 -0.14275655 0.3462314
000110 ef 0e cb be 81 cd 65 be 90 d2 c8 3e 2c 3b f3 3b
       -0.3965983 -0.22441675 0.39223146 0.0074228253
000120 52 00 cf 3e f0 f8 9b be 30 51 89 3d 7d 19 d9 3c
       0.40429932 -0.30463362 0.067049384 0.026501412
000130 85 95 f2 3d 30 0c 50 3e 30 58 a9 3c d1 b1 09 be
       0.11844925 0.20317149 0.020671934 -0.13446738
000140 7e a5 07 be 3f a7 40 3e d1 fe e8 3e 56 23 ee 3e
       -0.13246724 0.188138 0.4550691 0.46511334
000150 2a 9e 8e be 19 c3 64 3d ea df 92 3e d5 7e 3c 3d
       -0.27855045 0.055850122 0.28686458 0.046019394
000160 bc 4c 83 be 14 f8 64 3e 39 c0 6f be cc 9b b3 bd
       -0.2564448 0.2236026 -0.23413171 -0.0876995
000170 c5 8b d5 3d 21 98 0a 3e 05 2b 8f 3e 3d 9d 8a 3e
       0.104270495 0.13534595 0.2796251 0.27073088
000180 ff 1f 72 be 83 93 a2 3e dc fb 70 3e bc c1 d0 3e
       -0.23645018 0.31753168 0.23533577 0.40772808
000190 4d 17 e2 bd a4 dd 07 3e 9f 49 14 3d a6 70 d3 3e
       -0.110396005 0.13268143 0.036203023 0.4129688
0001a0 8d 05 a1 be 21 82 56 be 22 06 4d be f0 79 da 3e
       -0.31449547 -0.20948078 -0.2002187 0.42671156
0001b0 fe 13 a6 3d d6 28 18 be a9 0b 29 3e 2a 92 9f 3e
       0.08109282 -0.14859328 0.16508354 0.31166202
0001c0 6f 1e 7b be 23 cc ce 3e 2f 09 dd 3e 75 74 de be
       -0.24523328 0.4039012 0.4317107 -0.43448225
0001d0 15 9b 41 3e 9c a6 d3 be 60 2a 01 bd df b3 9b 3e
       0.18906815 -0.4133805 -0.031534553 0.30410668
0001e0 ba db 72 bd fd 5b 01 bc 2d 91 2d 3e e9 83 1c 3e
       -0.05929158 -0.007895467 0.16949911 0.15284695
0001f0 58 3d 0e be
       -0.13890588

FirstConv.0.bias f4 [25]
000000 ca 44 ca 3e cb d0 8c be a9 b9 22 be 00 a0 8f 3e
       0.39505607 -0.27503046 -0.15891136 0.28051758
000010 27 15 02 be f0 b2 7b 3d 07 d0 c8 be 1b 19 9d 3e
       -0.12703381 0.061449945 -0.39221212 0.30683216
000020 73 04 33 3e f3 90 c3 3c b2 93 c4 3e 3c 9e d5 be
       0.17482166 0.023872828 0.38393933 -0.41722286
000030 5e 00 65 3d 7f 7c b3 be 47 61 de 3e ae da 94 ba
       0.055908553 -0.3505592 0.43433592 -0.0011356676
000040 61 d7 51 3d cc 5d c7 be 00 2b f0 bc 86 ce 8c be
       0.051230792 -0.3893875 -0.029317379 -0.27501315
000050 9d 9d a7 bd 8d 05 ce be 39 1b ea bc 36 40 88 be
       -0.08184359 -0.4023861 -0.028577434 -0.2661149
000060 e3 34 c0 be
       -0.3754035

FirstConv.1.weight f4 [25, 25, 2, 1]
000000 4a e8 28 be e3 05 99 3d 66 9c 81 3c 3e b3 82 3d
       -0.16494861 0.07471826 0.015821647 0.06381844
000010 50 e5 2c be d4 f7 82 bc 3c f9 f6 bd a1 c2 ca 3c
       -0.16884351 -0.015987314 -0.120592564 0.02475101
000020 4b 17 35 3e 3d 0e 04 be f3 fa c2 bc e8 5c 23 3c
       0.17684667 -0.12896056 -0.023801303 0.009970881
000030 56 a9 68 bc e9 42 46 bd 84 3e 80 3c e2 78 38 3e
       -0.014200529 -0.048403654 0.01565481 0.18014863
000040 28 e8 07 3d 67 58 46 3e 62 38 42 be 70 78 da bd
       0.033180386 0.1936966 -0.18966821 -0.10667503
000050 dd d0 e2 3d a2 34 44 bc 9a e3 21 be 13 de 7c 3d
       0.11074994 -0.011975439 -0.1580948 0.061735224
000060 b6 24 2a 3e 82 4e 95 3d d7 eb 30 be 73 0c 46 bd
       0.16615567 0.07290365 -0.17277466 -0.048351716
000070 46 f0 30 3e 6d 6e 8b 3d 0e bb 8e 3c 7f 91 d1 3d
       0.17279157 0.068081714 0.017423179 0.10232829
000080 e7 90 7b bb c4 72 6b bc 62 21 ed bc 51 0b 89 3c
       -0.003838593 -0.014370624 -0.028946582 0.016729029
000090 c2 90 0f bd 4c 63 d2 3c d3 00 8b 3d 90 c6 48 bc
       -0.03505016 0.025682114 0.067872666 -0.012254372
0000a0 99 cb d3 bd 90 63 dd 3d 8d 96 0d bd b7 e6 b5 bd
       -0.103415675 0.10810006 -0.034567405 -0.08881896
0000b0 a1 bf 5a 3d ad bb 34 be ec af 5a bd 76 81 d9 3d
       0.053405408 -0.17649718 -0.05339043 0.10620396
0000c0 4f cd 20 bc 13 10 f2 bd 54 98 46 bd 35 d8 2f bd
       -0.009814574 -0.11819472 -0.048485115 -0.0429308
0000d0 01 d0 a5 bd 70 51 d7 3a 2f ff e5 bc a8 c5 6d bd
       -0.08096314 0.0016427469 -0.028075783 -0.058049828
0000e0 9b df 0c 3b e2 62 59 3d 49 98 87 bc a1 7c ed bc
       0.0021495584 0.053072818 -0.016552107 -0.028990092
0000f0 e0 02 a4 3c d9 11 14 bd ea 72 b1 3d 7d ce 24 3d
       0.020020902 -0.036149833 0.08664496 0.040235985
000100 05 70 53 3d 30 2c 4a 3e b4 f1 31 3e 63 50 2b 3d
       0.051620502 0.19743419 0.17377359 0.04182471
000110 3f d5 f3 3d bf 5a 85 3d b4 a0 3b be 87 5b 3b be
       0.11905908 0.06511449 -0.18323022 -0.18296634
000120 43 35 0e 3e a4 ac 0b 3d aa 10 41 3d 68 53 de bd
       0.13887505 0.03410019 0.047135033 -0.10855752
000130 53 b3 9c bc 72 43 1e 3d 47 0c 1a be a6 a9 32 be
       -0.019128477 0.03863854 -0.15043746 -0.17447528
000140 58 38 1c be 4c 74 03 be 97 c8 0c be 98 b2 af bd
       -0.15255868 -0.12837332 -0.13748394 -0.08578986
000150 a6 41 30 be 66 d7 1d be 49 f8 ad bd ce d4 17 bd
       -0.17212543 -0.15414199 -0.08494622 -0.03706818
000160 a8 d4 96 bd 4f f1 de bd 62 55 f4 3c 5f 6a 0a 3e
       -0.0736478 -0.1088587 0.02982587 0.1351714
000170 8f 0e c5 bd b9 33 23 be e6 2d 39 3d ea 22 a5 3c
       -0.096219175 -0.159377 0.045209788 0.02015825
000180 cd e4 2d bd 3e b8 e3 bd 4f 51 81 3d df b5 8e bc
       -0.04245453 -0.11119126 0.063143365 -0.017420707
000190 c9 9a ce bc fc 1c 63 3d c4 64 b4 3d 50 b6 51 be
       -0.025220292 0.055447564 0.08808282 -0.20479703
0001a0 b4 db e9 3c b5 0c ca 3d e0 80 11 be b9 76 b0 bd
       0.028547145 0.09865705 -0.14209318 -0.086163945
0001b0 16 dd ee 3d 4d c3 27 be 99 a9 a4 3d 91 b3 8f 3d
       0.116632625 -0.16383095 0.08040161 0.070166714
0001c0 bc 1e f4 bd ed 90 f9 3d 4c 1e 11 be c3 b7 9c 3d
       -0.119199246 0.121858455 -0.14171714 0.07652237
0001d0 38 21 3c bd af f7 03 3e f2 c7 ba bd ee 60 6b 3e
       -0.045930117 0.12887453 -0.09120168 0.22986194
0001e0 53 28 d2 bd 08 e4 50 be c3 c6 01 3c 2b 3b 89 3d
       -0.102615975 -0.20399487 0.007920924 0.067007385
0001f0 b3 9e c5 bd a0 e9 1a bd 5b f3 b3 bc be da d5 3d
       -0.0964941 -0.03782046 -0.021966627 0.104421124
000200 74 7a 38 3d 64 cf c1 3b da 80 53 3c dc 16 39 bd
       0.045038655 0.0059146155 0.012909139 -0.045187816
000210 91 4a bf 3b a6 b1 d3 bc eb 76 10 3e d2 fd 0e be
       0.0058377464 -0.025841545 0.14107864 -0.13964012
000220 72 c7 56 3d 99 ef 69 3d 9a f0 04 3e 5c 3f 39 3c
       0.0524363 0.057113264 0.12982407 0.01130661
000230 5d 20 f9 bd dc 84 91 ba ae 19 25 be ce c5 66 bb
       -0.12164376 -0.0011102217 -0.16123077 -0.0035213116
000240 70 2d 53 bd 9e e1 a9 bd 22 2c cf bc 3b c5 2d 3e
       -0.051557004 -0.08294986 -0.025289599 0.16969769
000250 68 4f c3 3b 42 a7 00 be 44 d5 73 bd 46 38 84 3b
       0.0059603937 -0.12563804 -0.059529558 0.0040350286
000260 8f 53 a4 3c 6f 8d c9 bd d2 6b eb bc 88 e8 ee 3d
       0.020059375 -0.098414294 -0.028737936 0.116654456
000270 8b 99 b4 3d c5 c3 29 3e 60 a9 3f 3e 09 f0 0b be
       0.088183485 0.16578586 0.18716955 -0.13665785
000280 24 60 02 be 3c 47 e1 3d af 80 a3 3c 7a ae dd bd
       -0.12731987 0.10999915 0.019958822 -0.108242944
000290 96 7d 59 bd 74 bd ab 3d b3 8b d1 bd 12 ca 23 3e
       -0.053098284 0.08385745 -0.10231724 0.15995052
0002a0 47 4c 7a be 78 9a 16 be c2 b0 16 3d 8e da c4 3d
       -0.2444316 -0.14707363 0.036789663 0.096119985
0002b0 be 6b b4 bd 9a 33 2f 3d 84 3f 75 3c ef 39 da bc
       -0.08809613 0.04277382 0.014968757 -0.026638953
0002c0 66 0e 03 be b4 12 00 3e 7b 12 ac 3d e7 b0 0f 3c
       -0.12798461 0.12507135 0.08401962 0.008770204
0002d0 72 90 f2 3d 20 d6 d8 bc f5 81 7d 3d 22 81 1a be
       0.11843957 -0.02646929 0.061891515 -0.15088323
0002e0 da 32 00 3e e9 b0 33 3d 9a 36 9b bd de 5f e6 bd
       0.12519398 0.043869887 -0.07578774 -0.11248754
0002f0 40 8e 11 3e 21 c6 00 bd e4 73 b5 bd 79 0c f0 bd
       0.1421442 -0.03143895 -0.08859995 -0.11721129
000300 56 36 d2 bd 95 f6 48 be 82 ca 10 3e b1 c2 07 bc
       -0.1026427 -0.19625314 0.1413975 -0.008286164
000310 60 31 cb 3d 52 5a fd 3d 8a f1 1c 3e c0 ff 6f 3d
       0.09921527 0.12370743 0.15326515 0.05859351
000320 0b d2 23 bd 30 1f c4 bd ac a1 d1 3d 07 46 4d bd
       -0.039995234 -0.09576261 0.102359146 -0.05011561
000330 fa fc 03 3e 4c 9f 32 3d 4e b6 6a bd 30 8c 78 bd
       0.12889472 0.04360895 -0.057302766 -0.06068057
000340 a0 2a 23 be b3 77 17 be 88 80 29 be 23 5c 36 be
       -0.15934229 -0.14791755 -0.16552937 -0.17808585
000350 fd 39 c9 3d 6d 3b 0e 3e b5 5d 28 3e f9 eb a3 bc
       0.098255135 0.13889857 0.16441996 -0.020009981
000360 0e d9 4f 3e 10 10 91 bc af 8c 14 3e b6 6b 1f 3e
       0.20297644 -0.017707855 0.14506792 0.15568432
000370 6b 61 cb bc 4a 93 be 3c e0 74 87 3d 14 91 a3 3d
       -0.024826726 0.023263592 0.06614089 0.07986656
000380 e5 93 79 bc 51 f9 2a be 8e ac 5e 3c db df 42 3d
       -0.015233015 -0.16696669 0.013590945 0.047576766
000390 ae f3 c3 3d ec 6e 56 bc 96 9c c2 bd bf 68 04 be
       0.095679626 -0.013087969 -0.09502523 -0.12930582
0003a0 65 64 1e be d2 0c e5 bd 59 a7 af 3c 41 62 a9 3c
       -0.15467985 -0.11184086 0.021442102 0.020676734
0003b0 83 63 e0 3b 90 f2 06 be 5d ee 7a bd 2e fc 11 be
       0.0068478 -0.13178468 -0.061262477 -0.14256355
0003c0 20 17 ad bd 8a 3b e4 bb 16 c7 f9 3b 8d 3b 64 bc
       -0.08451676 -0.0069651054 0.00762261 -0.013930214
0003d0 d2 6c ed bb b2 13 e2 3a 97 a7 a4 bd 32 ab f5 3c
       -0.0072456384 0.0017248301 -0.08039778 0.029988859
0003e0 09 c3 23 3c 90 cd 53 bd d8 85 07 be a4 34 b0 bd
       0.0099952305 -0.05170971 -0.13234651 -0.086037904
0003f0 0b dc c7 3c 3a 7a 17 bd c1 d0 07 3c 78 10 5a 3d
       0.024396917 -0.0369818 0.008289517 0.053238362

FirstConv.1.bias f4 [25]
000000 e5 45 f1 bc 77 92 25 bc e8 76 90 3c dd bf 82 3d
       -0.029452274 -0.010105721 0.017634824 0.06384251
000010 69 4e a5 3d 97 12 8c bd 56 be 73 3d 18 0b 84 bc
       0.08071596 -0.06839483 0.05950769 -0.016118571
000020 8d dc 36 3e 09 94 b5 3c 0d 67 62 3d 90 ef 59 bc
       0.17857571 0.022165315 0.055274058 -0.013301745
000030 31 0b 31 3d 00 ba e1 bd 9b 1a 08 3e d0 50 9b 3c
       0.043223564 -0.11021805 0.13291399 0.018959433
000040 50 aa bc 3d dd a4 f2 bd 53 50 64 3d b2 26 e0 3d
       0.09212172 -0.118478514 0.055740666 0.109448805
000050 cc 08 0b 3e 41 ab e1 bd de ee c8 bd 99 3c 6b bc
       0.13577574 -0.11018992 -0.09811185 -0.014357709
000060 38 9a b0 3c
       0.021557912

FirstConv.2.weight f4 [25]
000000 73 89 1f 3f 86 62 8d 3d ad ef 41 3e 35 38 2a 3f
       0.62319106 0.069035575 0.18939085 0.66492015
000010 2c c5 17 3f 4b 72 b6 3e 11 46 50 3f 95 d0 ae 3e
       0.59285235 0.35634074 0.8135691 0.3414351
000020 b3 63 0f 3f 94 8d 56 bc 79 e5 37 3e bd 15 ca 3e
       0.56011504 -0.013095278 0.1795863 0.3946971
000030 5f f4 2d 3e ed 97 90 3e 22 dd 14 3f 75 61 a4 3d
       0.16987751 0.2824091 0.5814992 0.08026401
000040 a6 e7 79 3f fc e6 24 3f f5 7a 3d 3f 94 d6 fc 3e
       0.9761909 0.64414954 0.7401574 0.4938246
000050 67 25 ea 3e 44 c5 18 3f 0e 81 0f 3f 98 fb e5 3d
       0.4573166 0.59676003 0.56056297 0.11229628
000060 09 4e 84 3f
       1.0336314

FirstConv.2.bias f4 [25]
000000 0f 9a e1 3c 24 dc b9 bd d1 81 98 3d 4e 20 71 bd
       0.027539281 -0.090751916 0.074466355 -0.0588687
000010 a5 da f9 bc 82 b8 86 39 6c 32 34 bd c8 60 f0 bc
       -0.030499766 0.0002569594 -0.0439934 -0.029343024
000020 ef 98 07 bd a4 79 5f 3d 40 81 df bc 4a 88 a5 bd
       -0.033104833 0.054559365 -0.02728331 -0.08082636
000030 74 03 7e bd 62 c9 8e bd 85 94 64 bd 0e 7c a0 bd
       -0.062015012 -0.069720045 -0.0558057 -0.078361616
000040 6a df 5c bd a4 a8 1d bd e1 23 a0 bd 5c 6c 31 bd
       -0.053924 -0.038490906 -0.07819343 -0.04331623
000050 89 22 b7 bc a5 39 2c bd b9 75 0b be cb e3 ea bc
       -0.022355335 -0.04204716 -0.13619126 -0.028673073
000060 e2 ca 3b 3c
       0.011461945

FirstConv.2.running_mean f4 [25]
000000 ce 60 ab 3e 35 89 92 3c 83 9d b8 bd 81 42 07 3e
       0.33472294 0.017887691 -0.09014418 0.13208963
000010 8b 0c 69 3c 19 4f 6c bc a5 75 07 be 60 ee 0d be
       0.014224182 -0.014423155 -0.13228472 -0.13860464
000020 a9 c2 06 3e e9 a0 84 3d 1e 5a 66 3e 75 41 21 3e
       0.13160194 0.06476004 0.22495314 0.15747626
000030 c3 ef e8 3d 84 cf 7a bd 57 4e 2d 3e 8c c3 04 3d
       0.11373856 -0.06123306 0.16924416 0.03241305
000040 9c 92 ab 3d 8f 37 48 be 32 1b 37 be 00 22 8a bc
       0.08377573 -0.19552444 -0.17881468 -0.016861916
000050 02 61 9d 3e 98 89 4c 3d a5 63 30 be 28 ec 3d be
       0.30738074 0.049935907 -0.17225511 -0.18547118
000060 49 4c fb bc
       -0.030676024

FirstConv.2.running_var f4 [25]
000000 8a d6 9e 41 f7 5e 76 42 8b d3 ad 41 5b 29 54 41
       19.854755 61.59274 21.728292 13.260097
000010 46 18 91 42 e5 15 21 42 97 6e 4a 42 bc de bd 41
       72.54741 40.27138 50.607998 23.733757
000020 72 e8 41 41 b2 45 c5 41 ed 7c 27 41 0f 31 64 41
       12.119249 24.65903 10.467999 14.261977
000030 d4 bb 73 42 6c f8 1d 42 0c f5 9a 41 35 5d 98 42
       60.933426 39.4926 19.369652 76.182045
000040 47 5e 82 42 01 63 7b 42 c3 46 39 42 a6 07 00 42
       65.184135 62.846684 46.319103 32.00747
000050 82 4a 1a 42 f2 36 df 41 86 9c a1 42 6a 4d 77 42
       38.57276 27.901829 80.80571 61.8256
000060 d4 e3 aa 41
       21.361244

SecondConv.0.weight f4 [50, 25, 1, 5]
000000 92 b7 ba bd 7d 30 25 bd da 7c b1 3d 90 f3 fd 39
       -0.091170445 -0.040329445 0.08666392 0.0004843739
000010 af 57 eb 3d bf 08 e2 3d 6a e0 ab 3d 49 99 f4 3d
       0.11491334 0.110368244 0.08392413 0.11943299
000020 29 21 97 3d 69 9c 1c 3c 6f 2f 8c bd 38 3b b7 bd
       0.07379372 0.009558775 -0.06844985 -0.08946842
000030 80 88 ea bd c1 e7 64 bc 1b 30 65 bc 44 ac d6 bd
       -0.114518166 -0.01397127 -0.01398852 -0.10482076
000040 ce 6b ba 3c ae b0 ab bc 47 79 02 bd a6 c5 01 3c
       0.022756483 -0.02095827 -0.03185394 0.007920658
000050 f0 ba aa 3c 7b bd d2 3d 48 ca df 3c 35 47 ee 3c
       0.020841092 0.10290047 0.027318135 0.029086689
000060 90 dd 76 bd 2a 6d f7 3c 0d e4 d2 3b 4e 1a 2d bd
       -0.060269892 0.03020342 0.006435877 -0.042261414
000070 1a 70 08 3d 44 7d 91 bd 43 3d 4c 3d cc 12 34 3d
       0.033310033 -0.07103971 0.04986311 0.04396324
000080 6f c9 dc bd 4c e6 28 3d db 92 29 bd 56 da ab 3d
       -0.10780608 0.041235253 -0.041399818 0.08391254
000090 9a 58 9b bd 8a ed 37 3d d9 f2 b0 bd 15 69 0b be
       -0.07585259 0.04490427 -0.086400695 -0.13614304
0000a0 85 4f 9e bd 44 a4 35 bb d7 df 6e 3d 89 1c 11 3d
       -0.07730011 -0.0027716318 0.05831894 0.035427604
0000b0 c2 2a 81 bd 70 d3 b1 3a ff bf f1 3b 2a 31 39 3d
       -0.063069835 0.0013567042 0.007377624 0.045212902
0000c0 1b 27 02 be 6b 20 1c 3d 93 a1 fd bd c0 09 29 bd
       -0.1271023 0.038116854 -0.123843335 -0.041269064
0000d0 6d ed 87 bd 21 a3 51 3e 8c 00 10 be 38 d1 d0 bc
       -0.06637082 0.20472385 -0.14062709 -0.025490388
0000e0 30 e2 97 3d 17 cf e1 3d 11 ba ac 3d 72 d6 8b bd
       0.07416189 0.110258274 0.08433927 -0.068280116
0000f0 52 a7 c2 bd 39 83 03 3e 10 62 15 bb 6a 9a 42 3d
       -0.0950457 0.12843026 -0.0022794046 0.047510542
000100 5d 9e 13 bd de a0 8b bd 61 d3 ea bc 1b 46 0b bd
       -0.0360397 -0.06817792 -0.028665246 -0.034002405
000110 94 f6 54 3d f4 97 65 bd d9 ba 8d 3d b4 a4 b5 bd
       0.051992968 -0.056053117 0.06920404 -0.08869305
000120 9f eb 18 3e 84 69 61 bb 90 3d 07 bd 78 57 00 3d
       0.14933632 -0.0034395168 -0.033017695 0.031333417
000130 d4 b8 49 3c 58 c4 b5 bd 66 0e a8 bd 4a 16 52 3d
       0.012312133 -0.0887534 -0.08205871 0.051290788
000140 e3 10 19 bd 90 7f 23 bc 14 17 3e bc 3a 41 58 3d
       -0.03736962 -0.009979144 -0.011602182 0.05279658
000150 30 11 f6 3b 3c 23 d1 3d a7 75 f0 3d 05 7b ff bc
       0.007509373 0.102117985 0.117411904 -0.03118659
000160 2e b3 19 3d 28 83 b8 3d b5 3b c9 3d 7b 4a e4 bd
       0.037524395 0.09009391 0.09825841 -0.111470185
000170 00 c9 bc 3c 0c c0 4f be 3b a7 bd 3d 20 a3 1d bd
       0.023045063 -0.20288104 0.09260412 -0.038485646
000180 da c6 86 bd 08 25 0e bc c0 11 81 3c b0 d4 83 bc
       -0.06580897 -0.008675821 0.015755534 -0.016092628
000190 fa 4c 26 be 17 31 ec bd e8 00 80 bd 6c 89 68 3c
       -0.16240302 -0.11532801 -0.06250173 0.01419292
0001a0 2c 29 73 bd f2 68 1e 3e 84 15 5a ba 0d 72 ed 3d
       -0.059365436 0.15469721 -0.0008319246 0.11594019
0001b0 d6 38 3e 3c 9e b0 a4 3d 90 2d b4 bc 7c 7c 43 3b
       0.01161023 0.080414996 -0.021994382 0.0029828837
0001c0 28 db 49 bd 38 8c cc 3d 48 6e 10 3c e0 9b 8c bc
       -0.04928127 0.09987682 0.008815356 -0.01716417
0001d0 5a d3 9b 3d 03 c0 08 3e a8 2b e8 3d 10 a7 52 bd
       0.076086715 0.13354497 0.11336452 -0.051428854
0001e0 21 cb da 3d 5e 12 24 3e 72 30 33 3e ee 64 38 3c
       0.10683275 0.16022632 0.17498949 0.011254532
0001f0 8f 2f 6e 3d 11 37 07 be 06 39 c9 bd 93 8c cd bd
       0.058150824 -0.132046 -0.098253295 -0.10036578
000200 bd c2 7a bc 96 d9 26 be 31 44 f7 3c 5a 79 a0 bc
       -0.015305218 -0.1629394 0.030183883 -0.019589115
000210 6e 3a 2e ba 37 45 b2 3d 9c 7d fb 3c ce 04 bc bd
       -0.000664628 0.08704608 0.030699544 -0.09180604
000220 4c 34 be bc 7f 3a c3 bd 76 5f 20 be 39 39 a8 3c
       -0.023218296 -0.095326416 -0.15661415 0.020535098
000230 43 5f fc bc 42 89 ee bd a2 bc 64 bb 85 d2 9b bc
       -0.030807143 -0.116472736 -0.0034902473 -0.019021282
000240 fc ff fa 3c 03 3d 3c bc dc bf a9 3d c0 27 9e bd
       0.030639641 -0.011489156 0.082885474 -0.077224255
000250 10 eb 58 bc 10 d3 b4 bd c9 07 39 3d 48 9e b8 3d
       -0.013239637 -0.088293195 0.04517344 0.09014565
000260 eb 75 32 3a ca ea f7 bb 96 9e 04 3d 95 1e e6 bc
       0.0006807732 -0.007565831 0.0323778 -0.028090755
000270 22 51 9b 3d db e6 ed 3c 0a b4 1f bb 54 66 50 bd
       0.07583834 0.029040745 -0.0024368786 -0.050878838
000280 2e 0e f9 bd bf 37 51 bd bf 9f c6 3d fd f6 9b bd
       -0.12160908 -0.051078554 0.09698438 -0.07615469
000290 65 61 2c 3d 54 7c d5 bd 72 ba ba bd 4d ad 5c bd
       0.04208507 -0.10424104 -0.09117593 -0.05387621
0002a0 b0 df 89 bd 36 4b 35 3d e1 92 01 be f9 e8 4d bc
       -0.06732118 0.04426118 -0.12653686 -0.012567752
0002b0 09 da 9a bc b3 9d c0 bc 9f 46 9d 3c b5 fd 16 be
       -0.018902795 -0.023512697 0.019198714 -0.14745219
0002c0 73 56 6a bd 03 40 15 bd 69 28 17 be e3 76 6f bd
       -0.05721135 -0.036438 -0.14761509 -0.05846299
0002d0 87 70 05 be be 60 cf bd bc 32 08 be ab c6 d3 bd
       -0.13031207 -0.10125874 -0.13300604 -0.10340627
0002e0 36 c1 4d bd 44 be de bd ea fe c4 3c cb 8a d6 bd
       -0.05023309 -0.10876134 0.024047334 -0.104756914
0002f0 d7 e0 3e be f5 4f c0 bd 10 1f 1a be e6 18 80 bd
       -0.18640457 -0.093902506 -0.15050912 -0.06254749
000300 b8 65 32 be 44 fc f6 3c de 7a 93 bd 6f 09 85 3d
       -0.17421615 0.030149586 -0.072011694 0.0649594
000310 d7 d7 80 bc 40 8a 84 3c 78 46 b6 bc 82 39 31 3d
       -0.01572792 0.016179204 -0.022250399 0.043267734
000320 87 87 d2 bd 58 d7 ef bd 10 cd a1 bc 14 a9 84 bd
       -0.10279756 -0.117109954 -0.019751102 -0.064775616
000330 f2 e0 6f be d8 b8 a5 3c 80 99 72 bd 1e fc e9 bc
       -0.23425654 0.020229742 -0.05922842 -0.028562602
000340 69 df b8 3c 71 c5 56 3d 71 a0 0c bc f3 f7 30 3d
       0.022567468 0.05243439 -0.008583174 0.043205213
000350 e9 09 34 bc cc a0 b4 3d 07 fc 7a bd 53 3d 80 bd
       -0.010988691 0.08819732 -0.06127551 -0.06261697
000360 a7 07 b4 bd 2d ad 19 bd 9b c8 06 be b2 c9 06 bd
       -0.08790522 -0.03751867 -0.13162462 -0.032907195
000370 45 a6 39 3c 50 7d 7b 3d f8 10 15 3e 8a eb f5 3d
       0.011331146 0.061398804 0.14557254 0.12007816
000380 72 8d 9d 3d 28 af 16 3e 9a 91 0e 3d 64 aa 20 3e
       0.07692994 0.14715254 0.034806825 0.15689999
000390 1c 41 07 be 01 b1 c5 3d 46 26 cb 3d 6c fa 9c 3d
       -0.13208431 0.096529014 0.099194095 0.07664952
0003a0 f5 16 90 3d 27 78 ef 3d 44 7d f7 3d 27 79 af bd
       0.07035629 0.11692839 0.120844394 -0.0856803
0003b0 04 8d b7 bd 13 a3 01 bc 8a c5 33 bd 77 aa 00 bc
       -0.089624435 -0.007912415 -0.04388956 -0.007853142
0003c0 37 a6 bc 3d 94 86 69 3d a1 89 87 bb 86 7e 41 bd
       0.092113905 0.05701311 -0.0041362797 -0.047239803
0003d0 f7 a3 da 3d 69 fc ba 3d 9d 8e 80 3d 87 f3 e2 bc
       0.10675805 0.09130175 0.06277201 -0.027704014
0003e0 b1 d5 1f 3e 2f 8c b6 3d 44 07 44 3e 96 a6 18 3d
       0.1560886 0.08913457 0.19143397 0.037268244
0003f0 4a 2f 4d 3d 8d 63 1a bb ab 7e 7f 3d 50 4e 4a bd
       0.050093926 -0.0023557872 0.06237666 -0.04939109

SecondConv.0.bias f4 [50]
000000 4c d2 a3 3d a6 7b d2 bc 94 1d a5 3d 7f 58 9c bd
       0.07999095 -0.025693726 0.08062282 -0.07634067
000010 15 35 7c 3c 92 a9 ff bc 18 61 8e 3d fd 3a 91 bd
       0.015393515 -0.031208787 0.06952113 -0.07091329
000020 7f 10 78 3d 9b f0 75 bd e1 50 bb 3d a5 fc 26 bd
       0.060562607 -0.060043912 0.09146286 -0.040768284
000030 a5 e7 a6 bd ee ef 13 bd 98 23 a7 3d a0 7e 25 3d
       -0.081496514 -0.036117487 0.08161086 0.040403962
000040 0a d1 a4 3d dd b5 91 bd 92 9e 65 3d 27 bc 5a 3d
       0.080476835 -0.07114766 0.056059428 0.053402092
000050 34 98 82 3d 91 e7 86 3d d0 49 32 3d 51 ac 16 bd
       0.06376687 0.065871365 0.043527424 -0.036785427
000060 85 3d 5d bc 54 9b e5 bc cc d0 a4 3d e6 f5 cf bc
       -0.013503437 -0.028028168 0.08047637 -0.025385808
000070 6c 5c 19 bd 7f 12 a7 3d d3 ad 92 bd 37 86 80 bd
       -0.037441656 0.08157825 -0.071620606 -0.062755994
000080 b7 3b 5b bd 0e 79 af bd 01 e4 1d bd 0c f9 0c 3c
       -0.053523745 -0.08568011 -0.03854752 0.008604299
000090 0c a6 9f 3c 11 46 ca bd e2 bd bf 3d 87 11 3a 3d
       0.019488357 -0.09876645 0.09362389 0.04542687
0000a0 4f c4 42 bd 86 51 a9 3d ab 19 55 3d 8d 59 7e 3d
       -0.047550496 0.082675025 0.052026432 0.06209712
0000b0 91 27 6a bd d1 d0 c6 bd 34 19 27 3d e3 21 03 bd
       -0.05716664 -0.09707797 0.04079552 -0.03201474
0000c0 6c 75 8c 3c 03 7b 89 3d
       0.017145835 0.06712916

SecondConv.1.weight f4 [50]
000000 39 87 0f 3f 22 61 41 3f ae 35 5c 3f 7e 28 af 3e
       0.5606571 0.7553884 0.8601941 0.3421058
000010 f2 22 6f 3f fc ea 62 3f ca 9f 0c 3f 6f b1 04 3f
       0.934127 0.8863981 0.5493132 0.5183324
000020 2f 72 83 3e 58 18 6f 3f 78 31 ba 3e 2b 9e 30 3f
       0.25673053 0.9339652 0.36365867 0.68991345
000030 e0 1f 43 3f 38 81 0f 3f e7 d4 76 3f 24 ff ff 3e
       0.7622051 0.5605655 0.96418613 0.49999344
000040 fe 43 14 3d 5e b8 88 3e 51 5f 30 3f e0 63 eb 3e
       0.036197655 0.2670316 0.6889544 0.45974636
000050 b0 b8 d0 3e 5c 0e 28 3f de 0f ea 3e d7 8d 08 3f
       0.40765905 0.6564691 0.4571523 0.5334143
000060 8a a3 36 3f a9 46 a2 3e d4 c9 50 3f 3d 58 16 3f
       0.7134329 0.31694534 0.81557965 0.5872839
000070 81 e8 17 3f bc 94 5d 3f e4 cf 59 3d 26 fe 09 3e
       0.5933915 0.86555076 0.053176776 0.13475856
000080 45 15 6a 3f b9 c3 e4 3e 20 24 b7 3e ae 65 94 3e
       0.91438705 0.44680575 0.3576975 0.28983825
000090 c6 d3 0e 3e b3 14 31 3f 5f 23 47 3f 39 61 2a 3f
       0.13947973 0.6917221 0.77788347 0.665546
0000a0 65 ee 3a 3f 7f 1f 59 3f 7f b9 c0 3e b8 a7 d5 3e
       0.7302001 0.84813684 0.37641522 0.41729522
0000b0 78 b1 f7 3e 63 56 37 3f e4 50 f9 3e ca fe f7 3d
       0.48377585 0.7161619 0.48694527 0.12109144
0000c0 fb e9 39 3c 26 1a f6 3d
       0.011347289 0.12016706

SecondConv.1.bias f4 [50]
000000 00 4e 89 bd e4 07 f4 3a 9b 87 2f bd f9 d2 50 bd
       -0.067043304 0.0018618074 -0.042853933 -0.05098245
000010 f9 4f 05 bd d0 8e cc bd 79 a0 82 bd fd c6 46 bb
       -0.03254697 -0.09988177 -0.06378264 -0.0030331009
000020 39 78 49 3d c2 20 9f bd c0 8d 48 bd 09 93 36 bd
       0.04918692 -0.0776992 -0.04896331 -0.044573817
000030 10 7b 02 bd 80 d8 58 bd 96 e4 ca bc d3 eb c0 bd
       -0.031855643 -0.052940845 -0.024767201 -0.0941998
000040 6a fc 9d bd 6c 69 e5 bc 7c 76 84 bd 21 73 1b bd
       -0.0771416 -0.02800437 -0.064679116 -0.037951592
000050 9e d9 c6 bc ae c1 b4 bd 2a 5e e2 bd 44 c2 a2 bd
       -0.02427369 -0.08826004 -0.110531166 -0.079472095
000060 4a 73 ba bd ce 0c c9 bd fa a2 d5 bb 0e be 69 bd
       -0.09104021 -0.098168954 -0.0065196725 -0.057066016
000070 ea 27 b9 bd 10 57 c3 bc 08 0a b7 3c f8 69 5f 3d
       -0.09040816 -0.023845226 0.02234365 0.05454442
000080 e6 c6 fe bc b8 e7 85 bc 47 f5 88 bd c5 be 27 bd
       -0.031100702 -0.016345844 -0.06687408 -0.040953416
000090 61 b6 12 3d 11 07 ce bd bb ec 4a bd ba 77 97 bb
       0.03581846 -0.100599416 -0.04954217 -0.004622427
0000a0 45 97 bb bc 7a 77 1a bd 1a b6 33 bd 69 4f 00 be
       -0.02289928 -0.037711598 -0.043874837 -0.12530293
0000b0 05 1c 32 bd 34 c7 be bc dc c1 64 bd a6 c8 92 bd
       -0.043483753 -0.023288347 -0.05584894 -0.07167177
0000c0 9e 36 4c bd ac f2 0f 3b
       -0.049856775 0.0021964712

SecondConv.1.running_mean f4 [50]
000000 f2 d7 bd 3d 56 9f 83 bc 79 39 62 3e 30 54 3a be
       0.09269704 -0.016067188 0.22092237 -0.18196177
000010 a2 68 7c 3e ea 46 08 3e e5 cf 40 3e 63 60 12 3e
       0.24649289 0.13308302 0.18829305 0.14294581
000020 e1 65 37 3e 04 a9 c6 3d bc cf 28 3e 27 15 9f bd
       0.17909957 0.09700206 0.16485494 -0.07767706
000030 e9 92 78 be b7 a6 af 3d 5c f5 da 3e b7 33 55 3e
       -0.24274792 0.0857672 0.4276532 0.20820509
000040 a1 14 4f 3b 3d 12 4f bd 2d 63 35 3e 77 81 41 3e
       0.003159799 -0.050554503 0.17713614 0.18897043
000050 af 76 28 3e 03 19 b6 3e e2 eb d2 3c fe 96 48 bd
       0.16451524 0.35565957 0.025747243 -0.048972122
000060 71 76 f1 3d 00 98 d9 3d 36 1b 6c 3e a0 83 41 be
       0.11790169 0.10624695 0.23057255 -0.18897867
000070 5a fa f1 3d 8e e0 06 bc 5f 11 8e 3d 8d 79 8d 3d
       0.11815329 -0.008232249 0.06936907 0.069079496
000080 e7 fa fd bd 10 ac 06 bd 16 d1 4c bc c0 f6 be 3d
       -0.124013714 -0.032878935 -0.012501022 0.093244076
000090 38 48 1d 3d 0b 92 a2 3d 0d 35 9d 3e ce 61 3b 3e
       0.03839895 0.07938012 0.30704537 0.18299028
0000a0 be ed c4 3c e7 fc 3f 3e 91 83 87 bc 41 33 29 3d
       0.024039146 0.18748818 -0.016542228 0.041308645
0000b0 d6 21 9d 3d c0 e0 9d bb e1 61 e4 3d 62 a0 86 bd
       0.07672469 -0.004818052 0.111514814 -0.06573559
0000c0 db 9b b2 3d 01 dc 6f 3e
       0.08721133 0.23423769

SecondConv.1.running_var f4 [50]
000000 c0 83 2c 3f 08 77 a0 3f 32 21 13 40 6e 4a 84 3e
       0.67388535 1.2536325 2.298901 0.25838035
000010 2a e7 b0 3f c3 11 06 40 3d a4 4e 3f 22 06 f8 3f
       1.3820546 2.094834 0.8071936 1.9376872
000020 fd eb e9 3f 95 25 6a 3f c0 4e a0 3e 1e e7 d1 3f
       1.8275143 0.91463596 0.3131008 1.6398656
000030 74 96 cb 3f 16 69 90 3f 64 10 ad 3f 34 05 ae 3f
       1.590529 1.128207 1.3520627 1.3595338
000040 d5 66 04 3f 63 93 69 3f 19 84 ac 3f 86 9b d8 3f
       0.5171941 0.9124052 1.3477813 1.6922462
000050 a0 47 65 3f 78 83 b7 3f 76 55 d1 3f ee f1 83 3f
       0.89562416 1.4336996 1.6354206 1.0308206
000060 a4 e9 69 3f 8c 82 8a 3f 2d 44 90 3f 78 97 15 40
       0.9137213 1.082109 1.1270806 2.33737
000070 24 c2 f4 3f 34 23 40 3f 74 21 a3 3f 5a aa 1a 40
       1.9121747 0.75053716 1.2744584 2.4166474
000080 bc af e2 3f 15 28 8b 3f 9c 36 6d 3f 30 05 a4 3f
       1.770988 1.0871607 0.9266145 1.2814083
000090 42 80 7c 3f 41 5b d5 3f 22 ea 10 40 1e 88 9f 3f
       0.98633206 1.6668473 2.2642903 1.2463415
0000a0 0f 18 d7 3f 5a db 68 3f 93 18 61 3f 0b 68 7d 3f
       1.6804217 0.90959704 0.8792812 0.9898688
0000b0 c7 99 ab 3f fb ac 62 3f ec 00 01 3f 57 8e 47 3f
       1.3406304 0.885452 0.5039203 0.7795157
0000c0 a8 a5 91 3f bc 41 90 3f
       1.1378679 1.127006

ThirdConv.0.weight f4 [100, 50, 1, 5]
000000 5b 17 7d 3d ce 82 23 3e d4 41 f5 3d 16 b6 55 3d
       0.06178985 0.15967867 0.11975446 0.052175604
000010 cc c8 04 3e dc ca f7 bc 57 44 e8 3d b6 3d 86 3d
       0.12967223 -0.030248098 0.1134116 0.06554739
000020 65 0e 26 3c 3a 46 e7 3d 5e c7 61 3d 61 97 80 3d
       0.010135268 0.112926915 0.055121772 0.06278873
000030 ab ec ea bb c3 dc 01 3d 0c a5 11 3d 3d f4 14 3c
       -0.0071693263 0.031704675 0.03555779 0.009091434
000040 b0 50 61 3d 6d 42 29 bc 73 ad 48 bd 9b 39 d7 3d
       0.05500859 -0.010330779 -0.04899354 0.10509034
000050 e7 c1 17 3c 5f 24 aa 3d 17 22 58 3d 04 c0 3a bc
       0.0092625385 0.083077185 0.052766886 -0.011398319
000060 89 fd 90 3d ca 73 1d 3d 62 d1 e9 3c 7d 27 c9 3d
       0.07079608 0.038440503 0.028542224 0.09821985
000070 2f ca d7 3c 34 91 52 3d a9 f3 a6 3c 64 0d 07 3e
       0.026341526 0.051408008 0.020379858 0.13188702
000080 d7 23 97 3d 8d 0d 2b 3e 95 51 ac 3d 4e fe e1 3d
       0.07379883 0.16704388 0.08413998 0.11034833
000090 fe db 33 3c a9 56 32 3d e6 01 f4 3c c2 a6 41 3d
       0.010977743 0.043539677 0.029786061 0.047278173
0000a0 6a bb 4a bd 2f 02 bb 3d 70 d4 69 ba 6d ec d4 3d
       -0.04949514 0.09131276 -0.00089199 0.10396657
0000b0 5b 21 0a bd f2 ee d3 3d 52 d9 ba 3d 13 11 47 3d
       -0.033723217 0.103483096 0.09123482 0.048600268
0000c0 2f 51 d1 3c db 6c 3e 3d 50 56 ba 3d b3 d2 b5 3b
       0.025551407 0.04649053 0.09098494 0.005548799
0000d0 3a 1f c5 3c 9c e2 2b 3c 56 9d 13 3c 97 9e 92 3d
       0.024062742 0.01049104 0.00900968 0.07159155
0000e0 77 df a2 3c 55 32 54 3d 05 4d 9a 3d 68 b7 c7 b9
       0.019881947 0.051805813 0.075342216 -0.00038092886
0000f0 b1 50 44 bd 5a 47 7d 3d 8d e8 a7 3c 81 60 10 bb
       -0.047928516 0.061835624 0.020496631 -0.0022030177
000100 6c e5 e0 3d 8d ec 35 bd ce 6b 97 3c 3c 15 c9 3d
       0.10981259 -0.044415046 0.018484022 0.09818503
000110 a8 3d 35 3d 2e 92 aa 3d 5a cf 4b 3d a7 82 c4 3d
       0.044248253 0.08328663 0.049758293 0.095952325
000120 eb 66 5d 3d a6 1d 4d bd 28 ab 2d 3d 65 bc 53 3d
       0.05405323 -0.050077103 0.042399555 0.05169334
000130 25 b8 a9 3d 32 88 8c 3d 85 36 79 3d 6d 3d 9e 3b
       0.08287076 0.06861915 0.06084301 0.0048291
000140 f1 8d 4d 3c b5 54 44 3d 09 a7 99 3d 23 a0 48 3d
       0.0125460485 0.047932345 0.075025626 0.048980843
000150 a2 a4 49 3d 2c 5f 27 bd 4f f4 c1 bd 10 27 60 3d
       0.04922927 -0.040862247 -0.09470426 0.054724753
000160 d9 a5 ad bd 07 ea 8a 3c 2d e7 c4 3d 76 a8 b5 3d
       -0.084788986 0.016957296 0.09614406 0.08870022
000170 07 25 bc 3d 6a da 5d 3c fc d1 bf 3d b8 d2 27 3d
       0.0918675 0.0135408435 0.09366223 0.04097244
000180 f0 3e 54 3d 8d 8c 56 3c b2 49 e4 3d e6 d9 b9 3c
       0.051817834 0.013095033 0.11146869 0.02268691
000190 7f fc 4f bc 9d 49 09 3d b9 3e f0 3b 67 60 c4 3d
       -0.012694477 0.03351747 0.007331696 0.095887
0001a0 1c b2 a4 bb 6f 2c 07 3d 22 d2 c7 3c 0d de 32 3d
       -0.005026115 0.03300136 0.024392191 0.043668795
0001b0 32 82 50 3c 45 e4 8b bc cd 83 bd 3d c9 ac 5f 3d
       0.0127263535 -0.01707662 0.09253655 0.05460814
0001c0 99 5a 70 3d 52 d2 d0 3c 2a a0 57 3d 1e b5 bc 3d
       0.05868015 0.025490914 0.05264298 0.09214233
0001d0 96 63 11 3d 29 0b 61 3d e8 e0 86 3d 2c 16 0b 3d
       0.035495363 0.054942284 0.06585866 0.03395669
0001e0 42 25 04 3d 25 19 dd 3d a0 24 18 3e d4 de 69 3d
       0.032262094 0.107958116 0.14857721 0.05709727
0001f0 21 f0 d5 3c 54 cb ca 3c 2b 4e 4f 3d 8d e1 a7 3d
       0.026115479 0.024755158 0.050611656 0.08197317
000200 25 77 b1 3d 04 40 cb bb 61 a0 37 3b 3a 9b 5e 3d
       0.08665303 -0.0062026996 0.0028019177 0.054347254
000210 96 44 89 3d ac 35 82 3d 8a 36 a3 bc fd 1e 4e 3d
       0.06702535 0.06357893 -0.019923467 0.05032252
000220 ed 08 ab 3d 93 e9 8a 3c 0d 6b ef 3d 12 43 e1 3d
       0.08351312 0.01695708 0.1169034 0.10999121
000230 e1 58 25 3a 4f dd da 3d 82 5e 8d 3d f7 41 ee 3c
       0.00063074945 0.106867425 0.069027916 0.029084189
000240 d7 c4 53 bd 27 7c 7d bd 8b 46 08 bc 9f ab 8e 3d
       -0.051701393 -0.06188598 -0.0083176 0.06966328
000250 c6 4b b4 bb ef c6 80 bc 4f e2 4c 3c 11 4e d4 3c
       -0.005502197 -0.015719859 0.012505128 0.025916131
000260 27 db c1 bc 05 5f e5 3d 24 c7 c0 3d a5 80 be 3d
       -0.02366407 0.11199764 0.09412983 0.09301881
000270 2f 09 eb bc 4f 4a d0 3c 3c 53 a0 3c 5e e1 5a bc
       -0.028690903 0.025426058 0.01957094 -0.013359396
000280 99 c5 05 3d 46 a4 a9 3d 9a 5b d2 3c 54 4c c7 3d
       0.032659147 0.08283286 0.025678445 0.09731355
000290 b1 eb b2 3d 2f 44 7e bb d7 90 5f bd e2 4d 82 3d
       0.08736361 -0.0038797965 -0.05458149 0.06362511
0002a0 4f 49 0d bd 48 09 3d bc 80 77 a1 3d 48 ec af 3d
       -0.03449374 -0.011537857 0.07884121 0.08589989
0002b0 0e 0d ae 3d 72 85 11 3c 75 ae 12 3e db 2c 1e 3c
       0.08498584 0.0088819135 0.14324363 0.009654249
0002c0 1b 15 86 3c f2 39 10 3e 06 d6 05 3e 73 99 9d bc
       0.016367486 0.14084604 0.13069925 -0.01923821
0002d0 6d e9 92 bd 30 89 87 3d 34 f8 46 bb c6 a0 f4 bb
       -0.07173429 0.06617963 -0.0030360343 -0.0074654547
0002e0 93 03 91 bc ef f4 15 3c cd ce a6 3d 12 36 02 3d
       -0.0177019 0.009152635 0.08144913 0.031789847
0002f0 56 97 f9 3b 54 71 ed bc 10 08 5f bd de c0 ee bc
       0.0076169176 -0.028984703 -0.05445105 -0.0291447
000300 2a 8d 47 3d a3 df 30 3d 01 a4 ec bc d7 91 1b 3d
       0.04871861 0.043182027 -0.028886797 0.03798088
000310 ea 3b 07 3e 44 5e f3 3a 06 fd 02 3d ab 3e 04 3e
       0.13206449 0.0018567522 0.031979583 0.12914531
000320 13 ac 51 3c 3f b4 b8 3d dd 1b 4b bd e6 e4 62 bd
       0.012797373 0.09018754 -0.04958712 -0.055394076
000330 02 85 19 3c 9d 81 e9 3d cc ef 50 3d 21 53 e8 3d
       0.00937009 0.11401675 0.051009938 0.113439806
000340 e3 ea f0 3d 53 ba 0d 3e aa 55 c5 bd 88 12 33 bc
       0.11763551 0.13840608 -0.0963548 -0.010929711
000350 97 4c c2 bc 8d aa db bb df 3c 28 3c 82 ef ee bc
       -0.023718162 -0.006703681 0.010268419 -0.02916694
000360 d3 03 40 bb 8c 21 90 bd d7 da 23 bd 7d b8 1a bd
       -0.0029299154 -0.070376486 -0.040003624 -0.037773598
000370 85 57 33 3d 8f 4a 15 bd f7 dd a7 bb 29 83 79 bb
       0.043784637 -0.036448058 -0.005122896 -0.0038072562
000380 c1 65 1b bc db f8 f5 3d 44 0e e4 3d 3a ec 02 3e
       -0.009484709 0.12010356 0.111355335 0.12785426
000390 59 97 1d 3e 2f a8 05 3e 9a 57 f7 3c 10 8c c0 bd
       0.15389766 0.13052438 0.030193139 -0.09401715
0003a0 e0 46 a4 bd 28 2e d2 bd e3 9f 23 3e 09 18 a7 3d
       -0.08021331 -0.1026271 0.1597896 0.08158881
0003b0 d5 7f b8 bd 84 8a 07 3d e6 43 d8 3d e0 f1 8a 3d
       -0.09008757 0.033091083 0.105598256 0.06784415
0003c0 48 82 03 3b 9c 3d 9c bc e7 9e 29 bd 3c b0 9f bd
       0.0020066667 -0.019072346 -0.041411307 -0.07797286
0003d0 50 21 f4 bc 0a d3 50 3b b5 67 8a bc b8 aa a1 3d
       -0.02980104 0.003186407 -0.016895154 0.0789389
0003e0 29 dc 6f 3d 50 cc 52 bd bc 0b 2a bd 9f d6 9b bd
       0.05855957 -0.05146438 -0.041515097 -0.07609295
0003f0 fc be 6c bd e8 ad f2 bc b8 15 86 3c 44 20 bf ba
       -0.057799324 -0.02962394 0.016367778 -0.001458176

ThirdConv.0.bias f4 [100]
000000 72 66 53 3d 23 da 1e 3c 6d f0 9f bb f7 bb 0e bd
       0.05161137 0.0096955625 -0.004880956 -0.034847226
000010 15 25 4d 3c 9d 81 53 bd b7 fa be 3c 7a ae 34 3d
       0.012521048 -0.05163728 0.02331291 0.044111706
000020 4b 69 0e bc dc 69 a0 3c 98 bd da bc 1a df 39 3d
       -0.008692096 0.019581728 -0.026701733 0.04537878
000030 8b 39 66 bd 10 3e c3 ba ae 30 3e 3d 3e 6f a6 3c
       -0.05620722 -0.0014895815 0.046433143 0.020316716
000040 52 c8 99 bc 2f dd 5b bd 10 6b ef bc b7 3f 7e bc
       -0.018772278 -0.053677734 -0.029225856 -0.0155181205
000050 23 fd 3a bc 66 a9 17 3d 2e c1 2d bd cf ff fe 3b
       -0.011412892 0.037026785 -0.04242056 0.0077819596
000060 b3 4c 5d 3d 69 e7 5e bc 24 aa c2 bc 61 dc 6a bc
       0.054028224 -0.013604977 -0.02376277 -0.014334769
000070 65 40 ed 3c 0c 5b 14 bd 69 b6 ad bc 22 26 d6 bc
       0.02896137 -0.03621964 -0.021205144 -0.02614123
000080 02 66 67 3d 06 7c df bc 48 47 67 bd 58 c8 3c bd
       0.056493767 -0.027280819 -0.056464463 -0.0460895
000090 ac b9 09 bc 7c ab cd bb af 65 2e bc f4 d3 da 3c
       -0.008406084 -0.006276546 -0.01064436 0.026712395
0000a0 91 ec 4f bd b5 49 49 3c 1c 9a 1c bd a1 6f 86 bc
       -0.050762717 0.0122856395 -0.038232908 -0.01641065
0000b0 db 69 1c bb dd f7 8e 3b 3e 0f 4f 3d f6 a5 ef bc
       -0.0023866806 0.0043630437 0.050551645 -0.029253941
0000c0 c2 ec 32 bd c6 71 87 bc aa fd f7 3c cc 77 94 3c
       -0.04368282 -0.016533744 0.030272324 0.01812353
0000d0 46 c4 32 bd 42 9d 00 bd 2c 97 13 bd ab 22 14 bd
       -0.043644212 -0.031399973 -0.03603284 -0.036165874
0000e0 58 33 17 bd 44 bb c4 3c 94 06 23 3d d4 30 63 bc
       -0.0369142 0.024015076 0.039801195 -0.013866622
0000f0 54 fd d4 3c 9e 8b 94 bc cf 33 20 3d 40 b5 03 bd
       0.025999703 -0.01813298 0.03911191 -0.032155275
000100 27 86 d2 bc ad 63 00 3d 78 f0 6f bd b4 1d d6 bc
       -0.025698734 0.03134506 -0.05857894 -0.02613721
000110 ab ef 30 3d ad 97 b2 bc 47 83 2d bd a1 ac d0 bc
       0.043197315 -0.02180084 -0.042361524 -0.02547294
000120 c2 5e 99 3d 60 2b 8d bc 7b 84 03 3d b0 23 38 bd
       0.07488777 -0.017232597 0.032108765 -0.04495591
000130 cb 44 b2 3c 10 50 21 3d 1a 70 66 bd f8 52 26 bc
       0.021761319 0.039382994 -0.056259252 -0.010151617
000140 0c 6d 39 bd fd 83 3c 3d 6d 6a f6 bc 6d 34 5a bc
       -0.04527001 0.04602431 -0.030080045 -0.013318163
000150 a2 c7 b8 3c f0 7b 5b 3c c7 bd 05 3d 88 cc aa 3b
       0.02255613 0.013396248 0.03265169 0.0052123703
000160 4e f8 53 bd 83 34 dc 3c 2d 99 24 3c 3f bd 7b bd
       -0.051750474 0.026880508 0.010046286 -0.061459776
000170 3a 4f de bb dd cd 0d 3d 49 49 83 3c 26 5c f7 3c
       -0.006784347 0.034620155 0.016026156 0.030195307
000180 1e d2 7b 3c 24 f2 9b bb d9 e3 ef 3c c4 55 59 bc
       0.01536992 -0.00475909 0.02928345 -0.013265077

ThirdConv.1.weight f4 [100]
000000 3b ce 3e 3f 29 71 16 3f 21 28 68 3f fe ea c9 3e
       0.7453343 0.5876642 0.9068623 0.39437097
000010 16 92 1c 3f 1c e4 3a 3f 84 6d 84 3f 37 bd 1d 3d
       0.6116041 0.7300432 1.0345922 0.038510527
000020 27 ac 4d 3f 45 0a 0c 3f 2a 97 fb 3d 0e 14 11 3f
       0.8034081 0.5470317 0.12284692 0.56671226
000030 9d 7e 10 3f f4 5c 6f 3f 9e e0 5b 3f ba ae a9 3e
       0.56443197 0.9350121 0.85889614 0.33141118
000040 08 e6 ba 3d f8 e8 c2 3e 07 51 6d 3f 92 a8 46 3f
       0.09125906 0.38068366 0.9270176 0.7760097
000050 5d bc 11 3f c7 09 c8 3e b5 47 21 3f 1d 20 2e 3f
       0.56928045 0.3906996 0.6300004 0.6801775
000060 7d 5b 78 3f a5 97 9b 3e 98 f7 a0 3e 34 1f 48 3f
       0.970146 0.30389133 0.314389 0.7817261
000070 7e f1 e9 3c 6a 9b ce 3e da db 57 3f 24 21 fc 3d
       0.028557535 0.40352947 0.8431984 0.123110086
000080 16 7f fe 3d 26 a2 83 3f b4 13 56 3f f3 28 26 3f
       0.124265835 1.0283859 0.83623815 0.64906234
000090 ac 10 1f 3e b9 64 dd 3b ed e4 40 3f bc 8f 4a 3f
       0.15533704 0.006756392 0.75349313 0.7912557
0000a0 1d 42 47 3e 16 13 53 3f c5 5d 0d 3e e6 21 55 3f
       0.19458814 0.82451 0.13805301 0.8325485
0000b0 04 8a e6 3e 0a c2 22 3f 3f 4c 25 3f 3a 71 3f 3f
       0.45027173 0.6357733 0.6456947 0.74782145
0000c0 b4 f4 08 3f 00 06 33 3f f8 c1 19 3f 28 cc 32 3e
       0.5349839 0.6993103 0.600616 0.17460692
0000d0 33 cb b9 3e 46 e1 06 3f c0 0d 55 3e 85 01 6c bb
       0.3628784 0.5268749 0.20806026 -0.0036011648
0000e0 41 d5 62 3f 05 f9 c1 3e 82 65 96 3e be c2 b6 3e
       0.8860665 0.378853 0.2937432 0.35695451
0000f0 6b 28 7a 3f 1c c7 ee 3e ae 5b dc 3e 22 4a 4c 3f
       0.9771792 0.46636283 0.43038696 0.7980062
000100 a6 66 16 3f fb b1 81 3e 4a 84 31 3f 14 9a 79 3f
       0.5875038 0.253311 0.6934248 0.9750073
000110 ce 9d 6d 3e e6 42 71 3e a3 44 37 3e 20 fb 0c 3f
       0.23204729 0.23560676 0.17897277 0.55070686
000120 1f 87 02 3f 52 73 2c 3f e3 c5 18 3f 74 9c dd 3d
       0.5098743 0.67363465 0.5967695 0.10820857
000130 1f 52 63 3c 63 d3 52 3e d9 42 5a 3f 87 a3 b7 3e
       0.01387456 0.2058845 0.8525825 0.3586695
000140 1d 87 ac 3e dd b2 04 3f 8f b9 01 3f 25 ad 57 3e
       0.33696833 0.51835424 0.50673765 0.21062143
000150 06 98 03 3f 55 b3 ed 3e ea a0 82 3e 45 3c 34 3f
       0.51403844 0.46425882 0.25513393 0.70404464
000160 5e 49 1d 3f 20 5a 45 3f e3 9b 0a 3e 2e 60 5c 3e
       0.61440074 0.77090645 0.13536029 0.21521065
000170 83 89 03 3f 6e f7 7b 3f af f1 14 3f 52 a5 f8 3e
       0.513817 0.9842442 0.5818128 0.4856363
000180 31 6c 07 3d dc 1a 10 3e 10 42 8f 3e 61 92 e5 3d
       0.033062164 0.14072746 0.2798009 0.1120956

ThirdConv.1.bias f4 [100]
000000 74 3c a6 bd 22 df 5b 3d 23 23 84 bd 7a 98 3f bd
       -0.08116999 0.053679593 -0.06452014 -0.046776272
000010 29 a3 2a bd 5c fa f4 bd a7 47 01 be 20 7a 65 bd
       -0.041659508 -0.11961815 -0.1262499 -0.05602467
000020 9e 5c 63 bd ca 2a f1 bb 2f d8 06 be c7 47 b3 bd
       -0.05550825 -0.007359837 -0.13168405 -0.08753925
000030 25 e3 84 bd 53 0d 20 3b 76 86 41 bd 39 ef ba bc
       -0.06488637 0.0024422004 -0.047247373 -0.022819148
000040 f4 64 32 bd 2b 77 1a bd 17 87 a3 bd c7 d5 7c bd
       -0.043553308 -0.037711304 -0.07984751 -0.06172731
000050 9d 1d f8 bc 5f 8e a9 bd d0 bc 09 3d fa 0a 95 bd
       -0.030287558 -0.08279108 0.03362733 -0.07277484
000060 a8 0c 2e bd 29 df 92 bd a5 6a 36 bc 7a b6 0b bb
       -0.04249254 -0.07171471 -0.0111338245 -0.0021318481
000070 31 3b a8 3b f8 8d 23 bd 14 f4 c9 bd 73 d8 9e bd
       0.0051340093 -0.039930314 -0.09861007 -0.07756128
000080 6a 78 de bd 2d 6d bd bd de 8e 5b bd 4b 3c 4e bd
       -0.10862811 -0.09249339 -0.053603046 -0.05035047
000090 e6 c0 b7 3d 6f 9c 33 bd 81 3c 0b bd e1 4d 3b bd
       0.08972339 -0.04385036 -0.033993248 -0.045728568
0000a0 d4 c9 ec bc cd de 69 bd 7d d2 90 bd cd 0d 5f bd
       -0.028904833 -0.057097245 -0.070713975 -0.05445652
0000b0 90 52 8c bd f7 58 9f bd 58 97 cb bd ef c5 02 bd
       -0.06851685 -0.077806406 -0.09940976 -0.031927045
0000c0 01 3c b8 bc 46 6b 9b bd 1b 77 39 bd 2f 04 17 bd
       -0.02248955 -0.0758882 -0.045279603 -0.036869224
0000d0 d5 b5 c5 bd 50 53 81 bd e5 3c 9e bd 7a 3e 72 bd
       -0.09653822 -0.06314719 -0.077264585 -0.059141614
0000e0 71 38 7d bd 8b 9a ae bd 23 bd 9e bb 9c c7 50 3d
       -0.061821405 -0.085255705 -0.004844324 0.050971612
0000f0 d7 0f 8e bd 61 ef 9b bd 85 f6 85 bd a3 8c 35 bd
       -0.06936615 -0.07614017 -0.065411605 -0.044323575
000100 43 cb c1 bc 03 f1 bb bc 6e 38 5a bd cd 23 52 bd
       -0.023656493 -0.022942072 -0.05327647 -0.051303674
000110 51 8b f3 3c 75 50 05 be 5b a5 70 bc 48 63 86 bd
       0.029729517 -0.13018973 -0.014687861 -0.06561905
000120 c2 72 bd bd b8 12 86 bd df 58 8a bd 6f cd 91 bc
       -0.09250404 -0.06546539 -0.06755232 -0.017798154
000130 6e 95 4e ba 22 2a 8b bd ac 3a f7 39 79 4f 06 be
       -0.0007880543 -0.067951456 0.00047155225 -0.13116254
000140 d0 09 2e 3c 07 52 48 3c 04 38 54 bd 92 20 33 bd
       0.010622457 0.012226588 -0.051811233 -0.043732233
000150 3c 4d 03 bd af 14 88 bd 7c 97 d1 bc 4a c1 d6 3b
       -0.03205608 -0.0664457 -0.025584929 0.0065538036
000160 16 6c 1e bd 45 48 79 bd 68 55 da bc 50 32 9d bd
       -0.038677298 -0.060859937 -0.026652053 -0.07675612
000170 ae f2 64 bc ef 30 98 bd 7c e3 fc bd a4 33 43 bd
       -0.013973875 -0.07431208 -0.12348077 -0.04765667
000180 98 aa 48 3d 01 b4 eb 3d df a6 0b bd 6f e1 a7 3d
       0.048990816 0.115089424 -0.034094688 0.08197295

ThirdConv.1.running_mean f4 [100]
000000 66 43 58 3f d6 20 b2 3e 99 69 23 3f ad 83 d9 bd
       0.8447784 0.34790677 0.63833004 -0.10620818
000010 f2 e7 d6 3e 80 ee 02 3f a3 72 3b 3f f9 65 82 3d
       0.41973835 0.5114517 0.73221797 0.06367106
000020 88 99 51 3e 77 7f 26 be 85 91 bf 3b 0a 36 f1 3e
       0.20468724 -0.16259561 0.0058462047 0.4711154
000030 65 af 6b 3c c9 c7 ec 3e 49 c6 d4 bb d6 d0 8e 3e
       0.014385079 0.46246174 -0.006493364 0.27893704
000040 8e 47 6a 3e 94 7b 2f 3e ba 39 c6 3e 54 4f 8c 3e
       0.22878858 0.17136985 0.38715917 0.27404273
000050 98 d8 a0 be 4a 13 ed 3e 01 40 26 3f 92 2e 4a 3e
       -0.31415248 0.4630378 0.6494141 0.19744328
000060 cd c7 a3 3e 59 16 30 3f 83 9b 0a bd 31 b7 13 3f
       0.31988373 0.687841 -0.033839714 0.577014
000070 c3 0f cb 3d 2e cb 93 3e 32 ca 14 be b1 94 ae be
       0.09915116 0.2886595 -0.14530256 -0.34097818
000080 fe f5 a8 3e 24 bd d3 3e 00 e6 c4 3d ac 8c f7 bc
       0.33000177 0.4135524 0.096141815 -0.030218445
000090 11 54 02 3e 45 09 18 be a2 67 73 3e 20 82 7e 3e
       0.12727381 -0.14847286 0.23770002 0.24854326
0000a0 5b d1 01 3e b1 77 00 3f c1 77 6d be 79 e9 f3 3e
       0.12677519 0.50182635 -0.23190214 0.47639063
0000b0 93 29 9b 3d bc 1b ca 3e a5 48 06 3f 64 6e 3e 3e
       0.07576289 0.39474285 0.52454597 0.18596798
0000c0 8c 8f d9 3e 55 97 22 3f 0e bd c4 3e 9f 99 70 3e
       0.4249233 0.63512164 0.38425487 0.23496102
0000d0 d1 e4 cd 3e 91 34 ee 3e b1 43 2f 3f 30 70 95 be
       0.40213636 0.4652448 0.68462664 -0.29187155
0000e0 6d 39 d6 3e e0 95 20 3f c8 1d 2c 3e 8d 47 8a 3e
       0.41840687 0.6272869 0.16808236 0.27007714
0000f0 a5 cb f6 3e 7f 56 2d 3f e3 f9 ea 3d de 43 c2 3e
       0.48202243 0.6771011 0.11473443 0.37942404
000100 c6 ff 1b be ed 96 0a 3f e0 b6 f9 bd 95 d0 94 3e
       -0.15234289 0.54136544 -0.12193084 0.29065385
000110 8d e5 2a 3f ca 6c 1d 3f 2e d0 41 3f f5 16 f6 be
       0.66756517 0.61494124 0.7570828 -0.4806439
000120 bd 05 21 3f e6 6a 8c 3e 5b 98 18 3f b6 42 c2 3e
       0.6289938 0.27425307 0.59607476 0.3794152
000130 f1 78 94 3d dc a6 19 3f aa 00 9d 3e 92 40 58 be
       0.0724963 0.6002023 0.3066457 -0.21118382
000140 08 2c bc 3e e9 d6 bb 3e 7d 61 f2 3e b5 4e 99 3e
       0.36752343 0.366874 0.47340003 0.2994286
000150 15 11 bb 3e 2e 97 60 3e 16 05 11 3e 2a 04 4c 3d
       0.3653647 0.2193267 0.14162096 0.04980866
000160 4f 26 ea 3c 9a e0 9c 3e 5a 5a 1b 3e 5d c2 09 3e
       0.02858272 0.30640107 0.15171185 0.1345305
000170 73 fb 1a bd e9 e7 3c 3e be 2a 5a 3e 34 71 0f 3f
       -0.037837457 0.18447842 0.21305367 0.5603211
000180 5d 66 1f 3f d5 0a c3 3e da 0f c3 3e 7b 05 35 3e
       0.6226557 0.38094202 0.3809803 0.17677872

ThirdConv.1.running_var f4 [100]
000000 67 f2 41 40 9b 60 0c 41 f2 94 eb 3f b6 2d bc 40
       3.03042 8.773585 1.840483 5.88058
000010 84 bb d5 40 ad c3 07 41 07 f9 7d 40 1a 31 b8 40
       6.67914 8.485272 3.9683244 5.755994
000020 fe dd c8 40 3d 34 bb 40 d2 29 24 40 7d db 36 40
       6.2770987 5.8501267 2.5650525 2.8571465
000030 34 8e ff 40 74 96 01 41 c2 e1 b0 40 2a 7f 73 40
       7.986109 8.099232 5.5275583 3.8046365
000040 27 96 53 40 bb eb e3 40 d0 0a ba 40 b7 1c 3d 40
       3.3060396 7.1225257 5.81382 2.9548776
000050 62 b1 8a 40 fc f8 eb 3f c8 9d 71 40 43 26 94 40
       4.334153 1.8435359 3.7752552 4.6296706
000060 6b 49 7e 40 ce ee c9 40 24 b1 57 40 5f 8b ea 40
       3.973231 6.310401 3.3701868 7.329513
000070 42 f5 9a 40 47 15 45 40 8f 24 e6 40 05 91 a6 40
       4.8424387 3.0794237 7.1919627 5.2052026
000080 3a 25 c3 40 b9 45 98 40 c7 37 9f 40 28 6e 52 40
       6.0982943 4.758511 4.9755588 3.2879734
000090 de e4 9f 40 e8 28 87 40 97 f0 83 40 c7 61 de 40
       4.996688 4.2237434 4.123119 6.9494357
0000a0 ae c5 31 40 d1 75 96 40 78 0c 4b 40 6c b0 0a 41
       2.7776904 4.701882 3.172636 8.668072
0000b0 45 7b c2 3f 04 54 a8 40 b9 0e 02 40 38 2c 7c 40
       1.5193869 5.260256 2.0321486 3.940199
0000c0 47 48 dc 40 5a 3c ea 40 f2 50 b6 40 07 84 38 40
       6.883823 7.319867 5.697381 2.8830583
0000d0 72 8c fc 3f ec 50 d5 3f 80 c0 41 40 7f 03 e8 3f
       1.973036 1.666532 3.0273743 1.8126067
0000e0 79 ea 0d 40 40 4a 65 40 d2 42 85 40 3b e8 c9 40
       2.217436 3.5826569 4.164407 6.3095984
0000f0 a3 b0 83 40 bb 58 06 40 5d 56 a6 40 b9 05 a7 40
       4.115312 2.0991657 5.1980424 5.2194486
000100 f0 1a a2 40 f0 fe f0 40 74 d5 ab 40 c2 ae f1 40
       5.0657883 7.5311203 5.3698063 7.5525827
000110 68 98 a8 40 9a b0 22 40 a2 90 82 40 fa b6 8e 40
       5.2686043 2.542029 4.0801554 4.459836
000120 33 61 be 40 37 85 92 40 26 be b0 40 ba 51 e0 40
       5.949365 4.5787616 5.5232115 7.0099764
000130 30 ff b4 40 0e 9e 1e 40 99 a0 a8 40 9e 51 3f 40
       5.656151 2.478397 5.269604 2.9893565
000140 68 5d e5 40 af 68 40 40 dd 79 ab 3f a7 aa e1 40
       7.167652 3.0063894 1.3396565 7.0520816
000150 dd f5 33 40 8a f6 21 40 c7 01 ad 40 62 6b c3 40
       2.8118813 2.5306726 5.406467 6.1068583
000160 46 67 16 40 c9 62 c8 40 91 45 b9 40 eb 16 07 41
       2.3500533 6.2620587 5.789742 8.443095
000170 43 cc d3 40 92 5b 98 40 37 c2 86 40 66 7d ec 40
       6.6186843 4.761178 4.211208 7.3903074
000180 66 62 2d 40 5b 90 f6 40 78 52 e4 40 d3 23 9a 40
       2.7091308 7.7051215 7.135067 4.816873
