NCTU2/DeepConvNet/DeepConvNet_ELU.pt (torch_old, 612233 bytes, 28 tensors)

FirstConv.0.weight f4 [25, 1, 1, 5]
0	0x3eee4bdd	0.46542254
1	0x3ec9f6ca	0.39446098
2	0xbde13d03	-0.10997965
3	0x3e30f468	0.17280734
4	0x3cc22a47	0.0237018
5	0xbe8ea2e3	-0.27858648
6	0x3e9b8cc5	0.30380836
7	0x3eb8f13b	0.36121544
8	0xbe930f44	-0.28722584
9	0x3e67d356	0.22639212
10	0xbdaeb8b8	-0.08531326
11	0x3e9b3454	0.3031336
12	0x3e3a4602	0.18190768
13	0x3ef1309b	0.47107396
14	0xbe05ac6c	-0.13054055
15	0x3e873c77	0.2641332
16	0xbca00d22	-0.019537512
17	0x3de1fcd7	0.110345535
18	0xbd3f4fc5	-0.046706934
19	0xbd641f79	-0.055694077
20	0x3d69222f	0.056917366
21	0x3d388f1e	0.045058362
22	0xbe375d0b	-0.17906587
23	0xbec72433	-0.38894805
24	0x3d4b1378	0.049579114
25	0x3e8e747f	0.27823254
26	0x3e179d58	0.14806116
27	0xbd08ec10	-0.03342825
28	0x3ebc1482	0.36734396
29	0xbe1a47a7	-0.15066396
30	0xbef7aa7e	-0.48372263
31	0xbee0e88e	-0.43927425
32	0xbbddf3ac	-0.0067734327
33	0xbe451bc8	-0.19248879
34	0xbe38b5c3	-0.18038087
35	0xbe340eab	-0.1758372
36	0xbeb0b994	-0.34516585
37	0x3e9c0f4f	0.3048043
38	0x3eaa127e	0.33217233
39	0xbe7951ed	-0.24347658
40	0xbea44ce1	-0.32089904
41	0xbe8381ab	-0.25684866
42	0x3d844931	0.06459273
43	0xbeb0908d	-0.34485283
44	0xbcc13935	-0.023586849
45	0x3e8724e8	0.26395345
46	0x3dcbafc2	0.099456325
47	0x3e8fda89	0.28096417
48	0x3b01ba2e	0.001979481
49	0x3a8f1ad2	0.0010918027
50	0xbe26adee	-0.16277286
51	0xbef97409	-0.4872134
52	0xbe897d5f	-0.26853463
53	0x3ddd649f	0.108102076
54	0xbe068bce	-0.13139269
55	0x3e628545	0.22121151
56	0x3c044ea9	0.008075395
57	0x3e18415d	0.14868684
58	0x3e1c08c2	0.15237716
59	0x3e27a9e5	0.16373403
60	0xbec42aae	-0.38313812
61	0x3e1414ac	0.1446101
62	0xbe2f2c1f	-0.17106675
63	0xbe2213a0	-0.15827799
64	0xbda6a295	-0.08136479
65	0xbd0a53c5	-0.033771295
66	0x3e6f51bd	0.23371024
67	0xbf00ee3f	-0.50363535
68	0x3d56ac96	0.052410685
69	0x3e2df233	0.16986923
70	0xbdad45b1	-0.08460558
71	0xbe64025b	-0.22266524
72	0x3e197a0a	0.1498796
73	0xbe4370bd	-0.19085975
74	0xbed40e3d	-0.41417113
75	0x3eeacc2c	0.45858896
76	0x3e416607	0.18886577
77	0x3e1dd648	0.15413773
78	0xbd00c2e5	-0.031435866
79	0x3e0f4836	0.1399239
80	0xbe891ba2	-0.26778895
81	0x3d068aca	0.032847203
82	0x3ea56931	0.32306817
83	0xbe310108	-0.1728555
84	0x3d05858a	0.032598056
85	0xbc8536bd	-0.016261453
86	0xbe462d27	-0.19353162
87	0x3eae25e3	0.3401328
88	0xbea3c7e2	-0.31988436
89	0x3ea9a0b0	0.33130407
90	0xbde835b0	-0.11338365
91	0xbece1cb0	-0.40256262
92	0xbdcc5351	-0.09976829
93	0xbeba942e	-0.36441177
94	0xbed4c7a3	-0.4155856
95	0xbe8e458f	-0.27787444
96	0xbdab8910	-0.08375752
97	0xbd6deea6	-0.05808892
98	0x3dd7198a	0.10502918
99	0x3e805da2	0.25071436
100	0x3e86e56e	0.26346916
101	0x3e5e9f73	0.21740513
102	0x3dd4edb2	0.10396899
103	0x3e124219	0.14283027
104	0xbd0bf652	-0.034170456
105	0x3eaca10f	0.33716628
106	0x3e57b573	0.21065311
107	0x3ea9276f	0.33037898
108	0xbe2fce4f	-0.17168544
109	0x3cf56203	0.029953962
110	0xbbd06448	-0.0063596107
111	0xbe603a0c	-0.21897143
112	0x3e888da1	0.26670554
113	0xbba4c066	-0.0050278185
114	0xbd55d8db	-0.052208763
115	0xbea974fc	-0.33097064
116	0xbe595401	-0.21223451
117	0xbeb25e36	-0.34837502
118	0xbeca02bc	-0.3945521
119	0xbea54477	-0.32278797
120	0x3eaa1644	0.33220112
121	0xbe35e05a	-0.17761365
122	0x3d5fd847	0.054649618
123	0xbddbbf01	-0.107297905
124	0x3d26d019	0.0407258

FirstConv.0.bias f4 [25]
0	0xbdd86441	-0.10565997
1	0x3e29454a	0.16530338
2	0xbe8d71c9	-0.27625874
3	0x3db81340	0.08988047
4	0xbe54d8e7	-0.20785867
5	0xbd941887	-0.07231241
6	0xbdb4c8f2	-0.0882739
7	0xbdae9d3c	-0.08526084
8	0xbe8168d2	-0.25275284
9	0xbc95f2b6	-0.01830421
10	0xbec023de	-0.37527364
11	0x3e3668e2	0.17813447
12	0xbdbec279	-0.093144365
13	0x3ebcb089	0.36853436
14	0xbe4b5e7d	-0.19860263
15	0xbdaac2b9	-0.08337922
16	0x3eb0bdb7	0.3451974
17	0xbe6fa658	-0.23403299
18	0x3ee04efe	0.43810266
19	0xbe99672c	-0.29961526
20	0x3e91b1f7	0.2845609
21	0x3d3b1c2b	0.04568116
22	0x3e0cf344	0.13764673
23	0xbe96a2b3	-0.29421005
24	0xbe9facc9	-0.31186512

FirstConv.1.weight f4 [25, 25, 2, 1]
0	0x3e400bf4	0.1875456
1	0x3de77170	0.11300933
2	0xbcaa7d71	-0.020811768
3	0x3d7512b6	0.059832297
4	0x3bb1d674	0.005427176
5	0x3e34a7f8	0.176422
6	0x3d61b052	0.055099793
7	0x3db530bf	0.08847188
8	0x3caa0e12	0.020758662
9	0x3cd60b98	0.026128575
10	0xbc00e43b	-0.007866914
11	0xbd028038	-0.03186056
12	0xbdedf074	-0.116181284
13	0xbe540c57	-0.20707832
14	0xbcb7855a	-0.022402454
15	0x3dcc00b3	0.09961071
16	0xbc5cc5ea	-0.013474921
17	0xbe47bcfa	-0.19505683
18	0x3db80c31	0.089867
19	0xbc99b7ac	-0.01876434
20	0xbe56fd83	-0.20995145
21	0xbe3223bf	-0.17396449
22	0x3e4d0f64	0.20025402
23	0x3dba2fc3	0.09091141
24	0xbd8976ef	-0.06712138
25	0xbb6e2767	-0.0036339404
26	0xbdda3ea5	-0.1065648
27	0xbc12e829	-0.008966484
28	0xbce48be8	-0.027898744
29	0xbd1ee68c	-0.038794085
30	0x3d173411	0.03691489
31	0x3dae9538	0.08524555
32	0xbdc66537	-0.09687274
33	0x3d55b3e0	0.052173495
34	0xbdd0676b	-0.101759754
35	0x3ded469b	0.115857325
36	0xbe0e10c1	-0.13873579
37	0xbe1f8cb1	-0.15581013
38	0xbe0b0c41	-0.13578893
39	0x3de3f9c4	0.111316234
40	0xbc820220	-0.015870154
41	0xbd84b4dc	-0.06479809
42	0x3e24940a	0.16072097
43	0xbcd37bb8	-0.02581583
44	0xbd4d8298	-0.050173372
45	0xbbaad7d1	-0.0052137156
46	0xbd1b09b6	-0.037851058
47	0x3d44024b	0.04785375
48	0x3deceabc	0.115682095
49	0x3d552735	0.052039344
50	0x3cfcfce0	0.030882299
51	0x3d6f42e3	0.058413398
52	0x3c112ce0	0.008860797
53	0x3d707278	0.058702916
54	0x3b13f81b	0.0022578302
55	0x3d58bee6	0.05291643
56	0x3e30252e	0.17201683
57	0x3ccad233	0.024758434
58	0xbe3b5d03	-0.182972
59	0x3d9b1801	0.07572938
60	0x3d95725d	0.07297204
61	0xbbb1e5d1	-0.0054290076
62	0xbe0afafd	-0.13572307
63	0xbdd2944b	-0.10282191
64	0xbd9c1cc3	-0.07622673
65	0xbdc4b3f9	-0.096046396
66	0xbe473212	-0.19452694
67	0xbe049dfc	-0.12950891
68	0x3dab975f	0.08378481
69	0xbd9a3a9e	-0.075307116
70	0x3b854fca	0.0040683495
71	0xbe024c19	-0.12724341
72	0x3e4f865d	0.202661
73	0xbd517f28	-0.051146656
74	0x3d242373	0.04007287
75	0x3db1b2d2	0.086766854
76	0x3dd7253f	0.10505151
77	0x3de8d84a	0.11369379
78	0xbdfe2934	-0.124102026
79	0xbd958649	-0.073010035
80	0xbc390921	-0.01129368
81	0x3e2a5ab7	0.16636167
82	0x3d816002	0.0631714
83	0xbbba9f87	-0.0056952867
84	0x3c47aeeb	0.0121877
85	0xbdac3c6d	-0.08409963
86	0x3c2393c0	0.009983957
87	0xbe01a374	-0.12660009
88	0xbc415678	-0.011800401
89	0x3d20841c	0.03918849
90	0x3e0f6746	0.1400424
91	0xbd2190e2	-0.03944481
92	0x3e0e5d51	0.13902785
93	0xbd602978	-0.054727048
94	0x3c86004e	0.016357567
95	0xbd6d2746	-0.057898782
96	0x3d5ba4a8	0.053623825
97	0xbd09a8ef	-0.033608373
98	0x3dd9e69a	0.10639687
99	0xbd9ef79e	-0.07762073
100	0x3d8e6bde	0.06954168
101	0x3d03ba86	0.032160304
102	0xbd93a4be	-0.072091565
103	0xbdd4e633	-0.103954695
104	0x3c1d304d	0.009594035
105	0xbda68d81	-0.081324585
106	0x3c802b98	0.015645787
107	0x3b94f61a	0.004545939
108	0x3e0f0b67	0.13969193
109	0xbd125cbc	-0.03573297
110	0x3c97b2fa	0.01851796
111	0x3e30b942	0.1725817
112	0xbd7b6495	-0.06137522
113	0x3d9037c0	0.070418835
114	0xbe3c0e31	-0.18364789
115	0x3d70421e	0.058656804
116	0x3c8d8add	0.01727813
117	0xbdfb3391	-0.12265695
118	0xbc4e0da8	-0.012576498
119	0x3d345eb9	0.044035647
120	0x3dd28185	0.1027861
121	0xbe323d2e	-0.1740615
122	0xbe0357b7	-0.1282643
123	0x3dd5fb01	0.10448266
124	0x3df0b18a	0.11752613
125	0xbe4c3dff	-0.19945525
126	0x3d3dba0d	0.04632001
127	0x3db67239	0.08908505
128	0x3dfe4186	0.12414841
129	0xbd9a7649	-0.07542092
130	0xbdb6847d	-0.08911989
131	0xbd85fbf1	-0.06542195
132	0xbe34aed4	-0.17644817
133	0xbdf0417b	-0.117312394
134	0x3b3f3846	0.0029177829
135	0x3d3e6947	0.04648712
136	0x3e35c3a4	0.17750412
137	0xbe1ad9b6	-0.15122113
138	0xbdfb5014	-0.12271133
139	0x3b4fc888	0.003170522
140	0xbd69ae82	-0.05705119
141	0xbc2bf040	-0.010494292
142	0xbc73e82a	-0.014886895
143	0x3e37900b	0.17926042
144	0xbd70d7cc	-0.05879955
145	0x3c204fbd	0.009784636
146	0x3e3fa9b4	0.1871708
147	0xbcca1765	-0.024669359
148	0xbd80aba2	-0.06282736
149	0x3d82d18d	0.06387625
150	0x3ddf2920	0.10896516
151	0x3e1131eb	0.14179198
152	0x3cfe67c6	0.031055342
153	0x3d021f88	0.03176835
154	0x3e1d103e	0.15338227
155	0x3e2f4615	0.17116578
156	0xbd02a4cf	-0.031895455
157	0xbd974c0d	-0.073875524
158	0xbe16e9ee	-0.14737675
159	0xbd6de213	-0.05807693
160	0x3e64430f	0.22291206
161	0x3e5447f6	0.20730576
162	0xbe381911	-0.17978312
163	0x3cc29239	0.023751365
164	0x3d5d5119	0.05403242
165	0x3d02225c	0.03177105
166	0x3d24d710	0.040244162
167	0xbde06610	-0.10956967
168	0x3e6b6aa7	0.22989903
169	0xbc407936	-0.011747649
170	0xbe492c84	-0.19645888
171	0x3c7528c7	0.014963335
172	0x3d9d01a0	0.076663256
173	0xbd30a102	-0.0431223
174	0xbd983ad9	-0.07433099
175	0xbe1d378e	-0.15353224
176	0x3c6b9761	0.014379353
177	0xbd675147	-0.056473996
178	0xbc58f523	-0.013242039
179	0xbd6bffbc	-0.057616934
180	0x3d9aecb8	0.07564682
181	0xbd1bc441	-0.03802896
182	0xbc0e084c	-0.00866897
183	0xbd1a65be	-0.037694685
184	0x3e12f31a	0.14350548
185	0x3dccac83	0.099938415
186	0x3c6a8e80	0.014316201
187	0xbd3aced8	-0.045607418
188	0xbe47b2f5	-0.1950186
189	0xbb63922a	-0.0034724572
190	0x3e432264	0.19056088
191	0xbc339d2a	-0.010962764
192	0xbce3f0a5	-0.02782471
193	0xbdb76f28	-0.08956748
194	0x3cb53a67	0.022122575
195	0x3e211095	0.15728982
196	0xbe38a802	-0.1803284
197	0xbd5736ae	-0.05254238
198	0x3e261308	0.16218197
199	0xbdbb93ae	-0.09159027
200	0x3e1acf2e	0.15118095
201	0xbdf90400	-0.12158966
202	0x3dafbfb4	0.08581486
203	0xbb64567a	-0.0034841583
204	0x3d910f56	0.07083003
205	0x3e023b6d	0.12717982
206	0xbcc86533	-0.024462318
207	0xbd659f17	-0.056059923
208	0xbd691291	-0.056902472
209	0x3da34141	0.079714306
210	0x3e038a9a	0.12845841
211	0xbd6f0acb	-0.058359902
212	0xbe1255a0	-0.14290476
213	0xbdf09941	-0.11747981
214	0x3ccfd13b	0.025368324
215	0xbc7101c5	-0.014709895
216	0x3d09a674	0.033606008
217	0x3d804566	0.06263237
218	0x3e04427d	0.12915988
219	0x3e28aa32	0.16471174
220	0xbd625957	-0.055260982
221	0xbd389362	-0.04506243
222	0x3d4935bf	0.049123522
223	0xbc0aa8b9	-0.008463078
224	0xbdf44f63	-0.11929204
225	0xbdbae1e3	-0.09125116
226	0x3d437e69	0.047727976
227	0xbdcb6b9a	-0.09932633
228	0xbe1fa720	-0.15591097
229	0xbe1c7f57	-0.15282951
230	0x3e300314	0.17188674
231	0x3d408317	0.047000017
232	0x3d68c42d	0.056827713
233	0xbce56407	-0.028001798
234	0x3d81524f	0.06314527
235	0x3d956c3d	0.072960354
236	0xbddb94db	-0.10721751
237	0xbd3b9aeb	-0.04580204
238	0x3dc4ad85	0.09603409
239	0x3d42cea6	0.047560357
240	0xbc99c400	-0.018770218
241	0x3da92c61	0.08260418
242	0x3d4c0cca	0.049816884
243	0x3dad1f11	0.08453191
244	0x3cb718fc	0.02235078
245	0x3caefbcd	0.021360302
246	0xbdf13cc0	-0.11779165
247	0xbc605bad	-0.013693732
248	0xbbf9335e	-0.0076050004
249	0xbe11c1e0	-0.14234114
250	0xbd89be03	-0.06725695
251	0x3d295f5b	0.041350704
252	0x3e030098	0.12793195
253	0xbdce0ae5	-0.10060672
254	0x3e282bc8	0.16422951
255	0xbde881bf	-0.11352872

FirstConv.1.bias f4 [25]
0	0xbd96a2fe	-0.07355307
1	0x3d829689	0.063763686
2	0xbdee06c9	-0.11622388
3	0xbd442f15	-0.047896463
4	0x3cfd2880	0.030903101
5	0xbe129bdb	-0.14317267
6	0x3ca16bc1	0.019704701
7	0x3db1030b	0.086431585
8	0x3d0c5f44	0.03427054
9	0x3c2e37c3	0.010633412
10	0xbe10b607	-0.14131938
11	0x3df6bc6f	0.120476596
12	0xbda8d019	-0.082428165
13	0x3dd18443	0.10230305
14	0x3dfbadfc	0.12289044
15	0x3dc6ab24	0.09700611
16	0x3d4ab1e7	0.049486067
17	0x3dabf03d	0.08395431
18	0x3da08979	0.07838721
19	0x3d9d8ddb	0.076930724
20	0xbd3f6505	-0.0467272
21	0x3d903ac9	0.070424624
22	0x3d89cd32	0.06728591
23	0xbd1d0858	-0.038338035
24	0xbe152cee	-0.1456792

FirstConv.2.weight f4 [25]
0	0x3f299202	0.66238415
1	0x3f63aa8c	0.8893211
2	0x3f4de011	0.80420023
3	0x3ee3ef64	0.44518578
4	0x3f05a310	0.5220194
5	0x3efb8b72	0.49129826
6	0x3eec1ce0	0.4611578
7	0x3ecd049f	0.40042588
8	0x3f5b297d	0.8561018
9	0x3f70cc3b	0.9406163
10	0x3f37d9e0	0.71816826
11	0x3f71e110	0.94484043
12	0x3ebabb67	0.36471102
13	0x3ebcce17	0.36875984
14	0x3f4948ca	0.7862669
15	0x3eb8e288	0.3611033
16	0x3d134d2d	0.035962272
17	0x3f4fe0fa	0.8120266
18	0x3f0ebd70	0.5575781
19	0x3eba0a4c	0.3633598
20	0x3d447d44	0.047971025
21	0x3f08b58a	0.53402007
22	0x3f23bcf8	0.6396022
23	0x3e6b0e01	0.22954561
24	0x3e3fd0c4	0.18731982

FirstConv.2.bias f4 [25]
0	0xbd19891b	-0.03748427
1	0x3a4f27be	0.00079023454
2	0xbd93f3ca	-0.072242334
3	0xbd120591	-0.03564984
4	0x3d08e59d	0.0334221
5	0xbca9fa1f	-0.02074915
6	0xbd1129d7	-0.035440292
7	0xbdea52dd	-0.11441586
8	0xbd22208d	-0.039581824
9	0xbd4c1ad8	-0.049830288
10	0xbdde807e	-0.10864352
11	0xbd55e28b	-0.052218
12	0xbd21f011	-0.039535586
13	0x3d99b968	0.075060666
14	0xbda4527c	-0.08023545
15	0xbdaff5d7	-0.08591812
16	0x3ba0d74a	0.004908477
17	0x3d7e13e5	0.06203069
18	0xbd8b3e0f	-0.06798946
19	0x3d20231c	0.039095983
20	0xbe0527c7	-0.13003455
21	0xbce4fce5	-0.02795262
22	0xbd13a576	-0.036046468
23	0x39e0cc8c	0.0004287701
24	0xbd6555a2	-0.05598987

FirstConv.2.running_mean f4 [25]
0	0xbe476dd5	-0.19475491
1	0x3e9045e9	0.28178337
2	0xbe240a9c	-0.16019672
3	0xbcbc3d9a	-0.022978593
4	0xbd1b678e	-0.037940554
5	0xbdf92a80	-0.12166309
6	0xbdda6d43	-0.10665371
7	0x3e6182aa	0.220225
8	0x3e12111a	0.14264336
9	0x3e835d72	0.2565723
10	0xbccc6474	-0.024950244
11	0x3d774bfc	0.0603752
12	0xbe9e8af2	-0.30965382
13	0x3dc08704	0.09400752
14	0x3daef1c1	0.08542205
15	0x3cd0e46c	0.025499545
16	0x3e236a0f	0.15958427
17	0x3e566d6a	0.20940176
18	0x3d19601e	0.03744518
19	0x3da24fe1	0.07925392
20	0x3cf07c3e	0.029356118
21	0x3e4b8e3b	0.19878475
22	0x3dd2e26c	0.10297093
23	0xbeb068bc	-0.34454906
24	0xbe8962f6	-0.26833314

FirstConv.2.running_var f4 [25]
0	0x42e5575c	114.67062
1	0x425b41c2	54.814217
2	0x41874f53	16.913733
3	0x42b17b82	88.74123
4	0x42997165	76.72147
5	0x41ad8258	21.688644
6	0x42647eb1	57.123722
7	0x422752de	41.830925
8	0x4231a401	44.41016
9	0x4280b4cc	64.35312
10	0x419eddd2	19.85831
11	0x4196ad47	18.834608
12	0x41488ecc	12.5348625
13	0x422e29c7	43.5408
14	0x418a36c8	17.276749
15	0x420e7829	35.617344
16	0x42883a49	68.11384
17	0x427f5f6a	63.843178
18	0x41ecad0b	29.584494
19	0x415f36d3	13.950885
20	0x42353231	45.299015
21	0x42a4f2fb	82.47457
22	0x4280fbdb	64.491905
23	0x41a465d9	20.54973
24	0x41a111ae	20.133633

SecondConv.0.weight f4 [50, 25, 1, 5]
0	0xb95c37f0	-0.00021001673
1	0x3d33691f	0.043801423
2	0x3c8f05c0	0.017458797
3	0xbce9e560	-0.028551757
4	0x3d108803	0.03528596
5	0xbd5e3a1c	-0.054254636
6	0x3dfea55d	0.12433884
7	0xbd8a7aac	-0.06761679
8	0x3cf8b8f8	0.030361637
9	0x3d87a2ad	0.06622825
10	0xbd71dff8	-0.059051484
11	0xbcc5cd0f	-0.024145631
12	0xbe14047b	-0.14454834
13	0xbe02178c	-0.12704295
14	0x3ce336e7	0.02773614
15	0x3e3797b7	0.17928968
16	0x3ccc3a03	0.024930006
17	0x3d6cbf6b	0.057799738
18	0x3d92f418	0.071754634
19	0x3d2b9bd8	0.04189667
20	0x3e0a4122	0.13501409
21	0x3d85c363	0.06531408
22	0x3d8ddefa	0.06927295
23	0x3ddda910	0.10823262
24	0x3ced0786	0.028934252
25	0xbd7463fb	-0.05966566
26	0x3d095422	0.0335275
27	0x3d360b8b	0.044444602
28	0xbc4f1a6c	-0.012640577
29	0x3e1a210a	0.15051666
30	0x3ddc6000	0.10760498
31	0xbd6801b5	-0.056642253
32	0x3db6558b	0.08903035
33	0xbd1402a7	-0.036135342
34	0x3e1cff6f	0.15331815
35	0x3d676332	0.056491084
36	0x3d1c4c91	0.038158957
37	0xbc9484c5	-0.018129716
38	0x3da184d5	0.07886664
39	0xbcce664a	-0.02519526
40	0xbd85ab30	-0.06526792
41	0xbd80266d	-0.06257329
42	0x3cddafc4	0.02706135
43	0xbd6ba6fa	-0.057532288
44	0xbdecf7c1	-0.11570693
45	0x3d09215a	0.033479072
46	0x3df245c9	0.11829717
47	0x3c8dda90	0.017316133
48	0xbdceb062	-0.10092236
49	0xbd5ea107	-0.054352786
50	0xbe04fb50	-0.12986493
51	0x3d2e1f21	0.042510156
52	0xbd034a86	-0.032053493
53	0xbceb466b	-0.028720101
54	0xbe135710	-0.1438868
55	0x3ce0d757	0.027446432
56	0xbd84853f	-0.06470727
57	0xbdcd2738	-0.10017246
58	0xbe03b7c9	-0.12863077
59	0x3b7ff7bf	0.003905758
60	0xbd42935e	-0.04750382
61	0x3d00a1eb	0.031404417
62	0xbe075a06	-0.13217935
63	0xbdaf9232	-0.085728064
64	0xbd918bc3	-0.071067356
65	0xbd242f6e	-0.040084295
66	0x3e027d7e	0.12743184
67	0xbd997523	-0.07493045
68	0xbd6c64c8	-0.0577133
69	0xbe0c9881	-0.1373005
70	0xbdef5182	-0.11685468
71	0x3cf6405c	0.030059986
72	0xbd2f6acd	-0.042826463
73	0x3c9f54be	0.019449588
74	0xbd809b6c	-0.06279644
75	0x3d4ce1b9	0.050019953
76	0xbd8847c7	-0.066543154
77	0xbce7be05	-0.02828885
78	0x3dcbde21	0.09954477
79	0x3da8a76e	0.0823506
80	0xbcea559c	-0.028605275
81	0x3d3130c0	0.043259382
82	0xbd878171	-0.06616486
83	0xbc999abf	-0.018750547
84	0x3e2452bc	0.16047186
85	0xbd051aae	-0.032496147
86	0xbd917b4d	-0.07103596
87	0x3dc613e9	0.09671766
88	0xbcdbe264	-0.02684135
89	0xbdf617c1	-0.120162494
90	0xbdc6d2c0	-0.09708166
91	0x3d9c9a7b	0.07646652
92	0x3d1d3b80	0.03838682
93	0x3de0ba00	0.10972977
94	0x3ad66d45	0.0016359469
95	0xbd620e72	-0.055189557
96	0xbd42e76e	-0.04758399
97	0x3c694206	0.014236933
98	0xbc7f2d84	-0.015574817
99	0xbe0551fa	-0.13019553
100	0xbd0e3457	-0.034717884
101	0xbdb097f0	-0.0862273
102	0xbdd01da4	-0.101619035
103	0xbbd056fb	-0.006358025
104	0xbc8398bf	-0.016064046
105	0xbd606f79	-0.05479381
106	0xbd267ba3	-0.040645253
107	0x3dacc5ea	0.084361866
108	0x3cb730e6	0.022362184
109	0xbd61966a	-0.055075087
110	0x3e0c2b16	0.13688311
111	0x3c18661a	0.009301687
112	0xbb86534d	-0.0040992857
113	0x3ca3ea6d	0.020009244
114	0x3ce8ee10	0.02843383
115	0xbdfc36fb	-0.12315174
116	0xbd2b0020	-0.041748166
117	0x3d9b768b	0.0759097
118	0x3d79a4fc	0.060948357
119	0xbe1b0399	-0.15138091
120	0x3d707c48	0.058712274
121	0x3db8615b	0.09002944
122	0x3d82f070	0.06393516
123	0x3da310e3	0.07962205
124	0xbd359447	-0.04433086
125	0xbb9359dd	-0.0044967965
126	0x3c827bd0	0.015928179
127	0x3cb04248	0.02151598
128	0x3d1681e6	0.036744975
129	0x3ddb54be	0.10709523
130	0xbbe65bf4	-0.0070300046
131	0xbd671ada	-0.056422092
132	0xbd136268	-0.03598252
133	0x397ec060	0.00024294993
134	0xbc83104f	-0.015998987
135	0xbb4c5494	-0.0031178342
136	0x3c812a65	0.015767286
137	0x3df0a14c	0.11749515
138	0x3e1dd259	0.15412273
139	0x3ddd8b77	0.108176164
140	0xbe1f6ffb	-0.15570061
141	0x3caf374e	0.021388676
142	0x3c28c10b	0.010299931
143	0xb7673900	-1.3781944e-05
144	0x3bfa25a8	0.0076338835
145	0xbdbb26c0	-0.0913825
146	0x3d79323c	0.060838923
147	0x3cdb37fd	0.026760096
148	0xbe20fdbb	-0.1572179
149	0x3ca3457e	0.019930597
150	0xbe10ecde	-0.14152858
151	0xbde9f39c	-0.11423418
152	0xbcd58818	-0.026065871
153	0xbdd329cc	-0.103107065
154	0xbd9f2f4a	-0.077726915
155	0xbd24c69f	-0.040228482
156	0x3c1585a6	0.009126103
157	0x3d97683d	0.07392929
158	0xbcb7fb07	-0.022458566
159	0xbda85217	-0.082187824
160	0xbbe2e06e	-0.0069237268
161	0xbb062dba	-0.0020474032
162	0xbd89aad4	-0.06722036
163	0xbd820664	-0.06348875
164	0xbe3050be	-0.172183
165	0x3d799fe9	0.060943518
166	0x3e247d67	0.16063462
167	0x3da54c11	0.08071149
168	0xbcd3100c	-0.025764488
169	0x3d63210c	0.055451438
170	0xbd7f0c3a	-0.06226752
171	0x3cbc3d5d	0.022978479
172	0x3bceed23	0.00631489
173	0x3d86fb0e	0.06590854
174	0x3d840e5a	0.0644805
175	0xbbd058d7	-0.006358247
176	0x3d8ae48b	0.06781872
177	0x3e1635fa	0.14669028
178	0xbcecc4de	-0.028902467
179	0x3da03d57	0.078242
180	0x3c745546	0.014912909
181	0xbd0db5e1	-0.03459728
182	0x3dac27ca	0.08406027
183	0xbb6750e7	-0.0035296024
184	0x3d936428	0.07196838
185	0x3dd92e8f	0.106045835
186	0x3d5c6d22	0.053815015
187	0x3d067662	0.032827742
188	0x3e00d055	0.12579472
189	0x3c737d35	0.014861395
190	0x3d36558d	0.04451518
191	0x3df8990e	0.12138568
192	0x3e3df665	0.18551023
193	0x3c21224b	0.009834836
194	0x3d96a9aa	0.073565796
195	0x3e06b099	0.13153304
196	0x3d563868	0.052299887
197	0x3c8cf724	0.01720769
198	0x3db8ee29	0.090298004
199	0x3dd69860	0.10478282
200	0xbdacdfb8	-0.084411085
201	0xbdf4ecd9	-0.119592376
202	0x3d129c42	0.03579355
203	0xbce0a1e8	-0.027420953
204	0xbdf52695	-0.119702496
205	0xbd92ba40	-0.071644306
206	0xbbac4b7d	-0.0052580223
207	0x3e0a5fb7	0.13513075
208	0x3dffe871	0.124955066
209	0x3e0db26f	0.13837598
210	0xbcc1dc8e	-0.023664739
211	0x3d6da0ae	0.058014564
212	0x3d32611d	0.043549646
213	0x3e040699	0.12893142
214	0xbc0a30aa	-0.008434454
215	0x3dbd6055	0.092468895
216	0x3d725dcc	0.059171483
217	0xbd399d46	-0.045316003
218	0x3e322eb8	0.17400634
219	0x3aa05e23	0.0012235086
220	0x3de96222	0.113956705
221	0x3d8da8fc	0.06916997
222	0x3e3494b5	0.17634852
223	0x3e17c5a7	0.14821492
224	0x3d8cd6ed	0.06876931
225	0xbaf49d75	-0.0018662649
226	0xbdc2289c	-0.09480402
227	0x3d5a1aad	0.053248096
228	0xbc1d290d	-0.009592307
229	0x3df5b97a	0.119982675
230	0xbca9efd6	-0.020744245
231	0xbd901a36	-0.07036249
232	0xbe1ffad9	-0.15623035
233	0xbd8e7aab	-0.06956991
234	0x3bf144d0	0.0073629394
235	0xbda43c8e	-0.080193624
236	0x3d4c3707	0.049857166
237	0xbae7d287	-0.0017686643
238	0x3d0b6905	0.0340357
239	0x3c4737d0	0.012159303
240	0x3e235300	0.1594963
241	0x3df1abfd	0.11800382
242	0x3deec7e8	0.11659223
243	0xbc0e5eb4	-0.008689571
244	0x3df97b46	0.12181716
245	0x3de94d98	0.11391753
246	0x3d2f28ea	0.042763628
247	0x3d675c32	0.05648441
248	0x3cb9e32a	0.022691328
249	0xbd5369fd	-0.05161475
250	0xbdd7533a	-0.10513921
251	0x3dd5156f	0.10404479
252	0x3d7250d9	0.059159134
253	0x3c84f424	0.016229697
254	0xbc57b5a7	-0.013165868
255	0x3c782eb3	0.015147853

SecondConv.0.bias f4 [50]
0	0xbcb7ccff	-0.022436617
1	0x3d578f61	0.05262697
2	0xbc6a55d1	-0.014302687
3	0xbcc8333d	-0.024438495
4	0x3c0e4fd8	0.008686028
5	0x3d06a0c3	0.032868158
6	0xbc411358	-0.011784397
7	0x3d4ad853	0.04952271
8	0x3d0637af	0.032767948
9	0xbd2f0e84	-0.042738453
10	0xbc6a8757	-0.014314494
11	0xbc41c9e5	-0.011827921
12	0x3dbb0843	0.09132435
13	0xbd44b017	-0.048019495
14	0x3ccda078	0.025100932
15	0xbc8d23a8	-0.017228916
16	0x3d22f108	0.039780647
17	0x393629a2	0.00017372382
18	0x3d4db537	0.050221648
19	0xbda6200d	-0.08111582
20	0x3d10f631	0.035391036
21	0x3a9215cf	0.0011145415
22	0x3d37419d	0.044740308
23	0x3c28ddea	0.010306815
24	0xbd99388e	-0.0748149
25	0xbdd64523	-0.104624055
26	0x3d8222bf	0.063542835
27	0x3d460c24	0.048351422
28	0x3db41b77	0.08794301
29	0xbc878ab8	-0.016545638
30	0xbd8966f2	-0.067090884
31	0x3dadda8c	0.0848895
32	0x3cc68704	0.024234302
33	0x3d24f26c	0.040270254
34	0x3dc7156c	0.09720883
35	0xbdd374ca	-0.1032501
36	0x3dccd2bb	0.10001131
37	0x3d92fea1	0.07177473
38	0xbceba458	-0.028764889
39	0x3d6894b7	0.05678245
40	0x3b8a0c1c	0.0042128693
41	0x3d6fba3f	0.058527227
42	0xbdc26d16	-0.09493463
43	0x3d438672	0.04773564
44	0x3d83419d	0.06408999
45	0x3d8f3cb2	0.069939986
46	0xbd06abf2	-0.032878824
47	0xbd832d53	-0.06405129
48	0xbd888be3	-0.06667306
49	0xbbf1460c	-0.0073630866

SecondConv.1.weight f4 [50]
0	0x3e5fb447	0.21846114
1	0x3ee0018a	0.43751174
2	0x3f310a86	0.6915668
3	0x3f61513b	0.8801457
4	0x3e0f53ad	0.13996764
5	0x3f5f366e	0.8719243
6	0x3f402e57	0.7507071
7	0x3f3e1ec8	0.7426572
8	0x3ebab829	0.36468628
9	0x3e87e6a3	0.2654315
10	0x3f6251df	0.88406175
11	0x3f1c2ba4	0.6100409
12	0x3f057205	0.52127105
13	0x3f0d9a44	0.55313516
14	0x3ed8876d	0.42290822
15	0x3f75544a	0.9583174
16	0x3f4b9a7a	0.7953259
17	0x3cf79fc2	0.030227546
18	0x3e4d3236	0.20038685
19	0x3eee80b8	0.4658258
20	0x3e97f06f	0.29675624
21	0x3de87c92	0.11351885
22	0x3f4748aa	0.7784525
23	0x3e03ae24	0.12859398
24	0x3f628ec7	0.8849911
25	0x3f4b782d	0.7948025
26	0x3f1dabfa	0.6159054
27	0x3f6a8350	0.91606617
28	0x3de98458	0.11402196
29	0x3f87525c	1.0572009
30	0x3c8d421d	0.01724344
31	0x3e02b888	0.12765706
32	0x3db5069b	0.088391505
33	0x3f2a367e	0.664894
34	0x3f47baf8	0.78019667
35	0x3e995130	0.29944754
36	0x3f67b2a4	0.9050696
37	0x3e952b6d	0.29134694
38	0x3f652e91	0.8952418
39	0x3efdeda4	0.49595368
40	0x3f3978e9	0.7245012
41	0x3e522e55	0.20525487
42	0x3f093e1b	0.5361039
43	0x3e799351	0.24372603
44	0x3f0f83ab	0.56060284
45	0x3ea65dbb	0.32493386
46	0x3e6d4dbf	0.23174189
47	0x3e37507f	0.179018
48	0x3ea603ca	0.32424766
49	0x3e3cc3b2	0.18434027

SecondConv.1.bias f4 [50]
0	0x3c8752e6	0.016519021
1	0xbda057ae	-0.078292236
2	0xbd36a594	-0.0445915
3	0xbd473e8f	-0.048643645
4	0xbde7b946	-0.11314635
5	0xbdaeb890	-0.08531296
6	0xbd43a553	-0.047765087
7	0xbd450701	-0.048102383
8	0x3d87a737	0.066236906
9	0xbca073d3	-0.01958648
10	0xbd81f01c	-0.06344625
11	0xbcc993ba	-0.024606574
12	0xbd99fef5	-0.07519332
13	0xbc6a6a32	-0.0143075455
14	0x3c994f8d	0.01871469
15	0xbdd6e8fc	-0.10493657
16	0xbd28a712	-0.041174956
17	0xbcc23cb0	-0.023710579
18	0x3df79d91	0.120906
19	0xbddaf3d7	-0.1069104
20	0xbc9a4319	-0.018830823
21	0x3d854f6f	0.065092914
22	0xbd98a4fc	-0.07453343
23	0xbd575801	-0.05257416
24	0xbca66e84	-0.02031637
25	0xbd93c98f	-0.072161786
26	0xbcf07c34	-0.0293561
27	0xbd7bd615	-0.06148346
28	0xbd174677	-0.036932435
29	0xbce9f48d	-0.028558994
30	0xbcaa7177	-0.020806057
31	0x3da24960	0.079241514
32	0x3d40269c	0.04691182
33	0xbda9fe13	-0.08300414
34	0x3c3ea633	0.011636305
35	0xbd9a6520	-0.07538819
36	0xbd9b873c	-0.07594153
37	0xbdaad8e2	-0.08342148
38	0xbd6af0c1	-0.057358507
39	0xbd1a5133	-0.037675094
40	0xbcff9a19	-0.03120141
41	0xbccd196d	-0.025036538
42	0xbc18f1ed	-0.009335023
43	0xbdb7b6fa	-0.08970447
44	0xbda3b91b	-0.079942904
45	0xbd236301	-0.03988934
46	0xbdbac594	-0.09119716
47	0xbd51ac5c	-0.051189765
48	0xbb246b9b	-0.0025088552
49	0xbbb6fb34	-0.005584145

SecondConv.1.running_mean f4 [50]
0	0xbdc541c7	-0.09631687
1	0x3e8e4b64	0.27791893
2	0x3e5e0e06	0.21685037
3	0x3eb53a0f	0.35395858
4	0x3e2cdabb	0.16880314
5	0x3d935a41	0.07194949
6	0xbdb2a08c	-0.08722028
7	0xbd33d9ba	-0.043908812
8	0x3e81ee55	0.25377145
9	0xbe8e034a	-0.27736884
10	0x3e1aad94	0.15105277
11	0x3e789484	0.24275404
12	0x3e2ee48c	0.17079371
13	0x3e3f7793	0.18697958
14	0x3e530b7c	0.2060985
15	0x3e975753	0.2955881
16	0xbda8ec99	-0.082482524
17	0xbd3f7fe5	-0.04675283
18	0x3decd786	0.11564545
19	0x3dadb22a	0.08481248
20	0x3d8fc21c	0.07019445
21	0x3d4e8e80	0.050428867
22	0x3e7171d2	0.23578575
23	0x3d8ac433	0.06775703
24	0xbd21e02c	-0.039520428
25	0x3e722f7d	0.23650928
26	0x3ecc0126	0.39844626
27	0x3e8d5b09	0.27608517
28	0x3ebba011	0.36645558
29	0x3dfeb81d	0.124374606
30	0xbc092ec1	-0.008372963
31	0x3c64a6bb	0.013955767
32	0x3cf12ee7	0.02944131
33	0x3e1453a2	0.14485028
34	0x3ece6da0	0.40318012
35	0xbead5966	-0.33857268
36	0x3eb56505	0.35428634
37	0xbe44f440	-0.19233799
38	0x3e7eee5f	0.24895619
39	0x3e5d4e3f	0.2161188
40	0x3ebf02d7	0.37306854
41	0x3ec479f2	0.38374287
42	0x3d2177c4	0.039420858
43	0x3eca3814	0.3949591
44	0x3e689d0a	0.22716156
45	0x3e33b294	0.17548591
46	0x3e0935b9	0.133994
47	0xbd2db465	-0.042408366
48	0xbb62aba3	-0.0034587167
49	0x3e527e02	0.2055588

SecondConv.1.running_var f4 [50]
0	0x3f6d3f1b	0.92674416
1	0x3fe62477	1.7979878
2	0x4007f0a7	2.1240633
3	0x3fbc2013	1.4697288
4	0x3f96f526	1.1793563
5	0x3f65a392	0.89702713
6	0x3fef9cd0	1.871973
7	0x3f1bcd6a	0.6086031
8	0x3f8b05f0	1.0861187
9	0x3faa758f	1.3317126
10	0x3f1850b2	0.5949813
11	0x4004c91b	2.0747745
12	0x3faa2370	1.3292065
13	0x3fd9c56b	1.7013372
14	0x3f4f9c34	0.8109772
15	0x3fbe4cc8	1.4867182
16	0x3fad8fc9	1.3559505
17	0x3f5abcf2	0.8544456
18	0x3f268358	0.65044165
19	0x3f64589b	0.891977
20	0x3f64e815	0.8941663
21	0x3f386d5e	0.7204188
22	0x3fcae8e8	1.5852327
23	0x3f4bd4f2	0.79621804
24	0x3f9a8b1c	1.2073703
25	0x3fa30023	1.2734417
26	0x3fd965a1	1.698414
27	0x4005749b	2.085242
28	0x4008e118	2.1387386
29	0x3fad9732	1.3561766
30	0x3f39b0bb	0.72535294
31	0x3eb784ef	0.35843608
32	0x3f1b6b03	0.6071016
33	0x3fd0ad40	1.6302872
34	0x400e3d83	2.2225044
35	0x3f8987bc	1.0744548
36	0x3feb1438	1.8365545
37	0x3fb25ab5	1.3933932
38	0x3fe54310	1.7911091
39	0x3f95bf01	1.1698915
40	0x3ffce615	1.9757715
41	0x3ff0ac7a	1.8802636
42	0x3fbb8db4	1.4652619
43	0x3fd30922	1.6487162
44	0x3f648a56	0.89273584
45	0x3eca198f	0.39472625
46	0x3feacf6a	1.8344548
47	0x3f66bab0	0.9012861
48	0x3f67df7f	0.905754
49	0x3fa0bbf4	1.2557359

ThirdConv.0.weight f4 [100, 50, 1, 5]
0	0xbd899174	-0.06717196
1	0xbe076f02	-0.1322594
2	0xbd9f9b7d	-0.07793329
3	0xbd895cdc	-0.06707165
4	0xbd839e17	-0.064266376
5	0x3d764ce1	0.06013191
6	0x3d66c748	0.056342393
7	0x3cee6550	0.029101044
8	0x3cd579eb	0.026059112
9	0x3cab1533	0.020884132
10	0xbd437c3a	-0.047725894
11	0xbd038740	-0.032111406
12	0x3cd805d6	0.02636997
13	0x3d30f08f	0.043198165
14	0x3d57457d	0.052556504
15	0xbdfa3a15	-0.122181095
16	0xbdaf7e1a	-0.08568974
17	0xbc90ac46	-0.017660271
18	0x3c5078b8	0.012724094
19	0xbd20d442	-0.039264925
20	0x3cf9bcbc	0.030485503
21	0x3d741afc	0.059596047
22	0x3d3694d2	0.04457552
23	0xbc7a4324	-0.015274797
24	0xbc832ea5	-0.016013453
25	0xbd2e5c3e	-0.042568438
26	0xbe00ef55	-0.12591298
27	0xbd068601	-0.03284264
28	0xbdf87f9d	-0.12133715
29	0xbcee7b6e	-0.02911159
30	0xbdf587f3	-0.11988821
31	0x3b4caa9c	0.003122962
32	0xbbabc492	-0.005241939
33	0xbdc4ff7f	-0.096190445
34	0x3da08ae5	0.07838992
35	0x3db997c1	0.09062148
36	0x3dd1f8b5	0.10252515
37	0x3e07462a	0.13210359
38	0x3e0cfd6f	0.13768552
39	0x3dab235b	0.08356353
40	0xbbe53c71	-0.0069957306
41	0xbdd69d05	-0.10479168
42	0xbd400393	-0.04687841
43	0xbd35a1f8	-0.04434392
44	0xbdd3162f	-0.103069656
45	0x3c15cbb9	0.00914281
46	0xbdfd561a	-0.12369938
47	0xbbc413a0	-0.005983785
48	0xbde6e6eb	-0.11274513
49	0xbd4a741b	-0.049427133
50	0x3bf13dc5	0.0073621
51	0xbda7c15f	-0.081911795
52	0xbcaf01e6	-0.02136321
53	0xbcc08f2b	-0.023505768
54	0x3c9abeaa	0.018889744
55	0xbdf6d8dd	-0.12053082
56	0xbc986638	-0.01860343
57	0xbd55a4eb	-0.05215923
58	0xbc2c36c0	-0.0105111
59	0x39b2fe84	0.00034140435
60	0xbd82abe5	-0.063804425
61	0x3dacfcf4	0.084466845
62	0xbd56bfdd	-0.05242907
63	0xbde7e8b4	-0.113236815
64	0xbd25ef40	-0.04051137
65	0xbdff06f0	-0.12452495
66	0xbd3ee297	-0.04660281
67	0x3d5b3022	0.0535127
68	0xbce114ed	-0.027475799
69	0x3cccc454	0.02499596
70	0x3d037765	0.032096285
71	0xbcdb5f8c	-0.026778959
72	0xbe01d23f	-0.12677859
73	0xbda70a29	-0.08156235
74	0xbe009bff	-0.12559508
75	0x3d5129af	0.051065143
76	0x3d7bc95f	0.06147134
77	0x3ce04e3d	0.027381057
78	0x3de082dd	0.1096246
79	0x3de58b48	0.112082064
80	0xbda60aa9	-0.08107502
81	0xbc10f63e	-0.008847771
82	0xbe2a4b29	-0.16630234
83	0xbc9ba669	-0.019000249
84	0xbdece92b	-0.11567911
85	0x3b928ccd	0.004472351
86	0xbcef39de	-0.029202398
87	0xbc973650	-0.018458515
88	0xbdd7a46c	-0.10529408
89	0x3cb35f7e	0.02189612
90	0xbdba17ce	-0.09086572
91	0xbdab223e	-0.083561406
92	0xbc65a26d	-0.014015776
93	0xbdf7a7f5	-0.12092582
94	0xbe1156e9	-0.1419331
95	0x3d39bf73	0.045348596
96	0xbd75af3d	-0.059981573
97	0x3d5a304b	0.053268712
98	0x3d0e9847	0.03481319
99	0x3ccf52c8	0.025308028
100	0x3bf42609	0.007450823
101	0x3da66874	0.081253916
102	0xbdf5e167	-0.12005883
103	0xbd8fc628	-0.07020217
104	0xbdf98c30	-0.12184942
105	0xbd593ec0	-0.05303836
106	0xbd2e1469	-0.042499933
107	0x3cf6007f	0.030029533
108	0x3d978229	0.07397873
109	0xbd722637	-0.059118476
110	0xbd408a6d	-0.047007013
111	0xbdfcb6b6	-0.12339537
112	0xbd6e8221	-0.05822957
113	0xbdfe0911	-0.12404073
114	0xbd464965	-0.04840984
115	0x3d6c781b	0.05773173
116	0xbd1aa140	-0.037751436
117	0x3cdaf4c7	0.026728047
118	0x3a78c1d4	0.0009489332
119	0x3dc1ead7	0.0946862
120	0xbe09fecc	-0.13476104
121	0xbd5641a7	-0.052308705
122	0xbd958fa8	-0.07302791
123	0xbd9e7fcc	-0.07739219
124	0xbe0424d3	-0.12904672
125	0xbd77be52	-0.060484238
126	0xbc488577	-0.012238852
127	0x3c71b9db	0.014753784
128	0xbdad457f	-0.08460521
129	0xbcd965ee	-0.026537862
130	0xbd645ea6	-0.055754326
131	0xbd9f97a7	-0.07792597
132	0xbd81933e	-0.06326912
133	0x3cb8c884	0.02255655
134	0xbe07ace4	-0.13249546
135	0xbe19a4ee	-0.15004322
136	0xbd07a2ee	-0.033114366
137	0xbd9b07e7	-0.075698666
138	0xbe147163	-0.14496379
139	0x3cceb610	0.025233299
140	0x3d9c40e4	0.076295644
141	0x3d37c4aa	0.044865288
142	0xbbc76b46	-0.006085786
143	0x3dd0078a	0.10157688
144	0x3d9c86a5	0.07642869
145	0x3d9ebff7	0.07751458
146	0xbcf40ecc	-0.029792212
147	0x3c8c0af9	0.017095076
148	0xbd93049f	-0.07178616
149	0x3cb5403e	0.02212536
150	0x3d128981	0.035775665
151	0xbdeded87	-0.1161757
152	0x3d3e685b	0.04648624
153	0xbb9c6e2a	-0.0047738748
154	0x3ddae3af	0.106879584
155	0xbd5ac56d	-0.053410936
156	0x3df98164	0.121828824
157	0x3bf0aead	0.0073450417
158	0x3d2a249e	0.041538827
159	0x3c13d501	0.009022952
160	0xbd56af14	-0.05241306
161	0xbc1be060	-0.009513944
162	0x3db7a8a4	0.089677125
163	0x3e0a9a27	0.13535367
164	0x3d621cba	0.055203177
165	0xbb8a09c9	-0.0042125923
166	0x3c693e8d	0.014236105
167	0xbc8cbaee	-0.017178979
168	0x3bb489fe	0.005509614
169	0x3dd71ab4	0.1050314
170	0xbd73f491	-0.05955941
171	0xbc987c2e	-0.018613901
172	0xbdabb3bc	-0.08383891
173	0xbdc40f2e	-0.09573208
174	0x3c414422	0.011796029
175	0x3d10ca25	0.03534903
176	0xbd253cc4	-0.040341154
177	0xbd537021	-0.051620606
178	0x3de128ea	0.10994132
179	0xbd48120f	-0.048845347
180	0xbd6c570f	-0.057700213
181	0x3d584c5a	0.05280719
182	0xbc9f2912	-0.019428764
183	0x3d50aeaf	0.05094784
184	0xbd14acb7	-0.036297526
185	0x38567230	5.112792e-05
186	0xbdbadfbd	-0.09124706
187	0xbdadbb1c	-0.08482954
188	0xbca9fcc1	-0.020750405
189	0x3d8fb6c3	0.07017281
190	0x3c5f97f4	0.013647068
191	0x3d264ba0	0.040599465
192	0x3d9621e2	0.073306814
193	0x3acd84a0	0.0015679784
194	0xbc9d734b	-0.019220015
195	0xbdf42d35	-0.11922685
196	0xbb233ea4	-0.0024909163
197	0xbd5d8787	-0.054084327
198	0x3d90b88f	0.07066452
199	0xbde00a83	-0.10939505
200	0x3cdfdeca	0.027327914
201	0x3a152486	0.00056893413
202	0xbdc26214	-0.09491363
203	0x3d4c77ee	0.04991906
204	0x3cff6691	0.031176837
205	0xbc5549a2	-0.013018044
206	0x3cdb673e	0.026782628
207	0xbd336ab7	-0.043802943
208	0x3d8f3b08	0.06993681
209	0x3d0b9ae4	0.034083262
210	0xbd5209ec	-0.051278993
211	0xbd1c79d9	-0.03820214
212	0x3ce88794	0.028384961
213	0x3dae0d61	0.084986456
214	0x3d0ff028	0.03514114
215	0xbd4683c3	-0.0484655
216	0xbd957523	-0.07297733
217	0x3d75bdf7	0.059995618
218	0x3c0bc733	0.0085313795
219	0xbdf834f6	-0.121194765
220	0x3c12677b	0.0089358045
221	0xbdcc7844	-0.09983876
222	0xbd2f198a	-0.042748965
223	0xbd2e3fba	-0.042541243
224	0xbd0270f0	-0.031845987
225	0x3dd39e2a	0.10332902
226	0xbd7c6f70	-0.061629713
227	0x3cb7fb0c	0.022458576
228	0xbc2fc186	-0.010727292
229	0xbda1be7f	-0.07897662
230	0x3cbeffb7	0.023315294
231	0x3d5dd042	0.05415369
232	0x3cd1069a	0.025515843
233	0x3ce1c228	0.027558401
234	0x3daf954e	0.085733995
235	0xbd84d46f	-0.06485831
236	0xbd8c4d08	-0.0685063
237	0x3b12e690	0.0022415258
238	0xbd936dfb	-0.071987115
239	0x3cd8c077	0.026458962
240	0xbb6c6534	-0.0036071064
241	0x3cde82ae	0.027161922
242	0x3dcafdf1	0.09911717
243	0x3dfe1fe3	0.12408426
244	0x3e0e36d9	0.1388811
245	0xbdc6fdf6	-0.09716408
246	0xbd79e3b2	-0.061008163
247	0xbd4b694c	-0.049660966
248	0xbd8f1aa0	-0.069875
249	0x3b3d1e8f	0.0028857326
250	0x3c43d98c	0.011953723
251	0x3dccfcbe	0.10009144
252	0xbda1b5bd	-0.07895992
253	0xbcf7c5be	-0.030245658
254	0x3dc0eb24	0.094198495
255	0x3d5f9afb	0.05459116

ThirdConv.0.bias f4 [100]
0	0xbca24021	-0.01980597
1	0xbd4640aa	-0.048401512
2	0xbc32e1ed	-0.010918123
3	0x3d11501d	0.035476793
4	0xbd03cc20	-0.03217709
5	0xbd8abfa5	-0.067748345
6	0x3ca1b7ab	0.0197409
7	0xbcb0cd0d	-0.02158215
8	0x3d0fc417	0.035099115
9	0x3d690dac	0.056897804
10	0xbcea05e1	-0.028567256
11	0x3d7a822a	0.06115929
12	0xbcc08aab	-0.023503622
13	0xbcef61ee	-0.029221501
14	0x3cb8be92	0.022551809
15	0xbc93a543	-0.018023139
16	0x3d8be7fc	0.06831357
17	0xbd515da4	-0.051114693
18	0xbb2b2b75	-0.0026118432
19	0xbc58faab	-0.013243358
20	0xbd59746f	-0.053089555
21	0xbd79cab1	-0.060984317
22	0x3b905891	0.004405089
23	0x3c2b6d57	0.01046308
24	0x3b9c7eb0	0.0047758445
25	0x3c68cb3c	0.014208611
26	0xbd16f831	-0.036857788
27	0x3c956ce8	0.018240407
28	0xbc779650	-0.015111521
29	0xbd6c005f	-0.05761754
30	0x3d78be78	0.06072852
31	0xbd7d6785	-0.061866302
32	0x3d7c8935	0.06165429
33	0xbc5469fe	-0.012964724
34	0x3c64820b	0.01394702
35	0xbcaf1fc5	-0.021377454
36	0x3c5ca258	0.01346644
37	0x3d1422f2	0.03616614
38	0x3c972662	0.01845092
39	0xbcbcafaa	-0.023032982
40	0xbd73b9d0	-0.059503376
41	0x3d24aeb3	0.04020567
42	0x3cb7b7cb	0.022426507
43	0xbd13d0b2	-0.0360877
44	0x3d75ce8d	0.060011435
45	0x3d0b40c4	0.033997312
46	0xbd7e10b0	-0.062027633
47	0x3c0fded2	0.008781152
48	0x3d3d123e	0.046159975
49	0x3c1b1c04	0.009467129
50	0x3d310b47	0.043223646
51	0x3d7754fc	0.06038378
52	0xbb6dd819	-0.0036292134
53	0xbb9eded0	-0.0048483387
54	0xba60aa35	-0.00085702847
55	0xbc574642	-0.013139309
56	0xbd6d17a8	-0.05788389
57	0xbc70e527	-0.014703072
58	0xbd603168	-0.054734617
59	0xbd4f2efe	-0.050581925
60	0x3d462776	0.048377477
61	0xbd2ca73b	-0.04215167
62	0xbc1be53e	-0.009515105
63	0x3c7e6e6c	0.015529256
64	0xbc3a70e2	-0.011379452
65	0xbd5b11d9	-0.053483818
66	0x3d54af93	0.051925253
67	0x3ca47e9c	0.020079903
68	0x3cc9e516	0.02464537
69	0xbd65e49a	-0.056126215
70	0xbc149a52	-0.009069996
71	0x3c9cd9f3	0.019146895
72	0x3d0b24f6	0.033970796
73	0xbd0dae10	-0.034589827
74	0xbd6f2028	-0.058380276
75	0x3bd12240	0.0063822567
76	0xbb4a50e1	-0.0030870961
77	0x3d0ea21c	0.03482257
78	0x3c99d8ca	0.01878013
79	0xbd3319e2	-0.043725856
80	0xbd103e94	-0.03521593
81	0xbd28e03e	-0.04122948
82	0x3d008251	0.03137428
83	0x3cb0e527	0.021593643
84	0x3d2d4f66	0.04231205
85	0x3d03d20e	0.032182746
86	0x3d0e04f6	0.0346727
87	0x3ccbf3ae	0.024896469
88	0x3ce79f4b	0.028274199
89	0x3d63e8de	0.055642
90	0x3d3096e5	0.043112654
91	0x3d4e5374	0.050372556
92	0xbd162d8b	-0.036664527
93	0xbcabaddb	-0.020956924
94	0x3d683230	0.056688488
95	0x394bee49	0.00019448357
96	0xbcf8a671	-0.030352803
97	0x3d0346f8	0.032050103
98	0xbd621336	-0.055194102
99	0x3d3b2535	0.04568978

ThirdConv.1.weight f4 [100]
0	0x3f4720ec	0.7778461
1	0x3ee2ce24	0.44297898
2	0x3e459d14	0.19298202
3	0x3dfe3a85	0.124135055
4	0x3e18fdb1	0.14940526
5	0x3f1d46e8	0.6143632
6	0x3f552281	0.83255774
7	0x3edd47ff	0.4321899
8	0x3f35941b	0.70929116
9	0x3cc3712c	0.023857675
10	0x3e915ad5	0.28389612
11	0x3dfd8143	0.1237817
12	0x3ec44e9a	0.38341218
13	0x3f1c6047	0.6108441
14	0x3f59ff31	0.85155016
15	0x3e94a56e	0.29032463
16	0x3f340c2a	0.7033106
17	0x3cbcfe5a	0.023070503
18	0x3f5e3fe2	0.8681623
19	0x3edd6f92	0.43249184
20	0x3f259f44	0.64696145
21	0x3e196661	0.1498046
22	0x3eb5a402	0.3547669
23	0x3dd94f98	0.106108844
24	0x3f0e422c	0.5556972
25	0x3e334646	0.17507276
26	0x3f31ed54	0.6950276
27	0x3f189867	0.5960755
28	0x3f5d8aab	0.86539716
29	0x3f08ae2e	0.5339078
30	0x3f5ab63d	0.85434324
31	0x3ec6f26c	0.38856828
32	0x3f7a7f76	0.9785074
33	0x3ec4424a	0.38331825
34	0x3f34da65	0.70645744
35	0x3f329aff	0.69767755
36	0x3eb63863	0.35589895
37	0xbc26493d	-0.010149297
38	0x3f443f7b	0.76659364
39	0x3f299390	0.6624079
40	0x3f215694	0.6302273
41	0x3f122970	0.5709448
42	0x3f4aa5a8	0.7915902
43	0x3e30bfc8	0.17260659
44	0x3e26b595	0.16280206
45	0x3f16755a	0.58772814
46	0x3f4887b9	0.78332096
47	0x3f47892e	0.77943695
48	0x3de52fb5	0.1119074
49	0x3f81530f	1.0103472
50	0x3f53fa42	0.8280374
51	0x3f3404cf	0.7031984
52	0x3e2b80c7	0.16748343
53	0x3f065138	0.5246768
54	0x3e97c88d	0.29645196
55	0x3f3ce996	0.73793924
56	0x3f52b2de	0.8230418
57	0x3f4e53fa	0.8059689
58	0x3ea6b060	0.32556438
59	0x3ea8a3f2	0.3293758
60	0x3dfe3894	0.12413135
61	0x3f51e8dd	0.81995946
62	0x3e855f8c	0.2604946
63	0x3f48886e	0.78333175
64	0x3f32ca35	0.69839793
65	0x3eaf175a	0.34197503
66	0x3e6ca925	0.23111399
67	0x3eff82bd	0.49904433
68	0x3dbf2c5a	0.09334631
69	0x3ea8764b	0.3290275
70	0x3de7c67c	0.11317155
71	0x3f1f303b	0.6218297
72	0x3f4d28bb	0.80140275
73	0x3ef1d4f0	0.4723277
74	0x3f12d305	0.5735324
75	0x3e25c53e	0.16188523
76	0x3ed6b3e9	0.41934136
77	0x3eab9e4b	0.33519205
78	0x3e743d6b	0.23851554
79	0x3eea3587	0.45743963
80	0x3ed79fd0	0.42114115
81	0x3f2a8969	0.6661592
82	0x3f398390	0.72466373
83	0x3e63c855	0.2224439
84	0x3f65b26c	0.89725375
85	0x3ee2be55	0.44285837
86	0x3f07717c	0.5290754
87	0x3f3b0d58	0.73067236
88	0x3f5f15f0	0.8714285
89	0x3e4faa92	0.20279911
90	0x3f64ed68	0.89424753
91	0x3f127dd7	0.57223266
92	0x3f47b4f3	0.7801048
93	0x3ee630bc	0.44959056
94	0x3e875b5a	0.26436883
95	0x3ecdbc64	0.40182793
96	0x3d992e82	0.07479574
97	0x3ee3e653	0.4451166
98	0x3eed384f	0.46332023
99	0x3f29b156	0.6628622

ThirdConv.1.bias f4 [100]
0	0xbd62141b	-0.055194955
1	0x3c70c7d4	0.01469608
2	0x3db80488	0.08985239
3	0xbce39aa5	-0.027783701
4	0xbd8cef01	-0.06881524
5	0xbd934ca5	-0.07192353
6	0xbda0f545	-0.078592815
7	0xbd11dbc5	-0.03560998
8	0xbd9dee98	-0.07711524
9	0xbd2a5e6c	-0.041593954
10	0xbda54f11	-0.08071721
11	0x3c9174c4	0.017755874
12	0xbda4e50b	-0.08051499
13	0xbd745fea	-0.059661783
14	0xbd9bcae8	-0.07607061
15	0xbd08e027	-0.033416893
16	0xbcddcdd3	-0.027075684
17	0x3b256fa8	0.0025243554
18	0xbd675494	-0.056477144
19	0xbd278773	-0.04090066
20	0xbdd339b1	-0.10313738
21	0xbd889d1b	-0.066705905
22	0xbd65cd6d	-0.056104112
23	0x3dfd4a09	0.12367637
24	0xbdac5ac2	-0.08415748
25	0xbdabdbb1	-0.08391512
26	0xbd15a620	-0.036535382
27	0x3ca43201	0.020043375
28	0xbdac5312	-0.08414282
29	0xbe21cb9e	-0.1580033
30	0xbda906e6	-0.08253269
31	0xbdb81887	-0.08989053
32	0xbced5ecd	-0.028975869
33	0xbd2ccc1b	-0.042186838
34	0x3d28e783	0.04123641
35	0xbbdb5b30	-0.00669422
36	0x3d831a5e	0.064015135
37	0xbd921b4f	-0.07134115
38	0xbc9fac86	-0.019491445
39	0xbd8e9843	-0.06962635
40	0xbd18d3a3	-0.037311208
41	0x3dad261c	0.084545344
42	0x3b82219c	0.0039712917
43	0xbcc3edec	-0.02391716
44	0xbdf774dc	-0.12082836
45	0xbe30eac3	-0.17277054
46	0xbde63443	-0.11240437
47	0xbd4d7199	-0.050157163
48	0x3d6d7450	0.057972252
49	0xbdb4acca	-0.088220194
50	0xbc8ccd25	-0.017187664
51	0xbd9390c9	-0.0720535
52	0xbcafbce7	-0.02145238
53	0xbd144678	-0.036200017
54	0xbe12fc3c	-0.14354032
55	0xbc84c014	-0.016204871
56	0x3bcb29dc	0.0062000584
57	0xbdd769cf	-0.10518228
58	0x3acf75b6	0.0015827927
59	0xbdb5fdac	-0.08886275
60	0xbddaffc1	-0.106933124
61	0xbcc63c21	-0.024198594
62	0xbdc19985	-0.0945311
63	0xbd8e3f12	-0.069456235
64	0xbd8f9919	-0.07011623
65	0xbdb5dcb1	-0.08879984
66	0xbd1251d1	-0.035722557
67	0xbda5305e	-0.08065866
68	0xbd82d178	-0.06387609
69	0xbd67b96a	-0.05657331
70	0xbd14d584	-0.036336437
71	0xbda961eb	-0.082706295
72	0xbdc516c8	-0.09623486
73	0xbdd62e9e	-0.1045811
74	0xbe04d853	-0.12973146
75	0xbd1174e2	-0.03551186
76	0xbd093679	-0.033499215
77	0xbdcb22a9	-0.0991872
78	0xbc5ea764	-0.013589714
79	0xbdc635d3	-0.09678235
80	0xbd58d3d8	-0.052936405
81	0xbd6aa467	-0.057285693
82	0xbc2c123b	-0.010502393
83	0x3d5cf8a2	0.053948052
84	0x3c892827	0.016742779
85	0xbe036430	-0.12831187
86	0xbd1a90d8	-0.03773579
87	0xbd865dac	-0.06560835
88	0xbdab459b	-0.083628856
89	0xbd200f61	-0.039077166
90	0x3c9598df	0.018261371
91	0x3d2b55db	0.041829925
92	0xbdae4e09	-0.08510978
93	0xbd8c4fd6	-0.06851165
94	0xbbcd0724	-0.0062569547
95	0xbdbe3743	-0.09287884
96	0xbda3ea90	-0.080037236
97	0xbd0d8530	-0.034550846
98	0xbdb3ea96	-0.08784978
99	0xbd69daa7	-0.05709329

ThirdConv.1.running_mean f4 [100]
0	0xbf00f1ea	-0.5036913
1	0x3ed6aecd	0.41930237
2	0x3e1b21a5	0.15149553
3	0x3f1c839e	0.6113833
4	0x3f05fbc4	0.5233729
5	0x3d704151	0.05865604
6	0x3e87cd07	0.2652361
7	0x3dc5417e	0.09631632
8	0x3f342b43	0.7037851
9	0x3e94f9a5	0.29096714
10	0xbdb3bae5	-0.08775882
11	0x3e331f32	0.17492369
12	0xbe3344a2	-0.1750665
13	0x3f258f2e	0.646716
14	0x3f192228	0.59817743
15	0xbd239736	-0.039939128
16	0xbe000655	-0.12502415
17	0xbef53ec5	-0.47899452
18	0x3e952430	0.2912917
19	0x3e95f1ac	0.29285944
20	0x3ef90e94	0.48643935
21	0x3ebd6b37	0.3699586
22	0x3f33a158	0.70168066
23	0x3e91147c	0.2833594
24	0x3f2c1a7d	0.6722792
25	0x3ebadc18	0.36496043
26	0x3ed6ff5c	0.419917
27	0x3f10c6b1	0.5655318
28	0xbdcab1ee	-0.09897219
29	0x3eb8a2cc	0.36061704
30	0x3e41cf24	0.18926674
31	0x3f299e1d	0.66256887
32	0x3eee66ae	0.46562713
33	0x3ed3da04	0.4137727
34	0x3ee5daae	0.44893402
35	0x3f33386e	0.7000798
36	0x3e8d4bbd	0.27596846
37	0x3e647241	0.2230921
38	0x3f441d7b	0.76607484
39	0x3e7a35ba	0.24434558
40	0x3eb64293	0.35597667
41	0x3e9d916b	0.30775008
42	0x3f5170e8	0.81812906
43	0x3ec04ea4	0.37559998
44	0xbe8099ce	-0.25117344
45	0x3f3d6b02	0.73991406
46	0x3e9d99bb	0.3078135
47	0xbccacab0	-0.024754852
48	0xbdaa3476	-0.083107874
49	0x3f4310ee	0.7619771
50	0x3e585031	0.2112434
51	0xbec5e72d	-0.38652936
52	0xbef4d7b4	-0.47820818
53	0x3ef9faff	0.48824307
54	0x3f403558	0.75081396
55	0x3f1ccece	0.6125306
56	0x3eac2a8e	0.33626217
57	0x3e755aa7	0.23960362
58	0x3d88e756	0.06684749
59	0x3f344537	0.70418113
60	0xbebfc5af	-0.37455508
61	0x3e6f134d	0.23347206
62	0x3f381422	0.7190572
63	0x3f204e1b	0.6261918
64	0xbea892db	-0.32924542
65	0x3c956de4	0.018240876
66	0x3e6cc29d	0.23121114
67	0x3e8db8c8	0.2768004
68	0xbeefde81	-0.46849445
69	0xbecc0e30	-0.39854574
70	0x3f0e271f	0.55528444
71	0xbf1b4082	-0.60645306
72	0x3f34539e	0.7044009
73	0x3da23a71	0.07921303
74	0x3f260cdf	0.6486339
75	0x3ee908a5	0.45514408
76	0x3dfaed6c	0.12252316
77	0xbefa5a18	-0.4889686
78	0xbde9c7ec	-0.11415085
79	0x3eb55262	0.35414416
80	0x3e7b02d4	0.24512798
81	0x3dc12e8f	0.094327085
82	0x3ed90faf	0.42394778
83	0x3e6d0838	0.23147666
84	0x3eac6350	0.3366952
85	0x3d85e5ba	0.065379575
86	0x3f05d13d	0.522724
87	0x3ef96e8d	0.48717156
88	0x3f3079f1	0.6893607
89	0xbe4f385c	-0.20236343
90	0x3e9c339c	0.30508125
91	0x3efdff69	0.49608925
92	0x3f30f0ea	0.69117606
93	0x3e872e38	0.2640245
94	0xbe82e1ee	-0.25562996
95	0xbe250bf7	-0.16117845
96	0xbf24c894	-0.6436856
97	0x3dd2ad05	0.10286907
98	0xbc9c51df	-0.019082008
99	0x3d85d2a8	0.0653432

ThirdConv.1.running_var f4 [100]
0	0x40543894	3.3159533
1	0x408b77f1	4.3583913
2	0x40d3061f	6.594497
3	0x40c123f1	6.0356374
4	0x406c98c7	3.6968248
5	0x408c9d4e	4.394202
6	0x4074c3d8	3.8244534
7	0x41023168	8.137062
8	0x409829dd	4.7551103
9	0x3fed9f41	1.8564225
10	0x40b2339d	5.5688004
11	0x40aa0363	5.3129134
12	0x3f469bb0	0.7758131
13	0x40f9bf94	7.804636
14	0x40e82473	7.2544494
15	0x3fe943d5	1.8223826
16	0x3f84d2ae	1.0376794
17	0x4014ea19	2.3267882
18	0x40f95e31	7.792748
19	0x4008189c	2.126502
20	0x40fc0069	7.87505
21	0x4060bae8	3.5114079
22	0x40dfdfd5	6.9960732
23	0x3fbad7ba	1.4597085
24	0x4086cced	4.2125154
25	0x40206b16	2.506536
26	0x40a830f8	5.2559776
27	0x4063a27a	3.5567918
28	0x40a9b19d	5.3029313
29	0x401d875f	2.4613874
30	0x411a616d	9.648786
31	0x40a13cc5	5.038668
32	0x408adf57	4.339763
33	0x40ef6fe1	7.482407
34	0x4089a17e	4.3009634
35	0x40a16dde	5.0446615
36	0x4079ba97	3.9020135
37	0x4020008f	2.500034
38	0x40e5bd5e	7.179366
39	0x401956ec	2.3959303
40	0x405dc011	3.4648478
41	0x4094736b	4.639089
42	0x40bf434c	5.976965
43	0x408934cd	4.2876954
44	0x3f8bee9d	1.0932194
45	0x40c5399b	6.163282
46	0x40e0bfb5	7.0234017
47	0x400ffeaf	2.2499197
48	0x40aa51a9	5.3224683
49	0x410e6d62	8.901705
50	0x40c423d9	6.129376
51	0x400762c7	2.115404
52	0x40ee9260	7.455368
53	0x40a0284d	5.0049195
54	0x409a57c2	4.8232126
55	0x40c982f7	6.297237
56	0x40560fa2	3.3447042
57	0x40fe50cb	7.9473624
58	0x403f73a6	2.9914336
59	0x40d7feee	6.7498693
60	0x4067a53d	3.6194603
61	0x403d10d9	2.9541533
62	0x40dd0f63	6.9081283
63	0x40ced2be	6.4632254
64	0x3fe15787	1.7604836
65	0x3f848b5d	1.035503
66	0x40d158c5	6.542086
67	0x40c67b71	6.2025685
68	0x407cc1af	3.9493215
69	0x3fe0fa35	1.7576357
70	0x407d3010	3.9560585
71	0x4073a1a5	3.806741
72	0x4105d390	8.364151
73	0x4049e36a	3.1545053
74	0x40bc718d	5.888861
75	0x402d7b36	2.7106452
76	0x3f9ffe75	1.2499529
77	0x408cdae3	4.4017196
78	0x3f9721e4	1.1807218
79	0x40cfae03	6.4899917
80	0x3fe98a95	1.8245417
81	0x40081a9d	2.1266243
82	0x411804c6	9.501165
83	0x3fe43b44	1.7830586
84	0x41151d0f	9.319594
85	0x4072d6b3	3.7943542
86	0x40f05a95	7.5110574
87	0x40facd07	7.8375278
88	0x409a1daf	4.8161235
89	0x40731e34	3.7987185
90	0x40ec715f	7.3888392
91	0x4107abc3	8.479434
92	0x40b96320	5.79335
93	0x3fe240e5	1.7676054
94	0x3fa3d624	1.2799726
95	0x4059d340	3.4035187
96	0x404bee40	3.1864166
97	0x40d3e84d	6.622107
98	0x4018549a	2.3801637
99	0x4083bbbc	4.116667
